results/test_5/Boss/Boss-187384.onnx (onnx, 75574 bytes, 7 tensors)

network_body._body_endoder.seq_layers.0.weight f4 [128, 7]
0	0x3ec6e360	0.38845348
1	0xbe02563a	-0.12728205
2	0xbe354852	-0.1770337
3	0xbe9c2c9f	-0.30502793
4	0xbd67cddb	-0.056592803
5	0xbcf51bbf	-0.029920457
6	0x3ec4b9ec	0.38423097
7	0xbb5a4603	-0.003330589
8	0x3ea2a4e5	0.3176643
9	0x3e99ccf3	0.30039176
10	0x3f129adc	0.57267547
11	0x3e15ee0e	0.14641592
12	0x3d219913	0.039452624
13	0x3e5e620e	0.21717092
14	0xbbc5b4f6	-0.006033535
15	0x3e9d6880	0.3074379
16	0xbe189cc4	-0.14903551
17	0xbc5bece8	-0.013423182
18	0xbec34e02	-0.38145453
19	0xbf01b6a8	-0.50669336
20	0x3f07a061	0.52979094
21	0xbe298097	-0.1655296
22	0x3caf242b	0.02137955
23	0xbeaafab3	-0.33394393
24	0xbdb245d0	-0.08704722
25	0x3f1797d0	0.5921602
26	0xbf73a003	-0.95166034
27	0x3f13de09	0.57760674
28	0xbefeaaea	-0.49739772
29	0xbbf08e77	-0.007341202
30	0x3f3c6e57	0.73605865
31	0xbecd4a5a	-0.40095788
32	0xbeae190d	-0.34003487
33	0x3ecae2a3	0.39626035
34	0x3dbe7b40	0.09300852
35	0x3e7b8947	0.24564086
36	0xbe435119	-0.19073905
37	0x3ce19d7d	0.027540917
38	0xbe9cbeb7	-0.30614254
39	0x3f88a667	1.0675782
40	0x3e3796ea	0.17928663
41	0x3e844b06	0.25838488
42	0x3e61830a	0.22022644
43	0xbed25559	-0.4108074
44	0x3ea81b0a	0.3283313
45	0x3f7273e8	0.9470811
46	0x3f185c60	0.59515953
47	0x3f1f7ca2	0.6229955
48	0x3f227c7c	0.634712
49	0x3edb7850	0.4286523
50	0x3f13a7f4	0.5767815
51	0x3e90fc54	0.2831751
52	0xbdb9ac92	-0.09066118
53	0x3ec005a3	0.375043
54	0x3eef8b80	0.46786118
55	0xbd400145	-0.04687621
56	0xbe27922e	-0.16364357
57	0xbe309634	-0.17244798
58	0xbdcfcdfb	-0.101467095
59	0xbe8fac98	-0.28061366
60	0xbf00cfc4	-0.50317025
61	0xbf23a4b4	-0.6392319
62	0x3e95242b	0.29129156
63	0xbf3b7de1	-0.7323895
64	0xbe874126	-0.26416892
65	0x3e0106b8	0.12600219
66	0xbec121ac	-0.37721002
67	0x3cade82d	0.021228874
68	0xbdddb5ed	-0.10825715
69	0xbdfbb9bd	-0.12291286
70	0xbe71552e	-0.2356765
71	0xbecda6be	-0.40166277
72	0x3e540fb4	0.20709115
73	0x3d1b23d4	0.037875965
74	0xbe707f1c	-0.23485988
75	0xbe1e9b33	-0.15488891
76	0xbe93812a	-0.28809482
77	0xbdb92c68	-0.09041673
78	0xbe83214f	-0.2561135
79	0xbddb8dbe	-0.107203946
80	0x3f41867f	0.7559585
81	0x3ea0d2bf	0.31410787
82	0x3d85c1da	0.06531115
83	0x3ee2759c	0.44230354
84	0x3eb76cee	0.35825294
85	0xbd45ace0	-0.04826057
86	0x3ededd66	0.4352829
87	0x3ef6df6c	0.48217332
88	0xbe1ed6ee	-0.15511677
89	0xbe9af35e	-0.302638
90	0xbf3d6e95	-0.7399686
91	0x3e42af69	0.19012226
92	0xbdc28e30	-0.09499776
93	0xbe3157c4	-0.17318636
94	0x3bdd50a9	0.006754
95	0x3da78a1d	0.0818064
96	0x3db57025	0.088592805
97	0x3bccef51	0.0062541147
98	0x3e6edefc	0.2332725
99	0xbe793c0e	-0.24339315
100	0xbf09fb69	-0.53899246
101	0xbdde9e81	-0.10870076
102	0xbebcf0eb	-0.36902556
103	0xbeb3a632	-0.35087734
104	0xbf16a288	-0.58841753
105	0xbf098da6	-0.53731763
106	0x3f2bca2c	0.67105365
107	0x3ebe19ef	0.3712916
108	0xbdddc9dc	-0.10829517
109	0xbd13449b	-0.0359541
110	0xbc25e6f5	-0.010125865
111	0x3e2c691c	0.16836971
112	0x3e08dc10	0.13365197
113	0x3dab7204	0.08371356
114	0xbd9598f5	-0.07304565
115	0x3dae08a2	0.0849774
116	0x3e2ac7cf	0.16677783
117	0xbe246330	-0.16053462
118	0xbeda2272	-0.42604405
119	0x3e602e85	0.21892746
120	0xbc91a2b7	-0.017777784
121	0x3e4afd53	0.19823198
122	0x3f2c4285	0.67289
123	0xbedcb564	-0.4310714
124	0x3cf570be	0.029960986
125	0xbd8f150c	-0.06986436
126	0xbf06f5e6	-0.5271896
127	0xbe0e0dae	-0.13872406
128	0xbe436367	-0.19080888
129	0x3f04915f	0.5178432
130	0x3f3f19d0	0.7464876
131	0x3e1366fd	0.14394756
132	0x3d9acc29	0.07558472
133	0xbe741eb1	-0.23839833
134	0xbe4149a8	-0.18875754
135	0x3ed405f0	0.4141078
136	0xbea26604	-0.31718457
137	0x3f17bc82	0.59272015
138	0x3e943f92	0.2895475
139	0xbe936c0c	-0.2879337
140	0x3ebfb333	0.37441406
141	0x3e58137d	0.21101184
142	0x3dcb600a	0.09930427
143	0x3e90eef0	0.28307295
144	0x3d873dbd	0.066035725
145	0xbf42b40c	-0.7605598
146	0xbf1b53bd	-0.6067465
147	0xbebcf236	-0.36903542
148	0x3e0990d4	0.13434154
149	0xbe6715ca	-0.22566906
150	0x3f034fda	0.5129372
151	0x3e1b959f	0.15193795
152	0xbdf381c2	-0.11889984
153	0x3e869bdb	0.26290783
154	0xbf4d9591	-0.80306345
155	0xbebda2ca	-0.3703826
156	0x3d0cdf03	0.034392368
157	0x3ee55937	0.44794628
158	0x3defa335	0.11701051
159	0xbe5738d6	-0.21017775
160	0xbe4226ee	-0.18960163
161	0x3dc16899	0.094437785
162	0x3ca7c4b0	0.02047953
163	0xbe38178a	-0.1797773
164	0x3eb43724	0.3519832
165	0xbe767979	-0.24069776
166	0xbe8f919d	-0.28040782
167	0xbe667060	-0.22503805
168	0x3efe4c97	0.49667808
169	0xbe7cb8f7	-0.24679933
170	0x3d8a407d	0.067505814
171	0x3ec85993	0.3913084
172	0x3e87b86b	0.26507887
173	0xbe4a0a18	-0.19730413
174	0xbe8a6480	-0.270298
175	0x3eb12237	0.34596416
176	0xbe7f741d	-0.24946637
177	0xbe5ad4ff	-0.21370314
178	0xbe43e77f	-0.19131278
179	0x3f2714a3	0.65265864
180	0xbedf7864	-0.43646538
181	0xbf815401	-1.0103761
182	0x3e97e570	0.29667234
183	0xbeff25f4	-0.49833643
184	0xbe108920	-0.14114809
185	0x3e839811	0.25701955
186	0x3e2b45af	0.16725801
187	0xbeba35fe	-0.36369318
188	0xbc8bb4b0	-0.017053932
189	0x3f532d79	0.8249126
190	0xbe9e3fbe	-0.30908006
191	0xbe198741	-0.14993002
192	0x3e19758e	0.1498625
193	0xbe971771	-0.29510072
194	0x3f0dbd99	0.5536743
195	0x3e1a9863	0.15097193
196	0xbf31adce	-0.6940583
197	0xbe087fc3	-0.13329987
198	0xbd182b71	-0.037150804
199	0xbed4b159	-0.41541556
200	0x3e8852e9	0.26625755
201	0xbe52adc2	-0.20574096
202	0x3ec9cec3	0.3941556
203	0xbe7a0c58	-0.24418771
204	0x3f14c963	0.5811979
205	0xbec6d3ba	-0.3883341
206	0xbf359327	-0.7092766
207	0x3e8e2ba1	0.2776766
208	0x3e2887c8	0.16458046
209	0xbc18869d	-0.009309438
210	0xbe23c911	-0.1599467
211	0x3e6dbc0a	0.23216262
212	0xbe88a7d2	-0.26690537
213	0x3ed336b1	0.41252664
214	0x3dc9adff	0.0984764
215	0x3ec50e6c	0.38487566
216	0xbdcf92ed	-0.10135446
217	0xbe9eb2e5	-0.3099586
218	0xbf2d1b21	-0.6761952
219	0x3edbe74b	0.429499
220	0xbe6c69d5	-0.23087247
221	0xbe624200	-0.2209549
222	0x3f7d646b	0.9898135
223	0xbf0fba23	-0.561434
224	0x3dc10d84	0.09426406
225	0xbecb874e	-0.39751667
226	0x3daf90bb	0.08572527
227	0x3e8dac2b	0.27670416
228	0x3d16a2e9	0.036776457
229	0x3db65d61	0.08904529
230	0x3f03993a	0.5140568
231	0x3ed029b7	0.40656826
232	0x3e2a3b32	0.16624144
233	0x3e26b218	0.16278875
234	0xbecc87a0	-0.39947224
235	0x3ec42873	0.3831211
236	0x3e060238	0.13086784
237	0x3e283fac	0.16430539
238	0xbf248c1c	-0.6427629
239	0xbe20b338	-0.15693367
240	0xbec9a7e3	-0.393859
241	0xbf391b48	-0.7230725
242	0x3df164ce	0.11786805
243	0xbe2d89f3	-0.16947155
244	0xbf697075	-0.9118722
245	0xbf546ebd	-0.82981473
246	0xbe8b840c	-0.2724918
247	0x3e87be36	0.26512307
248	0x3f0f9a7f	0.5609512
249	0x3e960eb6	0.293081
250	0xbec94eb6	-0.39317864
251	0xbe7db18c	-0.2477476
252	0xbe9b0798	-0.3027923
253	0xbec42970	-0.38312864
254	0x3bce6ceb	0.006299605
255	0x3e0c85da	0.13722935

network_body._body_endoder.seq_layers.0.bias f4 [128]
0	0x3c69cf7d	0.0142706605
1	0x3d0520e4	0.03250207
2	0x3d3d0421	0.046146516
3	0x3b8f5c22	0.0043749968
4	0x3c085bfe	0.008322714
5	0xbaacc879	-0.0013182304
6	0xbd10bb8f	-0.03533512
7	0x3b7001b0	0.00366221
8	0xbd29f348	-0.041491777
9	0x3c00f4e6	0.007870888
10	0x3ba89674	0.0051448885
11	0x3c184f2b	0.009296219
12	0x3c9502f8	0.018189892
13	0x3d9e7625	0.07737378
14	0x3be5a804	0.0070085544
15	0xbc03e084	-0.008049134
16	0x3c526bed	0.012843114
17	0xbc3c8e12	-0.011508482
18	0xbc06e64c	-0.008233618
19	0xbbb830d6	-0.005621056
20	0x3d064499	0.032780264
21	0x3cfcf1f9	0.0308771
22	0xbbef0ebe	-0.0072954586
23	0xbc7284bf	-0.014802157
24	0x3c0163c3	0.00789732
25	0xbc0aed55	-0.008479436
26	0x3aee3574	0.0018173889
27	0x3c27a4d6	0.010232171
28	0x3b100e3a	0.0021981136
29	0xbb9b6809	-0.0047426266
30	0x3c1cd2f1	0.009571777
31	0xbae564c5	-0.0017501345
32	0x3c75daa2	0.015005739
33	0xbbd7c050	-0.0065842047
34	0xbc28e8c3	-0.010309401
35	0xbbc9cc21	-0.0061583673
36	0xbc7ec646	-0.015550202
37	0x3c14905e	0.009067623
38	0xbbba6723	-0.0056885644
39	0x3b2fb4e5	0.0026810702
40	0x3a7da4ca	0.00096757396
41	0x3cd5d0d3	0.026100552
42	0x3c110a1c	0.008852508
43	0xba312cee	-0.0006758709
44	0x3d7d7931	0.061883155
45	0x38ca8e49	9.658613e-05
46	0xbb9910d8	-0.0046711974
47	0xba5ae9d2	-0.0008350882
48	0x3cd6e037	0.02622996
49	0xbadc5136	-0.0016808871
50	0x3d64fd23	0.055905472
51	0x3c64b75b	0.013959731
52	0x3b9db268	0.0048125274
53	0x3c9c17a3	0.01905424
54	0xbb74432a	-0.0037271478
55	0x3ce507b2	0.027957771
56	0xb942101c	-0.00018507283
57	0x396a1ee1	0.00022327482
58	0xbcda53f9	-0.02665137
59	0x3c5a1181	0.013309837
60	0x3b4b5b40	0.003102973
61	0x3b89a419	0.00420047
62	0x3d577b3a	0.052607752
63	0xbbc7ca04	-0.00609708
64	0xba25be0a	-0.00063225685
65	0x3cb35d05	0.021894941
66	0xba61beb1	-0.0008611484
67	0x3c9e487a	0.019321669
68	0xbafb2bba	-0.0019162812
69	0xbba45fa0	-0.005016282
70	0x3bf23320	0.0073913485
71	0xbaeced1f	-0.0018076039
72	0x3b917d9c	0.0044400226
73	0x3d9c30ef	0.07626521
74	0x3c1ac655	0.0094467
75	0x3cca8177	0.024719937
76	0xbbd61b4a	-0.006534015
77	0x3c16bcc2	0.009200277
78	0x3c055839	0.00813871
79	0xbbc5cd91	-0.0060364683
80	0x3b3599db	0.0027710113
81	0xb9c5842d	-0.00037673247
82	0x3ae54c0b	0.0017493976
83	0xbb9dcb71	-0.004815512
84	0xbc1df14e	-0.009640051
85	0x3b32b3cb	0.002726781
86	0xbd40b335	-0.047045905
87	0x3cc3afd1	0.023887547
88	0xbb32212a	-0.0027180412
89	0xbaebdd74	-0.0017995075
90	0x3b827d46	0.003982219
91	0x3abeb7ca	0.0014550623
92	0xba091468	-0.0005229176
93	0xbab7758c	-0.0013996824
94	0x3b47cfdb	0.0030488882
95	0x3c70f8f9	0.014707797
96	0x3c312dbd	0.0108141275
97	0x3bcec095	0.0063095787
98	0xbc842a3c	-0.01613342
99	0xbba13ad9	-0.0049203453
100	0x3b63d1a8	0.0034762416
101	0xbb9e7f83	-0.004836978
102	0x3b6b8590	0.0035937764
103	0x3cbd76a0	0.023127854
104	0xbbcb46f4	-0.0062035266
105	0x3c866d5d	0.01640957
106	0xbc17c144	-0.009262387
107	0xbc32dc65	-0.010916804
108	0xbb399ecd	-0.0028323412
109	0xb82b979e	-4.091078e-05
110	0x3cfae69d	0.030627543
111	0xba9b6a1f	-0.0011857188
112	0x3bb2e010	0.0054588392
113	0x3c85ab8d	0.016317153
114	0x3ca3cb67	0.01999445
115	0x3d8b233b	0.06793829
116	0x3b5d2be1	0.0033748078
117	0xba9f3782	-0.001214728
118	0x3c6951a0	0.014240652
119	0x3b72f98f	0.0037075018
120	0xbb1348f3	-0.00224739
121	0x3aee6623	0.0018188398
122	0x3b543fb9	0.0032386614
123	0xbc052a47	-0.0081277555
124	0x3c553c59	0.013014876
125	0x3c3614a1	0.011113317
126	0x3ce1546a	0.027506072
127	0x3c75952b	0.014989178

network_body._body_endoder.seq_layers.2.weight f4 [128, 128]
0	0x3b51ca4a	0.0032011443
1	0x3dd43a8a	0.10362728
2	0xbd8983ca	-0.0671459
3	0xbd486be9	-0.048931036
4	0x3cb6f6bb	0.022334447
5	0xbdb626a0	-0.08894086
6	0xbbd8e13b	-0.0066186464
7	0xbda1d7cb	-0.07902487
8	0xbcd23d3d	-0.025663966
9	0x3dfe4cc4	0.12416986
10	0xbde4d19e	-0.11172794
11	0xbda0846d	-0.07837758
12	0x3cca59a3	0.024700945
13	0xbba4616f	-0.005016498
14	0x3d8faaa9	0.07014973
15	0x3e11b181	0.14227869
16	0xbe3afc71	-0.18260361
17	0xbce9c4e5	-0.02853627
18	0xbca3eb05	-0.020009527
19	0xbcd532d2	-0.02602521
20	0x3a94d4b9	0.00113549
21	0xbc3900f8	-0.011291735
22	0x3e3ac471	0.18238999
23	0xbdbd4fd9	-0.09243745
24	0x3e0bb847	0.13644515
25	0xbda9ff53	-0.08300652
26	0x3d846f67	0.06466561
27	0xbceef02d	-0.02916726
28	0xbd3c2370	-0.045932233
29	0xbdc89c6b	-0.09795459
30	0x3db0fa73	0.086415194
31	0x3d732211	0.05935866
32	0x3e045808	0.12924206
33	0x39c44775	0.00037437273
34	0x3cde4dbc	0.027136676
35	0x3d2ae044	0.041717783
36	0xbd299fc0	-0.041412115
37	0xbd0e29af	-0.03470772
38	0x3d9b883a	0.075943425
39	0xbd7ef7be	-0.062247984
40	0x3dff990c	0.12480363
41	0xbce4ae2a	-0.02791508
42	0x3d4d433c	0.050112948
43	0xbcc0af4f	-0.023521094
44	0x3d443f76	0.047912084
45	0xbe0545cf	-0.13014911
46	0x3dd1cd09	0.102441855
47	0xbb849e65	-0.0040472024
48	0x3e06944b	0.13142507
49	0xbbbad783	-0.0057019605
50	0x3d16b078	0.036789387
51	0x3e10d62b	0.14144199
52	0xbdb90246	-0.09033637
53	0xbd063dd2	-0.0327738
54	0xbc2b9e2f	-0.010474726
55	0xbe0ffe59	-0.1406187
56	0xbe1c1d3b	-0.15245526
57	0x3d26fc5b	0.04076801
58	0x3e0dee19	0.13860358
59	0xbce6b399	-0.02816181
60	0xbdcb70c1	-0.099336155
61	0xbd18f934	-0.037347034
62	0x3e3bf8ef	0.1835668
63	0x3dbd71a7	0.09250193
64	0x3e00794a	0.12546268
65	0xbc057a50	-0.008146837
66	0x3e203050	0.1564343
67	0x3d2be52c	0.041966602
68	0x3e21e68c	0.15810603
69	0x3d4f1ade	0.050562732
70	0xbd7fe2b5	-0.062472064
71	0x3de60ee3	0.11233308
72	0x3d77d870	0.060509145
73	0x3c82a28a	0.015946645
74	0x3c702e53	0.014659482
75	0x3e4c3669	0.19942631
76	0xbbe2620c	-0.0069086608
77	0xbe1bc72f	-0.15212701
78	0xbcad006a	-0.021118362
79	0xbe1f91cd	-0.15582962
80	0xbdea83ad	-0.114508964
81	0xbbf41887	-0.007449213
82	0xbde82091	-0.113343365
83	0x3d9d7f2e	0.07690273
84	0x3d19c53d	0.037541617
85	0x3dbc6b0a	0.092001036
86	0xbc1bff0e	-0.009521259
87	0xbc8ef67c	-0.017451517
88	0xbc8bb467	-0.017053796
89	0xbcafc6a7	-0.02145703
90	0x3d8b3c62	0.067986265
91	0x3dbebf4a	0.09313829
92	0xbd24365c	-0.040090904
93	0x3e68c504	0.22731405
94	0x3e0f9271	0.14020707
95	0xbcd68b77	-0.026189549
96	0xbe0d5f89	-0.13805975
97	0xbd1ed728	-0.038779408
98	0x3db97805	0.09056095
99	0xbe0c3e39	-0.13695611
100	0xbc5114e1	-0.012761326
101	0x3d854b44	0.065084964
102	0x3d7cac55	0.061687786
103	0xbc5f2662	-0.013619991
104	0xbda9178c	-0.08256444
105	0xbdc519b7	-0.09624045
106	0xbd7062fe	-0.058688156
107	0x3cbedff2	0.023300145
108	0x3e0a0456	0.13478217
109	0xbda561d0	-0.08075297
110	0x3e008bf5	0.1255339
111	0xbdfbe042	-0.12298633
112	0x3ac9af39	0.0015387303
113	0x3dffb08d	0.12484846
114	0x3e137d16	0.14403185
115	0xbe0db8cd	-0.13840027
116	0x3dede9ae	0.116168365
117	0xbd7c21b8	-0.061555594
118	0x3d25a816	0.040443502
119	0xbe041463	-0.12898402
120	0xbda42f8d	-0.08016882
121	0x3dfd59e6	0.123706624
122	0x3b00577d	0.0019583397
123	0xbe1ef636	-0.1552361
124	0x3d25cbf3	0.040477704
125	0xbcab5ff9	-0.020919787
126	0x3c853837	0.016262157
127	0x3ddcd556	0.10782878
128	0xbdcf1054	-0.10110536
129	0xbe41da2b	-0.1893088
130	0x3c92a691	0.01790169
131	0x3dd03283	0.10165884
132	0x3d7524bd	0.05984949
133	0x3d0644d3	0.03278048
134	0xbe2efbbd	-0.17088218
135	0xbe178dd0	-0.14800191
136	0x3c3c079c	0.011476424
137	0x3e26e013	0.16296415
138	0x3c04893a	0.008089358
139	0xbe2f61fd	-0.17127223
140	0x3d860308	0.06543547
141	0xbc273fc9	-0.010208079
142	0xbd0256c2	-0.03182102
143	0xbd26f91b	-0.04076491
144	0x3dbd29d5	0.092364945
145	0x3decdfa5	0.11566094
146	0xbe1565cf	-0.14589618
147	0xbc8b9e64	-0.0170433
148	0xbe6e96da	-0.23299733
149	0x3de5acaa	0.11214574
150	0x3dc2ef1f	0.09518265
151	0x3cad82b7	0.021180494
152	0xbd64030c	-0.05566697
153	0x3b85bedc	0.00408159
154	0x3dd483f8	0.103767335
155	0xbe21d422	-0.15803578
156	0xbd2b047a	-0.041752316
157	0x3d1ca6a6	0.038244866
158	0xbd81cef0	-0.06338298
159	0xbc459a8e	-0.0120607745
160	0xbd9e502e	-0.07730137
161	0xbc8148a3	-0.015781706
162	0xbdab3281	-0.08359242
163	0x3e1568a1	0.14590694
164	0x3ccb1355	0.024789492
165	0xbd614b08	-0.055003196
166	0x3d2ace09	0.041700397
167	0x3c86a856	0.01643769
168	0xbdc403b3	-0.09571018
169	0x3e198225	0.14991052
170	0xbdaba285	-0.083806075
171	0xbd7b0e67	-0.061293032
172	0xbdd624a7	-0.1045621
173	0x3d72a83e	0.05924248
174	0x3d47e529	0.04880253
175	0xbd924f83	-0.07144072
176	0xbdd2d79a	-0.10295029
177	0x3d9ba7f2	0.076003924
178	0x3e3820bd	0.17981239
179	0xbdad6afd	-0.08467672
180	0xbdd7b617	-0.10532778
181	0xbd908c99	-0.07058067
182	0x3dcbf5b8	0.099589765
183	0xbe89f401	-0.26943973
184	0xbdc13024	-0.0943301
185	0x3e0d6a83	0.13810162
186	0x3e9caca1	0.30600455
187	0xbd68f164	-0.056870833
188	0xbd2f8b15	-0.04285725
189	0x3d3f71c9	0.046739373
190	0x3de3473e	0.11097573
191	0x3c4e7dff	0.012603282
192	0x3db58aa9	0.08864338
193	0xbcb4a9eb	-0.02205368
194	0x3de2967e	0.1106386
195	0x3e46b5d6	0.19405302
196	0xbb90f33f	-0.0044235284
197	0x3dc14da2	0.094386354
198	0xbdfa3dec	-0.12218842
199	0x3e0b294a	0.1358997
200	0xbdbae6b1	-0.09126032
201	0x3ce8500a	0.028358478
202	0xbe07221d	-0.13196607
203	0x3ccd8c76	0.025091391
204	0xbc2019c3	-0.009771767
205	0xbce07169	-0.027397828
206	0x3b88f34d	0.0041793943
207	0x3d3eba19	0.046564195
208	0xbe3d82d9	-0.18506946
209	0xbc8327f1	-0.016010256
210	0x3d9da30f	0.076971166
211	0x3cfd4029	0.030914383
212	0xbcded361	-0.027200403
213	0x3ce35a17	0.02775292
214	0x3e4fa9f1	0.20279671
215	0x3d4d23a7	0.05008283
216	0x3dfdb4cd	0.12388001
217	0x3d25376c	0.040336058
218	0x3dacc168	0.08435327
219	0x3db2beea	0.0872782
220	0xbe3c1005	-0.18365486
221	0x3c880c1d	0.016607339
222	0x3d5fd066	0.054642104
223	0xbcba0907	-0.022709383
224	0x3df87d0d	0.121332265
225	0x3e0c3ac1	0.13694288
226	0xbdadf24e	-0.084934816
227	0x3dac963e	0.08427094
228	0x3c889385	0.016671905
229	0x3dadb400	0.08481598
230	0x3db26fa4	0.087127
231	0xbdf121c8	-0.117740214
232	0xbcc84ffc	-0.024452202
233	0xbdae3f53	-0.08508172
234	0xbde832ca	-0.11337812
235	0xbcf1cc7f	-0.029516457
236	0x3c4a476d	0.012346131
237	0x3d211764	0.039328948
238	0x3cdac600	0.026705742
239	0x3ce17d6a	0.027525622
240	0xbc3b1dfb	-0.011420722
241	0x3e0779f3	0.13230114
242	0x3d3a25c5	0.045446176
243	0xbe10bc42	-0.14134315
244	0x3d3f7be0	0.046748996
245	0xbd9dcfd7	-0.07705658
246	0xbd917b52	-0.071035996
247	0xbc81716b	-0.015801152
248	0x3d23f5b5	0.040029246
249	0xbd859e0a	-0.06524284
250	0x3ab35f26	0.0013684973
251	0xbe69da51	-0.22837187
252	0x3aacbe4a	0.0013179269
253	0x3cc6f918	0.024288699
254	0xbb117b1a	-0.0022198618
255	0x3e6ea74a	0.23306003

network_body._body_endoder.seq_layers.2.bias f4 [128]
0	0xba4864d8	-0.00076444214
1	0x3c3779c7	0.011198468
2	0xba993a4c	-0.0011690347
3	0xbb86b522	-0.004110948
4	0x3ca43497	0.020044608
5	0xb8e0d77a	-0.00010721288
6	0x3c1a9947	0.009435958
7	0x3b8d70c2	0.0043164203
8	0xbc213b7b	-0.009840841
9	0xbbb49db9	-0.005511966
10	0xba31eab8	-0.000678699
11	0x3bbbce99	0.0057314155
12	0xbac71173	-0.0015187695
13	0xbab0fa09	-0.0013502251
14	0x3b5b2cde	0.003344349
15	0xba6c4474	-0.0009012886
16	0x3bd10ffe	0.0063800802
17	0x3c89eb4f	0.016835837
18	0x3b88bf0b	0.0041731647
19	0xbb9c2ad2	-0.0047658468
20	0xbc1d6693	-0.009606975
21	0xbc0ba5f6	-0.008523455
22	0xbb9fc40b	-0.004875665
23	0xbc0b545f	-0.008504002
24	0xba77dc4c	-0.0009455129
25	0xbb21281e	-0.0024590562
26	0x3b9ed00f	0.00484658
27	0xbae1155b	-0.0017172502
28	0x3c69f367	0.014279223
29	0xbad0f9b8	-0.0015943563
30	0x3bde721c	0.0067885052
31	0xbb683eab	-0.0035437744
32	0x3b8b98dd	0.004260166
33	0xba6fe582	-0.0009151326
34	0x3c0d21c2	0.0086140055
35	0x3c033091	0.008007185
36	0x3c2c4f3d	0.010516939
37	0xbc161ab3	-0.009161639
38	0xbac24199	-0.0014820575
39	0xbc640b86	-0.013918763
40	0x3be39908	0.006945733
41	0x3b65f6e4	0.0035089785
42	0x3b4a9ac3	0.0030915
43	0xbb32d9f7	-0.0027290562
44	0x3a9a0876	0.0011751789
45	0x3ca1a181	0.019730331
46	0xbb111899	-0.0022139905
47	0xba8e3685	-0.0010849988
48	0x3c49061b	0.012269522
49	0x3b2aa554	0.0026038485
50	0xb9067c69	-0.00012825582
51	0x3b904172	0.004402333
52	0x3a3edeef	0.00072811445
53	0x3b352140	0.0027638227
54	0xbb6c6a7b	-0.003607421
55	0x39a93d74	0.00032279978
56	0x3940fcb4	0.00018404686
57	0xbbfbb444	-0.0076814014
58	0x3b85cdae	0.004083357
59	0x3b8684c7	0.0041051838
60	0x3c53cefc	0.012927767
61	0xb96072cc	-0.0002140507
62	0x3aa59678	0.0012633344
63	0xbbb47688	-0.005507294
64	0x3c052e67	0.008128739
65	0xbbba87cd	-0.0056924582
66	0xbb503d73	-0.0031774908
67	0x3c62c977	0.013841978
68	0xbb02f2a2	-0.0019981046
69	0x3b40d8bd	0.002942606
70	0x3a460e69	0.0007555248
71	0x39e541e0	0.00043727364
72	0xbb3f4160	-0.0029183254
73	0xbada7aee	-0.0016668716
74	0x3bed9879	0.007250842
75	0x3c0a4a19	0.008440518
76	0xb9aaea73	-0.00032599605
77	0xbae08181	-0.0017128439
78	0xbc149688	-0.009069093
79	0x3a89296e	0.0010464618
80	0x3c4b561f	0.01241067
81	0x3c303bd7	0.010756454
82	0x3c10ee75	0.008845915
83	0x3b4c8be9	0.0031211323
84	0xbb848b79	-0.0040449467
85	0x3c1d1b56	0.009589037
86	0xbb035a5a	-0.0020042867
87	0xbbbe821b	-0.0058138496
88	0xbb78dab7	-0.003797216
89	0xba4ef8a2	-0.00078953255
90	0x3c503104	0.012706999
91	0x3a2fcc70	0.0006706184
92	0xb9cbfaab	-0.0003890594
93	0x39e71ae3	0.00044079786
94	0xbc0d905c	-0.008640375
95	0xbab8a606	-0.0014087565
96	0xbb42a962	-0.002970301
97	0x3b288754	0.0025715427
98	0xba93bee1	-0.0011272096
99	0xbbb67a5b	-0.005568785
100	0xb816a80e	-3.59193e-05
101	0xbaf52ec1	-0.001870595
102	0xbada97e1	-0.0016677344
103	0x3b95e56d	0.004574469
104	0xbb576ad8	-0.003287008
105	0xbc1b516a	-0.00947986
106	0x3bd4fd27	0.0064999047
107	0xbc4919a7	-0.012274182
108	0x3c1310a6	0.008976137
109	0x3c0db4bf	0.00864905
110	0xbc4a2753	-0.012338477
111	0x3a119753	0.000555386
112	0x3bae700f	0.005323417
113	0xbab415d7	-0.0013739419
114	0x3c1550d2	0.009113507
115	0xb9c94636	-0.0003839002
116	0x3a96418b	0.0011463625
117	0xbabf8a4f	-0.0014613363
118	0xbb1665d5	-0.002294888
119	0xba4e36c7	-0.0007866439
120	0xb8e7ccdd	-0.00011053097
121	0x3c8d07c4	0.017215617
122	0xbae177fa	-0.0017201893
123	0xbb29bc44	-0.0025899569
124	0xbb0fc709	-0.0021938703
125	0x39f2e37f	0.00046327335
126	0xbb5a060f	-0.0033267771
127	0x3ac7b33e	0.0015235913

action_model._continuous_distribution.log_sigma f4 [1, 2]
0	0xbd84ce65	-0.06484679
1	0xbd786970	-0.060647428

action_model._continuous_distribution.mu.weight f4 [2, 128]
0	0x3d1393d9	0.03602967
1	0x3d6c4d59	0.057690952
2	0xbba0ef29	-0.0049113226
3	0xbadc2c3b	-0.001679785
4	0x3d5ae232	0.053438373
5	0x3cecde2a	0.02891453
6	0x3d6d54d0	0.05794221
7	0xbd31d9a9	-0.043420468
8	0xbd41d872	-0.04732556
9	0xbbfab220	-0.0076506287
10	0x3c31fdfa	0.010863775
11	0x3d4c45b8	0.049871176
12	0xbc9864d5	-0.018602768
13	0xbd35d0af	-0.04438847
14	0xbcdd350d	-0.027002836
15	0x3c8e5d47	0.017378462
16	0xbd0b3abf	-0.03399157
17	0x3d8e0346	0.06934218
18	0x3d0fd307	0.03511336
19	0xbcb24c20	-0.021764815
20	0x3c23026d	0.009949309
21	0xbc9bc326	-0.019013952
22	0xba81de19	-0.0009908109
23	0xbc398a3d	-0.0113244625
24	0xbc6a69e5	-0.014307474
25	0x3b6e2c90	0.003634248
26	0x3d3b50ba	0.045731284
27	0x3c8b2e70	0.016989917
28	0x3d765524	0.06013979
29	0xbd355c23	-0.04427732
30	0xbd4e12cd	-0.0503109
31	0xbb5511ab	-0.0032511752
32	0x3d0ef45d	0.03490101
33	0x3cab2466	0.02089138
34	0x3d6b8abd	0.057505358
35	0xbdc6ba1c	-0.09703466
36	0xbd15e0f2	-0.036591478
37	0x3c91d470	0.017801493
38	0x3bdd4dfa	0.0067536803
39	0xbce6f560	-0.028193176
40	0x3d9eebe8	0.07759839
41	0xbd182ddf	-0.03715312
42	0xbd3b72dc	-0.045763835
43	0xbc40e1fb	-0.011772628
44	0xbce20a93	-0.027592933
45	0xbd6677f0	-0.056266725
46	0xbb9a486e	-0.0047083413
47	0x3ae3095b	0.0017321514
48	0xbd0921f0	-0.03347963
49	0x3d2970cd	0.04136734
50	0xbcc1aeb4	-0.023642875
51	0x3c613aca	0.013746927
52	0x3c87fb37	0.01659928
53	0xbd152e83	-0.03642131
54	0x3c627103	0.013820889
55	0x3c8dfb74	0.017331816
56	0xbb03d4e8	-0.0020115916
57	0x3d5ee641	0.054418806
58	0x3d2b8c08	0.04188159
59	0xbcf97f03	-0.030456072
60	0xbd5bc5df	-0.0536555
61	0x3bd5d333	0.006525421
62	0x3caef140	0.021355271
63	0xbbc13065	-0.0058956617
64	0x3d4ee3b4	0.050510123
65	0xbb4cb745	-0.0031237167
66	0xbad8ba3f	-0.0016534998
67	0xbcfebad7	-0.031094952
68	0x3c22c727	0.009935177
69	0xbb722df7	-0.0036953667
70	0x3cd37c3b	0.025816074
71	0xbc7a7351	-0.015286283
72	0x3b311da2	0.002702572
73	0x3af59218	0.0018735556
74	0x3d4cd9bb	0.05001233
75	0x3d8c7025	0.06857327
76	0x3c5ed181	0.013599754
77	0xbbd40280	-0.0064700246
78	0xbccae56c	-0.0247676
79	0x3cc8cf3b	0.024512878
80	0x3d2d6b72	0.042338796
81	0x3d8c75f7	0.068584375
82	0x3d5338f5	0.05156799
83	0xbd01d74b	-0.03169946
84	0x3d0c0a0b	0.034189265
85	0x3d21b031	0.03947467
86	0xbc91087a	-0.017704237
87	0x3c34dbe0	0.01103875
88	0x3be45515	0.0069681504
89	0x3ca47c02	0.020078663
90	0x3d206988	0.039163142
91	0xbd5a752d	-0.053334404
92	0x3b9cec8c	0.004788941
93	0x3c8b558f	0.017008571
94	0xbd3dc6cc	-0.046332166
95	0x3c3773ab	0.011197011
96	0x3c2a05bd	0.010377345
97	0x3d022914	0.031777456
98	0xbcacb275	-0.021081189
99	0xbbd840a4	-0.0065995026
100	0x3cb338e2	0.02187771
101	0x3bb169e9	0.005414237
102	0x3cd19569	0.02558394
103	0xbd534e21	-0.05158818
104	0xbbaee734	-0.00533762
105	0x3c0af6b8	0.008481674
106	0x3d828bfd	0.06374357
107	0xbcc55031	-0.02408609
108	0xbd917415	-0.07102219
109	0x3d8010d8	0.06253213
110	0xbc07b2d4	-0.008282382
111	0x3cbe9ea2	0.023269001
112	0xbd0fe646	-0.035131715
113	0xbc7899c1	-0.015173377
114	0xbd343b74	-0.04400201
115	0x3b693675	0.0035585437
116	0x3d196ad4	0.037455395
117	0xbd1dbe36	-0.038511477
118	0xbcd3f740	-0.025874734
119	0xbcffc0cf	-0.031219868
120	0x3cf60019	0.030029343
121	0x3d400628	0.04688087
122	0x3c1838bc	0.00929087
123	0xbca75671	-0.02042696
124	0x3ca4935c	0.020089798
125	0x3c2a7205	0.010403161
126	0x3ce11851	0.027477415
127	0xbd2b7895	-0.041863043
128	0xbb556723	-0.0032562695
129	0x3bda6039	0.0066643027
130	0x3ca3d4fb	0.019999018
131	0x3cb39b49	0.021924632
132	0xbd2a914c	-0.041642472
133	0xbbee49cc	-0.007271981
134	0xbbef994f	-0.007311977
135	0xbcabadd2	-0.020956907
136	0x3c4a540f	0.012349143
137	0xbad56b57	-0.00162826
138	0x3bbfde10	0.0058553293
139	0x3cf752db	0.030190876
140	0xba9ed151	-0.0012116825
141	0x3c982e79	0.018576847
142	0x3c83c658	0.016085789
143	0xbc662932	-0.014047908
144	0xb9d97018	-0.00041472982
145	0xbc2985d9	-0.010346853
146	0xbc5bb6cf	-0.013410284
147	0x3c53a452	0.012917595
148	0xbc59b1cf	-0.013287022
149	0xbc2a6470	-0.010399923
150	0xbbd31491	-0.0064416607
151	0x3c1f9b06	0.00974155
152	0x3c73695e	0.014856664
153	0xbc183a36	-0.009291222
154	0xbc8649e4	-0.016392656
155	0x3c8305f4	0.01599405
156	0x3c3ea8cb	0.011636923
157	0x39b3b2fa	0.00034274888
158	0xbcfb2439	-0.03065692
159	0xbc80ca9b	-0.01572161
160	0x3b40102e	0.002930652
161	0xbb2c6022	-0.0026302417
162	0xbc7e468c	-0.015519749
163	0xbbfe1daa	-0.007755001
164	0x3c7a6c82	0.015284659
165	0x3cb7c054	0.022430576
166	0x3c20e7a5	0.009820853
167	0x3cfc4c2c	0.03079804
168	0xbd1b4bb4	-0.037913993
169	0x3cb8a7fc	0.022541039
170	0x3bad61db	0.0052912063
171	0xbcb542cd	-0.02212658
172	0xbc2a0a52	-0.010378437
173	0xbabf10db	-0.0014577167
174	0x3c56da00	0.013113499
175	0xbca36c62	-0.019949142
176	0xbc108c91	-0.008822576
177	0x3d1c277b	0.03812359
178	0x3b94fe6b	0.0045469305
179	0xbc48e581	-0.012261749
180	0x3bad0360	0.0052799433
181	0x3c608791	0.013704197
182	0x3d158813	0.036506724
183	0x3c800a54	0.015629925
184	0xbd2dd0fe	-0.04243564
185	0x3c19a0eb	0.009376745
186	0x3b8ebfb0	0.004356347
187	0x3be109ea	0.006867637
188	0x3c86697e	0.016407724
189	0xbc0c4501	-0.008561374
190	0xbbbbc196	-0.0057298644
191	0xbbf61627	-0.007509965
192	0xbbd291a5	-0.0064260536
193	0xbae513ed	-0.0017477252
194	0xbc552ddc	-0.013011422
195	0x3bcb4037	0.0062027234
196	0xbccce641	-0.025012137
197	0xbbdd7f1f	-0.006759539
198	0x3cdc756a	0.026911456
199	0x3d2c998b	0.042138617
200	0xbc50c55c	-0.012742367
201	0x3c5ee34d	0.013603997
202	0x3965f44c	0.0002193015
203	0x3b6a3a36	0.0035740263
204	0x3bf764f8	0.007549878
205	0xbc61bb8a	-0.013777623
206	0xbb886c9d	-0.0041633383
207	0x3b8184e4	0.0039526094
208	0xbbeb063f	-0.0071723755
209	0xbcc30175	-0.023804406
210	0xbb50395c	-0.003177247
211	0xb8e989e1	-0.00011135988
212	0x3c97cbfc	0.018529885
213	0xbd049af7	-0.03237435
214	0x3b437def	0.00298297
215	0x3bf50969	0.0074779284
216	0x397cded8	0.00024115609
217	0x3ce40caa	0.02783807
218	0xb944ef46	-0.00018781153
219	0x3ba88bc4	0.0051436145
220	0x3c956789	0.018237846
221	0x3b7bae8a	0.0038403594
222	0xbbd08b01	-0.006364227
223	0xbbea1537	-0.0071436423
224	0xbcfe3c40	-0.031034589
225	0xbc95e1dc	-0.018296175
226	0x3ce04e98	0.027381226
227	0x3abacec8	0.00142523
228	0xbc314d74	-0.010821689
229	0x3af48f01	0.0018658341
230	0x3c54ef2e	0.012996478
231	0x3d2903b2	0.04126329
232	0xbaac2193	-0.0013132564
233	0x3bb52348	0.0055278875
234	0xbcafbbb6	-0.021451812
235	0x3bfddc15	0.007747183
236	0x3bf61433	0.007509732
237	0xbd0f1f02	-0.03494168
238	0xbb0fff07	-0.0021972077
239	0xbc287930	-0.0102828
240	0x3b9aebe8	0.0047278292
241	0x3bc8c19f	0.006126597
242	0x3c3bb33a	0.011456305
243	0xbd348989	-0.044076476
244	0x3c055197	0.008137128
245	0x3b0707ba	0.002060397
246	0xbc8a2a40	-0.01686585
247	0x3c103454	0.0088015385
248	0xbc924119	-0.017853307
249	0xbcde6bee	-0.027151074
250	0xbcb1a012	-0.021682773
251	0xbca14b1b	-0.019689133
252	0x3cc45d4d	0.02397027
253	0x3d03f0f1	0.0322122
254	0x3bf32fa8	0.0074214526
255	0x3cfd9973	0.03095696

action_model._continuous_distribution.mu.bias f4 [2]
0	0x3a9aebe1	0.0011819565
1	0x3a87ec30	0.0010370072
