results/test_5/Boss/Boss-14769.onnx (onnx, 75574 bytes, 7 tensors)

network_body._body_endoder.seq_layers.0.weight f4 [128, 7]
0	0x3ebf3354	0.37343848
1	0xbe11b723	-0.14230017
2	0xbe354852	-0.1770337
3	0xbe947c33	-0.29001006
4	0xbd92a89d	-0.07161067
5	0xbcf51bbf	-0.029920457
6	0x3e92d155	0.28675333
7	0xbcf96c1a	-0.030447055
8	0x3e94bb53	0.29049167
9	0x3e99ccf3	0.30039176
10	0x3f198fa6	0.59984815
11	0x3df435f3	0.119243525
12	0x3d219913	0.039452624
13	0x3e00329f	0.1251931
14	0xbd615169	-0.05500928
15	0x3e844f81	0.25841907
16	0xbe189cc4	-0.14903551
17	0x3d11cd06	0.035595916
18	0xbedc6701	-0.43047336
19	0xbf01b6a8	-0.50669336
20	0x3ed35353	0.4127451
21	0xbe2dc8b6	-0.16971096
22	0x3c8ce227	0.017197682
23	0xbeaafab3	-0.33394393
24	0xbda9b54a	-0.08286531
25	0x3f1685c0	0.58797836
26	0xbf73a003	-0.95166034
27	0x3f015ee5	0.5053542
28	0xbf01bc1b	-0.5067765
29	0xbc88fee5	-0.016723106
30	0x3f3c6e57	0.73605865
31	0xbec87ca1	-0.39157584
32	0xbeb2e6c4	-0.34941685
33	0x3ecae2a3	0.39626035
34	0x3bd52a0b	0.006505256
35	0x3e7d5997	0.24741207
36	0xbe418095	-0.18896706
37	0x3ce19d7d	0.027540917
38	0xbe9da6f1	-0.3079143
39	0x3f88e07f	1.0693511
40	0x3e3796ea	0.17928663
41	0x3e4f4f2a	0.20245042
42	0x3e84cefe	0.25939173
43	0xbebe24e3	-0.37137517
44	0x3ea81b0a	0.3283313
45	0x3f685bad	0.90764886
46	0x3f227490	0.6345911
47	0x3f1f7ca2	0.6229955
48	0x3f26df71	0.65184695
49	0x3ed81a44	0.4220754
50	0x3f11f8c1	0.57020193
51	0x3e90fc54	0.2831751
52	0xbdac333b	-0.08408209
53	0x3ebca74c	0.36846387
54	0x3eef8b80	0.46786118
55	0xbe0e92dd	-0.13923211
56	0xbe02aa0d	-0.12760182
57	0xbe0b8902	-0.13626483
58	0xbdcfcdfb	-0.101467095
59	0xbea2333a	-0.31679708
60	0xbeef18e4	-0.46698678
61	0xbf23a4b4	-0.6392319
62	0x3e81dee4	0.25365365
63	0xbf3dadf2	-0.74093544
64	0xbe8ba17b	-0.27271637
65	0x3e0106b8	0.12600219
66	0xbebcc157	-0.36866257
67	0x3c4fc663	0.012681576
68	0xbdddb5ed	-0.10825715
69	0xbdfe1ff1	-0.12408436
70	0xbe767b59	-0.24070491
71	0xbed03bb0	-0.40670538
72	0x3e540fb4	0.20709115
73	0x3d2fcb75	0.04291864
74	0xbe75a910	-0.23990273
75	0xbe1e9b33	-0.15488891
76	0xbe8d805c	-0.27636993
77	0xbdcffdde	-0.10155843
78	0xbe88d7e9	-0.26727226
79	0xbddb8dbe	-0.107203946
80	0x3f4461ce	0.7671174
81	0x3e9b1c25	0.3029491
82	0x3d85c1da	0.06531115
83	0x3eb6779f	0.3563814
84	0x3eac8762	0.3369704
85	0xbd8e9e53	-0.06963792
86	0x3ededd66	0.4352829
87	0x3f00e8b5	0.5035508
88	0xbe34bae9	-0.17649426
89	0xbe9af35e	-0.302638
90	0xbf23113c	-0.6369817
91	0x3df1cdcd	0.118068315
92	0xbe2c4041	-0.16821386
93	0xbe3157c4	-0.17318636
94	0x3da3c923	0.07997348
95	0x3c0cbde6	0.008590197
96	0x3db57025	0.088592805
97	0xbd8c0163	-0.06836202
98	0x3e6583f7	0.22413622
99	0xbe814e66	-0.25255126
100	0xbf09fb69	-0.53899246
101	0xbdcbdcea	-0.099542454
102	0xbec1a15e	-0.37818426
103	0xbeb3a632	-0.35087734
104	0xbf00596a	-0.50136435
105	0xbf06c8d8	-0.52650213
106	0x3f2e8f55	0.6818746
107	0x3ebe19ef	0.3712916
108	0xbdf3f344	-0.119116336
109	0xbccde38d	-0.025132919
110	0xbc25e6f5	-0.010125865
111	0x3daf7c76	0.08568661
112	0x3df7376e	0.12071119
113	0x3d90f0b1	0.07077158
114	0xbd9598f5	-0.07304565
115	0x3dc889f3	0.09791937
116	0x3e1d8722	0.1538358
117	0xbe246330	-0.16053462
118	0xbea478cf	-0.3212342
119	0x3e6a286a	0.22866979
120	0xbbfd0604	-0.0077216644
121	0x3e4afd53	0.19823198
122	0x3f29af65	0.66283256
123	0xbed78f54	-0.42101538
124	0x3cf570be	0.029960986
125	0xbe0a0b7f	-0.13480948
126	0xbf04eb6a	-0.51921713
127	0xbe05e14e	-0.13074228
128	0xbe436367	-0.19080888
129	0x3f028641	0.50986105
130	0x3f4124ee	0.75446975
131	0x3e1366fd	0.14394756
132	0x3e0d5d58	0.13805139
133	0xbe6f34ae	-0.2335994
134	0xbe3c5f6d	-0.18395777
135	0x3ed405f0	0.4141078
136	0xbea4db29	-0.32198456
137	0x3f18f71d	0.59752065
138	0x3e943f92	0.2895475
139	0xbe6c0830	-0.23049998
140	0x3eb0588f	0.34442565
141	0x3e395cb7	0.18101774
142	0x3dcb600a	0.09930427
143	0x3ea04a54	0.31306708
144	0x3d13a058	0.036041588
145	0xbf42b40c	-0.7605598
146	0xbf079c69	-0.5297304
147	0xbecdf939	-0.40229204
148	0x3dceecc9	0.10103757
149	0xbe6715ca	-0.22566906
150	0x3f0bd67a	0.5462414
151	0x3df2f655	0.1186339
152	0xbdf381c2	-0.11889984
153	0x3e99153b	0.2989901
154	0xbf4ba97b	-0.7955548
155	0xbeb9c7a8	-0.36285138
156	0x3d0cdf03	0.034392368
157	0x3ee17e11	0.44041494
158	0x3dff0fd1	0.124541886
159	0xbe5738d6	-0.21017775
160	0xbe7ddeab	-0.24791972
161	0x3de1dc5d	0.11028359
162	0x3d14fbf0	0.03637308
163	0xbe38178a	-0.1797773
164	0x3eac13e3	0.33608922
165	0xbe663329	-0.22480454
166	0xbe8f919d	-0.28040782
167	0xbe8073a8	-0.2508824
168	0x3ef9be33	0.48777923
169	0xbe82ed35	-0.255716
170	0x3d8a407d	0.067505814
171	0x3eccea4b	0.400225
172	0x3e8327b4	0.2561623
173	0xbe4a0a18	-0.19730413
174	0xbe55deba	-0.20885745
175	0x3eb54ed8	0.35411716
176	0xbe771a8c	-0.2413122
177	0xbe5ad4ff	-0.21370314
178	0xbe4c4111	-0.19946696
179	0x3f292b04	0.6608126
180	0xbedf7864	-0.43646538
181	0xbf6b06f5	-0.9180749
182	0x3e965402	0.29360968
183	0xbf005c2c	-0.50140643
184	0xbe108920	-0.14114809
185	0x3e852a71	0.26008943
186	0x3e2820ee	0.16418812
187	0xbeba35fe	-0.36369318
188	0x3d0f3ced	0.034970213
189	0x3f50a512	0.8150188
190	0xbea35503	-0.31900796
191	0xbe198741	-0.14993002
192	0x3e23a026	0.1597906
193	0xbe9c2cb6	-0.30502862
194	0x3f0dbd99	0.5536743
195	0x3d94d27b	0.072667085
196	0xbf32502b	-0.69653577
197	0xbe0b0941	-0.13577749
198	0xbd182b71	-0.037150804
199	0xbed36c97	-0.41293785
200	0x3e870e27	0.26377985
201	0xbe52adc2	-0.20574096
202	0x3ee3d208	0.4449618
203	0xbe755d6b	-0.23961417
204	0x3f15f542	0.5857736
205	0xbec6d3ba	-0.3883341
206	0xbf36bf06	-0.7138523
207	0x3e908352	0.2822519
208	0x3e2887c8	0.16458046
209	0x3d8b4d80	0.06801891
210	0xbe2f0a67	-0.17093812
211	0x3e627704	0.22115713
212	0xbe88a7d2	-0.26690537
213	0x3ed8d927	0.42353174
214	0x3db323ee	0.087470874
215	0x3ec50e6c	0.38487566
216	0xbd7fb709	-0.062430415
217	0xbe9d55dd	-0.3072957
218	0xbf2c6ccb	-0.67353505
219	0x3edbe74b	0.429499
220	0xbe6f2304	-0.23353201
221	0xbe5f88d2	-0.21829537
222	0x3f7d646b	0.9898135
223	0xbf17f811	-0.59362894
224	0x3da0215b	0.07818862
225	0xbed3c656	-0.41362256
226	0x3daf90bb	0.08572527
227	0x3e95eb3b	0.2928103
228	0x3ca9564b	0.02067103
229	0x3db65d61	0.08904529
230	0x3ed631af	0.4183478
231	0x3ed3e0e5	0.41382518
232	0x3e31a9c5	0.17349918
233	0x3e26b218	0.16278875
234	0xbed03eec	-0.40673006
235	0x3ec7dfbf	0.39037892
236	0x3e060238	0.13086784
237	0x3e7cc424	0.24684197
238	0xbf21935a	-0.63115466
239	0xbe14cf5d	-0.14532228
240	0xbec9a7e3	-0.393859
241	0xbf3c144d	-0.73468477
242	0x3e049640	0.12947941
243	0xbe2d89f3	-0.16947155
244	0xbf526129	-0.82179505
245	0xbf52bbe2	-0.82317936
246	0xbe881cdd	-0.2658452
247	0x3e87be36	0.26512307
248	0x3f0de6eb	0.5543048
249	0x3e9975e5	0.2997276
250	0xbec94eb6	-0.39317864
251	0xbe56a087	-0.20959674
252	0xbe938845	-0.28814903
253	0xbebca3ed	-0.36843815
254	0x3bce6ceb	0.006299605
255	0x3dfaf59d	0.12253878

network_body._body_endoder.seq_layers.0.bias f4 [128]
0	0xba43cb95	-0.0007468996
1	0x3baedddf	0.0053365077
2	0xbb3be6d0	-0.002867151
3	0x394a8f95	0.0001931771
4	0xba8ac762	-0.0010587985
5	0x39ede67c	0.00045375887
6	0x3b852c21	0.0040640985
7	0xbb3f24cc	-0.002916622
8	0xbbae86fc	-0.00532615
9	0xba314348	-0.000676204
10	0x38da1844	0.0001039957
11	0xbaf3d62f	-0.001860326
12	0xbb501a95	-0.0031754125
13	0x3b8cfb9c	0.004302455
14	0xbb0cb467	-0.0021469833
15	0x3b359eeb	0.002771313
16	0xb8cf1d30	-9.875966e-05
17	0xbac3d685	-0.0014941251
18	0xb984a029	-0.0002529633
19	0xba574f97	-0.0008213459
20	0x3b36a2d5	0.0027868052
21	0xbb1eaa8a	-0.0024210536
22	0x39745c6a	0.0002330408
23	0x3a8e4851	0.0010855292
24	0xba85545d	-0.0010172237
25	0xb9aaa311	-0.0003254642
26	0xbaa40d30	-0.0012516137
27	0x39a1b530	0.00030843308
28	0xb9927edf	-0.00027941816
29	0xb9300317	-0.00016785819
30	0xbabbb340	-0.0014320388
31	0x3a6e87f0	0.0009099236
32	0xba8fa966	-0.0010960519
33	0x3a3085da	0.00067338126
34	0x3aaa9a1a	0.0013015897
35	0x39ff3ba2	0.0004868182
36	0xba62ea16	-0.00086560973
37	0xbaca4524	-0.0015431982
38	0x3a9a97ed	0.0011794545
39	0xbb03887e	-0.002007037
40	0x3931a78c	0.00016942451
41	0xbbb910fd	-0.005647777
42	0xbab8f3c1	-0.001411073
43	0xbb338821	-0.0027394372
44	0x395b458e	0.00020911379
45	0xbaad9970	-0.001324458
46	0x3a0490eb	0.0005056995
47	0x379865a6	1.8167146e-05
48	0xbb54cfb1	-0.0032472427
49	0xba3af4a4	-0.0007131791
50	0xbb173989	-0.0023075065
51	0xbb1599c1	-0.002282724
52	0x39ff241c	0.00048664294
53	0x39d8b30e	0.00041332137
54	0xba914514	-0.0011083209
55	0xbb3233f7	-0.0027191618
56	0xb907ceca	-0.00012951638
57	0x3aaacb7d	0.0013030615
58	0xbb8782d9	-0.0041354713
59	0x3a95fc08	0.0011442909
60	0x3951b5f9	0.00019999583
61	0x3aaa66ea	0.0013000641
62	0x3b1224c2	0.0022299741
63	0x3b16cf17	0.0023011619
64	0xb94eb04e	-0.0001971137
65	0xba61e586	-0.00086172705
66	0xbaa4a513	-0.0012561403
67	0x3ad3c60f	0.0016157049
68	0xba57d98b	-0.00082340155
69	0x3a5e76ad	0.0008486312
70	0x3943a14c	0.00018656737
71	0x3975c47c	0.00023438217
72	0x3a0c2fb9	0.00053476874
73	0xbba7798b	-0.0051109246
74	0xba8d269a	-0.001076895
75	0xbb2bec20	-0.002623327
76	0x3b2d9d47	0.002649145
77	0x3a1153bb	0.0005543788
78	0xba136109	-0.00056220643
79	0x391ca6ed	0.00014939504
80	0x3927be6a	0.00015997296
81	0x3a27fb57	0.0006407997
82	0xb90b0771	-0.00013258845
83	0x3a6cbf56	0.0009031197
84	0xb8773333	-5.8937072e-05
85	0x3b09ac09	0.0021007082
86	0x3a844160	0.0010090284
87	0x3b2f06a1	0.0026706832
88	0xba63bf91	-0.00086879084
89	0x39ab176b	0.0003263311
90	0x3aa0d1fa	0.0012269609
91	0x3993e8fe	0.00028211618
92	0xb99b32b2	-0.00029601675
93	0xb968193b	-0.00022134643
94	0xb781ff65	-1.5496926e-05
95	0x3afa1ebb	0.0019082645
96	0xb9c7a885	-0.00038081795
97	0xbb2f3817	-0.0026736313
98	0x3a83248f	0.0010005402
99	0xba7bfa59	-0.0009612195
100	0x39ba7c69	0.00035569377
101	0x398d1ff0	0.0002691741
102	0x39d96198	0.00041462178
103	0xbb342666	-0.0027488708
104	0xba84f480	-0.0010143667
105	0x3a99ba12	0.0011728427
106	0x3acfa4f8	0.0015842011
107	0xb99e799c	-0.00030226714
108	0xbabd8342	-0.0014458674
109	0xb9cbd8f8	-0.00038880832
110	0x3b2c3a85	0.0026279998
111	0xba25ff6c	-0.00063323113
112	0x392594b4	0.00015791022
113	0x3a8ef1cc	0.0010905801
114	0xbb15d6f2	-0.0022863713
115	0xbbc41ca3	-0.005984859
116	0x39d8a44a	0.00041321135
117	0xb9c35e6d	-0.0003726365
118	0x3b4ded81	0.003142208
119	0x3a643580	0.0008705482
120	0x3881d327	6.1905295e-05
121	0xbac680a5	-0.001514454
122	0x3a9246ca	0.0011160013
123	0xba147ffa	-0.0005664822
124	0x3ab8c851	0.0014097785
125	0xba0d7028	-0.0005395436
126	0x3b29783f	0.0025859026
127	0x3af1871a	0.0018427104

network_body._body_endoder.seq_layers.2.weight f4 [128, 128]
0	0xbcab1b24	-0.020886965
1	0x3dcc118e	0.09964286
2	0xbdd640eb	-0.10461601
3	0xbd6441d1	-0.05572683
4	0x3c8ae6e3	0.016955798
5	0xbdb80d05	-0.08986858
6	0x3c4bf91c	0.012449529
7	0xbd9e1145	-0.07718138
8	0xbcd4baef	-0.025968043
9	0x3e0bf327	0.13666974
10	0xbdf71beb	-0.12065872
11	0xbd86c090	-0.06579697
12	0x3b3b23e2	0.0028555323
13	0xbba628af	-0.005070768
14	0x3d65a287	0.0560632
15	0x3e10e792	0.14150837
16	0xbe179d59	-0.14806117
17	0xbd0982e5	-0.033572096
18	0xbd304a93	-0.04303987
19	0xbcb08682	-0.021548513
20	0x3c963075	0.018333653
21	0xbc1eeaee	-0.009699566
22	0x3e320063	0.1738296
23	0xbdcc09a5	-0.09962777
24	0x3e0612d2	0.13093117
25	0xbd83466f	-0.064099185
26	0x3d83c98c	0.064349264
27	0xbcda3634	-0.026637174
28	0xbd596778	-0.05307719
29	0xbdc7410a	-0.09729202
30	0x3db2adfd	0.08724592
31	0x3d2b34f7	0.041798558
32	0x3e126cf0	0.14299369
33	0xba5ec3e2	-0.0008497817
34	0x3d27a44c	0.04092817
35	0x3d0f8f5c	0.035048828
36	0xbd298939	-0.04139063
37	0xbd0afd62	-0.03393305
38	0x3d86966b	0.06571659
39	0xbd7f32a0	-0.06230414
40	0x3e05ac9f	0.13054131
41	0xbce49a40	-0.027905583
42	0x3d63cd8d	0.05561595
43	0xbcb9dac2	-0.02268732
44	0x3d387156	0.04502996
45	0xbdfe8c8e	-0.124291524
46	0x3d0278a0	0.03185332
47	0xbb29c6f2	-0.0025905934
48	0x3e11b5ba	0.1422948
49	0xbbcbf37c	-0.006224094
50	0xbd33bd01	-0.04388142
51	0x3df614f1	0.12015713
52	0xbdcc048d	-0.099618055
53	0xbd122c37	-0.035686698
54	0xbc4274c9	-0.011868664
55	0xbdb7fe47	-0.089840464
56	0xbe249dec	-0.16075867
57	0x3d701e46	0.05862262
58	0x3e068161	0.13135292
59	0xbc8808cb	-0.016605755
60	0xbddcb703	-0.10777094
61	0xbd722e8b	-0.059126418
62	0x3dcbef58	0.099577606
63	0x3dbbf277	0.09177106
64	0x3dfd8839	0.12379498
65	0xbc3aad0b	-0.011393796
66	0x3e1ee276	0.15516075
67	0xbd2041e2	-0.03912533
68	0x3e23ba0d	0.15988941
69	0x3d363a3f	0.04448914
70	0xbd2b06b0	-0.041754425
71	0x3de4d555	0.11173502
72	0x3d7a39ed	0.0610904
73	0x3cb98872	0.02264807
74	0x3c81c5f0	0.015841454
75	0x3e0489fc	0.12943262
76	0x3b007da6	0.0019606142
77	0xbdf18f23	-0.11794879
78	0x3ceb37ba	0.028713096
79	0xbe1eb004	-0.15496832
80	0xbdddbb52	-0.10826744
81	0xbc06d003	-0.008228305
82	0xbe01e873	-0.12686329
83	0x3d88fbf6	0.06688683
84	0x3d6456b6	0.055746756
85	0x3dbfe1b0	0.09369218
86	0xbc7dca03	-0.015490058
87	0xbd95a04c	-0.07305965
88	0xbb91bab8	-0.0044473074
89	0xbcd06542	-0.025438908
90	0x3d811e88	0.063046515
91	0x3da240a4	0.079224855
92	0xbd3ec149	-0.04657105
93	0x3e645461	0.22297813
94	0x3e12a086	0.14319047
95	0xbd5dddca	-0.054166593
96	0xbe4b6f65	-0.19866712
97	0xbd3d1f6e	-0.04617255
98	0x3dc15e0e	0.09441768
99	0xbe0f363f	-0.13985537
100	0x3ca83f6b	0.020538053
101	0x3d827692	0.06370272
102	0x3d772543	0.06033827
103	0xbdc39ad7	-0.09551018
104	0xbda1fbf1	-0.07909382
105	0xbcd7a2b4	-0.0263227
106	0xbd65b68e	-0.0560823
107	0x3cafb3a9	0.021447973
108	0x3e0d0245	0.13770397
109	0xbd960396	-0.07324903
110	0x3d47fe77	0.04882666
111	0xbdf3bfb5	-0.119017996
112	0x3cc47294	0.023980416
113	0x3db46738	0.0880875
114	0x3d9e8378	0.077399194
115	0xbdfa0155	-0.12207285
116	0x3dda6500	0.106637955
117	0xbd6fd92b	-0.058556717
118	0x3da75477	0.08170407
119	0xbe097058	-0.13421762
120	0xbd8ed104	-0.0697346
121	0x3dff39c8	0.12462193
122	0x3bce9e73	0.0063055097
123	0xbe117469	-0.14204563
124	0x3d057cbb	0.032589655
125	0xbd037c13	-0.03210075
126	0x3ce83029	0.028343277
127	0x3d2e6f73	0.042586755
128	0xbe0d1bea	-0.1378018
129	0xbe3c6f88	-0.18401921
130	0xbcf6d316	-0.03012995
131	0x3daa41f1	0.083133586
132	0x3d2bfda6	0.041989945
133	0x3cac34fd	0.02102136
134	0xbe0e0030	-0.13867259
135	0xbe2045e5	-0.15651663
136	0x3cb51975	0.022106865
137	0x3e2b5f47	0.16735564
138	0x3c0279b3	0.007963586
139	0xbe15bdc3	-0.1462317
140	0x3d4781ed	0.04870789
141	0xba3f8571	-0.0007305956
142	0xbd1e629f	-0.03866827
143	0xbd5672fa	-0.052355744
144	0x3e0010c7	0.125064
145	0x3df5ff49	0.120115824
146	0xbe3b1da3	-0.18273024
147	0xbcb61ad1	-0.022229584
148	0xbe4efc65	-0.20213468
149	0x3dff0dd3	0.12453809
150	0x3dc31737	0.09525912
151	0x3cbbf52f	0.022944061
152	0xbd53aae7	-0.051676657
153	0x3c914e13	0.017737424
154	0x3de97572	0.11399354
155	0xbe13a883	-0.14419751
156	0xbd781d47	-0.060574796
157	0x3ce8db57	0.028424902
158	0xbd545dba	-0.051847197
159	0xbcc0dd8d	-0.023543144
160	0xbd50de4a	-0.05099324
161	0xbce3c01a	-0.027801562
162	0xbd9d48f7	-0.076799326
163	0x3e17f5bf	0.14839838
164	0x3d113982	0.035455234
165	0xbd84ccee	-0.064844
166	0x3c9f14d1	0.019419106
167	0x3cddd5c5	0.027079472
168	0xbdcb841e	-0.09937309
169	0x3e247bfc	0.16062921
170	0xbd885c41	-0.06658221
171	0xbd917595	-0.07102505
172	0xbdc8b43d	-0.09800003
173	0x3d9cdf5d	0.07659791
174	0xbd358215	-0.04431351
175	0xbda47d00	-0.08031654
176	0xbda1b8d7	-0.078965835
177	0x3db009c4	0.08595613
178	0x3da680fa	0.08130069
179	0xbdce7917	-0.1008169
180	0xbdd9481c	-0.10609457
181	0xbdaf01a1	-0.085452326
182	0x3dde5b81	0.10857297
183	0xbe49e3f7	-0.19715868
184	0xbdea64e2	-0.11445023
185	0x3e2cb64b	0.16866414
186	0x3e9d585e	0.3073148
187	0xbd06e46e	-0.03293269
188	0xbd80e3f9	-0.06293482
189	0x3c437261	0.0119291255
190	0x3c4186f8	0.011811964
191	0x3a8add90	0.0010594595
192	0x3d9b82b7	0.07593291
193	0xbc71da63	-0.01476154
194	0x3dc9b386	0.098486945
195	0x3dcd9bc1	0.10039473
196	0xbc53752e	-0.012906356
197	0x3d9d1800	0.07670593
198	0xbdda9b4e	-0.10674153
199	0x3dfeea5f	0.124470465
200	0xbda366d6	-0.07978599
201	0x3d469543	0.04848219
202	0xbe10ab53	-0.14127855
203	0xbd62cb88	-0.055369884
204	0x3c32167e	0.01086962
205	0x3bb4d659	0.0055187163
206	0x3d6c2cab	0.057659786
207	0x3d6eaeba	0.0582721
208	0xbe40b4ad	-0.18818922
209	0xbbccf3ac	-0.006254634
210	0x3d90e3ec	0.07074723
211	0x3cf8dc94	0.030378617
212	0x3b82d050	0.003992118
213	0x3c9c5a8f	0.01908615
214	0x3e547fb2	0.20751837
215	0xbca1956a	-0.019724566
216	0x3e041aec	0.12900895
217	0x3d3d9773	0.04628701
218	0x3d8b03ba	0.0678782
219	0x3d7919bb	0.060815554
220	0xbe39521e	-0.18097731
221	0x3a6b0c34	0.0008966357
222	0x3d426b5b	0.047465663
223	0xbd81e878	-0.06343168
224	0x3d379ce1	0.044827346
225	0x3df12472	0.117745295
226	0xbdb9b51b	-0.09067746
227	0x3d8fe675	0.07026378
228	0x3d4b924f	0.049700078
229	0x3d949b66	0.072562024
230	0x3d993215	0.074802555
231	0xbe5d365a	-0.21602765
232	0xbc1dec5d	-0.009638873
233	0x3b0fe1a2	0.0021954556
234	0xbdcca014	-0.0999147
235	0xbd2d77ab	-0.042350452
236	0x3bace7ab	0.0052766404
237	0x3d1b2921	0.03788102
238	0xbd766b52	-0.060160942
239	0x3cb1ae2f	0.021689503
240	0x3cc8a24c	0.024491452
241	0x3daab0c3	0.08334496
242	0xbd01b517	-0.03166684
243	0xbdde7e26	-0.10863905
244	0x3ccdb05f	0.025108514
245	0xbd808e4e	-0.062771425
246	0xbc7cdc1c	-0.015433338
247	0xbc37b413	-0.011212367
248	0x3d2d9c32	0.042385288
249	0xbd99464b	-0.074841104
250	0xbb7d2c12	-0.0038631004
251	0xbe63a5f7	-0.2223128
252	0x3b2d742c	0.002646695
253	0x39f85555	0.00047365823
254	0x3cb6590f	0.022259263
255	0x3e2235e6	0.15840873

network_body._body_endoder.seq_layers.2.bias f4 [128]
0	0x38d1fcb8	0.00010012969
1	0x3acf5429	0.0015817928
2	0x38f5e466	0.00011725053
3	0xba603e80	-0.0008554235
4	0xbab6bea2	-0.0013942311
5	0xb9f91c29	-0.00047513962
6	0x39431c08	0.00018607092
7	0x390779be	0.00012919956
8	0x3ac68db8	0.0015148437
9	0xba0b1088	-0.00053048925
10	0xb9c5afa2	-0.00037705625
11	0x3a71a85d	0.00092185085
12	0xba2bbb26	-0.00065510196
13	0xb9b34caa	-0.0003419866
14	0xb875a491	-5.8565816e-05
15	0xb97e65de	-0.00024261276
16	0x3a30cb9d	0.0006744208
17	0xb9987734	-0.00029080512
18	0xba12a57c	-0.0005594117
19	0x3b0cf163	0.0021506182
20	0x3b146df4	0.0022648545
21	0xbb43ca51	-0.0029875229
22	0xb9ca4d86	-0.00038586202
23	0x3b5b9920	0.0033508018
24	0x37c6d7e8	2.3703979e-05
25	0xb999418d	-0.00029231273
26	0xbac8f70d	-0.0015332416
27	0xba00245c	-0.00048882305
28	0x3b2dfbaf	0.002654772
29	0xb90cf318	-0.00013442
30	0x3a9bfae2	0.001190033
31	0xb9debd20	-0.0004248405
32	0x3a2d9ff3	0.00066232606
33	0x387f2307	6.082936e-05
34	0xba092e19	-0.00052330043
35	0xb9bdfd78	-0.00036237738
36	0xba5da9c7	-0.000845578
37	0xbb3c20a8	-0.0028705988
38	0x395299ea	0.00020084498
39	0x3b5b49c9	0.0033460727
40	0xbad4b98b	-0.0016229613
41	0x38b93859	8.831983e-05
42	0xba39d577	-0.00070889987
43	0xb9bde291	-0.00036217694
44	0x3a5007f3	0.0007935755
45	0x3bab1f80	0.005222261
46	0x39199b1d	0.00014649001
47	0x38948590	7.082068e-05
48	0x3b4f0f80	0.0031594932
49	0x39ff25f5	0.0004866567
50	0xba251b71	-0.00062983396
51	0xb9f95df3	-0.0004756298
52	0x39806d8c	0.0002449568
53	0xb8e136e6	-0.00010739062
54	0xba048ac7	-0.000505608
55	0x3998037d	0.00028994298
56	0x39631ff4	0.0002166031
57	0xba5ab074	-0.00083423336
58	0xb981b587	-0.00024740046
59	0xba49f939	-0.00077046786
60	0xbb0a298f	-0.00210819
61	0xba5b5fe9	-0.0008368479
62	0x38a7996e	7.991759e-05
63	0x3a5cbde9	0.0008420633
64	0xba740f8e	-0.0009310179
65	0xba2f6225	-0.0006690345
66	0xb9958cf3	-0.0002852451
67	0x3b3e8a6f	0.0029074212
68	0xb97eea1c	-0.0002431054
69	0x3a4d6916	0.00078357884
70	0x399ba261	0.00029684886
71	0x38bc4d51	8.97894e-05
72	0xb9a34a5f	-0.00031145193
73	0x3910a1c2	0.0001379317
74	0x3a570fbb	0.0008203943
75	0x3ac483b4	0.0014992864
76	0x39972ca4	0.00028834224
77	0x38ed2f35	0.00011309834
78	0xba12267c	-0.00055751926
79	0xb9bcaa7b	-0.00035985172
80	0x398fab6c	0.00027402805
81	0xbb222a08	-0.002474429
82	0x399efb4e	0.00030323345
83	0xb8d7a77f	-0.000102831975
84	0xb93731d9	-0.0001747081
85	0xbaa5e964	-0.0012658057
86	0xb9c970bb	-0.00038421698
87	0xbb92641d	-0.004467501
88	0xba87416f	-0.0010319183
89	0xb9c23c5c	-0.00037047535
90	0x39e170c0	0.0004299935
91	0xb927691b	-0.00015965516
92	0x397262e5	0.0002311576
93	0x398c04ec	0.00026706548
94	0xbb69b4c2	-0.0035660719
95	0xb88d1397	-6.727053e-05
96	0x3ba21b2c	0.004947087
97	0xb984f476	-0.0002535914
98	0x3869281f	5.5588895e-05
99	0xba1edefa	-0.0006060448
100	0x388302d0	6.247091e-05
101	0xb9b42761	-0.00034361615
102	0xb9a600c2	-0.00031662552
103	0xb7dd739a	-2.6399084e-05
104	0x3a30ac11	0.0006739507
105	0xbb442b69	-0.00299331
106	0xba08329e	-0.0005195531
107	0x3b368a7e	0.0027853544
108	0xba12c7ff	-0.000559926
109	0xbadabda4	-0.0016688597
110	0xbb230db8	-0.0024880003
111	0x3999c853	0.00029331687
112	0xb9212c07	-0.00015370558
113	0x39a0e199	0.00030685661
114	0xba1e39b1	-0.00060358184
115	0x3aa5f547	0.0012661599
116	0x39da53a5	0.0004164252
117	0xb884c77e	-6.331409e-05
118	0xb9e69400	-0.00043979287
119	0x3a0f7a93	0.0005473282
120	0x389b8c0f	7.417064e-05
121	0xbb51f413	-0.0032036349
122	0xb96e84e1	-0.0002274695
123	0xb9d85a74	-0.00041266123
124	0xbae3e2ad	-0.001738628
125	0x398a7619	0.000264094
126	0xbb076393	-0.0020658716
127	0xb845db5c	-4.7172754e-05

action_model._continuous_distribution.log_sigma f4 [1, 2]
0	0x3b8ba126	0.0042611538
1	0x3bbd87c5	0.0057840073

action_model._continuous_distribution.mu.weight f4 [2, 128]
0	0x3ccc62e1	0.024949493
1	0x3c199bfd	0.009375569
2	0xbbe4b9b5	-0.006980146
3	0x3b8a4c89	0.0042205495
4	0x3ce36bc3	0.027761346
5	0x3ce3acf3	0.02779243
6	0x3c847143	0.016167289
7	0xbc45b7b7	-0.012067727
8	0xbd111569	-0.03542081
9	0xbb03f864	-0.0020137066
10	0x3ba8a2c7	0.0051463577
11	0x3c47e5cc	0.012200784
12	0xbc852e1c	-0.016257338
13	0xbd3badff	-0.045820232
14	0xbc401c69	-0.0117255235
15	0x3c80ab46	0.01570667
16	0x3af60458	0.0018769605
17	0x3d237218	0.03990373
18	0xba31a74e	-0.00067769445
19	0xbc11aba4	-0.00889102
20	0x3c65489c	0.013994362
21	0xbc546730	-0.012964055
22	0xba8de1cb	-0.0010824738
23	0xbba7fc99	-0.0051265475
24	0xbc7e8cef	-0.015536531
25	0x3bc306c2	0.0059517333
26	0xbb8303fc	-0.0039982777
27	0x3c7149a6	0.014727032
28	0x3c8a029b	0.016846946
29	0xbd055b25	-0.032557625
30	0xbbb054f2	-0.00538122
31	0xbbcbf080	-0.006223738
32	0xbbe7f05f	-0.007078215
33	0x3c07eb00	0.008295774
34	0x3c6599af	0.014013692
35	0xbd2baa8c	-0.041910693
36	0xbb86e176	-0.0041162325
37	0x3c8549be	0.016270515
38	0x3b5618bf	0.0032668558
39	0xbc966878	-0.018360361
40	0x3d0dc07a	0.034607388
41	0xbbe702c3	-0.00704989
42	0xbc49d64d	-0.01231916
43	0xbb9c03da	-0.0047612013
44	0xbc19c200	-0.009384632
45	0xbc973188	-0.018456236
46	0xbb301936	-0.0026870496
47	0xba9e33d8	-0.0012069894
48	0xbc14ac17	-0.009074233
49	0x3caf1da3	0.021376437
50	0xbc3e9186	-0.011631375
51	0x3b844ffa	0.0040378543
52	0x3c21bdf3	0.009871948
53	0xbc5b45ad	-0.013383311
54	0x3ca1b6b1	0.019740434
55	0x3ab7c3af	0.001402011
56	0x3ad1ab2a	0.0015996445
57	0x3d6dd526	0.058064602
58	0x3cebcf5d	0.028785402
59	0xbbe4a928	-0.006978173
60	0xbc47c488	-0.012192853
61	0x3bfcc6ba	0.0077141197
62	0x3bef25c3	0.0072982027
63	0x3c93d12e	0.01804408
64	0x3c21baa8	0.0098711625
65	0xbbcb7d6a	-0.006210019
66	0x3b14928f	0.0022670364
67	0x3a3b475c	0.0007144117
68	0x3b6144c0	0.0034373254
69	0xbb4f9d13	-0.0031679317
70	0x3c167eac	0.009185474
71	0xbbd8bfcc	-0.006614661
72	0x3b3b7df3	0.0028609007
73	0xbaff5efd	-0.0019483265
74	0x3c1d8582	0.00961435
75	0x3cb4be1f	0.022063313
76	0x3c1459ad	0.0090545835
77	0xbbf1cbdc	-0.0073790383
78	0xbcc4654f	-0.023974089
79	0x3c463e33	0.01209979
80	0x3bc20357	0.0059208083
81	0x3c9db7ab	0.019252619
82	0x3b3ee08a	0.0029125535
83	0x3a053009	0.0005080705
84	0x3d2d4553	0.04230244
85	0x3cb4dc82	0.022077803
86	0xbc84830b	-0.016175767
87	0x3a133be4	0.00056165294
88	0x3bf61414	0.0075097177
89	0x3c1d6fcc	0.009609174
90	0x3c08ff9f	0.008361726
91	0xbd250b4c	-0.040293977
92	0x3b4ba057	0.0031070912
93	0x3c0dcd06	0.008654838
94	0xbd0f248c	-0.034946963
95	0x3c1fcd2e	0.0097535085
96	0x3b8dca04	0.0043270607
97	0x3cdec7e0	0.027194917
98	0xbc98d215	-0.018654862
99	0xbbaef08b	-0.0053387336
100	0x3c8f2b8a	0.017476816
101	0x3beefda9	0.0072934222
102	0x3cbaa42b	0.02278336
103	0xbce945bb	-0.028475633
104	0x3c539100	0.012912989
105	0x3bc9985e	0.006152197
106	0x3cfb368a	0.030665655
107	0xbc2c3c2f	-0.010512396
108	0xbca81e19	-0.020522164
109	0x3bddf3c3	0.0067734434
110	0xbb1cd653	-0.0023931458
111	0x3c8722b4	0.01649604
112	0xbc29d61c	-0.010365989
113	0xbc9efdb0	-0.019408077
114	0xbc2dbbe7	-0.010603881
115	0x3b7b70b9	0.0038366748
116	0x3c992033	0.018692112
117	0xbd05af26	-0.032637738
118	0xbcd6c022	-0.026214663
119	0xbcfda117	-0.030960603
120	0x3cdd9e79	0.027053105
121	0x3b9e4332	0.0048297876
122	0x3bf5d141	0.0075017517
123	0xbcb5eec5	-0.02220858
124	0x3ba18810	0.00492955
125	0x3bff493c	0.0077907126
126	0x3c645432	0.013936089
127	0xbd03c04b	-0.032165807
128	0xbb03f82b	-0.0020136933
129	0x3c8a5e4b	0.016890666
130	0x3ca1d11b	0.01975303
131	0x3cc132e6	0.02358384
132	0xbd181bdf	-0.037135955
133	0xbbbfc4ca	-0.0058523165
134	0xb8839db1	-6.275939e-05
135	0xbd0444c7	-0.032292154
136	0x3c50af47	0.012737102
137	0xbb9f8b22	-0.004868881
138	0x3c16a899	0.00919547
139	0x3d21700f	0.039413508
140	0xbb6f495c	-0.0036512231
141	0x3c9296ec	0.01789423
142	0x3c60296a	0.013681749
143	0xbc559515	-0.013036032
144	0xbc32922c	-0.010899108
145	0xbb8d3b68	-0.0043100603
146	0xbc50b5fc	-0.012738701
147	0x3c430372	0.011902677
148	0xbc9199b6	-0.01777349
149	0xbc3ba16e	-0.011452062
150	0xbc17e4e4	-0.00927088
151	0x3c25d689	0.01012195
152	0x3c89eb28	0.016835764
153	0xbc3c01ae	-0.01147501
154	0xbc103b4b	-0.008803199
155	0x3c9ae043	0.018905764
156	0x3cacc89e	0.021091755
157	0xbaa24b85	-0.0012382126
158	0xbd3354b1	-0.04378194
159	0xbc9783d4	-0.018495478
160	0x3c4e6283	0.012596729
161	0x3cb47002	0.022026066
162	0xbc19e94a	-0.009393999
163	0xbc97597d	-0.018475289
164	0x3c3e3961	0.01161036
165	0x3cc9316e	0.024559703
166	0x3c2581da	0.01010176
167	0x3d14ffd6	0.036376797
168	0xbcf8ee5c	-0.030387096
169	0x3cbc3530	0.02297458
170	0xbbdfecbd	-0.0068336413
171	0xbceb3796	-0.028713029
172	0xbc622268	-0.013802148
173	0xbbf0c6ff	-0.007347941
174	0x3c48b6ee	0.012250645
175	0xbca26736	-0.019824605
176	0xbc948df4	-0.018134095
177	0x3d314952	0.043282814
178	0x3a8ef64f	0.0010907146
179	0xbc2773c4	-0.010220472
180	0x3beeaaeb	0.0072835586
181	0x3c341948	0.010992356
182	0x3d1acb14	0.037791327
183	0x3ca291a9	0.019844847
184	0xbd325efb	-0.04354761
185	0x3c19ff54	0.009399254
186	0x3c08b7a6	0.008344566
187	0x3aa04f54	0.0012230673
188	0x3c42b4dc	0.011883941
189	0xbc06d023	-0.008228335
190	0xbb906923	-0.0044070645
191	0xbc7b22c7	-0.015328116
192	0x3a9669c9	0.0011475618
193	0xbb1f0771	-0.002426591
194	0xbc85add8	-0.016318247
195	0xb92eb275	-0.00016660414
196	0xbcce92d2	-0.025216494
197	0xbbc3a4e2	-0.0059705833
198	0x3cfb15a9	0.030649977
199	0x3d299ead	0.04141109
200	0xbc6bc8a5	-0.014391099
201	0x3c5fd545	0.013661687
202	0x3c01434f	0.007889583
203	0x3c480cf7	0.012210122
204	0x3bfb3655	0.007666389
205	0xbc65d508	-0.014027841
206	0xbb05bb19	-0.0020405708
207	0x3c02396a	0.007948259
208	0xb9bb570a	-0.0003573227
209	0xbc930f70	-0.017951697
210	0x3b840bfe	0.00402975
211	0xbc6160e6	-0.013756013
212	0x3c8c8e46	0.017157685
213	0xbceaed48	-0.028677598
214	0x3abac4ff	0.0014249383
215	0x3c3a96bd	0.011388478
216	0x3acf6e7d	0.0015825775
217	0x3d04341a	0.03227625
218	0x3bf5b822	0.007498757
219	0x3ac55e6e	0.001505805
220	0x3c975ff6	0.018478375
221	0x3bb9871c	0.0056618582
222	0xbbfc124a	-0.00769261
223	0xbc08b037	-0.008342794
224	0xbcf7053b	-0.030153861
225	0xbc88932e	-0.016671743
226	0x3cd97bb1	0.026548238
227	0x38ff9dbe	0.00012188729
228	0xbc3bb5ac	-0.011456888
229	0x3a3c1c59	0.0007175855
230	0x3c7a447d	0.015275118
231	0x3d2117bb	0.03932927
232	0xbc3c5957	-0.01149591
233	0x3c000058	0.007812582
234	0xbc7c230d	-0.015389216
235	0x3c10d41e	0.008839635
236	0x3a730d96	0.0009271739
237	0xbce70fa7	-0.028205706
238	0xbb15eda2	-0.0022877236
239	0xbc36614f	-0.011131599
240	0xba844080	-0.0010090023
241	0x3c07d085	0.008289461
242	0x3bc5afd6	0.006032924
243	0xbd32d005	-0.043655414
244	0x3c3dce99	0.011584901
245	0xb9a239c6	-0.00030942092
246	0xbc977e12	-0.018492732
247	0x3c2466cf	0.010034277
248	0xbc993b94	-0.018705167
249	0xbcae1c98	-0.021253869
250	0xbcc0f54f	-0.023554472
251	0xbcaa88a9	-0.020817118
252	0x3cee5950	0.029095322
253	0x3d05cf3c	0.032668337
254	0x3c3aab36	0.011393359
255	0x3cecfa8b	0.028928062

action_model._continuous_distribution.mu.bias f4 [2]
0	0xb79c4e97	-1.8633245e-05
1	0x3982fad4	0.00024982414
