results/test_5/Boss/Boss-499940.pt (torch, 445345 bytes, 36 tensors)

network_body._body_endoder.seq_layers.0.weight f4 [128, 7]
000000 87 af c6 3e bf 2f 83 bf c4 ab 90 3e 07 a2 9c be
       0.38805792 -1.0248946 0.28256047 -0.30592367
000010 89 cc ff 3e d7 dc d9 3e 8d 28 8f bd 8d 46 ff be
       0.49960735 0.425513 -0.06990156 -0.49858513
000020 fb c1 fc be fd 3d 01 be bb 03 9b 3c f0 ec 0a 3e
       -0.49366745 -0.12621303 0.018922677 0.13566947
000030 81 35 92 3e 31 2b b8 be c9 97 00 3f aa 8e e4 3d
       0.28556445 -0.35970452 0.50231606 0.111600235
000040 18 7c b4 be f3 c2 8d 3d ab 38 2c 3f d8 e5 60 be
       -0.35250926 0.06921949 0.6727397 -0.21962678
000050 fe 9b 45 3d 52 df 7c 3e 6d 9d 1a 3f e4 4e f9 bd
       0.04824447 0.24694565 0.6039646 -0.1217325
000060 1a 61 38 3d 49 43 24 3f b8 7c 18 3f fa 9e b7 3e
       0.04501448 0.6416517 0.59565306 0.35863477
000070 1d 92 be 3d 68 46 18 be 11 29 81 3e 02 1f 38 3f
       0.09305213 -0.14870608 0.25226644 0.71922314
000080 96 89 b0 3e 90 f4 4e 3e fa a5 1c 3f c5 f6 0a 3f
       0.3447997 0.2021048 0.6119076 0.5428279
000090 41 d8 02 bf 4b 0a 00 3f b4 cf 8b 3e 47 81 fd bd
       -0.5111123 0.50015706 0.27306902 -0.12378173
0000a0 09 6a 50 bf 94 cc 1c 3e 80 e7 97 bd d5 7f 25 be
       -0.81411797 0.15312415 -0.07417202 -0.16162045
0000b0 f8 41 86 be 0f 4e b5 be 8a 87 f6 be a3 bc ac be
       -0.26222205 -0.35411116 -0.48150283 -0.33737668
0000c0 e8 77 0c 3e e1 4d 8e 3e 36 06 b3 bd 1b 02 7c 3d
       0.13717616 0.27793792 -0.08741419 0.061525445
0000d0 cc 7e 39 be 56 d3 ec 3e c8 a8 79 be 5b 8e 76 bd
       -0.18114775 0.46254987 -0.24380791 -0.060194355
0000e0 ed 35 08 3f 5a 42 ed 3e 9a 88 9d 3e fd 82 68 3e
       0.53207284 0.46339685 0.3076828 0.22706218
0000f0 d2 ea 3f be 6e 4a e0 bc 86 67 cd 3e e3 96 b8 bc
       -0.1874192 -0.02737924 0.40118045 -0.022532886
000100 5e f0 0c be 61 45 45 be e9 13 d8 be 04 18 bd 3d
       -0.13763568 -0.19264747 -0.4220269 0.09233096
000110 3b f5 16 bd 14 53 56 3f 9a a4 67 be 73 09 91 be
       -0.036854964 0.8372052 -0.22621384 -0.28327522
000120 c9 f5 f6 3d 79 a0 91 be a5 bf 99 be df 14 d0 3e
       0.120585985 -0.28442743 -0.30029026 0.40640923
000130 28 42 47 3f 42 2e c2 3e 0f 4f 06 bf 77 f2 1f 3e
       0.7783532 0.37925917 -0.52464384 0.15619837
000140 1c 45 94 3e 51 7e d0 be 28 95 7d be 4a 13 5f be
       0.28958976 -0.40721372 -0.2476393 -0.21784702
000150 f7 3c 8c 3e 8b 9c 82 bd c4 e9 e4 bd e8 2e 34 3e
       0.27390262 -0.063775145 -0.111774 0.17596018
000160 3d eb 06 be 26 de b3 3d a8 47 16 be c3 ab 0f bf
       -0.13175674 0.08782606 -0.14675772 -0.5612146
000170 a8 1a 3c be 23 b5 eb 3d 58 7a b8 be 78 d2 0c 3e
       -0.18369544 0.115091585 -0.3603084 0.13752162
000180 01 08 f1 bd 73 91 77 3f 8c 92 be be 90 a9 4a 3e
       -0.11769105 0.9670631 -0.3722118 0.19791245
000190 11 85 47 3e 0c 4f 00 3f 0e 67 11 3f c1 95 ab bf
       0.19484355 0.50120616 0.56797874 -1.3405076
0001a0 f6 ae d9 bc 06 9d 3d be ed 5a 0d be 9b 30 5e 3f
       -0.026572686 -0.18516931 -0.13804217 0.86792916
0001b0 12 96 99 be e7 16 c9 3d bd f2 ae 3e 23 b5 8d 3f
       -0.29997307 0.098188214 0.3416957 1.1070904
0001c0 ee 93 81 3e 29 50 b1 bd a7 d4 d2 be b0 9e 9d 3e
       0.25308174 -0.086578675 -0.41177866 0.3078513
0001d0 75 91 0a 3e b3 08 15 3f 22 0e b1 3e 3b c5 79 be
       0.1353205 0.582164 0.34581095 -0.24391644
0001e0 fd f3 30 3e 86 e2 15 3f f0 a5 e4 3e 7d 7a 91 be
       0.17280574 0.5854877 0.4465785 -0.28413764
0001f0 d2 e1 44 3d f5 c4 b0 3e 04 11 ce 3e f6 c2 6f ba
       0.04806692 0.34525266 0.40247357 -0.0009146178
000200 9c b1 d2 be 88 98 db 3d 3f 4d e3 bc 0e 8b 5f 3d
       -0.4115113 0.107224524 -0.027746795 0.054575972
000210 b0 51 29 3f bc 52 0b bf 46 ba 1e be cc e8 5f 3e
       0.6614027 -0.5442312 -0.15500745 0.21866149
000220 ee 12 c7 3e b5 df e1 be d6 14 cd bd ab 2b b3 be
       0.3888163 -0.44115987 -0.1001374 -0.34994254
000230 85 ae b6 3e af 30 e0 bd 8e 90 78 be 66 0e ce bd
       0.35680023 -0.10946786 -0.24273893 -0.1006134
000240 5c e8 ca 3d 4a f0 a6 3d a0 75 ef be 0a 67 3a 3f
       0.099076 0.081513 -0.46769428 0.72813475
000250 ec c4 c7 3e 47 cc 27 3e f1 c9 41 3e 19 d9 44 bf
       0.39017427 0.1638652 0.18924691 -0.76893765
000260 66 19 6f bd d6 b8 56 be f5 e9 d5 be 70 2e e4 3e
       -0.05837383 -0.20968947 -0.41780058 0.4456668
000270 76 a6 fe bd 7d 77 3c bf 4d 4c 39 bd f8 72 dc be
       -0.12434094 -0.73619825 -0.04523878 -0.43056464
000280 14 93 e5 3d fe ac ae 3d 82 06 e3 3d be da 1c be
       0.112096936 0.085290894 0.11085226 -0.15317819
000290 11 55 a4 be 13 90 a9 3e 97 8c 25 be 95 68 8d 3d
       -0.3209615 0.33117732 -0.16166912 0.06904713
0002a0 3f e8 d9 bd 7a cc 6c 3e a1 b7 a6 be 8f dc 7f 3d
       -0.106400006 0.23124877 -0.32561973 0.0624662
0002b0 9d 7b ad be c7 f5 19 be 35 f4 83 3e 4a 1d 8b be
       -0.33883372 -0.15035163 0.25772253 -0.27170783
0002c0 fb 2f cf be 46 8c 5d 3e 76 0c 4d bd 7c b5 1c bf
       -0.40466294 0.21635541 -0.05006071 -0.61214423
0002d0 a9 d4 63 3e c0 02 01 3e 5d 93 0b 3e 83 f2 0c 3f
       0.22249092 0.12598705 0.13630433 0.55057544
0002e0 3c bf 6e 3e 6d a5 37 bc 74 08 15 3d 99 2b e4 3e
       0.23315138 -0.011208874 0.036385015 0.44564512
0002f0 30 a8 fb 3d 6b 55 c4 3c 28 35 94 3e 82 e9 da bd
       0.122879386 0.023966512 0.28946805 -0.10689069
000300 96 1f 57 3f a2 43 5a bf 28 cf b4 3e 61 67 48 bf
       0.8403257 -0.8525945 0.35314298 -0.78282744
000310 93 d5 38 3f 55 ff e2 be 47 07 e7 3e e5 46 cb 3e
       0.7220089 -0.44335428 0.4512274 0.39702526
000320 83 7e fc 3d 16 69 85 3e a3 b9 cf 3d 1b 4b 97 be
       0.12328818 0.26056737 0.10142829 -0.29549488
000330 2d 01 6a bc 45 0f 8a be f7 eb dd 3e 4e dc 19 be
       -0.014282507 -0.26964775 0.4334409 -0.15025446
000340 ab 3e e0 3c e8 a4 88 be 33 02 69 be 6e 53 52 be
       0.027373632 -0.26688313 -0.22754745 -0.20539638
000350 ba b8 a3 3d 92 06 09 be 60 d3 11 be 19 31 22 3e
       0.07994218 -0.13381413 -0.1424079 0.15839042
000360 1c b9 bc be 25 9f 04 3f fe 53 df be f8 a0 34 3e
       -0.36859977 0.51805335 -0.43618768 0.1763953
000370 85 30 03 3f e2 e7 8f 3e 44 54 9d 3e d1 ab e1 3e
       0.5124591 0.281066 0.30728352 0.44076398
000380 47 97 01 3f dc e6 c5 3d b4 4d 2d 3f 73 5e c5 be
       0.50621456 0.096631736 0.6769669 -0.38548622
000390 64 df b7 3b e5 ea f2 be b0 aa f7 be 33 1e 16 be
       0.005611347 -0.47444835 -0.48372412 -0.14659958
0003a0 d6 87 15 bf 10 4d 2b 3d 65 de 1e bf ab 2a 8e 3d
       -0.58410394 0.04182154 -0.620581 0.06941732
0003b0 76 65 3b be 9c 30 d0 3d 0a 62 f9 be 72 c0 ef 3c
       -0.18300423 0.101655215 -0.4870761 0.02926657
0003c0 6a 2f 86 bb 88 4b 08 bf d2 ea 93 bd d2 85 05 3d
       -0.0040950077 -0.5324025 -0.07222523 0.032598324
0003d0 a8 d6 25 3f 7f 7d f2 be 8f 12 0b 3f 46 be 38 be
       0.64780664 -0.4736137 0.54325193 -0.18041334
0003e0 45 24 92 3d 6f 94 63 be 1d 86 b5 3e 10 1d e3 3e
       0.07135824 -0.22224592 0.35453883 0.4435811
0003f0 e7 db 21 bd eb d0 9a 3c 8b 8c ca 3d 60 2a 5f 3e
       -0.039516356 0.018898448 0.09890088 0.21793509

network_body._body_endoder.seq_layers.0.bias f4 [128]
000000 53 c3 47 3b aa 25 7b 3c e3 3a 1e bb 86 c1 b8 bb
       0.0030481413 0.015328804 -0.0024143986 -0.005638304
000010 7b e4 02 bc 49 00 b6 b9 51 f5 08 3c e9 43 46 b7
       -0.007989044 -0.00034713958 0.008359269 -1.1817531e-05
000020 d1 3a f2 bb e4 ad ec 3c 8b 93 da 3c c0 f7 a5 bb
       -0.0073922654 0.028891511 0.026681682 -0.0050649345
000030 4e 1a 97 bb fa b9 6b 3d e9 9a 9f bb c5 37 3f 3d
       -0.00461129 0.057550408 -0.0048707617 0.046684045
000040 d6 70 5a bb 7b 59 92 3b ee eb f8 ba 97 bf a4 3c
       -0.0033331416 0.0044662333 -0.0018991211 0.020110888
000050 8a 7c 77 bc 80 38 0a bb a0 01 18 bc d7 ba b6 3b
       -0.015105376 -0.0021090806 -0.009277731 0.0055764723
000060 0a 66 94 bc b5 c4 d4 bb d2 45 a6 3b 5a 31 2d 3b
       -0.018115062 -0.006493176 0.005074241 0.002642712
000070 6d 87 c9 bb a4 1f 0f ba 96 c9 8f bb 0c 2a c9 ba
       -0.006150177 -0.0005459732 -0.0043880446 -0.0015347614
000080 82 0b a0 3b c5 55 5a 3c 0f 7a 75 3c 97 5b ad 3b
       0.0048841843 0.013326113 0.014982714 0.0052904594
000090 c8 af c3 39 6e 43 b5 3c 22 e9 fd bb f0 78 49 ba
       0.00037324266 0.02212688 -0.007748739 -0.00076855626
0000a0 5e 45 88 b9 62 1a 73 ba e9 33 bd bb 59 4a bc bb
       -0.00025991624 -0.00092736457 -0.0057740104 -0.0057461676
0000b0 28 2a 17 3c b8 26 98 3c 75 2b 1b bc 1c 6d 18 bc
       0.009226359 0.01857315 -0.00947081 -0.009303357
0000c0 96 2a 85 3b 02 b0 a4 bb 25 57 dc 3b 1c d2 ee ba
       0.0040639145 -0.0050258646 0.0067242556 -0.0018220576
0000d0 a8 e9 08 bc d8 7d 54 ba b3 3a 1a 3b 66 c8 50 ba
       -0.008356489 -0.00081059104 0.0023533523 -0.0007964432
0000e0 4b 89 d3 3c 92 ce 30 3c 5d 16 62 bb c3 8d 7d 3b
       0.025822302 0.010791438 -0.0034498193 0.0038689233
0000f0 78 09 e8 bb e8 19 40 bb 46 ec 7e 3d 00 d2 4e bb
       -0.007081207 -0.0029312316 0.062237047 -0.0031558275
000100 c7 f0 c8 3a 96 81 57 3c e3 32 52 3b 0e 8c 5e ba
       0.0015330546 0.013153454 0.0032073788 -0.00084894977
000110 f3 95 93 3c 24 06 90 3b 54 e0 27 bb 78 f3 a1 3b
       0.018015837 0.0043952633 -0.0025615888 0.004942354
000120 bf 72 1d 3b 05 6c 2d 3b 84 f2 89 bb f6 83 c4 bb
       0.0024024693 0.002646209 -0.0042098183 -0.0059971763
000130 1f b5 4f ba af a1 10 bc 2a ef d9 bb 77 6a 92 bb
       -0.00079234125 -0.008827611 -0.006650825 -0.004468258
000140 47 b1 50 b6 65 2a 86 bb ec 3d 77 3b f4 da a5 bb
       -3.1097604e-06 -0.0040944093 0.0037726117 -0.0050615016
000150 e7 c9 46 3b 47 0f b4 3a b6 51 16 3d 49 7b d7 3a
       0.0030332746 0.0013737463 0.03669902 0.001643994
000160 a9 7a d1 ba 07 c1 ca 3a b2 c3 39 bb c1 44 ef ba
       -0.001598199 0.0015468904 -0.0028345403 -0.0018254743
000170 7d fa a0 ba 70 89 69 bb d2 47 9e b9 d6 ea f6 bb
       -0.0012281683 -0.0035634898 -0.0003018962 -0.007535319
000180 f7 a2 21 3b bd 94 c1 bb c1 b4 6f 3a 7d c8 fb bb
       0.0024663785 -0.0059076236 0.0009144061 -0.007683812
000190 55 96 b4 bb 20 a1 15 bc bb 81 d0 3a d1 4c 8b bb
       -0.005511085 -0.0091326535 0.0015907803 -0.0042511006
0001a0 1e 4b ec bb 19 20 0d 3b 0a 9a cb 3a 12 43 93 bb
       -0.007211103 0.0021534024 0.0015533578 -0.0044940794
0001b0 63 ee da 3a 3b 91 dc 3a 8f 39 e2 bb a5 77 9a 3b
       0.0016703125 0.001682795 -0.006903834 0.00471397
0001c0 7c 7b ff 3b 83 23 c3 3b b4 51 70 3a ef a3 d6 3c
       0.007796703 0.005955161 0.0009167448 0.026201217
0001d0 b7 fd 1a b8 cc 89 64 3c 6a 1c 84 bc e1 ff 21 bb
       -3.695275e-05 0.013948869 -0.01612683 -0.0024719166
0001e0 a0 13 27 bb 5b 96 a4 3b 24 fc d5 ba 09 47 99 3c
       -0.0025493875 0.0050228066 -0.0016325754 0.01871063
0001f0 04 22 93 3a a0 81 de 3b 42 d0 95 3c 8e 91 d8 3a
       0.0011225347 0.006790355 0.018287782 0.0016522871

network_body._body_endoder.seq_layers.2.weight f4 [128, 128]
000000 3f 36 76 3d 99 69 97 bd 7a 94 d9 3d d3 2d ae bb
       0.060110327 -0.07393188 0.10624023 -0.0053155213
000010 6b 62 02 3e 0e 3a f8 3d cd 7a 45 3e 42 6c 48 3c
       0.12732856 0.12120448 0.19285126 0.012232842
000020 4a b9 98 bc a6 23 ab bc db 52 93 3d f3 c2 10 be
       -0.01864304 -0.020891022 0.07193538 -0.14136867
000030 5f b9 03 3c 50 5d 63 bd 2f 75 cd 3d 2a a8 88 bc
       0.008039801 -0.05550891 0.100321166 -0.01668175
000040 56 6e b5 3d e4 72 1a be 91 57 54 bd d6 74 b7 bd
       0.088589355 -0.1508289 -0.051841322 -0.089578316
000050 fd 64 90 bd 33 77 10 3c f9 af 5e 3e 6b fe 37 bd
       -0.07050512 0.008817482 0.21746816 -0.044920366
000060 e3 7a 9b bd 36 83 dd 3c d5 cb 98 bd 4e a4 9f bd
       -0.07591798 0.027040105 -0.07460753 -0.077950105
000070 2b 35 2f 3d 66 fe 55 3d 9c 30 8a 3d 3c 3c 8f bd
       0.042775314 0.052244566 0.06747553 -0.06993911
000080 1d 62 99 3d db 65 2e 3e d5 e0 0e 3d 5e 28 a3 3d
       0.07489417 0.17031042 0.034882385 0.07966684
000090 6a ab d4 3d 1a 21 b0 3d f7 12 0e 3d 47 75 88 bd
       0.10384257 0.086000636 0.034686055 -0.06662994
0000a0 86 e6 9a bd 51 7c 31 bc 2f 6f 0e 3d 54 a9 38 bd
       -0.075635 -0.010832862 0.034774 -0.04508336
0000b0 75 90 bb 3b e9 1e b8 3b 16 03 29 3c 94 c4 d7 bd
       0.0057240077 0.005618919 0.010315677 -0.10535541
0000c0 ee 9a 19 3c 3f 36 a0 bd 29 19 4f bd ae 2f 2b 3e
       0.009375317 -0.078228466 -0.050561104 0.16717407
0000d0 8f 9e 32 be 25 cd b3 3d 78 f5 e9 3d 0d 33 4c 3d
       -0.17443298 0.087793626 0.114237726 0.049853373
0000e0 cc 4d fa bc 23 03 04 be a5 28 07 3d 30 e0 3f bc
       -0.030554675 -0.12891822 0.032997746 -0.011711165
0000f0 c8 47 e3 bc fa 6e 76 3d 97 c7 83 3d b6 a3 51 be
       -0.027744189 0.06016443 0.06434553 -0.20472607
000100 68 b1 37 bd 74 8f 61 3e 59 c6 91 3d d6 a8 83 bd
       -0.044846922 0.2202738 0.0711791 -0.06428687
000110 83 0d bc bd 8a 39 8a 3d cf 7f ba bd 22 13 f3 3c
       -0.09182265 0.06749256 -0.09106409 0.02967221
000120 02 72 0a be 7f 4b c0 bb 96 16 35 3d df 2e 50 bd
       -0.13520053 -0.005868375 0.044210993 -0.05082595
000130 ba 90 dd 3a d2 3c 7d bd e2 1a 24 be ab 52 b4 3d
       0.0016904094 -0.06182558 -0.1602588 0.0880483
000140 29 a0 8a bd 53 29 0f bd ce c2 14 be ea f6 af 3d
       -0.067688294 -0.03495152 -0.14527437 0.08592017
000150 40 cf 05 3e 5b 3f 92 bd 21 0a 29 3c 21 84 86 bc
       0.13067341 -0.0714099 0.010317356 -0.016420426
000160 9b ad de bd cc b9 40 3b 0b cb 25 bd 8f 28 db 3d
       -0.10872956 0.0029407619 -0.04047684 0.10701095
000170 22 e3 33 bd 20 33 28 3c 59 fe be 3c c7 c8 06 3c
       -0.043917783 0.010266095 0.023314642 0.00822658
000180 52 ef 03 bd 1c eb 9b 3d 44 29 d7 bd c7 2d dc bc
       -0.032210656 0.07613203 -0.10505918 -0.026877297
000190 1a 4f 94 3d ec 0a c3 bd 6d 8c 06 3e 6e 49 f4 3c
       0.0724165 -0.095235676 0.13139506 0.02982017
0001a0 b7 91 87 bc 24 66 f9 bc 17 2a 27 bd e0 d8 4e bd
       -0.016548974 -0.030444212 -0.040811624 -0.050499797
0001b0 e3 53 66 bd fa f4 37 bd 43 4e 51 be 49 17 dd 3d
       -0.056232344 -0.044911362 -0.2044001 0.10795457
0001c0 45 b6 20 3d 58 f3 a8 bb a6 95 8c bd 15 55 ee 3b
       0.039236326 -0.005155962 -0.06864481 0.007273326
0001d0 1f 2c f8 bd c4 ba 3e 3d 13 df 82 3e bd 3b 07 be
       -0.121177904 0.046564832 0.25560817 -0.13206382
0001e0 10 d2 67 bc 2e d2 9c 3d 5b 07 53 bd bd fd 3d 3e
       -0.014149204 0.07657276 -0.051520687 0.18553825
0001f0 de 1a d6 bd 56 08 4f be a1 13 19 3e 17 3a 37 be
       -0.10454343 -0.20218024 0.14948894 -0.17893253
000200 f7 3b 83 bd f2 3b 12 3d 57 98 9a bd 28 3f 01 3d
       -0.06407922 0.0357017 -0.07548588 0.03155437
000210 c0 8a b5 bd 34 0d a2 3c bc 64 1f 3d 4d d8 07 bd
       -0.08864355 0.019781686 0.038914427 -0.033165265
000220 83 55 1c 3e 2e f7 05 3d a3 b3 6b bd 69 84 5a 3c
       0.15266995 0.032706432 -0.05754436 0.013337233
000230 7b 82 88 3c 4c d9 a1 3d cb 19 e1 bd 66 71 7b 3d
       0.01666378 0.07902774 -0.10991248 0.061387442
000240 84 4b f6 3d a3 fc 39 3d 1f 75 a8 bd 5f fe 4e 3d
       0.12026122 0.04540695 -0.08225464 0.050535556
000250 57 3f 46 3e ad a9 05 bc af 43 10 bd 8f 5b a5 3c
       0.193601 -0.00815813 -0.035220798 0.02018526
000260 35 0c eb bd f8 09 50 bd ba ec b6 3d f6 58 c5 bd
       -0.11476938 -0.050790757 0.08931871 -0.096361086
000270 27 96 da bd 29 3f 10 bd 95 5c 68 3c 36 bd 8e 3c
       -0.106731705 -0.035216484 0.0141822295 0.017424207
000280 b6 7c 2b 3c 36 b6 84 bd 82 bc 22 3e bd ff bc 3c
       0.010466745 -0.064800665 0.15892223 0.023071164
000290 8e e7 0d 3e 3d 0e c2 3d e6 f0 6b bd 2d be 87 3d
       0.13857862 0.09475372 -0.057602786 0.0662807
0002a0 cf 5f 51 3c 9e 02 8b 3d 56 21 d5 3d d2 02 2b be
       0.01277919 0.067876086 0.10406749 -0.16700295
0002b0 7d 11 08 3d 1f 52 45 3d de 2c 03 3b c1 4f b6 3d
       0.033219803 0.04817402 0.0020015757 0.089019306
0002c0 4e a1 7e bd e3 33 93 bc a8 cf d2 bd 68 d7 dc bd
       -0.06216555 -0.017969077 -0.102935135 -0.10783273
0002d0 e9 3e 46 3d 80 7c 29 bd 61 e0 7c bd 79 ce 87 bc
       0.04839984 -0.041378498 -0.061737422 -0.016577946
0002e0 a8 49 88 bc d3 31 43 3c 4e e8 38 be 3b 8d 02 be
       -0.016636685 0.0119137345 -0.18057367 -0.12749188
0002f0 99 86 0f 3d 39 5f 23 3d 50 86 4b bc be ff 04 bb
       0.03504047 0.039885733 -0.012422159 -0.0020294036
000300 94 a9 a3 bd 63 23 ba bd 68 2f a0 bd 73 0f 0b bd
       -0.07991329 -0.09088781 -0.07821542 -0.03395028
000310 06 22 44 bd 0a 1b a6 bc b4 9b 14 3e be 7a c0 3d
       -0.04788401 -0.020276565 0.14512521 0.09398411
000320 ef 1d dd 3d c5 f1 ed 3d b4 e0 03 be 59 83 a8 bc
       0.10796725 0.116183795 -0.12878686 -0.020570444
000330 68 00 10 be 5d 9c f8 bc 74 c7 a4 bd c3 50 a9 bd
       -0.14062655 -0.030347997 -0.08045855 -0.08267357
000340 b9 b5 43 bd 0d 30 dd bc 43 fb 4d 3e c9 a3 47 bd
       -0.047780726 -0.027000451 0.2011538 -0.048740182
000350 56 9b 8f 3d 2c a8 76 bd db 11 56 bb a2 03 15 3e
       0.0701205 -0.060218975 -0.0032664451 0.14552167
000360 60 2c fe bd 44 30 1d 3d d0 26 94 3d 8c ca 08 3d
       -0.124108076 0.038376108 0.072339654 0.03339629
000370 59 ac 23 be f1 1f 81 bc 2c 80 33 3c 88 b6 b4 3e
       -0.15983714 -0.015762301 0.0109558515 0.3529551
000380 e1 d8 da bd 79 97 dc 3d 53 e8 01 3e 82 bf 66 3c
       -0.106858976 0.107710786 0.12686281 0.014083745
000390 0c ba 52 bb bd 0a 49 be c6 9f 66 bd f2 78 a0 3c
       -0.003215435 -0.19633003 -0.056304716 0.019588921
0003a0 fe 32 e1 3d bc c7 78 3d 38 72 e1 3c 4c 83 b0 3d
       0.10996054 0.060737357 0.027520284 0.08618793
0003b0 ac 07 92 bc 24 d6 b4 bd db 49 37 3e 27 f8 2c 3d
       -0.017825924 -0.088299066 0.17899267 0.042228844
0003c0 a2 64 ed 3d 42 ce 91 bd 6d 45 c3 3d 5f 5f 6a bd
       0.1159146 -0.07119419 0.09534726 -0.05721986
0003d0 78 1f ab 3d 14 4a ab bc 42 4a ba 3d bf 00 0b bb
       0.083556116 -0.020909347 0.09096195 -0.0021210162
0003e0 f4 79 c6 bd 21 f5 66 be 7e d2 93 3d 28 ac cb bd
       -0.096912295 -0.22554447 0.072178826 -0.099449456
0003f0 9e f0 2f 3e 6a fa b3 bd b7 ee 9c 3d b0 d1 ba 3d
       0.17181632 -0.08787997 0.07662719 0.09122026

network_body._body_endoder.seq_layers.2.bias f4 [128]
000000 ad d9 be 3b 30 3e f5 3a f9 33 95 3a fa 69 dc 3c
       0.005824289 0.001871055 0.0011383287 0.026906002
000010 28 46 de 3a fc a1 8b bb ef b2 04 bc d2 75 a1 bb
       0.0016958164 -0.0042612534 -0.008099302 -0.0049273754
000020 7d 51 30 bc f0 c4 fe 3c 57 a1 a5 3b 6f d1 c6 bb
       -0.010761616 0.031099766 0.0050546336 -0.006067447
000030 2b 31 89 3b de 74 93 3a 04 77 03 bc e2 26 00 bc
       0.0041867695 0.0011250039 -0.008023981 -0.00782177
000040 3d d3 3d 3b 37 7f 3f 3b a1 5d 15 39 9d 35 69 3b
       0.002896502 0.0029220113 0.00014244627 0.0035584935
000050 02 7e dc bb d7 a7 fe bb b2 3c 9c bb 4d 64 05 bc
       -0.0067288885 -0.007771473 -0.0047679776 -0.008141589
000060 c0 b3 4d 3b 33 be 0d 3b 2d 84 ae bb ca da 1c bb
       0.0031387657 0.002162826 -0.005325815 -0.002393412
000070 ba a3 6b bb 42 95 03 39 6e db 20 bb 17 03 29 ba
       -0.0035955743 0.00012548736 -0.0024544853 -0.0006447299
000080 66 3e d5 3b 52 2a 18 3c f8 d6 ac bb d3 04 1a 3a
       0.0065076826 0.009287434 -0.0052746497 0.00058753527
000090 45 ed 9f 3a 8a 37 bf bb e1 23 06 3b 7a 65 2f 3b
       0.0012201449 -0.005835478 0.0020468163 0.0026763366
0000a0 21 b6 01 3a bf 3c 62 bb da 6a e2 ba 0d 71 9b bb
       0.0004948099 -0.003452107 -0.0017274276 -0.0047437013
0000b0 a1 41 70 bb 8c 51 28 bb 7d 4c 7f bb 7f c2 3a 3c
       -0.0036660212 -0.0025683371 -0.0038955503 0.011398911
0000c0 7c 40 ca bb 3c 51 b1 bb 8d aa a6 3b 77 33 b5 b8
       -0.006172238 -0.005411295 0.005086249 -8.640339e-05
0000d0 76 cd 4f bb 19 1b 9a bb d3 5d 9a ba cb a4 63 3a
       -0.0031708158 -0.0047029373 -0.0011777229 0.0008683919
0000e0 bf 9c 9b b9 30 f4 c8 3c ac d8 58 3c 77 38 14 bc
       -0.0002968069 0.0245305 0.013235252 -0.009046665
0000f0 1b 96 d3 3b d2 74 14 3d 6b 68 89 bb cf 59 90 3b
       0.006457103 0.03624422 -0.004193356 0.0044052373
000100 45 34 3e bc a0 f3 82 bb 25 d5 95 bc 49 4f c8 ba
       -0.011609142 -0.0039963275 -0.018290112 -0.0015282418
000110 48 e5 e7 bb db f7 56 3c 04 05 28 bb 6d 3f 49 bb
       -0.007076893 0.013120617 -0.0025637755 -0.003070797
000120 67 01 ca bb 52 c5 9f ba 46 f7 86 ba fc 8f c9 3b
       -0.006164718 -0.0012189543 -0.0010297082 0.0061511975
000130 f5 97 ac b9 08 2f 59 bc 1e a2 80 bb dc 06 06 3b
       -0.00032919613 -0.013255842 -0.003925576 0.0020450866
000140 cc 7f 26 bc 73 c3 05 bb 86 4a be 38 d3 27 96 bb
       -0.010162305 -0.0020410686 9.073787e-05 -0.004582384
000150 d1 9d 99 bb 9e 90 dd bb d7 c9 08 b8 e1 17 d6 3a
       -0.0046880026 -0.0067616245 -3.2612905e-05 0.0016334021
000160 70 bd d2 b9 6b 1c 69 bb e2 a8 7c bb 4d 5d b3 ba
       -0.00040195463 -0.0035569917 -0.003855281 -0.0013684422
000170 bd a2 7a 3b 3e 7e 8b 3c fc 46 c6 3a 11 c7 00 3b
       0.0038243972 0.01702797 0.0015127356 0.0019649903
000180 16 8f 13 3a 4d f8 8c 3a 25 d1 68 3a e8 cc b9 3c
       0.00056289264 0.0010755152 0.00088812626 0.022680715
000190 48 97 5e 3b ff 72 e9 bb e9 0b 4e 3b f7 56 5d 39
       0.0033964682 -0.0071243043 0.0031440204 0.000211086
0001a0 38 9c e2 bb 8b 24 1a 3b 35 99 96 bb b7 74 14 3d
       -0.0069155954 0.0023520316 -0.0045959004 0.03624412
0001b0 75 91 34 3c a0 0d 92 3a c1 9c 8a 3b 2e 65 8a bb
       0.011021008 0.0011142977 0.0042301123 -0.0042234873
0001c0 f1 ab d3 bb bb 1b 9e ba 16 ca 56 bc dd 50 0b 3b
       -0.006459706 -0.0012062708 -0.0131097045 0.0021257915
0001d0 e8 a7 90 bc 70 df 52 3b a6 2d 4f 3b 08 54 80 bb
       -0.017658189 0.0032176636 0.0031612902 -0.0039162673
0001e0 6a d7 dd 3b a5 ed 4e 3c 27 0e b4 3b 0e 4c 29 bb
       0.006770064 0.012629901 0.005494851 -0.0025832686
0001f0 58 da 61 bb 3d cf 8e 3a 4f 9a 75 bb 73 17 ba ba
       -0.0034462418 0.0010895502 -0.0037476008 -0.0014197662

action_model._continuous_distribution.log_sigma f4 [1, 2]
000000 80 42 d1 3c 55 05 35 bd
       0.025544405 -0.04419454

action_model._continuous_distribution.mu.weight f4 [2, 128]
000000 da 8e 09 3d 98 27 fa b8 e7 8a 14 3d fd af 95 3d
       0.0335835 -0.00011928304 0.03626528 0.07308958
000010 cd 5e 95 3b 9c f5 5b bc f9 11 cc 3a 8e ad 08 bc
       0.0045584203 -0.013425257 0.0015569321 -0.00834216
000020 c8 14 87 3a 52 66 97 3d b2 c3 b3 3b 59 3b da 3b
       0.0010305876 0.07392563 0.005485975 0.006659907
000030 b0 49 e2 3c 9e 93 1e bc 36 4a 0c bd cf 18 0a bd
       0.027623028 -0.009678749 -0.03425046 -0.033715066
000040 4d 05 6e bd 9f e3 07 3d 44 75 be 3c 06 ea 81 3c
       -0.058110524 0.03317606 0.023249276 0.015858661
000050 28 5b 73 bb 68 a6 7d bc 0b 0a 2a bc 9a f8 84 ba
       -0.003713319 -0.015481569 -0.010378371 -0.001014489
000060 37 21 1f 3c ad e7 9f 3c 7e c5 1f bc 08 9a 89 bc
       0.009712509 0.019519651 -0.009751676 -0.01679708
000070 bd 7e 18 3b 7b 8d 94 bb 89 0c 1c 3c f2 1c 1a bc
       0.0023268901 -0.0045334673 0.009524473 -0.009406315
000080 7a 0f 23 3d a8 e5 a2 bd 0b 11 bd ba 42 d3 63 3c
       0.03980968 -0.0795396 -0.0014424635 0.013905348
000090 19 5f 85 3b b0 a1 bd 3c c4 20 08 bd bf 65 a8 3c
       0.0040701744 0.023148388 -0.033234373 0.020556329
0000a0 df 19 9b 3c 84 80 1c 3c 88 c2 bb bc 0d 39 be ba
       0.018933235 0.009552125 -0.022919908 -0.0014512852
0000b0 25 85 13 bc 1b 79 b8 3b 89 6f 0a bd 3e 39 a1 3c
       -0.009003912 0.0056296713 -0.033797774 0.019680616
0000c0 e0 ef 21 bd ec 4d 0c bc 13 7a be 3c 9e e9 76 3b
       -0.039535403 -0.0085635 0.023251569 0.0037675868
0000d0 af 8f 8e ba 05 f5 bc bb 7b 7a 59 bc 4f bc c3 3c
       -0.0010876561 -0.0057665133 -0.0132738305 0.023893503
0000e0 a5 b2 55 3c 5b e6 5d bd cf 00 3e 3d b8 69 a7 bb
       0.01304308 -0.054174762 0.04638749 -0.005109038
0000f0 48 1a b5 3c 0d 5e f0 3d fe 8e 38 bc c2 a9 51 3c
       0.022107258 0.11736689 -0.011264561 0.012796821
000100 0c 18 d9 bc 96 f4 1d 3b 0a 1b bd 3c 83 fa 62 bb
       -0.026500724 0.0024102083 0.023084182 -0.003463418
000110 4d 27 0b 3b 85 95 26 3d 48 1e f3 3b c3 7c d1 bd
       0.0021233142 0.040669937 0.0074193813 -0.102288745
000120 0d 32 0d bc de 96 bb bc 7c 60 95 bc 04 cc d3 3c
       -0.00861789 -0.022899088 -0.018234484 0.025854118
000130 eb f7 af 3b c0 60 94 bb d4 95 86 bc de 90 73 3c
       0.0053701303 -0.004528135 -0.016428865 0.014866082
000140 bd 93 d5 bb 4c 82 29 3c a5 33 ab 3b 59 5f 3c bc
       -0.006517856 0.010346007 0.0052246624 -0.011497342
000150 b3 7a 4b bb 44 fd 0b ba a9 73 80 3c 61 fd c3 3b
       -0.0031048476 -0.0005340169 0.015680151 0.005981133
000160 b6 95 63 bb a5 49 a5 bc a6 d7 0b 3a 23 e6 01 3c
       -0.0034726686 -0.020176718 0.00053345633 0.007928404
000170 0c 1d 6f 3c 24 f9 08 3d 77 e4 90 bb 5f 35 84 3c
       0.014594328 0.033440724 -0.0044217664 0.01613873
000180 41 73 dd 3c 69 8c b0 3c a3 eb a0 bd d2 5d 0e 3d
       0.027032496 0.021551328 -0.07857444 0.034757443
000190 a0 15 6c bc 02 df 73 3b f2 88 39 3c 49 47 e5 3c
       -0.014409453 0.003721178 0.011324154 0.027988093
0001a0 54 35 3e bb 7d 4d 9b 3b be f2 a4 3b 4b d5 43 3d
       -0.0029023485 0.004739462 0.00503382 0.047810834
0001b0 5f 76 65 3d b6 53 0e 3d d3 ba c9 3b 82 ea 5f bc
       0.05602109 0.0347478 0.0061563044 -0.013666751
0001c0 30 42 ad bc c7 67 8b bc 04 02 84 bc 86 35 16 3c
       -0.021149725 -0.017017258 -0.016114242 0.009168034
0001d0 90 91 b3 3c 41 22 11 3c 2d c1 93 3c 62 88 1a bc
       0.021919996 0.008858264 0.01803645 -0.00943193
0001e0 77 8d 67 3c 84 bc f5 3c d1 c0 c5 bd 3c 56 ab 3c
       0.014132849 0.029997118 -0.096559174 0.020915143
0001f0 6e 84 b5 bc 41 a0 0f 3c 74 89 e6 3b a5 43 78 3b
       -0.022157874 0.008766235 0.0070354287 0.0037882116
000200 fa 26 74 3c c5 d9 ea 3c 2a cf c0 bc da 5e 02 bb
       0.014901871 0.028668294 -0.023536284 -0.0019892962
000210 d1 2b e5 3c 15 4d 16 bc c9 c6 24 bb 99 fc e2 bc
       0.027974995 -0.009173651 -0.00251429 -0.027708339
000220 6c 0c 79 ba 68 40 fa bb 92 99 a6 3c 33 3b 01 bd
       -0.0009500447 -0.0076370724 0.0203369 -0.031550597
000230 db f3 32 3c 3a 68 53 3c 9a 21 bd bc f1 24 49 3b
       0.0109223975 0.0129032675 -0.023087312 0.0030692185
000240 96 da e2 bb 65 a5 db 38 04 1d 28 bc 56 1a 25 3c
       -0.00692303 0.00010473541 -0.010260824 0.01007708
000250 a8 14 66 3a aa 31 0e bc 47 0c cb 3b bd f0 b7 39
       0.0008776882 -0.008678833 0.006196532 0.00035083844
000260 ed 9c 63 3c f4 52 1e 3d 43 a6 18 bc 84 1b bf 3b
       0.0138923945 0.03865333 -0.009316984 0.0058321375
000270 c5 23 67 bb eb 05 4b 3c bb 16 75 bc 8a 75 88 3c
       -0.0035269123 0.012391548 -0.014959033 0.01665761
000280 41 6f 6f 3c a6 b9 bc bb 11 86 0e bc 84 b6 dc bb
       0.014613927 -0.0057594357 -0.008698956 -0.0067356247
000290 12 8e 82 3c 41 d8 29 3d fd e7 2c bd 35 2b 22 3b
       0.015936885 0.041466 -0.04221343 0.0024744992
0002a0 fc 04 33 3c 61 df eb 3a 64 e4 ca 3c ee 29 9c bc
       0.010926481 0.0017995649 0.024767108 -0.019062962
0002b0 bb c6 aa bc c9 15 8a 3b 24 a5 1b bc b2 09 aa 3b
       -0.020846715 0.004214023 -0.009499822 0.005189144
0002c0 99 5d bc b9 eb 46 94 bc 49 f4 d0 3a e5 54 3e 3b
       -0.0003592789 -0.018100223 0.0015941943 0.00290423
0002d0 b0 df 24 bd 0a 87 27 bc aa 33 cb bb f9 dc e2 b9
       -0.040252388 -0.010225067 -0.006201227 -0.00043270717
0002e0 82 bc 14 bb 79 43 8c 3c cc d4 13 bc 76 31 4a bb
       -0.0022695367 0.017122017 -0.009022903 -0.0030852235
0002f0 26 c9 9b 3c bb 48 f0 3a 56 23 89 bb e2 d5 8b bc
       0.019016813 0.0018332222 -0.0041851206 -0.01706976
000300 5a b0 1c bc f3 4c a5 bc 49 77 31 bb 40 15 d5 3c
       -0.00956353 -0.020178294 -0.0027079156 0.02601111
000310 ed 15 83 bb db a3 54 3c 86 c2 af 3c 9e 9d e0 bb
       -0.0040004165 0.012978519 0.02145506 -0.006854727
000320 ef e1 9b bc ef 3e c4 bb 78 f6 72 3b c4 06 35 bc
       -0.019028632 -0.0059889476 0.0037073176 -0.011048976
000330 24 9c d1 3b 38 fb 29 3c 34 43 93 bc ec a7 0c 3c
       0.0063967872 0.010374837 -0.01797638 0.008584958
000340 24 90 37 bb 83 99 c4 bc 3c 49 b9 bb 18 82 cf bb
       -0.0028009498 -0.023998981 -0.005654482 -0.006332647
000350 73 d6 b7 3a 3f 73 c8 bb 98 05 c9 39 3d 36 6c 3c
       0.0014025703 -0.006117254 0.00038341875 0.014417228
000360 99 2d 28 3c d7 f6 65 bc 44 db 42 3a d9 9c 08 bc
       0.010264778 -0.014035902 0.0007433186 -0.008338177
000370 ec 73 5c bc 31 55 8a bc d4 17 df 3c 0c 1c 39 3c
       -0.013455372 -0.016886326 0.027233042 0.011298191
000380 ec 0c a1 bc 18 69 76 bb e3 fb cc bc 93 31 f0 3a
       -0.019659482 -0.0037599262 -0.025022453 0.0018325321
000390 10 05 7c 3c 09 7b 2c bd 98 12 0c 3c 3d 6e bb bb
       0.015382066 -0.042109523 0.008549355 -0.0057199285
0003a0 18 dd 94 bc be f3 ca 3c ee 41 c3 bb 17 28 b6 bb
       -0.018171832 0.024774428 -0.005958787 -0.0055589783
0003b0 48 aa c1 3b 23 e1 a6 bc d0 cb 8f 3c 72 1c 90 bc
       0.0059101917 -0.020371025 0.01755324 -0.017591689
0003c0 bb fb 68 3b 52 3a ac 3c a6 06 56 bc 3c 21 b1 3c
       0.0035550434 0.021023903 -0.013063109 0.021622293
0003d0 2f d8 40 3b ba 84 b3 3c bf ef 1a 3c c2 d3 c6 bc
       0.002942573 0.021913875 0.009456574 -0.024270896
0003e0 b9 67 d5 bb df 6e df 3b 27 84 c7 bc 50 33 d9 bc
       -0.006512609 0.006818637 -0.024355007 -0.026513726
0003f0 32 c9 ca 3c d9 45 1c 3c 0a bc 98 bb 04 2f b1 b9
       0.02475414 0.009538137 -0.004661088 -0.000337951

action_model._continuous_distribution.mu.bias f4 [2]
000000 4a 73 82 3b 14 bb 3b 3b
       0.0039810287 0.0028645443

exp_avg f4 [128, 7]
000000 a7 ab 1e 3a eb c6 07 b8 00 00 00 00 58 1c 1b 3a
       0.00060528 -3.2371765e-05 0.0 0.00059170043
000010 eb c6 07 b8 00 00 00 00 11 fa 8b b7 a2 99 83 af
       -3.2371765e-05 0.0 -1.6686537e-05 -2.3937924e-10
000020 1a 83 8d b5 00 00 00 00 69 eb 12 38 1a 83 8d b5
       -1.0543474e-06 0.0 3.5028355e-05 -1.0543474e-06
000030 00 00 00 00 a7 f6 ca 36 5b a1 ab ba 2c 07 01 ba
       0.0 6.0487832e-06 -0.0013094352 -0.0004922028
000040 00 00 00 00 78 93 9e ba 2c 07 01 ba 00 00 00 00
       0.0 -0.0012098392 -0.0004922028 0.0
000050 a9 37 a3 37 f0 09 1f b8 6c 40 1a 39 00 00 00 00
       1.9457033e-05 -3.791781e-05 0.00014710583 0.0
000060 59 a0 38 b8 6c 40 1a 39 00 00 00 00 65 9f a6 b6
       -4.4018354e-05 0.00014710583 0.0 -4.9657415e-06
000070 13 a3 0f 3b 6c c8 39 39 00 00 00 00 ad f5 0d 3b
       0.0021917268 0.00017717638 0.0 0.0021661327
000080 6c c8 39 39 00 00 00 00 ee f8 39 b6 ba 04 23 b8
       0.00017717638 0.0 -2.7712044e-06 -3.886663e-05
000090 62 5d 91 39 00 00 00 00 ad 18 32 b8 62 5d 91 39
       0.0002772613 0.0 -4.246149e-05 0.0002772613
0000a0 00 00 00 00 13 d2 1e 37 9c 37 bb 32 90 e8 13 34
       0.0 9.466446e-06 2.1794953e-08 1.3775048e-07
0000b0 00 00 00 00 8d 1f 98 b7 90 e8 13 34 00 00 00 00
       0.0 -1.8134504e-05 1.3775048e-07 0.0
0000c0 63 af 5e b7 25 4f 15 39 22 ac f6 39 00 00 00 00
       -1.32730665e-05 0.00014239231 0.00047049025 0.0
0000d0 95 dd d2 38 22 ac f6 39 00 00 00 00 26 40 7f 37
       0.00010054853 0.00047049025 0.0 1.521412e-05
0000e0 b7 7d 5b ba 17 77 10 ba 00 00 00 00 d3 57 4a ba
       -0.000837292 -0.000551091 0.0 -0.00077187753
0000f0 17 77 10 ba 00 00 00 00 93 2c b1 35 1e 3b 18 34
       -0.000551091 0.0 1.32005e-06 1.417761e-07
000100 80 7c a3 3a 00 00 00 00 14 3a 0f b9 80 7c a3 3a
       0.0012473017 0.0 -0.00013659179 0.0012473017
000110 00 00 00 00 e3 1c 85 b7 c9 bc 0d 32 47 f3 2f 35
       0.0 -1.5868287e-05 8.250205e-09 6.5546595e-07
000120 00 00 00 00 86 e8 d5 b7 47 f3 2f 35 00 00 00 00
       0.0 -2.5499856e-05 6.5546595e-07 0.0
000130 44 e9 a5 b7 f8 4d 88 3a a6 5b 14 ba 00 00 00 00
       -1.9778156e-05 0.0010399213 -0.00056594086 0.0
000140 04 09 8c 3a a6 5b 14 ba 00 00 00 00 f4 a6 78 b7
       0.0010683839 -0.00056594086 0.0 -1.4820824e-05
000150 ab 03 13 3a b8 ff 0c 3a 00 00 00 00 13 c4 05 3a
       0.00056081516 0.0005378681 0.0 0.00051027647
000160 b8 ff 0c 3a 00 00 00 00 e7 f4 00 37 00 5c 26 29
       0.0005378681 0.0 7.686415e-06 3.6939202e-14
000170 4b d3 8c 3a 00 00 00 00 e2 af b1 b8 4b d3 8c 3a
       0.0010744123 0.0 -8.4727784e-05 0.0010744123
000180 00 00 00 00 be a7 ee b7 7b bf 11 3b 12 c4 91 3a
       0.0 -2.8449922e-05 0.0022239375 0.0011121056
000190 00 00 00 00 d3 ff 05 3b 12 c4 91 3a 00 00 00 00
       0.0 0.0020446673 0.0011121056 0.0
0001a0 75 ff 69 b7 f4 ec 09 b2 65 25 23 3a 00 00 00 00
       -1.39473605e-05 -8.0283264e-09 0.0006223529 0.0
0001b0 74 49 5d b8 65 25 23 3a 00 00 00 00 a9 cd 14 b8
       -5.2758915e-05 0.0006223529 0.0 -3.5477486e-05
0001c0 d2 11 6d 3b a4 54 b8 3a 00 00 00 00 7b 64 5d 3b
       0.0036173952 0.0014063311 0.0 0.0033781815
0001d0 a4 54 b8 3a 00 00 00 00 5f 6b 43 b7 9b 65 0d 3b
       0.0014063311 0.0 -1.1647905e-05 0.0021575454
0001e0 4f 9c b0 3a 00 00 00 00 38 da 00 3b 4f 9c b0 3a
       0.0013474318 0.0 0.0019661319 0.0013474318
0001f0 00 00 00 00 78 47 01 b7 10 e7 07 3b d8 ca 69 b9
       0.0 -7.705639e-06 0.002073709 -0.00022296177
000200 00 00 00 00 fd aa 08 3b d8 ca 69 b9 00 00 00 00
       0.0 0.002085387 -0.00022296177 0.0
000210 48 01 eb b7 f4 7b 55 b6 c2 1a a2 b1 00 00 00 00
       -2.801478e-05 -3.1811624e-06 -4.7178625e-09 0.0
000220 90 92 23 b6 c2 1a a2 b1 00 00 00 00 71 c5 e3 b4
       -2.4374203e-06 -4.7178625e-09 0.0 -4.2425702e-07
000230 e4 ec 3a 3a 65 e5 a1 b8 00 00 00 00 88 f4 42 3a
       0.00071306364 -7.719806e-05 0.0 0.00074369507
000240 65 e5 a1 b8 00 00 00 00 35 19 89 36 d2 7a fd 3a
       -7.719806e-05 0.0 4.0858527e-06 0.0019338971
000250 80 79 3d 3a 00 00 00 00 4b e9 ea 3a 80 79 3d 3a
       0.0007227883 0.0 0.001792231 0.0007227883
000260 00 00 00 00 3e f0 85 b7 1c 93 c5 b2 55 4e 36 3a
       0.0 -1.5966707e-05 -2.3000716e-08 0.00069544214
000270 00 00 00 00 e0 47 e8 b8 55 4e 36 3a 00 00 00 00
       0.0 -0.0001107601 0.00069544214 0.0
000280 e6 64 09 b7 b5 9a bf ba 6f 4c 63 ba 00 00 00 00
       -8.189329e-06 -0.001461825 -0.0008670752 0.0
000290 65 2f b5 ba 6f 4c 63 ba 00 00 00 00 88 fb 02 b7
       -0.0013823329 -0.0008670752 0.0 -7.807168e-06
0002a0 02 d4 6f b8 95 96 b9 36 00 00 00 00 3c e0 3b b8
       -5.7179488e-05 5.5309597e-06 0.0 -4.479311e-05
0002b0 95 96 b9 36 00 00 00 00 5c 20 53 34 d6 59 02 b4
       5.5309597e-06 0.0 1.9662679e-07 -1.2139876e-07
0002c0 7c 1b 15 ad 00 00 00 00 87 75 54 b6 7c 1b 15 ad
       -8.475772e-12 0.0 -3.1658872e-06 -8.475772e-12
0002d0 00 00 00 00 89 48 96 b6 b7 ea 2e ba 19 32 3e b7
       0.0 -4.4787926e-06 -0.00066725485 -1.1336547e-05
0002e0 00 00 00 00 0b d0 32 ba 19 32 3e b7 00 00 00 00
       0.0 -0.0006821162 -1.1336547e-05 0.0
0002f0 bd 4c dc b6 a8 04 f3 b8 38 a1 66 3a 00 00 00 00
       -6.5654444e-06 -0.0001158801 0.0008797827 0.0
000300 6e 10 6c b9 38 a1 66 3a 00 00 00 00 14 69 99 37
       -0.00022512834 0.0008797827 0.0 1.8287952e-05
000310 14 97 a8 3a 40 52 9a 39 00 00 00 00 89 f9 a7 3a
       0.0012862408 0.0002943445 0.0 0.0012815456
000320 40 52 9a 39 00 00 00 00 1d e6 34 b5 51 93 20 3a
       0.0002943445 0.0 -6.7390084e-07 0.00061254675
000330 12 9a f9 39 00 00 00 00 ce 46 15 3a 12 9a f9 39
       0.00047607772 0.0 0.00056944496 0.00047607772
000340 00 00 00 00 56 0c 00 37 2c da a0 33 f2 59 e6 34
       0.0 7.632267e-06 7.490266e-08 4.2906282e-07
000350 00 00 00 00 10 f0 89 37 f2 59 e6 34 00 00 00 00
       0.0 1.644346e-05 4.2906282e-07 0.0
000360 9f dc a2 36 a6 fc cf ba 68 11 9d ba 00 00 00 00
       4.85366e-06 -0.0015868142 -0.0011983337 0.0
000370 1a 69 bb ba 68 11 9d ba 00 00 00 00 e5 d0 78 33
       -0.001429829 -0.0011983337 0.0 5.7931988e-08
000380 f7 9f 27 bb 5f 46 a2 ba 00 00 00 00 97 a8 19 bb
       -0.0025577524 -0.0012380591 0.0 -0.0023446435
000390 5f 46 a2 ba 00 00 00 00 2e 0d b4 37 a0 76 73 2d
       -0.0012380591 0.0 2.146381e-05 1.3839291e-11
0003a0 ca ef 91 36 00 00 00 00 35 ba bd b6 ca ef 91 36
       4.349252e-06 0.0 -5.6543163e-06 4.349252e-06
0003b0 00 00 00 00 dd bc 01 b7 05 3e 6e 27 5c ea d9 39
       0.0 -7.732972e-06 3.3062756e-15 0.00041564077
0003c0 00 00 00 00 d0 8f 3a b8 5c ea d9 39 00 00 00 00
       0.0 -4.447979e-05 0.00041564077 0.0
0003d0 b6 2b 9a b7 b3 07 31 b8 5e 7b 0d b9 00 00 00 00
       -1.8378585e-05 -4.220726e-05 -0.00013492766 0.0
0003e0 b7 1b fb b7 5e 7b 0d b9 00 00 00 00 11 04 c6 b5
       -2.9934437e-05 -0.00013492766 0.0 -1.4753333e-06
0003f0 33 e6 9c b9 46 b9 52 39 00 00 00 00 a3 22 b9 b9
       -0.0002992615 0.0002009618 0.0 -0.00035311756

exp_avg_sq f4 [128, 7]
000000 35 4a 37 39 c0 fe 6f 33 00 00 00 00 75 39 20 39
       0.00017479884 5.5878218e-08 0.0 0.00015280193
000010 c0 fe 6f 33 00 00 00 00 c3 f8 4d 31 1b c7 e5 23
       5.5878218e-08 0.0 2.997283e-09 2.4912554e-17
000020 a4 87 87 2d 00 00 00 00 a3 9e 17 34 a4 87 87 2d
       1.540796e-11 0.0 1.4120683e-07 1.540796e-11
000030 00 00 00 00 8a 0b 46 2f 8f df 68 3a 6e b8 d1 37
       0.0 1.8012095e-10 0.00088834105 2.5000623e-05
000040 00 00 00 00 4b 4b 49 3a 6e b8 d1 37 00 00 00 00
       0.0 0.0007678761 2.5000623e-05 0.0
000050 7a 0f 1f 32 45 6a 3a 38 dc f1 d7 36 00 00 00 00
       9.258537e-09 4.4444827e-05 6.4356555e-06 0.0
000060 31 6b 1e 38 dc f1 d7 36 00 00 00 00 9f 5c 30 30
       3.7769965e-05 6.4356555e-06 0.0 6.416005e-10
000070 ef 60 67 39 43 b7 4f 38 00 00 00 00 8b 8a 43 39
       0.00022065987 4.952332e-05 0.0 0.0001864826
000080 43 b7 4f 38 00 00 00 00 d4 f0 29 31 dd e6 04 39
       4.952332e-05 0.0 2.4729632e-09 0.00012674504
000090 33 a5 4b 36 00 00 00 00 69 85 e6 38 33 a5 4b 36
       3.0345516e-06 0.0 0.00010992104 3.0345516e-06
0000a0 00 00 00 00 45 e3 a0 30 45 7b 03 28 53 8a a0 2a
       0.0 1.1706126e-09 7.298691e-15 2.851769e-13
0000b0 00 00 00 00 68 6f b4 34 53 8a a0 2a 00 00 00 00
       0.0 3.360867e-07 2.851769e-13 0.0
0000c0 72 e3 ab 30 9d 2b a6 3a 89 52 23 38 00 00 00 00
       1.2506531e-09 0.0012677793 3.8939095e-05 0.0
0000d0 89 65 8f 3a 89 52 23 38 00 00 00 00 10 b1 5d 32
       0.0010940294 3.8939095e-05 0.0 1.2904152e-08
0000e0 3c d5 18 38 df e0 f0 36 00 00 00 00 57 cd 01 38
       3.6438214e-05 7.178736e-06 0.0 3.0947234e-05
0000f0 df e0 f0 36 00 00 00 00 f1 e0 0c 30 ca 9e d2 2a
       7.178736e-06 0.0 5.1251364e-10 3.7413676e-13
000100 5e fe 49 37 00 00 00 00 a0 2e 2f 35 5e fe 49 37
       1.2039758e-05 0.0 6.526043e-07 1.2039758e-05
000110 00 00 00 00 35 07 26 31 f6 2c d3 26 d0 30 ce 2d
       0.0 2.4160276e-09 1.4653253e-15 2.3441166e-11
000120 00 00 00 00 a7 93 69 35 d0 30 ce 2d 00 00 00 00
       0.0 8.7014126e-07 2.3441166e-11 0.0
000130 68 46 4c 31 2f 0b b6 3a e7 22 cd 37 00 00 00 00
       2.9725928e-09 0.0013888831 2.4454157e-05 0.0
000140 33 c9 9d 3a e7 22 cd 37 00 00 00 00 8d 3d 63 32
       0.0012038111 2.4454157e-05 0.0 1.3227134e-08
000150 60 19 3e 39 e8 5f 24 37 00 00 00 00 bd 09 25 39
       0.00018129265 9.797492e-06 0.0 0.00015739254
000160 e8 5f 24 37 00 00 00 00 9d ba 18 31 00 e3 fe 16
       9.797492e-06 0.0 2.2224989e-09 4.117917e-25
000170 e9 24 2f 37 00 00 00 00 ff d0 94 35 e9 24 2f 37
       1.0439407e-05 0.0 1.1087685e-06 1.0439407e-05
000180 00 00 00 00 6f 0b a4 31 dc f4 c8 3a 50 d6 84 38
       0.0 4.774328e-09 0.0015331763 6.334169e-05
000190 00 00 00 00 e3 52 ad 3a 50 d6 84 38 00 00 00 00
       0.0 0.0013223555 6.334169e-05 0.0
0001a0 0c d5 7e 32 7d 1f 60 29 1d f6 2d 37 00 00 00 00
       1.4833187e-08 4.9765303e-14 1.0368906e-05 0.0
0001b0 5e 8c 0d 36 1d f6 2d 37 00 00 00 00 22 a6 0b 32
       2.1092342e-06 1.0368906e-05 0.0 8.128639e-09
0001c0 ce a0 44 3b 48 ab 07 39 00 00 00 00 b4 7c 29 3b
       0.0030003074 0.0001293841 0.0 0.0025861682
0001d0 48 ab 07 39 00 00 00 00 26 aa e8 32 8e fa c7 39
       0.0001293841 0.0 2.708573e-08 0.00038142916
0001e0 23 12 ee 37 00 00 00 00 7e 4f ac 39 23 12 ee 37
       2.8380256e-05 0.0 0.00032865623 2.8380256e-05
0001f0 00 00 00 00 af 7e 48 31 fb 59 2f 3b b1 c6 c1 38
       0.0 2.9175842e-09 0.0026756513 9.239966e-05
000200 00 00 00 00 6c 64 17 3b b1 c6 c1 38 00 00 00 00
       0.0 0.0023100628 9.239966e-05 0.0
000210 41 df de 32 49 90 f0 2e 2d 30 02 27 00 00 00 00
       2.5945726e-08 1.09395666e-10 1.806724e-15 0.0
000220 04 f2 ed 2f 2d 30 02 27 00 00 00 00 3a 69 4f 2c
       4.328201e-10 1.806724e-15 0.0 2.9474882e-12
000230 c4 51 c4 38 aa f7 22 37 00 00 00 00 7f 27 a8 38
       9.361238e-05 9.713616e-06 0.0 8.018221e-05
000240 aa f7 22 37 00 00 00 00 53 eb 99 30 e3 25 51 3a
       9.713616e-06 0.0 1.1199098e-09 0.0007978363
000250 33 98 43 37 00 00 00 00 58 7e 35 3a 33 98 43 37
       1.1658342e-05 0.0 0.0006923429 1.1658342e-05
000260 00 00 00 00 c2 04 01 32 b6 68 9a 29 e9 4b 8b 36
       0.0 7.50987e-09 6.857138e-14 4.15136e-06
000270 00 00 00 00 e5 a1 46 34 e9 4b 8b 36 00 00 00 00
       0.0 1.8499084e-07 4.15136e-06 0.0
000280 53 af 20 30 e2 b7 58 38 2b 39 4f 38 00 00 00 00
       5.845681e-10 5.1669667e-05 4.9405888e-05 0.0
000290 6c fa 2b 38 2b 39 4f 38 00 00 00 00 3e 0d fe 30
       4.10028e-05 4.9405888e-05 0.0 1.8484696e-09
0002a0 57 2d 09 36 de 51 34 31 00 00 00 00 f9 08 ef 35
       2.0440982e-06 2.6239984e-09 0.0 1.7809499e-06
0002b0 de 51 34 31 00 00 00 00 87 9a a9 2e 64 8a 94 2a
       2.6239984e-09 0.0 7.71268e-11 2.638611e-13
0002c0 f5 c0 a3 1e 00 00 00 00 88 c0 17 33 f5 c0 a3 1e
       1.7338101e-20 0.0 3.5332533e-08 1.7338101e-20
0002d0 00 00 00 00 42 ef d1 2e 04 e5 9c 39 17 ee 1e 38
       0.0 9.5467204e-11 0.0002992527 3.7891874e-05
0002e0 00 00 00 00 59 7f 85 39 17 ee 1e 38 00 00 00 00
       0.0 0.00025462618 3.7891874e-05 0.0
0002f0 4f db 84 31 93 77 af 3a 08 ac 40 38 00 00 00 00
       3.866638e-09 0.0013387076 4.5936584e-05 0.0
000300 99 98 97 3a 08 ac 40 38 00 00 00 00 52 a8 50 32
       0.0011565863 4.5936584e-05 0.0 1.2145465e-08
000310 10 8c 99 39 20 db 83 37 00 00 00 00 99 bd 84 39
       0.0002928679 1.5718455e-05 0.0 0.00025318263
000320 20 db 83 37 00 00 00 00 4f ae 61 31 48 c3 91 38
       1.5718455e-05 0.0 3.2840892e-09 6.950513e-05
000330 0c 9f 53 36 00 00 00 00 f9 b3 7d 38 0c 9f 53 36
       3.1534028e-06 0.0 6.0487513e-05 3.1534028e-06
000340 00 00 00 00 eb ad 21 30 d2 36 4d 2a cb 46 b1 2e
       0.0 5.881861e-10 1.8226677e-13 8.0616035e-11
000350 00 00 00 00 63 d3 82 33 cb 46 b1 2e 00 00 00 00
       0.0 6.092048e-08 8.0616035e-11 0.0
000360 1c ee 21 2f 36 ea da 3a 56 3e 8b 38 00 00 00 00
       1.4727458e-10 0.001670188 6.6396475e-05 0.0
000370 fe 06 bd 3a 56 3e 8b 38 00 00 00 00 79 da 80 32
       0.001442164 6.6396475e-05 0.0 1.5000511e-08
000380 2a 49 12 3b 64 a2 f1 38 00 00 00 00 98 ac fb 3a
       0.0022321441 0.00011522023 0.0 0.0019201217
000390 64 a2 f1 38 00 00 00 00 f5 16 ca 32 a7 fc 83 1d
       0.00011522023 0.0 2.3526335e-08 3.4936648e-21
0003a0 aa ca fc 2f 00 00 00 00 b0 07 fe 33 aa ca fc 2f
       4.5982534e-10 0.0 1.1829195e-07 4.5982534e-10
0003b0 00 00 00 00 59 26 0b 30 e2 97 9c 12 52 13 93 36
       0.0 5.06224e-10 9.882426e-28 4.3831906e-06
0003c0 00 00 00 00 0f 71 32 35 52 13 93 36 00 00 00 00
       0.0 6.647469e-07 4.3831906e-06 0.0
0003d0 ff a1 07 31 50 60 00 34 47 db 75 35 00 00 00 00
       1.973717e-09 1.1955967e-07 9.1588703e-07 0.0
0003e0 3a f5 ff 33 47 db 75 35 00 00 00 00 4c c3 d7 2e
       1.1918969e-07 9.1588703e-07 0.0 9.81176e-11
0003f0 33 2d 9d 39 db 1d b6 37 00 00 00 00 53 fc 86 39
       0.0002997905 2.1709993e-05 0.0 0.00025746468

exp_avg f4 [128]
000000 9e b0 25 36 e0 b3 d5 b6 67 e6 97 b7 89 df 94 35
       2.468972e-06 -6.368835e-06 -1.8107892e-05 1.1091917e-06
000010 cc 23 9c 36 d7 7c 2f 35 1a 89 5d 36 8b 48 ff 36
       4.6533296e-06 6.5374246e-07 3.301137e-06 7.6080373e-06
000020 5c 8a 47 b7 d7 8b d0 37 c9 9e 9b 36 a9 a1 ad b6
       -1.1893539e-05 2.486065e-05 4.637845e-06 -5.1746215e-06
000030 cd 29 1a 37 14 3a 81 37 13 b6 08 38 48 e9 20 37
       9.188848e-06 1.5405043e-05 3.2594497e-05 9.591058e-06
000040 f4 6c 36 38 c5 f8 11 38 72 82 0e b6 99 32 11 b4
       4.3493652e-05 3.480238e-05 -2.1235578e-06 -1.3522585e-07
000050 02 e0 ba b6 86 11 d8 37 78 e5 a8 37 a7 7b 72 b7
       -5.56931e-06 2.5757367e-05 2.0134015e-05 -1.4453114e-05
000060 7a 22 17 b6 51 97 14 35 ee 54 35 36 4b 9f a6 37
       -2.2520821e-06 5.535449e-07 2.7020537e-06 1.9862919e-05
000070 5c 27 65 35 61 7a 03 37 f1 b8 47 b6 95 6f ef b7
       8.5366423e-07 7.836702e-06 -2.976096e-06 -2.854298e-05
000080 fe 84 22 b8 e3 fb 89 35 67 ae 07 37 8e bf 15 b6
       -3.874767e-05 1.0280604e-06 8.087233e-06 -2.231423e-06
000090 13 48 24 37 33 40 00 b4 82 49 e4 b5 8d ac 7f 37
       9.791943e-06 -1.1944284e-07 -1.7008717e-06 1.52393595e-05
0000a0 eb d2 0a b8 ee de 07 37 31 50 89 b7 70 6c 36 b6
       -3.3098197e-05 8.098532e-06 -1.6369015e-05 -2.7183232e-06
0000b0 5f 96 b5 37 f7 79 9a 36 0f 76 27 36 c5 0c 83 b6
       2.1646903e-05 4.603756e-06 2.4953658e-06 -3.905591e-06
0000c0 40 db c0 36 bc 84 09 37 8d 3c 04 b6 ed 3f e3 34
       5.74757e-06 8.196741e-06 -1.9704778e-06 4.2328557e-07
0000d0 b1 9f 31 b6 ae 1a 49 b6 be 1c ca 37 dc 90 05 35
       -2.6468008e-06 -2.9966864e-06 2.409366e-05 4.975716e-07
0000e0 cd e1 71 b5 d0 a4 e9 36 f4 de 39 b7 5a 77 f3 35
       -9.010808e-07 6.963128e-06 -1.107877e-05 1.8139647e-06
0000f0 73 8d 78 36 8f 8f 86 b6 17 78 21 b7 4c 5e d6 b6
       3.7037214e-06 -4.0102236e-06 -9.624308e-06 -6.3886746e-06
000100 d3 80 9c 37 cd 6d 2f 37 20 27 6c 32 78 a2 1a b8
       1.8656638e-05 1.0456378e-05 1.3745904e-08 -3.6867772e-05
000110 3a 79 64 36 78 96 72 35 09 77 52 b8 bf 06 71 b7
       3.404521e-06 9.0370986e-07 -5.017876e-05 -1.436629e-05
000120 95 16 26 37 48 16 be b7 7d e0 57 b7 fe 6b 04 b8
       9.899629e-06 -2.266014e-05 -1.2867266e-05 -3.1571828e-05
000130 03 f6 1d b7 4b 87 52 37 e6 87 f0 b6 38 82 17 38
       -9.415208e-06 1.2548476e-05 -7.168378e-06 3.612248e-05
000140 02 ec 2d 37 9b 49 c5 36 36 c8 6e b7 8e a0 4f b6
       1.0366553e-05 5.8796263e-06 -1.4232521e-05 -3.0938859e-06
000150 fb 07 03 b8 45 24 93 b7 04 2e 5c 37 db 3a ee b7
       -3.1240266e-05 -1.7540655e-05 1.3123736e-05 -2.8399218e-05
000160 1d 07 1e 37 a0 c7 1e 35 44 61 27 b5 d0 48 21 b6
       9.41919e-06 5.915008e-07 -6.235389e-07 -2.4033252e-06
000170 17 43 d9 b6 3b a5 5d b7 b0 df 01 b8 53 1f 29 37
       -6.4749142e-06 -1.3211097e-05 -3.0964322e-05 1.0080478e-05
000180 cc 6a 63 37 b1 b6 6a b7 84 a8 10 38 32 71 25 37
       1.355512e-05 -1.3990023e-05 3.4489218e-05 9.861122e-06
000190 23 7b dd b6 28 61 70 b7 1c 4b 8d b7 2f d2 a0 b5
       -6.6006482e-06 -1.4327736e-05 -1.6843485e-05 -1.19821e-06
0001a0 76 35 0a b7 0a 6a 65 37 5c 6a ab b7 67 70 5f b6
       -8.237888e-06 1.3674153e-05 -2.0434316e-05 -3.3295016e-06
0001b0 ca 09 14 b7 72 aa fe 35 3c 93 9c 35 c6 09 4b b4
       -8.823767e-06 1.8974081e-06 1.1665757e-06 -1.8909404e-07
0001c0 80 89 e3 b6 c3 60 a2 36 93 35 2b b8 9a db bb b7
       -6.7811343e-06 4.839241e-06 -4.0819472e-05 -2.2394397e-05
0001d0 fc 7e e2 b7 30 66 81 36 67 4f 50 b5 1a 4f bd b5
       -2.7000431e-05 3.856396e-06 -7.7601584e-07 -1.4104619e-06
0001e0 20 c1 6c 36 b2 2d 12 b6 09 45 c9 b6 76 57 e8 36
       3.5279154e-06 -2.1782294e-06 -5.9983035e-06 6.9243206e-06
0001f0 07 da f1 b7 31 d8 3a 36 a3 bb fb 35 04 8d db b7
       -2.8830966e-05 2.7842e-06 1.8755567e-06 -2.61725e-05

exp_avg_sq f4 [128]
000000 0a df 0e 33 1a 64 a0 31 b4 8f 1f 34 38 c6 3a 32
       3.3264804e-08 4.667993e-09 1.4860308e-07 1.0871695e-08
000010 c3 6e 71 33 80 7a ad 32 22 df 3e 32 1f 7a 69 34
       5.6212922e-08 2.0195557e-08 1.111019e-08 2.1744243e-07
000020 56 fd 16 32 9b 4b b9 32 a9 16 f7 32 92 54 6d 34
       8.788751e-09 2.1571216e-08 2.876489e-08 2.2103112e-07
000030 25 03 f9 32 00 6d 1d 33 e8 c5 8d 34 52 bc 95 33
       2.8988845e-08 3.6653546e-08 2.6407292e-07 6.9726084e-08
000040 7d c4 0b 35 c8 7c 8e 33 34 ce f1 34 79 a6 5a 2d
       5.2067463e-07 6.635088e-08 4.503978e-07 1.242883e-11
000050 2b 41 ae 32 c5 f6 05 34 ed 15 d2 31 db 6d 08 33
       2.0285901e-08 1.2476364e-07 6.114297e-09 3.176488e-08
000060 80 fa f9 2f fc 8c a0 30 15 6c 9a 33 1b 62 6f 34
       4.5470827e-10 1.1681602e-09 7.190844e-08 2.22943e-07
000070 cc 0a 52 33 8b d9 32 32 87 5f 0a 31 16 56 97 34
       4.8904255e-08 1.0410427e-08 2.0135944e-09 2.8188578e-07
000080 44 ae db 34 ec 5c 86 31 b7 c3 bc 32 90 5d 73 30
       4.0918724e-07 3.9104773e-09 2.1975081e-08 8.8535845e-10
000090 87 86 70 33 6f 34 a6 31 9a ff 06 31 b1 0b f4 33
       5.6001706e-08 4.837197e-09 1.964486e-09 1.1364262e-07
0000a0 1d e5 95 33 a9 97 00 33 ff 1b 46 34 13 6c 01 34
       6.9800286e-08 2.9940256e-08 1.8450372e-07 1.2053378e-07
0000b0 d5 a4 b6 32 15 5b 02 32 17 84 1f 33 02 9b e0 31
       2.1262546e-08 7.587706e-09 3.7140207e-08 6.5368804e-09
0000c0 f8 2b 01 32 c9 f0 a6 32 f7 98 97 30 0a a6 e9 31
       7.518786e-09 1.943444e-08 1.1030171e-09 6.800069e-09
0000d0 5b 25 14 33 34 33 89 30 53 59 5d 33 5a fe 40 2f
       3.449291e-08 9.982615e-10 5.1536812e-08 1.7552662e-10
0000e0 da 42 fd 31 9e a6 02 32 27 99 74 33 c5 d9 42 30
       7.3708692e-09 7.60488e-09 5.694997e-08 7.088626e-10
0000f0 58 ef 9c 32 f5 db ba 33 c7 aa 6a 31 22 00 06 32
       1.8269631e-08 8.70131e-08 3.4148557e-09 7.799857e-09
000100 21 31 8f 33 fd 9b 0a 31 8c 1d 7f 2b 99 4f 20 34
       6.667893e-08 2.0170312e-09 9.0635203e-13 1.4930119e-07
000110 5b b2 15 31 56 1a 3b 30 58 30 c3 34 43 3e 78 32
       2.1783737e-09 6.806763e-10 3.6356755e-07 1.4449657e-08
000120 22 a1 b9 32 fd eb b4 33 43 9c 8e 33 58 78 a3 34
       2.161011e-08 8.424829e-08 6.640814e-08 3.0448678e-07
000130 4c 23 40 33 be 50 32 33 f8 37 0b 31 53 69 18 34
       4.4735586e-08 4.151729e-08 2.0258977e-09 1.419442e-07
000140 f8 20 d9 34 c3 5c 83 31 5e c1 7b 34 e2 3b 26 33
       4.0443388e-07 3.8231476e-09 2.3446543e-07 3.870435e-08
000150 a0 b1 30 34 80 4a d1 34 c5 42 d8 32 45 c5 44 34
       1.6455897e-07 3.898349e-07 2.5176073e-08 1.8325689e-07
000160 ab d3 da 33 ad b3 72 32 f7 62 b0 31 72 60 14 30
       1.0189918e-07 1.41271075e-08 5.133525e-09 5.3979143e-10
000170 e0 33 7e 33 ed e0 a0 34 ee f7 a8 34 94 7a 3c 32
       5.9186164e-08 2.9965977e-07 3.147283e-07 1.0970911e-08
000180 67 1f 84 32 a5 86 27 31 53 0d 28 35 07 7f 2d 33
       1.5381103e-08 2.4378235e-09 6.2604266e-07 4.0395232e-08
000190 59 d8 2a 34 d8 ae 47 31 6a af 24 35 93 b3 27 32
       1.591119e-07 2.9057698e-09 6.135002e-07 9.76151e-09
0001a0 6b 46 52 32 77 0a 55 32 6c 75 05 34 1c 08 82 34
       1.223962e-08 1.2400611e-08 1.2429308e-07 2.4220287e-07
0001b0 28 4d 2b 35 7f a8 89 32 f7 71 46 33 b7 78 35 30
       6.381474e-07 1.6025522e-08 4.6204118e-08 6.601896e-10
0001c0 e5 8c 7f 32 9a 47 0d 34 fa e7 96 34 34 07 a5 32
       1.4874989e-08 1.3157697e-07 2.8108462e-07 1.9211804e-08
0001d0 df 7a 00 34 fe 62 48 32 82 e8 d4 2f 86 ee ff 32
       1.1965629e-07 1.166404e-08 3.8727782e-10 2.9794375e-08
0001e0 05 b3 42 32 41 24 a2 31 a7 bd 13 31 a6 77 29 33
       1.13329905e-08 4.718942e-09 2.149912e-09 3.94572e-08
0001f0 7d 5e 9a 34 f2 2a 61 32 9c d9 62 32 1c 75 92 34
       2.8753485e-07 1.3106488e-08 1.320441e-08 2.7279827e-07
