results/test_5/Boss/Boss-999940.onnx (onnx, 75574 bytes, 7 tensors)

network_body._body_endoder.seq_layers.0.weight f4 [128, 7]
0	0x3ec322e1	0.38112548
1	0xbf83d091	-1.0298024
2	0x3e90abc4	0.28256047
3	0xbea05979	-0.31318262
4	0x3efd4916	0.49469823
5	0x3ed9dcd7	0.425513
6	0xbd421610	-0.04738432
7	0xbef305d7	-0.47465393
8	0xbeed28be	-0.46320146
9	0xbe013dfd	-0.12621303
10	0x3c4ed21f	0.012623339
11	0x3e2a1f67	0.16613542
12	0x3e923581	0.28556445
13	0xbed304a7	-0.41214487
14	0x3f0051a8	0.501246
15	0x3dd7e745	0.10542158
16	0xbeb47c18	-0.35250926
17	0x3d8bb36a	0.0682133
18	0x3f2aa3be	0.666561
19	0xbe60e5d8	-0.21962678
20	0xbcc7bab7	-0.024381025
21	0x3e77d860	0.24203634
22	0x3f172150	0.59035206
23	0xbdf94ee4	-0.1217325
24	0x3d247808	0.040153533
25	0x3f20c72c	0.6280391
26	0x3f187cb8	0.59565306
27	0x3ed6cf8c	0.4195522
28	0x3db8b277	0.090184145
29	0xbe18d9b4	-0.14926797
30	0x3e812911	0.25226644
31	0x3f3768a4	0.71644044
32	0x3eb04017	0.34423897
33	0x3e4ef490	0.2021048
34	0x3f286b01	0.65788275
35	0x3f0a8218	0.5410476
36	0xbf03a210	-0.5141916
37	0x3f000a4b	0.50015706
38	0x3e8af6b9	0.2714136
39	0xbe01e7a8	-0.12686026
40	0xbf506a09	-0.81411797
41	0x3de731a1	0.11288763
42	0xbdffa888	-0.12483317
43	0xbe361bc1	-0.17784025
44	0xbe8641f8	-0.26222205
45	0xbeb447e4	-0.35211098
46	0xbefed595	-0.49772325
47	0xbeacbca3	-0.33737668
48	0x3e38886a	0.18020788
49	0x3e8e27ae	0.27764648
50	0xbdbcf842	-0.09227039
51	0x3d7c021b	0.061525445
52	0xbe39bfba	-0.18139544
53	0x3eea56cb	0.45769343
54	0xbe79a8c8	-0.24380791
55	0xbdf35c36	-0.11882822
56	0x3f05bf0a	0.5224463
57	0x3ee9e5c2	0.45683104
58	0x3e9d889a	0.3076828
59	0x3e5e9dba	0.21739855
60	0xbe46a3cf	-0.19398426
61	0xbce04a6e	-0.02737924
62	0x3ea000ca	0.31250602
63	0xbd928095	-0.07153431
64	0xbe0c9538	-0.13728797
65	0xbe454561	-0.19264747
66	0xbedbed37	-0.42954418
67	0x3dbdce29	0.092678376
68	0xbd16f53b	-0.036854964
69	0x3f721579	0.94564015
70	0xbe8b384a	-0.27191383
71	0xbe9c78fd	-0.30561057
72	0x3df6f5c9	0.120585985
73	0xbe916ac4	-0.28401768
74	0xbea52f2f	-0.3226256
75	0x3ed014df	0.40640923
76	0x3f50feb5	0.8163865
77	0x3ec11484	0.37710965
78	0xbf05dc49	-0.52289253
79	0x3e1ff277	0.15619837
80	0x3e931bb1	0.28732064
81	0xbecf98d4	-0.40546286
82	0xbe7d9528	-0.2476393
83	0xbe2d3bd5	-0.16917355
84	0x3e8b116b	0.27161726
85	0xbd8c685b	-0.06855842
86	0xbde4e9c4	-0.111774
87	0x3e3209ca	0.17386547
88	0xbe0bd122	-0.13653997
89	0x3db3de26	0.08782606
90	0xbe132f09	-0.14373411
91	0xbf0fabc3	-0.5612146
92	0xbe3a6237	-0.18201528
93	0x3debb523	0.115091585
94	0xbebcbf42	-0.36864668
95	0x3e0e8ae9	0.13920178
96	0xbdf10801	-0.11769105
97	0x3f8838a2	1.0642283
98	0xbebeaac2	-0.37239653
99	0x3e4b64e0	0.198627
100	0x3e478511	0.19484355
101	0x3f004b3a	0.50114787
102	0x3f1195ea	0.56869376
103	0xbfab95c1	-1.3405076
104	0x3ceff0d0	0.029289633
105	0xbe6a03b4	-0.22852975
106	0xbe0c6500	-0.13710403
107	0x3f5e309b	0.86792916
108	0xbe9c6b00	-0.30550385
109	0x3dcb02d6	0.0991265
110	0x3eaef2bd	0.3416957
111	0x3f985b6e	1.1902902
112	0x3e802e47	0.25035307
113	0xbdb2b13a	-0.087252095
114	0xbed2d4a7	-0.41177866
115	0x3e9c51ae	0.30531067
116	0x3e09e0e7	0.134647
117	0x3f1508b3	0.582164
118	0x3eb89051	0.36047605
119	0xbe767231	-0.24066998
120	0x3e34dc86	0.17662248
121	0x3f15e286	0.5854877
122	0x3ee6628e	0.44997066
123	0xbe8f863f	-0.2803211
124	0x3d44e1d2	0.04806692
125	0x3eaea0a3	0.3410693
126	0x3ecd438b	0.40090594
127	0x3a0387b1	0.0005017473
128	0xbed2b19c	-0.4115113
129	0x3dd83014	0.10556045
130	0xbcd7b2f6	-0.026330452
131	0x3d5f8b0e	0.054575972
132	0x3f3ceff6	0.7380365
133	0xbef3217f	-0.47486493
134	0xbe2385b3	-0.15968971
135	0x3e5fe8cc	0.21866149
136	0x3edb7fd4	0.42870963
137	0xbee4456f	-0.44584224
138	0xbdcd14d6	-0.1001374
139	0xbe8d1f7d	-0.27563086
140	0x3eae4ff9	0.3404539
141	0xbdf5d331	-0.12003172
142	0xbe78908e	-0.24273893
143	0xbdf01b67	-0.117239766
144	0x3db545da	0.08851214
145	0x3da6f04a	0.081513
146	0xbef7bf5c	-0.48388183
147	0x3f3acb50	0.7296648
148	0x3eca00d6	0.39453763
149	0x3e27cc47	0.1638652
150	0x3e437fa7	0.19091664
151	0xbf43bb2e	-0.7645749
152	0xbd6f1966	-0.05837383
153	0xbe1d970f	-0.15389656
154	0xbed47834	-0.41497958
155	0x3ee0febc	0.43944347
156	0xbdfea676	-0.12434094
157	0xbf3ae079	-0.7299877
158	0xbd52ca1f	-0.05146229
159	0xbedc72f8	-0.43056464
160	0x3e21e1d0	0.15808797
161	0x3dae860e	0.08521663
162	0x3ddff4f4	0.10935393
163	0xbe1cdabe	-0.15317819
164	0xbea45b12	-0.3210073
165	0x3ea8cbc0	0.3296795
166	0xbe258c97	-0.16166912
167	0x3dd755ac	0.105143875
168	0xbdde0f92	-0.108428136
169	0x3e6a35eb	0.2287213
170	0xbea6b7a1	-0.32561973
171	0x3d7553eb	0.059894484
172	0xbeaec6f8	-0.34136176
173	0xbe19f5c7	-0.15035163
174	0x3e7beff1	0.24603249
175	0xbe8aef9d	-0.27135935
176	0xbecf27af	-0.40459964
177	0x3e5d8c46	0.21635541
178	0xbd475bb7	-0.04867145
179	0xbf1cb169	-0.61208206
180	0x3e63d4a9	0.22249092
181	0x3e2736c2	0.16329482
182	0x3e08b1bf	0.13349055
183	0x3f0c9be2	0.5492536
184	0x3e6ebf3c	0.23315138
185	0xbc6d070f	-0.014467015
186	0x3d0f9d83	0.035062324
187	0x3ee42b99	0.44564512
188	0x3e2c3dd9	0.16820468
189	0x3cb288d7	0.021793766
190	0x3e925640	0.2858143
191	0xbddae982	-0.10689069
192	0x3f5699da	0.8382851
193	0xbf5b3316	-0.85624826
194	0x3eb4cf28	0.35314298
195	0xbf5d0f48	-0.8635144
196	0x3f37afc6	0.71752584
197	0xbee3b39c	-0.4447297
198	0x3ee70747	0.4512274
199	0x3ec8d641	0.39225963
200	0x3df9ad90	0.121913075
201	0x3e856916	0.26056737
202	0x3e21201d	0.15734906
203	0xbe997718	-0.29973674
204	0xbc94cd41	-0.018164279
205	0xbe8a0f45	-0.26964775
206	0x3edbe44c	0.42947614
207	0xbe1dd5fb	-0.15413658
208	0x3ce03eab	0.027373632
209	0xbeb15614	-0.34635985
210	0xbe42743f	-0.18989657
211	0xbe4292ab	-0.19001262
212	0x3da3b8ba	0.07994218
213	0xbe0bb383	-0.13642697
214	0xbe02129b	-0.1270241
215	0x3e223119	0.15839042
216	0xbedc9387	-0.43081304
217	0x3f043122	0.5163747
218	0xbee052da	-0.4381321
219	0x3e34a0f8	0.1763953
220	0x3f02af98	0.51049185
221	0x3e8ee906	0.27912158
222	0x3e9d5444	0.30728352
223	0x3edc8bbf	0.43075368
224	0x3f015319	0.5051742
225	0x3dbfeeb5	0.09371702
226	0x3f2d4db4	0.6769669
227	0xbec5f102	-0.38660437
228	0x3b30bab9	0.0026966764
229	0xbef2eae5	-0.47444835
230	0xbf0b481e	-0.5440692
231	0xbe16a6e0	-0.14712095
232	0xbf19446c	-0.5987003
233	0x3d2b4d10	0.04182154
234	0xbf1e663e	-0.6187476
235	0x3d608cb9	0.054821704
236	0xbe3b6576	-0.18300423
237	0x3e034ba8	0.1282183
238	0xbef9620a	-0.4870761
239	0x3ce5141b	0.027963689
240	0xbb862f6a	-0.0040950077
241	0xbf08c8a5	-0.5343116
242	0xbd9695df	-0.073528044
243	0x3d0585d2	0.032598324
244	0x3f384e04	0.7199404
245	0xbeeef7fa	-0.46673566
246	0x3f0a8ddb	0.54122704
247	0xbe38be46	-0.18041334
248	0x3d9ea625	0.07746533
249	0xbe65a711	-0.22427012
250	0x3eb5861d	0.35453883
251	0x3ef45f4c	0.47728956
252	0xbd2d4fe8	-0.042312533
253	0x3c5db7aa	0.013532558
254	0x3dca8c8b	0.09890088
255	0x3e5c96ab	0.2154185

network_body._body_endoder.seq_layers.0.bias f4 [128]
0	0x3a8784e2	0.0010339285
1	0x3cb12df1	0.021628352
2	0xbb8e1c33	-0.0043368577
3	0xbc2e3b8f	-0.010634317
4	0xbc3ed72b	-0.01164798
5	0xbb7ee640	-0.0038894564
6	0x3bd02818	0.006352436
7	0xba6b2846	-0.000897054
8	0xbc832d94	-0.016012944
9	0x3d150867	0.036384966
10	0x3cd733ff	0.02626991
11	0xbbb6684e	-0.0055666333
12	0xbc197bb8	-0.009367876
13	0x3d86f04c	0.06588802
14	0xbbdb46fe	-0.0066918125
15	0x3d55dac5	0.052210588
16	0xbc0af7be	-0.008481918
17	0x3bbd5a43	0.0057785823
18	0xbb0d901e	-0.0021600793
19	0x3d356e19	0.04429445
20	0xbcd4342f	-0.02590379
21	0xbb2280b7	-0.0024795958
22	0xbc7dc544	-0.015488926
23	0x3bb0f64f	0.005400456
24	0xbc59f658	-0.013303362
25	0xbc012517	-0.007882378
26	0x3bf0fda6	0.007354456
27	0xbaaa3567	-0.0012985886
28	0xbbdf747a	-0.006819305
29	0xbc0e4c85	-0.008685236
30	0xbae017cd	-0.0017096937
31	0x3a1be660	0.00059471093
32	0x3b9e37ec	0.0048284438
33	0x3c3c4d62	0.011493059
34	0x3c8a5f23	0.016891068
35	0x3beb5a76	0.0071824146
36	0xbbc2dd1f	-0.00594677
37	0x3ca86b90	0.020559102
38	0xbc86b831	-0.016445251
39	0xbbbbd41a	-0.0057320716
40	0x3b8e2eeb	0.004339089
41	0xbc0f238d	-0.008736503
42	0xbbe7b43c	-0.007071046
43	0xbbaf796b	-0.0053550503
44	0x3c6344e4	0.013871405
45	0x3cd82c81	0.026388409
46	0xbc9409cc	-0.018071078
47	0xbb3d08bf	-0.0028844324
48	0x3c1a9226	0.009434259
49	0xbc36025b	-0.01110896
50	0x3bbdc4d9	0.0057912883
51	0xba889daa	-0.0010422964
52	0xbc77c4c3	-0.015122595
53	0xbae1fa21	-0.0017240682
54	0xbbf9b01b	-0.0076198704
55	0x3b24c238	0.0025140177
56	0x3cd36a7f	0.025807617
57	0x3c7e0027	0.015502966
58	0x3a2a88d6	0.00065053755
59	0xb98a4d1d	-0.00026378865
60	0xbca00650	-0.01953426
61	0xbbe698e4	-0.007037269
62	0x3da70df0	0.08156955
63	0xbb3f58c5	-0.0029197198
64	0xbc026f7e	-0.007961152
65	0x3c97a4e7	0.018511249
66	0x3b800fb3	0.0039081215
67	0x3b4f488f	0.0031628942
68	0x3c7cdcff	0.015433549
69	0xbb369a9c	-0.002786315
70	0xba31799f	-0.0006770137
71	0x3abe8421	0.0014535227
72	0x3b3b4070	0.0028572343
73	0x3bd08136	0.0063630594
74	0xbaf8b2fb	-0.0018974239
75	0xbc1171e3	-0.00887725
76	0x3a506452	0.0007949519
77	0xbc81292a	-0.015766699
78	0xbc3519ec	-0.011053544
79	0xbc3f011b	-0.011657978
80	0xbb6a2b27	-0.0035731287
81	0xbbf8254b	-0.007572805
82	0x3b3185ed	0.0027087883
83	0xbbf82e68	-0.0075738914
84	0x3bab67bf	0.0052308734
85	0xb8ab74a8	-8.175644e-05
86	0x3d2c19fb	0.042016964
87	0x3bc8eb1b	0.0061315424
88	0x3acff88a	0.0015866917
89	0xbafbb511	-0.0019203742
90	0xbb7d4baa	-0.0038649836
91	0xbc1674da	-0.009183133
92	0xba5a7a31	-0.0008334248
93	0xb984ba88	-0.0002531598
94	0x3860c783	5.359157e-05
95	0xbc827c1b	-0.015928319
96	0x3ac26b7f	0.0014833062
97	0xbaf7389c	-0.0018861475
98	0xbb70344b	-0.0036652263
99	0xbc93ae39	-0.018027412
100	0xbb9a0c3b	-0.004701165
101	0xbc76eacf	-0.015070631
102	0x39a77c0f	0.00031945153
103	0xbc2c9b6f	-0.010535105
104	0xbc3a34b0	-0.011365101
105	0x3b1036f5	0.0022005413
106	0x3b4374a5	0.0029824164
107	0xbb9849a2	-0.0046474496
108	0x3a6a065f	0.0008927341
109	0x393c386c	0.00017950096
110	0xbc8edb3f	-0.017438529
111	0x3c0667a5	0.008203422
112	0x3c12ba22	0.00895551
113	0x3bf21369	0.007387568
114	0x3b5a0eae	0.003327291
115	0x3cea3d9f	0.028593836
116	0x3a305aca	0.0006727396
117	0x3c4ba248	0.012428828
118	0xbcd13d58	-0.025541946
119	0xbbc4675a	-0.005993766
120	0xbba87281	-0.005140603
121	0x3adae3d5	0.0016699979
122	0xbadf6970	-0.0017044973
123	0x3c8f679c	0.01750546
124	0x3b9909f7	0.0046703774
125	0x3b9dbb01	0.0048135524
126	0x3c8aa37a	0.016923655
127	0x3b3a98e2	0.0028472473

network_body._body_endoder.seq_layers.2.weight f4 [128, 128]
0	0x3d6a9df2	0.057279535
1	0xbdca0889	-0.09864909
2	0x3dd28aa4	0.1028035
3	0xbbff4685	-0.007790389
4	0x3e005198	0.12531126
5	0x3dfc3f44	0.123167545
6	0x3e44802f	0.19189523
7	0x3bdc3d4a	0.0067211734
8	0xbc98e27b	-0.018662682
9	0xbc903479	-0.017603146
10	0x3d9f9385	0.07791809
11	0xbe0dd1ac	-0.13849515
12	0x3c20f94b	0.009825061
13	0xbd4db01f	-0.05021679
14	0x3dc71879	0.09721465
15	0xbc0aebf1	-0.008479104
16	0x3db8c32a	0.090215996
17	0xbe1a7381	-0.15083124
18	0xbd02c3e6	-0.031925105
19	0xbdaee84e	-0.08540402
20	0xbdb00308	-0.08594328
21	0x3c2ecbdf	0.010668724
22	0x3e5c13a0	0.21491861
23	0xbd44b3b2	-0.048022933
24	0xbd82527e	-0.063633904
25	0x3d041d49	0.03225449
26	0xbd9f515f	-0.07779192
27	0xbd8da205	-0.069156684
28	0x3d354796	0.044257723
29	0x3d670064	0.056396857
30	0x3d6a946a	0.057270445
31	0xbd91d4c1	-0.07120658
32	0x3d8bd6bc	0.06828067
33	0x3e2ca66f	0.16860364
34	0x3d12cf28	0.03584209
35	0x3daa8b5d	0.08327363
36	0x3dcf3d20	0.101190805
37	0x3dafcd95	0.085841335
38	0x3d1b24f5	0.03787704
39	0xbd8c1674	-0.0684022
40	0xbde37d97	-0.11107939
41	0xbc15a61b	-0.009133841
42	0x3d08c776	0.033393346
43	0xbd3f5798	-0.046714395
44	0xbbf5378d	-0.007483429
45	0x3b88136b	0.0041527054
46	0x3bf6b732	0.007529163
47	0xbde2cde2	-0.11074425
48	0x3c0f2ffd	0.008739469
49	0xbda5cc39	-0.08095593
50	0xbd636eaa	-0.05552546
51	0x3e2ed48a	0.17073265
52	0xbe306542	-0.17226127
53	0x3da0aa5f	0.07844996
54	0x3df0a5eb	0.11750396
55	0x3d93e1a2	0.072207704
56	0xbd03f3c7	-0.032214906
57	0xbe06c6c9	-0.13161768
58	0x3d01e9f9	0.031717274
59	0xbc898770	-0.016788214
60	0xbcd5a3b4	-0.026079036
61	0x3d7de63c	0.061987147
62	0x3db4a123	0.08819797
63	0xbe5932a8	-0.2121073
64	0xbd40bf5b	-0.04705749
65	0x3e64b2f0	0.22333884
66	0x3d963b63	0.07335546
67	0xbd6c1f52	-0.057647057
68	0xbdbca8f0	-0.0921191
69	0x3d81bc87	0.06334787
70	0xbdb99001	-0.0906067
71	0x3cc4650a	0.02397396
72	0xbe0e658d	-0.13905926
73	0xbc10e649	-0.008843967
74	0x3d3cedeb	0.046125334
75	0xbd38d84a	-0.045128144
76	0xbaba482b	-0.0014212182
77	0xbd90e342	-0.07074596
78	0xbe29f04e	-0.16595575
79	0x3db0f52f	0.08640515
80	0xbd778738	-0.06043169
81	0xbd2a2aba	-0.041544653
82	0xbe1e09d1	-0.15433432
83	0x3dafd045	0.08584646
84	0x3e021137	0.1270188
85	0xbd901704	-0.0703564
86	0x3c761fd3	0.015022236
87	0xbc4105eb	-0.011781196
88	0xbdea4067	-0.11438065
89	0x3b7dceb5	0.0038727943
90	0xbd32e138	-0.043671817
91	0x3dcd7165	0.10031394
92	0xbd317c23	-0.043331277
93	0x3be7920f	0.007066972
94	0x3cad2f5c	0.021140747
95	0x3c27f564	0.010251377
96	0xbceff534	-0.029291727
97	0x3d76fcaf	0.06029957
98	0xbdc83afb	-0.09776875
99	0xbceb396b	-0.028713902
100	0x3d8d65eb	0.06904205
101	0xbdc9984a	-0.098435
102	0x3e070ae3	0.13187747
103	0x3d02416e	0.03180068
104	0xbc86d7f1	-0.01646039
105	0xbc7cadf5	-0.015422334
106	0xbd328f2e	-0.043593578
107	0xbd6358a0	-0.05550444
108	0xbd74db19	-0.05977926
109	0xbd9ad7d6	-0.07560699
110	0xbe5bc45e	-0.21461627
111	0x3ddf814a	0.10913332
112	0x3d21bbc1	0.039485697
113	0xbc534d2c	-0.012896817
114	0xbd8b04f1	-0.06788052
115	0x3cb8889d	0.02252608
116	0xbdfbcc6c	-0.1229485
117	0x3d4ed67d	0.05049752
118	0x3e81392a	0.25238925
119	0xbe05c906	-0.13064966
120	0xbcafaf6c	-0.021445952
121	0x3d98f902	0.074693695
122	0xbd330be4	-0.04371251
123	0x3e423805	0.18966682
124	0xbddcf903	-0.10789683
125	0xbe4f8dca	-0.20268932
126	0x3e186214	0.14881164
127	0xbe35f6e4	-0.17769963
128	0xbd7e9fa7	-0.062163975
129	0x3cad1200	0.021126747
130	0xbd9e77f0	-0.0773772
131	0x3cee212d	0.029068554
132	0xbdb8b482	-0.09018804
133	0x3c9ab3ad	0.018884504
134	0x3d0750ed	0.03303616
135	0xbd119080	-0.035538197
136	0x3e1aac3c	0.15104765
137	0x3cac37d2	0.021022711
138	0xbd76f91b	-0.06029616
139	0x3c54953d	0.012975034
140	0x3c802780	0.015643835
141	0x3d8098cd	0.062791444
142	0xbde5faf1	-0.11229504
143	0x3d2197b3	0.039451312
144	0x3df34b3a	0.11879583
145	0x3d34c3e3	0.044132125
146	0xbdab952f	-0.08378064
147	0x3d7da1de	0.061921947
148	0x3e456f57	0.19280754
149	0xbc169337	-0.009190372
150	0xbd0e47d9	-0.034736488
151	0x3c9f6f98	0.019462392
152	0xbdddfe75	-0.108395495
153	0xbd5a6365	-0.053317446
154	0x3db1d4f0	0.08683193
155	0xbdc6afa4	-0.097014695
156	0xbddcfc51	-0.10790313
157	0xbd0f26ba	-0.034949042
158	0x3b412048	0.0029468704
159	0x3c83af8e	0.016074922
160	0x3c168a0d	0.009188187
161	0xbd91af54	-0.07113519
162	0x3e1c3255	0.15253575
163	0x3cc5ad0b	0.024130365
164	0x3e0ba149	0.13635744
165	0x3db69df3	0.08916845
166	0xbd6a7b19	-0.0572463
167	0x3d84830d	0.064703085
168	0x3c47cc36	0.012194684
169	0x3d8c2097	0.068421535
170	0x3dd24069	0.102661915
171	0xbe2c94d6	-0.16853651
172	0x3d0fa280	0.03506708
173	0x3d41e267	0.047335055
174	0x3a0cce73	0.00053713395
175	0x3db86e08	0.09005362
176	0xbd839e41	-0.06426669
177	0xbc9d449d	-0.019197756
178	0xbde24aa2	-0.11049391
179	0xbdcab8d6	-0.09898536
180	0x3d40d7dc	0.04708086
181	0xbd4d96d9	-0.050192688
182	0xbd80de34	-0.06292382
183	0xbc971ae7	-0.018445445
184	0xbcbb3256	-0.02285115
185	0x3c4b3604	0.012403015
186	0xbe3bca1e	-0.1833882
187	0xbe01cd46	-0.12675962
188	0x3d0c3185	0.034226913
189	0x3d17df76	0.037078343
190	0xbc844791	-0.016147407
191	0xb8926a84	-6.9816626e-05
192	0xbda705b6	-0.08155386
193	0xbdc13933	-0.09434738
194	0xbd9397ae	-0.07206665
195	0xbd0d764d	-0.03453665
196	0xbd5ade32	-0.05343456
197	0xbce1ec03	-0.02757836
198	0x3e133df4	0.14379102
199	0x3dbfbd84	0.09362319
200	0x3ddb4b54	0.10707727
201	0x3de96311	0.113958485
202	0xbe042235	-0.12903674
203	0xbc9039fb	-0.017605772
204	0xbe125f85	-0.1429425
205	0xbcf897a4	-0.030345745
206	0xbda33bb4	-0.07970372
207	0xbdac51f8	-0.08414072
208	0xbd47aa2f	-0.048746284
209	0xbcd1f35d	-0.02562874
210	0x3e4b5d1b	0.19859736
211	0xbd47399a	-0.048638918
212	0x3d8bf42b	0.06833681
213	0xbd7a8f9d	-0.061172117
214	0xbc9be5d8	-0.019030496
215	0x3e14dcbd	0.1453733
216	0xbe00aa99	-0.12565078
217	0x3d1af148	0.03782776
218	0x3d95aaf9	0.07308001
219	0x3d170826	0.036873005
220	0xbe2535b4	-0.16133767
221	0xbc8f68aa	-0.017505962
222	0x3c2d7362	0.010586591
223	0x3eb45e50	0.35228205
224	0xbdd96fcd	-0.106170274
225	0x3ddfa026	0.10919218
226	0x3e00ebf9	0.12590016
227	0x3c567a37	0.013090662
228	0xbb9f15e7	-0.004854906
229	0xbe48ac08	-0.19596875
230	0xbd6e2fbf	-0.058151003
231	0x3cac052c	0.02099856
232	0x3ddf4ca7	0.10903292
233	0x3d62a8e9	0.055336867
234	0x3cd54b5f	0.026036916
235	0x3dad24d7	0.08454292
236	0xbca26a6d	-0.019826138
237	0xbdb69929	-0.08915932
238	0x3e35ec53	0.17765932
239	0x3d2fe23e	0.04294037
240	0x3dde0d96	0.10842435
241	0xbd9369dd	-0.07197926
242	0x3dc04ed2	0.09390034
243	0xbd77d09e	-0.060501687
244	0x3da97f28	0.08276206
245	0xbccc56cd	-0.024943734
246	0x3dac5dfe	0.08416365
247	0xb8c23f80	-9.262469e-05
248	0xbdc60bc1	-0.09670211
249	0xbe683a2a	-0.22678438
250	0x3d85ae24	0.06527355
251	0xbdd313a9	-0.10306484
252	0x3e2dca91	0.16971804
253	0xbdb3036a	-0.087408856
254	0x3d8d375d	0.06895325
255	0x3db839cd	0.089953996

network_body._body_endoder.seq_layers.2.bias f4 [128]
0	0x3b5c3ea2	0.0033606668
1	0xb9b322cf	-0.00034167475
2	0x3bb514c6	0.005526158
3	0x3cdbcbdf	0.026830612
4	0xb74c54f7	-1.217913e-05
5	0xbc02af81	-0.007976414
6	0xbc4c0841	-0.01245314
7	0xbbe88f2a	-0.0070971446
8	0xbc545d35	-0.012961675
9	0x3d007ab2	0.03136701
10	0x3b83a63a	0.0040176185
11	0xbc04b339	-0.008099371
12	0x3bf3c0b5	0.007438744
13	0xbbad2a45	-0.00528458
14	0xbc398ca5	-0.011325036
15	0xbc79b0f4	-0.015239943
16	0x3bcc2367	0.006229806
17	0x3beb7df1	0.0071866442
18	0x3b8a337a	0.0042175623
19	0x3bace1a9	0.005275924
20	0xbc87e10a	-0.0165868
21	0xbc9b8269	-0.018983083
22	0xbbcc69f9	-0.006238219
23	0xbc28b24c	-0.010296416
24	0x3b44c79f	0.003002621
25	0x3b037424	0.002005824
26	0xbc156c31	-0.009120033
27	0xbc11dcad	-0.008902711
28	0xbb994b3c	-0.004678158
29	0xbb9a8e73	-0.0047166883
30	0xba07ec2b	-0.0005185033
31	0xbb8c1ac7	-0.004275653
32	0x3bd33e20	0.006446615
33	0x3bb7fac8	0.0056146123
34	0xbbf0eb46	-0.0073522655
35	0x3be9e4d4	0.007137874
36	0xba2081f5	-0.0006122881
37	0xbc037745	-0.008024042
38	0xb9adf7e1	-0.00033181816
39	0x3bc88aa5	0.0061200433
40	0x3afbe7cd	0.0019218862
41	0xba6a0b4c	-0.0008928075
42	0xbb2b8602	-0.0026172404
43	0xbc06eebf	-0.008235632
44	0xbba7dd73	-0.0051228344
45	0xbb8860ae	-0.0041619157
46	0xba8988ac	-0.0010493002
47	0x3c61330f	0.0137450835
48	0xbbbd8126	-0.005783218
49	0xbc0a289f	-0.008432536
50	0x3b66708e	0.0035162303
51	0xbad820a3	-0.0016489219
52	0xbae21a5f	-0.0017250291
53	0xbbfc37d0	-0.007697083
54	0xbbc2f3bc	-0.0059494656
55	0x3b9a06a4	0.0047004987
56	0x3b1a9702	0.0023588543
57	0x3ccb9d5b	0.024855306
58	0x3c42771b	0.011869217
59	0xbc65306e	-0.013988597
60	0x3c0a1817	0.008428595
61	0x3d14a7ef	0.036292966
62	0xbc337e24	-0.010955367
63	0x3b8da4a3	0.0043226047
64	0xbc8e263c	-0.017352216
65	0xbbac639a	-0.005260897
66	0xbca1d218	-0.0197535
67	0xbb80f931	-0.003935956
68	0xbbcbf74b	-0.006224548
69	0x3c37623a	0.011192853
70	0xbb25c4af	-0.0025294235
71	0x3a6311ab	0.00086619955
72	0xbc0b483d	-0.00850111
73	0xbbc13356	-0.0058960123
74	0xbb3751b9	-0.0027972294
75	0x3c210250	0.0098272115
76	0xbb127780	-0.002234906
77	0xbc884d41	-0.0166384
78	0xbbdc5ad7	-0.006724696
79	0x3b50ffa2	0.003189065
80	0xbc81c8d1	-0.015842827
81	0x39184f9e	0.0001452551
82	0xbb06b132	-0.0020552394
83	0xbbbc94ce	-0.0057550436
84	0xbc3ea9d7	-0.011637173
85	0xbc257253	-0.010098058
86	0x3ae9baf2	0.0017832203
87	0x39f61cee	0.0004694233
88	0xbb4e1fbd	-0.0031452023
89	0xbc10265d	-0.008798209
90	0xbb8b419f	-0.004249766
91	0xbad85298	-0.0016504107
92	0x3bc98d33	0.0061508655
93	0x3c8add47	0.016951216
94	0xbab7ea61	-0.0014031642
95	0x3b56f9de	0.003280274
96	0x3b95818b	0.004562562
97	0x3ba7fcae	0.0051265573
98	0x3b901950	0.0043975487
99	0x3cb1405f	0.02163714
100	0x3b9af280	0.0047286153
101	0xbc15aecc	-0.009135913
102	0x3a320a6c	0.0006791714
103	0x3b974610	0.0046165064
104	0xbc01cc74	-0.007922281
105	0x3a5cc6c1	0.00084219506
106	0xbb7eb429	-0.0038864708
107	0x3d41cb47	0.047313
108	0x3c294c7c	0.010333177
109	0x3bb495cf	0.0055110226
110	0x3a90b655	0.0011040667
111	0xbbe4fc46	-0.006988081
112	0xbbbb7454	-0.0057206545
113	0x3bdb79a1	0.006697849
114	0xbc9000e0	-0.017578542
115	0x3a5c658d	0.0008407466
116	0xbc9d36ec	-0.019191228
117	0x3b3ebb11	0.00291032
118	0x3bb3f6d7	0.005492072
119	0xbbaf1566	-0.005343127
120	0x3c0efe55	0.00872763
121	0x3c87a215	0.016556779
122	0x3c1642af	0.009171172
123	0x39bd1b1e	0.00036069093
124	0xbbd9b2d5	-0.006643633
125	0xbaea2296	-0.0017863091
126	0xbb0d649d	-0.0021574863
127	0xbb430cf0	-0.002976235

action_model._continuous_distribution.log_sigma f4 [1, 2]
0	0x3b220786	0.0024723723
1	0xbe5e3ee6	-0.21703681

action_model._continuous_distribution.mu.weight f4 [2, 128]
0	0x3d14b8cd	0.036309052
1	0x393e81cc	0.00018168165
2	0x3d10cfd7	0.03535446
3	0x3da19d4c	0.0789133
4	0x3b9e7f15	0.0048369267
5	0xbc247bc2	-0.010039272
6	0x3a9cdb2e	0.0011967176
7	0xbbee5f21	-0.007274524
8	0x3af2ef16	0.0018534388
9	0x3da33b5b	0.079703055
10	0x3bc67b75	0.0060571977
11	0x3bd25b9c	0.006419612
12	0x3cd9505a	0.026527572
13	0xbc0e4563	-0.008683535
14	0xbcf2abeb	-0.029622993
15	0xbcc65a85	-0.024213085
16	0xbd8c8231	-0.068607695
17	0x3d02e2cb	0.031954568
18	0x3cb2e1ce	0.021836188
19	0x3c7b1c1c	0.015326526
20	0xbb086dd9	-0.0020817427
21	0xbc4e1ac2	-0.012579622
22	0xbc8824e7	-0.016619159
23	0xb8c03849	-9.1657574e-05
24	0x3c1a3135	0.009411146
25	0x3c928539	0.017885791
26	0xbbd7cc36	-0.006585623
27	0xbc3bb1e0	-0.011455983
28	0x3b2f8358	0.0026781168
29	0xbb805db0	-0.0039174184
30	0x3c1d91b4	0.009617258
31	0xbbfa9b01	-0.0076478724
32	0x3d1d1236	0.038347445
33	0xbda2ed0d	-0.0795537
34	0xba50573c	-0.0007947569
35	0x3ccfff0a	0.025390167
36	0x3bac0d05	0.0052505755
37	0x3cd51701	0.026011946
38	0xbcd79f55	-0.026321093
39	0x3ca1096c	0.019657813
40	0x3c990897	0.018680854
41	0x3bdbcd69	0.0067078364
42	0xbccee7b9	-0.025256978
43	0x3a57dc07	0.0008234386
44	0xbbf81107	-0.007570389
45	0x3c09ef4c	0.008418869
46	0xbd227fc0	-0.039672613
47	0x3ca99fbc	0.02070605
48	0xbcc9125f	-0.024544893
49	0xbbe298f5	-0.0069152066
50	0x3ca2022c	0.019776426
51	0x3b21ff28	0.0024718735
52	0xbbad4ef3	-0.0052889525
53	0xbb8410a5	-0.0040303045
54	0xbc208207	-0.009796626
55	0x3cbc730d	0.02300408
56	0x3c4e2e6a	0.012584308
57	0xbd73320c	-0.0593739
58	0x3d41591d	0.047204126
59	0xbb5b1683	-0.0033430166
60	0x3cbf66fa	0.023364533
61	0x3dfd7290	0.12375367
62	0xbc16495b	-0.009172763
63	0x3c663c0f	0.014052405
64	0xbcbedeb1	-0.023299547
65	0x3b655646	0.003499405
66	0x3cc4a579	0.024004685
67	0xbb344477	-0.0027506629
68	0x3b4d7c02	0.0031354432
69	0x3d2afff6	0.04174801
70	0x3be8096f	0.0070812027
71	0xbdfdbda7	-0.12389689
72	0xbc01afd7	-0.007915459
73	0xbc737114	-0.014858503
74	0xbcfe5f62	-0.031051341
75	0x3cfc7f50	0.030822426
76	0x3b009520	0.0019620135
77	0xbbc1a17e	-0.005909144
78	0xbc7885f8	-0.015168659
79	0x3c58aa34	0.013224173
80	0xbb814c2d	-0.0039458484
81	0x3c103407	0.008801467
82	0x3b89c204	0.0042040367
83	0xbc1af703	-0.009458306
84	0xba966036	-0.0011472765
85	0xb94b09e1	-0.00019363269
86	0x3c4dcd6d	0.012561184
87	0x3bc15a7e	0.00590068
88	0xbaa4e092	-0.0012579134
89	0xbc8de547	-0.017321242
90	0xba702ed7	-0.0009162253
91	0x3bceb810	0.006308563
92	0x3c637916	0.01388385
93	0x3d0f1ca4	0.034939423
94	0xbb832b43	-0.00400296
95	0x3c70d8b1	0.014700101
96	0x3cd95b23	0.026532715
97	0x3c9d20b1	0.019180628
98	0xbdab450d	-0.0836278
99	0x3d28092e	0.04102438
100	0xbc7df4af	-0.015500232
101	0x3bb54b9d	0.0055326954
102	0x3bde9364	0.0067924727
103	0x3cd7305a	0.026268173
104	0xbb93cca2	-0.004510478
105	0x3ba05b88	0.004893724
106	0x3b734380	0.003711909
107	0x3d87c9e4	0.066303045
108	0x3d81f495	0.063454784
109	0x3d06e433	0.03293247
110	0x3bd99384	0.0066398997
111	0xbc49bfba	-0.012313778
112	0xbcdfa2f7	-0.027299387
113	0xbc73eabc	-0.014887508
114	0xbc57d210	-0.013172641
115	0x3c146d06	0.009059196
116	0x3cb11b7c	0.02161955
117	0x3bfa854c	0.0076452848
118	0x3c8e14ef	0.017343966
119	0xbc0eb3f5	-0.008709897
120	0x3c73250c	0.014840376
121	0x3cfc8411	0.030824693
122	0xbdd076b2	-0.10178889
123	0x3ca91039	0.020637618
124	0xbcef838c	-0.029237531
125	0x3c1bf9d3	0.009520012
126	0x3bc02a16	0.005864392
127	0x3b87941b	0.0041375286
128	0x3c7fe92e	0.015619559
129	0x3cdb1692	0.02674416
130	0xbcbf854e	-0.023378994
131	0x3ae34099	0.0017337977
132	0x3cdcd6b6	0.02695785
133	0xbbdea1ef	-0.0067942063
134	0xbaad4481	-0.0013219268
135	0xbcd1e8e4	-0.025623746
136	0xb9ba317a	-0.00035513547
137	0xbb6ebf98	-0.0036430117
138	0x3c98723c	0.018609159
139	0xbce3f1bc	-0.027825229
140	0x3c2654b7	0.0101520335
141	0x3c50199a	0.012701416
142	0xbcab0901	-0.020878317
143	0x3b65bc75	0.0035054956
144	0xbb8d2b7a	-0.0043081613
145	0xb9c926ed	-0.0003836671
146	0xbc25101b	-0.010074641
147	0x3c0e6e7a	0.008693332
148	0x3a475657	0.0007604113
149	0xbbb39de1	-0.005481467
150	0x3c00d6ae	0.007863684
151	0xb9b66edf	-0.0003479635
152	0x3c500981	0.012697578
153	0x3d164e01	0.036695484
154	0xbbc51f28	-0.006015677
155	0x3bbe169b	0.0058010346
156	0xbaba30da	-0.0014205233
157	0x3c35b040	0.011089385
158	0xbc75a519	-0.014992976
159	0x3c4bd256	0.012440285
160	0x3c653f17	0.013992093
161	0xbb52608d	-0.0032101006
162	0xbbe30298	-0.0069277994
163	0xbae41efc	-0.0017404254
164	0x3c37edc3	0.01122612
165	0x3d2781bf	0.04089522
166	0xbca09475	-0.01960204
167	0x3b0a91a5	0.002114394
168	0x3c26f925	0.010191237
169	0x3b426e9a	0.0029667974
170	0x3cccc7a9	0.02499755
171	0xbc7b4e72	-0.015338527
172	0xbc9dcb45	-0.019261966
173	0x3a8771ba	0.0010333576
174	0xbc9591c2	-0.01825798
175	0x3bb483ae	0.0055088615
176	0x3b6b8cb5	0.0035942022
177	0xbc84c8ff	-0.016209124
178	0x3aabd497	0.0013109621
179	0x3b1cfa9e	0.002395309
180	0xbd3265fe	-0.0435543
181	0xbc14dc22	-0.009085687
182	0xbb40ea35	-0.0029436473
183	0xba798764	-0.0009518771
184	0xbb1af5f4	-0.0023645135
185	0x3bb1601c	0.0054130685
186	0xbc0fac91	-0.00876917
187	0xbad98d65	-0.0016597925
188	0x3c949df6	0.018141728
189	0x3bc9a494	0.0061536524
190	0xbb31a81c	-0.0027108258
191	0xbc45e6fe	-0.012078999
192	0xbbe4f9d8	-0.0069877915
193	0xbc883e5e	-0.016631301
194	0x3ba8fff4	0.005157465
195	0x3cc056ac	0.023478828
196	0xbb43aad6	-0.0029856465
197	0x3c31c386	0.010849839
198	0x3cafdb82	0.021466974
199	0xbcb8e5f1	-0.022570582
200	0xbc9bc5fa	-0.019015301
201	0xbb905be0	-0.0044054836
202	0x3be4dfe3	0.006984697
203	0xbc1a5894	-0.009420533
204	0x3b8b5160	0.004251644
205	0x3c2fea76	0.010737052
206	0xbc7f45e6	-0.01558063
207	0x3bdf80d3	0.006820777
208	0xba2e94e0	-0.00066597573
209	0xbcab45c8	-0.020907298
210	0xbb343aa7	-0.002750078
211	0xbbccaadc	-0.006245954
212	0x3a2230a7	0.00061870593
213	0xbb923236	-0.004461552
214	0x3b1d8f13	0.0024041578
215	0x3c642d1f	0.013926773
216	0x3b858550	0.00407473
217	0xbc49c175	-0.01231419
218	0x3ae4e78b	0.0017464025
219	0xbbb6c787	-0.0055779847
220	0xbc0669f1	-0.008203969
221	0xbc8ce709	-0.01720001
222	0x3cd09eea	0.025466401
223	0x3c0faf6b	0.00876985
224	0xbc9f65d2	-0.019457731
225	0xbb4dec07	-0.00314212
226	0xbd39d09f	-0.045364972
227	0x3c088c9d	0.008334306
228	0x3c964c8f	0.018347053
229	0xbd27ac84	-0.040936008
230	0x3b95edf9	0.0045754877
231	0xbb7def43	-0.0038747347
232	0xbc946d8f	-0.018118648
233	0x3cbfe9bd	0.023426885
234	0xbb89983d	-0.0041990564
235	0xbb90384e	-0.0044012433
236	0x3c4f2284	0.0126425065
237	0xbc9cbe44	-0.019133694
238	0x3c7aeb6f	0.015314921
239	0xbc85f10b	-0.01635029
240	0x3ba1f0e1	0.004942045
241	0x3cc1b410	0.02364543
242	0xbc0dc13e	-0.00865203
243	0x3ca1c78d	0.019748474
244	0x3c0ceb32	0.008600997
245	0x3c8c5ccb	0.01713409
246	0x3c08e772	0.008355962
247	0xbcbe2b97	-0.023214145
248	0xbb9d3f77	-0.0047988254
249	0x3bc3db6c	0.005977085
250	0xbd2725cd	-0.040807534
251	0xbccd01d3	-0.025025284
252	0x3c8872a2	0.016656224
253	0x3c0dd1a6	0.008655941
254	0xbb5a043f	-0.003326669
255	0x39d6e95f	0.00040991136

action_model._continuous_distribution.mu.bias f4 [2]
0	0x3c1a0422	0.009400399
1	0x3ad4bd65	0.001623076
