results/test_5/Boss/Boss-1999940.pt (torch, 445408 bytes, 36 tensors)

network_body._body_endoder.seq_layers.0.weight f4 [128, 7]
0.37548622 -1.007062 0.28256047 -0.31900442 0.5174358 0.425513 -0.030451342 -0.32284972
-0.46762833 -0.12621303 -0.00241764 0.16170865 0.28556445 -0.518781 0.49760062 0.096001215
-0.35250926 0.06446612 0.65714216 -0.21962678 0.09034178 0.23491196 0.5702741 -0.1217325
0.033192057 0.6079612 0.59565306 0.42951685 0.08577316 -0.15366718 0.25226644 0.71255696
0.33984044 0.2021048 0.5397576 0.5362104 -0.5080371 0.50015706 0.26663846 -0.12070717
-0.81411797 0.062959485 -0.17661785 -0.20349094 -0.26222205 -0.34299684 -0.5233757 -0.33737668
0.21545218 0.2766773 -0.09629056 0.061525445 -0.18246555 0.45367298 -0.24380791 0.009382219
0.5141758 0.45933795 0.3076828 0.20876786 -0.19147696 -0.02737924 0.5077617 -0.12049347
-0.13615131 -0.19264747 -0.43218943 0.09381521 -0.036854964 1.0632905 -0.31482723 -0.33279112
0.120585985 -0.27633584 -0.34980616 0.40640923 0.8938507 0.37388882 -0.51741034 0.15619837
0.28411025 -0.39997995 -0.2476393 -0.25472897 0.26724017 -0.06591603 -0.111774 0.16948739
-0.1338978 0.08782606 -0.28036296 -0.5612154 -0.18063211 0.115091585 -0.3719958 0.14058495
-0.11769105 1.155731 -0.3733543 0.1942571 0.19484355 0.5006394 0.56432486 -1.3405076
-0.11888406 -0.28634188 -0.13499992 0.86792916 -0.30382037 0.10122973 0.3416957 1.3073516
0.2452034 -0.08745755 -0.41177866 0.30050856 0.13444157 0.582164 0.3283558 -0.23414785
0.18509889 0.5854877 0.45682737 -0.2718449 0.04806692 0.4577257 0.39855185 -0.0022013218
-0.4115113 0.10336044 -0.029033534 0.054575972 0.61276156 -0.46846715 -0.13315158 0.21866149
0.43233064 -0.41930458 -0.1001374 -0.11755594 0.3228781 -0.14106561 -0.24273893 -0.13578205
0.06747793 0.081513 -0.48160028 0.73176664 0.39270127 0.1638652 0.19353107 -0.76641
-0.05837383 -0.2635268 -0.40673515 0.4309231 -0.12434094 -0.7196081 -0.059981633 -0.43056464
0.17477721 0.0937396 0.11171858 -0.15317819 -0.31231686 0.33204448 -0.16166912 0.2482407
-0.10955012 0.24783128 -0.32561973 0.057741344 -0.32225215 -0.15035163 0.36551294 -0.3099972
-0.40432888 0.21635541 -0.038349092 -0.6118117 0.22249092 0.24039121 0.13178465 0.5433458
0.23315138 -0.016205693 0.029155275 0.44564512 0.10978518 0.01910353 0.28431433 -0.10689069
0.8353927 -0.85774785 0.35314298 -0.7632631 0.7016207 -0.44796255 0.4512274 0.37615916
0.118679896 0.26056737 0.0442773 -0.3029184 -0.02164296 -0.26964775 0.42634442 -0.15761517
0.027373632 -0.323526 0.0071906857 -0.21093552 0.07994218 -0.14131932 -0.147947 0.15839042
-0.5358954 0.51164985 -0.4426415 0.1763953 0.5052743 0.2746122 0.30728352 0.5220148
0.5046669 0.094225995 0.6769669 -0.3875064 0.003205639 -0.47444835 -0.39706203 -0.14765462
-0.6170452 0.04182154 -0.6149171 0.036477387 -0.18300423 0.09526275 -0.4870761 0.029140195
-0.0040950077 -0.532785 -0.072351575 0.032598324 0.803927 -0.45966065 0.53017515 -0.18041334
0.08114337 -0.23532166 0.35453883 0.65926164 -0.044486 0.0074377432 0.09890088 0.21345419
00000000: bb3f c03e 68e7 80bf c4ab 903e 8c54 a3be
00000010: ac76 043f d7dc d93e 1875 f9bc 8f4c a5be
00000020: fb6c efbe fd3d 01be 4571 1ebb f496 253e
00000030: 8135 923e d5ce 04bf 82c5 fe3e 499c c43d
00000040: 187c b4be d006 843d 783a 283f d8e5 60be
00000050: 1c05 b93d c38c 703e 7cfd 113f e44e f9bd
00000060: 65f4 073d 58a3 1b3f b87c 183f a2e9 db3e
00000070: d7a9 af3d ee5a 1dbe 1129 813e 226a 363f
00000080: 91ff ad3e 90f4 4e3e 8e2d 0a3f 1645 093f
00000090: b80e 02bf 4b0a 003f d684 883e 5235 f7bd
000000a0: 096a 50bf e7f0 803d 4fdb 34be ee5f 50be
000000b0: f841 86be 489d afbe f3fb 05bf a3bc acbe
000000c0: 7f9f 5c3e a6a8 8d3e fc33 c5bd 1b02 7c3d
000000d0: 40d8 3abe d347 e83e c8a8 79be e1b7 193c
000000e0: 06a1 033f 582e eb3e 9a88 9d3e 3ec7 553e
000000f0: 8912 44be 6e4a e0bc acfc 013f 48c5 f6bd
00000100: 406b 0bbe 6145 45be ef47 ddbe 3022 c03d
00000110: 3bf5 16bd e719 883f 0931 a1be 9963 aabe
00000120: c9f5 f63d e47b 8dbe cb19 b3be df14 d03e
00000130: 66d3 643f 5b6e bf3e 0175 04bf 77f2 1f3e
00000140: e676 913e 2cca ccbe 2895 7dbe d66b 82be
00000150: b4d3 883e fcfe 86bd c4e9 e4bd 1a8e 2d3e
00000160: 811c 09be 26de b33d bc8b 8fbe d0ab 0fbf
00000170: a0f7 38be 23b5 eb3d 3c76 bebe 80f5 0f3e
00000180: 0108 f1bd feee 933f 4b28 bfbe 55eb 463e
00000190: 1185 473e e729 003f 9877 103f c195 abbf
000001a0: 7c79 f3bd 679b 92be 6b3d 0abe 9b30 5e3f
000001b0: 588e 9bbe 8851 cf3d bdf2 ae3e 4c57 a73f
000001c0: 9a16 7b3e f21c b3bd a7d4 d2be 42dc 993e
000001d0: 0dab 093e b308 153f 401e a83e 74c4 6fbe
000001e0: 908a 3d3e 86e2 153f 47e5 e93e 412f 8bbe
000001f0: d2e1 443d 065b ea3e fd0e cc3e 0d44 10bb
00000200: 9cb1 d2be a3ae d33d bcd7 edbc 0e8b 5f3d
00000210: f1dd 1c3f edda efbe e358 08be cce8 5f3e
00000220: 715a dd3e 17af d6be d614 cdbd 2bc1 f0bd
00000230: 4750 a53e 8173 10be 8e90 78be 730a 0bbe
00000240: de31 8a3d 4af0 a63d 5094 f6be 0f55 3b3f
00000250: 2410 c93e 47cc 273e 022d 463e 7233 44bf
00000260: 6619 6fbd fcec 86be 973f d0be f4a1 dc3e
00000270: 76a6 febd 3d38 38bf 4daf 75bd f872 dcbe
00000280: ccf8 323e 8cfa bf3d b6cc e43d beda 1cbe
00000290: ffe7 9fbe bc01 aa3e 978c 25be cf32 7e3e
000002a0: d05b e0bd 7cc7 7d3e a1b7 a6be 3082 6c3d
000002b0: 3cfe a4be c7f5 19be 8324 bb3e f4b7 9ebe
000002c0: 3204 cfbe 468c 5d3e f013 1dbd b19f 1cbf
000002d0: a9d4 633e 1d29 763e 8ef2 063e b618 0b3f
000002e0: 3cbf 6e3e cdc1 84bc 0bd7 ee3c 992b e43e
000002f0: 0dd7 e03d 027f 9c3c a691 913e 82e9 dabd
00000300: 4cdc 553f 5d95 5bbf 28cf b43e 3665 43bf
00000310: 6a9d 333f 595b e5be 4707 e73e ef97 c03e
00000320: 720e f33d 1669 853e 1d5c 353d 1f18 9bbe
00000330: 944c b1bc 450f 8abe d149 da3e df65 21be
00000340: ab3e e03c 33a5 a5be d89f eb3b 7bff 57be
00000350: bab8 a33d 03b6 10be 6b7f 17be 1931 223e
00000360: 7130 09bf 7cfb 023f e8a1 e2be f8a0 343e
00000370: a859 013f f899 8c3e 4454 9d3e c3a2 053f
00000380: da31 013f 8ff9 c03d b44d 2d3f 3d67 c6be
00000390: b315 523b e5ea f2be b74b cbbe c632 17be
000003a0: adf6 1dbf 104d 2b3d 356b 1dbf 5069 153d
000003b0: 7665 3bbe 1e19 c33d 0a62 f9be 6bb7 ee3c
000003c0: 6a2f 86bb 9964 08bf 102d 94bd d285 053d
000003d0: 29ce 4d3f a458 ebbe 8fb9 073f 46be 38be
000003e0: 7f2e a63d 29f8 70be 1d86 b53e 5fc5 283f
000003f0: f436 36bd 50b8 f33b 8b8c ca3d bc93 5a3e

network_body._body_endoder.seq_layers.0.bias f4 [128]
-0.001667617 0.03668579 -0.0065842033 -0.019315895 -0.022456508 -0.009557784 -0.0027646085 -0.00050689664
-0.01996501 0.03902287 0.018587708 -0.008905358 -0.01365903 0.06923683 -0.013594349 0.050525
-0.018137984 0.007831495 -0.006560089 0.08384488 -0.028161399 -0.0074908775 -0.025865221 0.010389949
-0.0013357786 -0.018250508 0.0061699715 -0.0012007237 -0.019847305 -0.012550143 0.010056855 0.0026005723
0.009523252 0.007662535 0.01536463 0.0092799105 -0.010788608 0.015684769 -0.029251242 -0.021934895
0.009575829 -0.009432506 -0.015006843 -0.009614093 0.03042667 0.037399523 -0.035816647 -0.014314301
0.04040825 -0.013179981 0.0116420705 -0.0016740462 -0.03535717 0.0076729185 -0.016588448 0.0019558745
0.02200832 0.017974196 0.008769319 -0.0029949641 -0.030701812 -0.006717336 0.09305799 0.008378219
-0.021184651 0.018340232 0.059808303 0.0038432118 0.0012400744 -0.012373758 0.0013155577 0.00071901083
0.0027948178 0.007187595 -0.0035559945 -0.017203357 0.005816004 -0.017490689 -0.014034564 -0.02681204
-0.004977583 0.0055041197 0.0063230335 -0.016535802 0.006941471 0.002374886 0.04150188 0.011947204
0.0027206459 -0.012758071 0.0006521146 -0.0029608996 -0.00872308 -0.0007909276 0.006162992 -0.019774608
-0.008504211 0.009801045 -0.0054822178 -0.022172024 -0.0047863447 -0.024885211 0.0026585765 -0.012802022
-0.016451886 -0.00494236 0.006663692 -0.0043962663 0.0036460755 0.008302196 -0.02583043 0.0018974284
0.0029892952 0.0122101875 0.0065357834 0.022693062 0.0034858503 0.0043484624 -0.018258682 -0.010989373
-0.008192852 -0.0064158645 0.0028347124 0.009000035 0.00543217 0.003658243 0.009796577 0.0029275352
00000000: f193 daba d743 163d 4dc0 d7bb 5e3c 9ebc
00000010: b6f6 b7bc 4098 1cbc 6f2e 35bb 42e1 04ba
00000020: a98d a3bc 72d6 1f3d 4045 983c c7e7 11bc
00000030: 20ca 5fbc 0acc 8d3d d5ba 5ebc 4df3 4e3d
00000040: 1c96 94bc ac4f 003c 04f6 d6bb ddb6 ab3d
00000050: bcb2 e6bc 0976 f5bb 4de3 d3bc 9b3a 2a3c
00000060: 4b15 afba 1782 95bc 792d ca3b 9a61 9dba
00000070: d196 a2bc 1d9f 4dbc 82c5 243c 5d6e 2a3b
00000080: 6a07 1c3c 0116 fb3b eebb 7b3c c40a 183c
00000090: b4c2 30bc 587d 803c 4da0 efbc cfb0 b3bc
000000a0: f0e3 1c3c cc8a 1abc 43df 75bc 6e84 1dbc
000000b0: 5a41 f93c 3e30 193d 7ab4 12bd 8886 6abc
000000c0: 1f83 253d d9f0 57bc 62be 3e3c ab6b dbba
000000d0: aed2 10bd 1b6d fb3b 7fe4 87bc 212e 003b
000000e0: cb4a b43c 9f3e 933c 31ad 0f3c 2947 44bb
000000f0: 5e82 fbbc 191d dcbb 3095 be3d cc44 093c
00000100: 6f8b adbc 413e 963c 8df9 743d 65de 7b3b
00000110: fe89 a23a 4dbb 4abc cb6e ac3a 007c 3c3a
00000120: 4329 373b eb85 eb3b b00b 69bb 0eee 8cbc
00000130: 2d94 be3b a248 8fbc 3af1 65bc eca4 dbbc
00000140: fe1a a3bb e75b b43b 7331 cf3b 1776 87bc
00000150: 4775 e33b faa3 1b3b e0fd 293d 35be 433c
00000160: dd4c 323b 3a07 51bc acf2 2a3a a70b 42bb
00000170: 40eb 0ebc 4156 4fba edf2 c93b 5cfe a1bc
00000180: 3f55 0bbc 9094 203c 2da4 b3bb 1ba2 b5bc
00000190: c5d6 9cbb 12dc cbbc 833b 2e3b 92bf 51bc
000001a0: 1bc6 86bc 85f3 a1bb 1a5b da3b 8e0e 90bb
000001b0: fff2 6e3b ef05 083c 579a d3bc 22b3 f83a
000001c0: 0de8 433b 3d0d 483c 202a d63b cde6 b93c
000001d0: dd72 643b 8c7d 8e3b 3b93 95bc c50c 34bc
000001e0: 503b 06bc 2c3c d2bb 95c6 393b e274 133c
000001f0: 5800 b23b 22bf 6f3b d281 203c e4db 3f3b

network_body._body_endoder.seq_layers.2.weight f4 [128, 128]
0.046923835 -0.16755295 0.10636674 -0.00025763657 0.126245 0.13271335 0.18430106 -0.004804151
-0.008411142 -0.019327475 0.0795331 -0.1278563 0.018850634 -0.049426958 0.10144491 -0.0034508347
0.0990865 -0.14468452 -0.0012841201 -0.074225016 -0.11054608 0.02009232 0.20573473 -0.05591189
-0.03970442 0.036837105 -0.078071 -0.051354818 0.05341938 0.06881364 0.036460713 -0.066137046
0.053854074 0.15963124 0.030866984 0.10985491 0.10722251 0.07879813 0.048854034 -0.068288594
-0.19056998 -7.378913e-05 0.037270814 -0.040111206 -0.0306937 -0.003876107 0.009397202 -0.12376882
0.0026362417 -0.077735975 -0.069160335 0.18328926 -0.1626585 0.059035096 0.11428223 0.12535386
-0.04109439 -0.14081332 0.039866235 -0.027653571 -0.017317066 0.071080066 0.12685668 -0.22921285
-0.045038197 0.22889869 0.08241585 -0.04253842 -0.09842438 0.05141346 -0.08629405 0.012548501
-0.13989045 -0.0038663882 0.055471934 -0.031029662 0.0017303867 -0.086782694 -0.18038277 0.09304635
-0.04463362 -0.05638172 -0.17343722 0.091909304 0.12983273 -0.061847944 0.015375779 0.00080470816
-0.12690139 0.0007946226 -0.0544979 0.0852652 -0.03524985 0.0115466025 0.010909738 0.019664347
-0.03024514 0.02937098 -0.08163976 -0.0236503 0.07219726 -0.10670252 0.14096999 0.041257832
-0.008826746 0.05203777 -0.04100934 -0.06723979 -0.058810182 -0.1179922 -0.23267543 0.120041505
0.03418324 -0.0291701 -0.056584504 0.04127006 -0.13378905 0.049021263 0.240896 -0.1218646
-0.036846813 0.06569377 -0.026102796 0.18845513 -0.1044815 -0.19483058 0.14176321 -0.1638851
-0.0663533 0.028504562 -0.07928692 0.028113658 -0.091919616 0.016572217 0.02031939 -0.037561346
0.14919393 0.016295755 -0.06704286 0.010873374 0.013294996 0.06227842 -0.113737695 0.046997637
0.116975084 0.041990668 -0.08509343 0.041141037 0.18987074 -0.011363889 -0.036479756 0.019013654
-0.11979841 -0.056763254 0.08590871 -0.10004777 -0.10997315 -0.03913943 -0.008622094 0.014087016
0.005869273 -0.08472481 0.1426705 0.025186028 0.13414583 0.0765411 -0.059722602 0.06269227
0.0097297765 0.06453007 0.10053654 -0.17028359 0.029984947 0.02880287 -0.0017113345 0.08626093
0.0053179422 -0.021159383 -0.12757725 -0.078955375 0.045076232 -0.07976074 -0.064720914 -0.00018024935
-0.03661384 0.010306534 -0.18416607 -0.12915918 0.031498075 0.027641652 -0.011697909 -0.017190859
-0.08354698 -0.12427219 -0.09380988 -0.03726607 -0.049132437 -0.044434316 0.14157937 0.093555346
0.10453362 0.11241858 -0.13098097 -0.029931186 -0.1445842 -0.03720103 -0.08166215 -0.086327225
-0.05195573 -0.029645797 0.19678324 -0.05114164 0.066641554 -0.063755624 -0.022047991 0.14208739
-0.12710355 0.040756166 0.069071 -0.002536829 -0.16308507 -0.019220654 0.007475092 0.34828985
-0.105082706 0.09503385 0.12295635 0.010721267 -0.0067181033 -0.19687061 -0.060286254 0.015596182
0.10664804 0.06340998 0.024145551 0.082811035 -0.021656947 -0.087280616 0.17515615 0.04354449
0.094775505 -0.07483521 0.090713546 -0.060024027 0.08044467 -0.034014046 0.08510429 -0.009528123
-0.09724013 -0.2362019 0.10316556 -0.11181698 0.16849299 -0.086812824 0.05459847 0.087441884
00000000: 3533 403d 0093 2bbe ced6 d93d 6513 87b9
00000010: 5f46 013e 02e6 073e 6bb9 3c3e 246c 9dbb
00000020: e3ce 09bc a754 9ebc 40e2 a23d c3ec 02be
00000030: a56c 9a3c ec73 4abd 59c2 cf3d 6627 62bb
00000040: dded ca3d 2e28 14be ec4f a8ba 4903 98bd
00000050: fc65 e2bd a698 a43c 20ac 523e de03 65bd
00000060: 1aa1 22bd 81e2 163d b0e3 9fbd 6e59 52bd
00000070: 48ce 5a3d 2aee 8c3d d457 153d dc72 87bd
00000080: 1796 5c3d 5f76 233e c2dc fc3c 9cfb e03d
00000090: 7a97 db3d ea60 a13d 2b1b 483d e4da 8bbd
000000a0: c724 43be 3dbf 9ab8 48a9 183d a64b 24bd
000000b0: 5b71 fbbc 4906 7ebb b9f6 193c 827a fdbd
000000c0: ccc4 2c3b 0a34 9fbd efa3 8dbd 2eb0 3b3e
000000d0: f38f 26be c9ce 713d cd0c ea3d c35c 003e
000000e0: 9752 28bd 5e31 10be c74a 233d be89 e2bc
000000f0: 85dc 8dbc 6d92 913d b8e6 013e c6b6 6abe
00000100: f979 38bd 6b64 6a3e a4c9 a83d c43c 2ebd
00000110: b992 c9bd ec96 523d efba b0bd 3a98 4d3c
00000120: 713f 0fbe 3b63 7dbb 8a36 633d eb31 febc
00000130: 25ce e23a 20bb b1bd 43b6 38be 168f be3d
00000140: bed1 36bd 85f0 66bd 8799 31be f23a bc3d
00000150: dff2 043e 4554 7dbd b1ea 7b3c 0df3 523a
00000160: 70f2 01be 384e 503a 3139 5fbd 859f ae3d
00000170: 2662 10bd f62d 3d3c c2be 323c 2017 a13c
00000180: a8c4 f7bc 699b f03c bf32 a7bd 46be c1bc
00000190: 28dc 933d da86 dabd 705a 103e f9fd 283d
000001a0: 0e9e 10bc 8f25 553d 69f9 27bd 04b5 89bd
000001b0: f2e2 70bd e5a5 f1bd 7842 6ebe 52d8 f53d
000001c0: ba03 0c3d 22f6 eebc 27c5 67bd cb0a 293d
000001d0: ffff 08be 85ca 483d 71ad 763e 2694 f9bd
000001e0: afec 16bd 758a 863d 88d5 d5bc 62fa 403e
000001f0: 66fa d5bd ab81 47be 602a 113e 7fd1 27be
00000200: 3de4 87bd 6682 e93c 2e61 a2bd 9d4e e63c
00000210: 5a40 bcbd 75c2 873c d974 a63c edd9 19bd
00000220: 4bc6 183e ad7e 853c c44d 89bd 3c26 323c
00000230: 41d3 593c a817 7f3d 4fef e8bd 9880 403d
00000240: a290 ef3d 68fe 2b3d 7745 aebd 8183 283d
00000250: 7a6d 423e 9b2f 3abc cc6b 15bd 86c2 9b3c
00000260: de58 f5bd 9680 68bd e8f0 af3d d8e5 ccbd
00000270: 9a39 e1bd ab50 20bd af43 0dbc 3acd 663c
00000280: 0853 c03b 3484 adbd 3718 123e ee52 ce3c
00000290: 865d 093e 95c1 9c3d b09f 74bd ce64 803d
000002a0: a469 1f3c 5728 843d 1ae6 cd3d d25e 2ebe
000002b0: fea2 f53c fff3 eb3c db4e e0ba 92a9 b03d
000002c0: 2242 ae3b 7156 adbc 9ca3 02be 5bb3 a1bd
000002d0: dba1 383d 9959 a3bd 668c 84bd 5101 3db9
000002e0: 65f8 15bd bddc 283c 0896 3cbe 4e42 04be
000002f0: 2004 013d bf70 e23c 96a8 3fbc d8d3 8cbc
00000300: ae1a abbd 6b82 febd 651f c0bd 4ea4 18bd
00000310: 183f 49bd c200 36bd 2ffa 103e f299 bf3d
00000320: b915 d63d b63b e63d e01f 06be 3f32 f5bc
00000330: e10d 14be 1b60 18bd 7c3e a7bd 54cc b0bd
00000340: 88cf 54bd bedb f2bc 8c81 493e e579 51bd
00000350: 5e7b 883d 4f92 82bd fd9d b4bc 5b7f 113e
00000360: 6f27 02be f0ef 263d 1975 8d3d ee40 26bb
00000370: c6ff 26be a274 9dbc 9ef1 f43b 0c53 b23e
00000380: 9a35 d7bd 1ba1 c23d 8ad0 fb3d 41a8 2f3c
00000390: 8923 dcbb 7398 49be b8ee 76bd 2187 7f3c
000003a0: 4a6a da3d 17dd 813d e4cc c53c d598 a93d
000003b0: e969 b1bc 2ec0 b2bd 225c 333e b55b 323d
000003c0: a919 c23d 3443 99bd 06c8 b93d c1db 75bd
000003d0: 2dc0 a43d 5052 0bbd 284b ae3d d81b 1cbc
000003e0: d525 c7bd e9de 71be 7748 d33d 4d00 e5bd
000003f0: 6d89 2c3e ecca b1bd a5a2 5f3d bb14 b33d

network_body._body_endoder.seq_layers.2.bias f4 [128]
-0.006448211 0.00023493447 0.009346923 0.020533085 0.0028577491 -0.0107952785 -0.020567602 -0.013354474
-0.0038583775 0.026000641 -0.0054410147 -0.0068582837 0.014477315 -0.00989626 -0.014389777 -0.017835343
0.007936573 0.01408539 0.0077185235 0.009622455 -0.021704633 -0.029489378 0.00066508364 -0.006033644
0.0053009302 0.005545897 -0.016445212 -0.0146187255 -0.00055377884 -0.0086942725 -0.002104163 -0.009267316
0.008016904 0.015226808 -0.012487336 0.011757639 -0.008496861 -0.010685872 -0.0015472814 0.011685433
0.007117286 0.0015768689 0.0031087194 -0.005190353 -0.01289796 -0.0141919805 0.006536438 0.010019427
-0.009874579 -0.015932076 0.005842939 -0.007178981 0.004564913 -0.016956994 -0.0052588917 0.010601302
0.004650086 0.018962782 0.006916206 -0.027613647 0.0013670273 0.030336112 -0.022770962 0.008897112
-0.023307446 -0.008955187 -0.01087318 -0.0049705696 -0.008397233 0.0017259702 0.0060087107 0.013972228
-0.016490215 -0.008616095 0.0024819996 0.013672292 -0.004674791 -0.017795786 -0.013845593 0.0073984996
-0.015937172 -0.0025499107 -0.0036523456 -0.005392944 -0.01424331 -0.02198247 -0.0010616739 0.0034302985
-0.003765273 -0.016377294 -0.00069725217 -0.0049721305 0.0075742705 0.0156431 -0.0018225153 0.008463064
0.007434554 0.0086001 0.017023528 0.013236884 0.00016537185 -0.0048102825 -0.0013336405 0.008226702
-0.013411653 0.0022172346 -0.00717167 0.055050958 0.0017207542 0.009521232 -0.0032317175 -0.01699304
0.014016605 0.013036701 -0.014040308 0.0020357224 -0.012708147 0.0058351797 0.010810556 -0.013294438
0.010136394 0.016810726 0.020498142 0.0010270468 0.007974623 -0.011418342 -0.004589145 -0.010731755
00000000: 844b d3bb be58 7639 d623 193c 0035 a83c
00000010: 1349 3b3b aede 30bc 637d a8bc b9cc 5abc
00000020: d5dc 7cbb 4cff d43c 8a4a b2bb 74bb e0bb
00000030: 4332 6d3c ec23 22bc 19c3 6bbc 6d1b 92bc
00000040: 6608 023c 68c6 663c abeb fc3b 80a7 1d3c
00000050: eacd b1bc b593 f1bc 0259 2e3a e0b5 c5bb
00000060: 6db3 ad3b 5bba b53b 1cb8 86bc 6183 6fbc
00000070: 782b 11ba 6c72 0ebc ffe5 09bb f1d5 17bc
00000080: 5559 033c dd79 793c af97 4cbc 1da3 403c
00000090: 6b36 0bbc cc13 2fbc 26ce caba 4274 3f3c
000000a0: 1f38 e93b f1ae ce3a a8bb 4b3b d613 aabb
000000b0: f751 53bc 7b85 68bc 9e2f d63b 8628 243c
000000c0: fcc8 21bc fc83 82bc 2076 bf3b a83d ebbb
000000d0: 4495 953b 65e9 8abc c852 acbb 15b1 2d3c
000000e0: c05f 983b d657 9b3c 57a1 e23b 0436 e2bc
000000f0: d32d b33a 7083 f83c 2b8a babc 31c5 113c
00000100: 42ef bebc c7b8 12bc 6c25 32bc 29e0 a2bb
00000110: 8c94 09bc f339 e23a b8e4 c43b c6eb 643c
00000120: 7d16 87bc 862a 0dbc 0ba9 223b c001 603c
00000130: fd2e 99bb 78c8 91bc a0d8 62bc 1d6f f23b
00000140: ac8e 82bc 671c 27bb 315c 6fbb 4bb7 b0bb
00000150: c65c 69bc 9514 b4bc dd27 8bba dcce 603b
00000160: ccc2 76bb ad29 86bc cdc7 36ba 41ed a2bb
00000170: 9631 f83b f525 803c 77e1 eeba aaa8 0a3c
00000180: 8f9d f33b 6fe7 0c3c ed74 8b3c 84df 583c
00000190: ab67 2d39 939f 9dbb 8dcd aeba 4ac9 063c
000001a0: 8dbc 5bbc 064f 113b 5400 ebbb 1d7d 613d
000001b0: ee8a e13a f1fe 1b3c 39cb 53bb fd34 8bbc
000001c0: e7a5 653c e397 553c 5209 66bc c169 053b
000001d0: d535 50bc 0935 bf3b c21e 313c ead0 59bc
000001e0: 1e13 263c a6b6 893c b8eb a73c f99d 863a
000001f0: fea7 023c ff13 3bbc 8a60 96bb 3ed4 2fbc

action_model._continuous_distribution.log_sigma f4 [1, 2]
-0.0626887 -0.47747436
00000000: ef62 80bd 8577 f4be

action_model._continuous_distribution.mu.weight f4 [2, 128]
0.033291303 0.0024242934 0.03503379 0.07784196 0.006705797 -0.011609985 0.00016042848 -0.004220318
0.0043354006 0.078070916 0.008324001 0.010677734 0.02516126 -0.00507493 -0.030370671 -0.021445276
-0.07353745 0.030292133 0.02049627 0.015596488 -0.0007980497 -0.010999563 -0.036658853 0.0007837732
0.009923757 0.016467227 -0.003482836 -0.0061593163 0.003375838 -0.0014672751 0.01129331 -0.0031160822
0.038301736 -0.089481205 -0.0010193116 0.034124743 0.0059906896 0.021100985 -0.031397097 0.018631734
0.019292332 0.0041471673 -0.034350317 0.0038624408 -0.0043155532 0.003303786 -0.040200878 0.02224392
-0.0075298524 -0.0027348064 0.020705804 5.131418e-05 -0.01265836 -0.001396955 -0.010355006 0.022349577
0.012228277 -0.046447538 0.041826233 -3.6536756e-05 0.0246143 0.12302042 -0.0037859182 0.010985544
-0.012067188 0.0031515185 0.027020192 -0.0026402958 -0.0021781118 0.036993194 0.00564323 -0.19792734
-0.0050876415 -0.015460064 -0.06632504 0.03368233 0.00091112196 -0.001410535 -0.011264546 0.009617572
-0.004927712 0.0071625332 0.0009829034 -0.013097666 2.1663252e-06 0.0011174717 0.007420385 0.0072176643
-0.0019256166 -0.0070902086 -0.008310881 0.004838371 0.010997147 0.030656455 -0.0012628618 0.009881736
0.027336417 0.01452866 -0.08772483 0.039788052 -0.010906991 0.0007289524 0.0060747135 0.023028169
-0.0021190643 0.006941812 0.0020437785 0.07979263 0.06292735 0.030557232 0.01070218 -0.008685991
-0.042880766 0.003604833 -0.01310971 0.009236935 0.02370428 0.005511074 0.016493214 -0.006305042
0.014427523 0.030319626 -0.10698624 0.021257 -0.04677852 0.0072510066 0.0028166433 0.0010244034
0.021852989 0.022566937 -0.018811435 0.008679169 0.024466002 -0.006294855 -0.0005703192 -0.02048277
-0.0010321703 0.0020693108 0.008870513 -0.020516451 0.007794868 0.0061808317 -0.018608509 0.00068966456
0.008254202 0.00054930686 -0.0078039593 0.007183621 -6.226178e-05 -0.0026941148 -2.7929777e-06 0.0011653664
0.008945543 0.027190858 -0.0024454708 0.0026373542 -0.000617599 0.008313769 -0.01319665 0.0077373195
0.010499492 -0.018101318 0.00011058569 -0.009538233 -0.0022318366 0.0744433 -0.018293958 0.001415786
0.008823873 0.0013598955 0.021416793 -0.008221564 -0.011843007 0.0065309843 -0.025185635 0.002094284
-0.0011720652 -0.007465081 0.00032968193 -0.00047142632 -0.047953565 -0.003155265 -0.0021258562 -0.000635532
-0.00174814 0.009518907 -0.009495229 -0.0012345355 0.010899646 0.013909996 -0.0013021919 -0.005808066
-0.0053257495 -0.016082276 0.025053425 0.014986898 -0.0009808921 0.006473822 0.021177495 -0.079105414
-0.017222589 -0.002007546 -0.011905851 -0.007122752 0.0036492327 0.018571775 -0.012268876 0.0039816685
0.0016016827 -0.010506539 -0.009137699 -0.009072022 0.0008234748 -0.0032910663 -0.0022200644 0.011530826
0.0038243623 -0.0024510634 0.000110027286 -0.004483216 -0.0032555142 -0.020242056 0.023059936 0.0034491115
-0.016117476 -0.0016067271 -0.074700624 0.02488144 0.028435178 -0.04682737 0.004295903 -0.0043660286
-1.6896016e-05 0.021283025 -9.020389e-05 -0.013452508 0.02799716 -0.0136303 0.008343962 -0.012456441
0.0032546355 0.07244607 -0.0067924513 0.013541876 0.024597654 0.00487246 0.0058455775 -0.021366201
-0.003751821 0.0011886316 -0.06843999 -0.022769233 0.018125825 0.0035919815 -0.0010679116 0.00042532978
00000000: 765c 083d e5e0 1e3b 977f 0f3d 9b6b 9f3d
00000010: 4dbc db3b ce37 3ebc b138 2839 984a 8abb
00000020: fa0f 8e3b a5e3 9f3d 6461 083c aaf1 2e3c
00000030: fd1e ce3c 994b a6bb eacb f8bc 01ae afbc
00000040: cd9a 96bd 3527 f83c cbe7 a73c 6988 7f3c
00000050: 3534 51ba 8337 34bc 9827 16bd 2176 4d3a
00000060: 4197 223c 47e6 863c 4b40 64bb 17d4 c9bb
00000070: 2a3d 5d3b 9551 c0ba 9307 393c 2f37 4cbb
00000080: 48e2 1c3d ec41 b7bd 6c9a 85ba 63c6 0b3d
00000090: 8c4d c43b f9db ac3c 3e9a 00bd 94a1 983c
000000a0: f40a 9e3c f6e4 873b ebb2 0cbd 0121 7d3b
000000b0: 7c69 8dbb 5584 583b ada9 24bd e238 b63c
000000c0: fbbc f6bb 703a 33bb 389f a93c 2e3a 5738
000000d0: 0365 4fbc 081a b7ba 0ba8 29bc 7616 b73c
000000e0: 1c59 483c c63f 3ebd fc51 2b3d 0b3f 19b8
000000f0: eea3 c93c 21f2 fb3d 2b1d 78bb b6fc 333c
00000100: 74b5 45bc b589 4e3b 7359 dd3c d008 2dbb
00000110: a7be 0ebb 2d86 173d d8ea b83b 77ad 4abe
00000120: 3bb6 a6bb 354c 7dbc 6cd5 87bd 7cf6 093d
00000130: 5cd8 6e3a b3e1 b8ba ee8e 38bc 0593 1d3c
00000140: a578 a1bb afb3 ea3b c4d4 803a 9897 56bc
00000150: 2f61 1136 2178 923a b326 f33b 2882 ec3b
00000160: f964 fcba fb54 e8bb 5d2a 08bc 338b 9e3b
00000170: 612d 343c 3f23 fb3c 9c86 a5ba 01e7 213c
00000180: 9ff0 df3c 9e09 6e3c 13a9 b3bd ccf8 223d
00000190: 3cb3 32bc 2b17 3f3a 640e c73b 92a5 bc3c
000001a0: 00e0 0abb 2478 e33b eaf0 053b 526a a33d
000001b0: 0ee0 803d 2953 fa3c 3258 2f3c b04f 0ebc
000001c0: bea3 2fbd 103f 6c3b 1cca 56bc 8356 173c
000001d0: 7a2f c23c 3d96 b43b c71c 873c 879a cebb
000001e0: 6b61 6c3c dd60 f83c 9a1b dbbd 2923 ae3c
000001f0: d59a 3fbd da99 ed3b 6f97 383b 4645 863a
00000200: 0a05 b33c 4cde b83c 701a 9abc 1333 0e3c
00000210: ed6c c83c 1245 cebb 7981 15ba 7bcb a7bc
00000220: e349 87ba 469d 073b a155 113c 1e12 a8bc
00000230: 186c ff3b 9388 ca3b df70 98bc 9bca 343a
00000240: a23c 073c 5cff 0f3a 5bb8 ffbb 9564 eb3b
00000250: 8a92 82b8 bf8f 30bb fe6e 3bb6 35bf 983a
00000260: 5490 123c 5dbf de3c 3144 20bb 76d7 2c3b
00000270: 5ee6 21ba 7936 083c c336 58bc 5789 fd3b
00000280: 1006 2c3c 3749 94bc 3eea e738 4046 1cbc
00000290: 0144 12bb bb75 983d 36dd 95bc e591 b93a
000002a0: 0192 103c 853e b23a 4572 af3c bdb3 06bc
000002b0: 2c09 42bc de01 d63b 1b52 cebc 4140 093b
000002c0: fb9f 99ba a39d f4bb 29d9 ac39 c529 f7b9
000002d0: f56a 44bd 90c8 4ebb f351 0bbb d599 26ba
000002e0: d821 e5ba 31f5 1b3c e191 1bbc 23d0 a1ba
000002f0: 6e94 323c c0e6 633c 4fae aaba 9751 bebb
00000300: a083 aebb fabe 83bc d73c cd3c 9b8b 753c
00000310: 4791 80ba 5b22 d43b 6d7c ad3c 0502 a2bd
00000320: 6316 8dbc 0891 03bb c210 43bc f965 e9bb
00000330: f727 6f3b d623 983c 6503 49bc a878 823b
00000340: 8eef d13a 9e23 2cbc 4ab6 15bc d1a2 14bc
00000350: 75de 573a eeae 57bb 807e 11bb caeb 3c3c
00000360: 27a2 7a3b 05a2 20bb 73be e638 f1e7 92bb
00000370: 775a 55bb abd2 a5bc 31e8 bc3c 7d0a 623b
00000380: cc08 84bc d198 d2ba a4fc 98bd 29d4 cb3c
00000390: e4f0 e83c 0ece 3fbd a5c4 8c3b e710 8fbb
000003a0: ebbb 8db7 bd59 ae3c d82b bdb8 e867 5cbc
000003b0: 4d5a e53c 9f51 5fbc 1db5 083c 1a16 4cbc
000003c0: b94b 553b 9b5e 943d 3693 debb bfde 5d3c
000003d0: 0581 c93c 28a9 9f3b 428c bf3b 2c08 afbc
000003e0: 1ce1 75bb dccb 9b3a 442a 8cbd 8b86 babc
000003f0: 9c7c 943c 7367 6b3b 2bf9 8bba ccfe de39

action_model._continuous_distribution.mu.bias f4 [2]
0.01942754 0.0040253894
00000000: 8126 9f3c 6ae7 833b

exp_avg f4 [128, 7]
0.001559509 -1.4499227e-05 0.0 0.0014771769 -1.4499227e-05 0.0 1.2220493e-05 -3.4283548e-07
1.13503675e-05 0.0 8.795198e-06 1.13503675e-05 0.0 5.4809416e-06 0.0019380094 -0.00031493077
0.0 0.0018253858 -0.00031493077 0.0 -6.1397145e-06 0.00029581148 0.00026502466 0.0
0.00024343554 0.00026502466 0.0 3.975924e-06 -0.0021513856 -0.00012714673 0.0 -0.0019901197
-0.00012714673 0.0 -1.1727292e-06 0.00020105187 0.0003597165 0.0 0.0002001775 0.0003597165
0.0 -8.886441e-06 -1.1170488e-10 8.3472074e-08 0.0 3.5064224e-06 8.3472074e-08 0.0
-2.2425486e-06 0.0022498074 -0.00023711706 0.0 0.0020828277 -0.00023711706 0.0 -1.3476169e-05
-0.00089046446 9.483375e-05 0.0 -0.00091651507 9.483375e-05 0.0 -2.869178e-06 1.489508e-09
0.00025175884 0.0 2.504165e-06 0.00025175884 0.0 1.2619114e-06 9.532893e-10 -1.6365536e-08
0.0 9.819885e-06 -1.6365536e-08 0.0 -8.554911e-06 0.0018850329 0.00030064842 0.0
0.0017831139 0.00030064842 0.0 9.233809e-06 -0.0015362405 -0.000111109024 0.0 -0.0014162223
-0.000111109024 0.0 -2.0123728e-06 1.3299862e-13 0.00022606122 0.0 7.9598766e-07 0.00022606122
0.0 5.999095e-07 -0.0037655227 0.00017229507 0.0 -0.0035144603 0.00017229507 0.0
1.3890165e-06 1.7164827e-09 0.00027588801 0.0 -6.107795e-05 0.00027588801 0.0 -9.278722e-06
-0.002257241 -0.00021305529 0.0 -0.0020831549 -0.00021305529 0.0 -8.54018e-06 -0.0027039123
-0.00028394954 0.0 -0.0025305683 -0.00028394954 0.0 -1.0891638e-05 -0.00071166886 0.00051143067
0.0 -0.0006524757 0.00051143067 0.0 2.0041967e-05 0.00013524896 -1.5611999e-08 0.0
0.00013087553 -1.5611999e-08 0.0 3.0842742e-07 0.0026792279 0.0002813731 0.0 0.0024975939
0.0002813731 0.0 1.3311726e-05 -0.005741752 -0.0003269966 0.0 -0.005356513 -0.0003269966
0.0 2.2445472e-06 -3.818843e-08 5.63309e-05 0.0 1.6873764e-05 5.63309e-05 0.0
-7.542681e-07 0.00026109623 0.00052758417 0.0 0.0001738525 0.00052758417 0.0 -1.3716796e-06
0.00048676727 3.754051e-05 0.0 0.00046015234 3.754051e-05 0.0 -4.766897e-07 1.8055971e-08
-1.1648876e-11 0.0 3.2557953e-06 -1.1648876e-11 0.0 -2.6921184e-06 0.0010837887 6.2943276e-05
0.0 0.0010159876 6.2943276e-05 0.0 3.1820562e-06 0.0024913095 -2.6876187e-05 0.0
0.0023303034 -2.6876187e-05 0.0 -1.672195e-05 0.00046280253 -7.7407116e-05 0.0 0.00044078322
-7.7407116e-05 0.0 6.1941896e-06 -0.0014008993 -0.00010424052 0.0 -0.0013169927 -0.00010424052
0.0 -4.4617254e-06 -4.684564e-05 1.0063226e-05 0.0 -4.235172e-05 1.0063226e-05 0.0
4.6448986e-06 0.0050997264 0.00023116756 0.0 0.004761668 0.00023116756 0.0 2.5929989e-05
0.0064548203 0.00026945208 0.0 0.0059935334 0.00026945208 0.0 -3.6537067e-06 -4.678907e-12
1.4108175e-06 0.0 -1.4788108e-06 1.4108175e-06 0.0 1.1997643e-06 9.343436e-15 0.0001650782
0.0 -8.658917e-06 0.0001650782 0.0 -5.5378854e-07 -1.1316345e-05 -5.875998e-05 0.0
1.3639935e-05 -5.875998e-05 0.0 -4.326677e-06 -0.0020211781 -0.0004327225 0.0 -0.0018971903
00000000: 7068 cc3a b541 73b7 0000 0000 d59d c13a
00000010: b541 73b7 0000 0000 9e06 4d37 f30e b8b4
00000020: 756d 3e37 0000 0000 168f 1337 756d 3e37
00000030: 0000 0000 eee8 b736 ce04 fe3a 4b1d a5b9
00000040: 0000 0000 c941 ef3a 4b1d a5b9 0000 0000
00000050: bf03 ceb6 2517 9b39 02f3 8a39 0000 0000
00000060: bb42 7f39 02f3 8a39 0000 0000 ed68 8536
00000070: 43fe 0cbb b152 05b9 0000 0000 ab6c 02bb
00000080: b152 05b9 0000 0000 ab66 9db5 73d1 5239
00000090: 5598 bc39 0000 0000 bde6 5139 5598 bc39
000000a0: 0000 0000 f916 15b7 42a4 f5ae 4241 b333
000000b0: 0000 0000 e14f 6b36 4241 b333 0000 0000
000000c0: b17e 16b6 8171 133b a0a2 78b9 0000 0000
000000d0: 0d80 083b a0a2 78b9 0000 0000 b517 62b7
000000e0: 0f6e 69ba 7be1 c638 0000 0000 4942 70ba
000000f0: 7be1 c638 0000 0000 1a8c 40b6 67b7 cc30
00000100: 80fe 8339 0000 0000 3a0d 2836 80fe 8339
00000110: 0000 0000 f25e a935 e304 8330 3294 8cb2
00000120: 0000 0000 16c0 2437 3294 8cb2 0000 0000
00000130: 1087 0fb7 3513 f73a 59a0 9d39 0000 0000
00000140: 60b7 e93a 59a0 9d39 0000 0000 e8ea 1a37
00000150: ad5b c9ba 3403 e9b8 0000 0000 89a0 b9ba
00000160: 3403 e9b8 0000 0000 4d0c 07b6 3ebe 152a
00000170: d90a 6d39 0000 0000 dbab 5535 d90a 6d39
00000180: 0000 0000 7809 2135 fdc6 76bb 1baa 3439
00000190: 0000 0000 dc52 66bb 1baa 3439 0000 0000
000001a0: 3e6e ba35 5ee9 eb30 10a5 9039 0000 0000
000001b0: fa16 80b8 10a5 9039 0000 0000 cfab 1bb7
000001c0: 38ee 13bb 9867 5fb9 0000 0000 8a85 08bb
000001d0: 9867 5fb9 0000 0000 cb47 0fb7 1f34 31bb
000001e0: 10df 94b9 0000 0000 e4d7 25bb 10df 94b9
000001f0: 0000 0000 3bbb 36b7 4a8f 3aba 8811 063a
00000200: 0000 0000 e70a 2bba 8811 063a 0000 0000
00000210: cc1f a837 9ed1 0d39 261b 86b2 0000 0000
00000220: a23b 0939 261b 86b2 0000 0000 f195 a534
00000230: fc95 2f3b 4285 9339 0000 0000 acae 233b
00000240: 4285 9339 0000 0000 6e55 5f37 4f25 bcbb
00000250: be70 abb9 0000 0000 b085 afbb be70 abb9
00000260: 0000 0000 07a1 1636 9f04 24b3 d844 6c38
00000270: 0000 0000 228c 8d37 d844 6c38 0000 0000
00000280: e978 4ab5 bee3 8839 934d 0a3a 0000 0000
00000290: 2d4c 3639 934d 0a3a 0000 0000 8d1a b8b5
000002a0: cc34 ff39 d174 1d38 0000 0000 9a40 f139
000002b0: d174 1d38 0000 0000 bceb ffb4 8019 9b32
000002c0: e0ed 4cad 0000 0000 237e 5a36 e0ed 4cad
000002d0: 0000 0000 3eaa 34b6 ea0d 8e3a 6a00 8438
000002e0: 0000 0000 e32a 853a 6a00 8438 0000 0000
000002f0: 4f8b 5536 3d45 233b 2c74 e1b7 0000 0000
00000300: 01b8 183b 2c74 e1b7 0000 0000 1d46 8cb7
00000310: 4ea4 f239 a155 a2b8 0000 0000 ec18 e739
00000320: a155 a2b8 0000 0000 afd7 cf36 619e b7ba
00000330: b49b dab8 0000 0000 f19e acba b49b dab8
00000340: 0000 0000 eeb5 95b6 1f7c 44b8 3ad5 2837
00000350: 0000 0000 d0a2 31b8 3ad5 2837 0000 0000
00000360: 60db 9b36 9b1b a73b 9265 7239 0000 0000
00000370: c407 9c3b 9265 7239 0000 0000 3a84 d937
00000380: f582 d33b 3f45 8d39 0000 0000 6765 c43b
00000390: 3f45 8d39 0000 0000 3432 75b6 d99f a4ac
000003a0: 525b bd35 0000 0000 8d7b c6b5 525b bd35
000003b0: 0000 0000 9607 a135 fe50 2828 d818 2d39
000003c0: 0000 0000 c445 11b7 d818 2d39 0000 0000
000003d0: 0fa8 14b5 55db 3db7 0c75 76b8 0000 0000
000003e0: 13d7 6437 0c75 76b8 0000 0000 df2d 91b6
000003f0: be75 04bb 08df e2b9 0000 0000 25ab f8ba

exp_avg_sq f4 [128, 7]
0.00029150222 2.8970695e-09 0.0 0.0002554288 2.8970695e-09 0.0 3.6230106e-09 1.714762e-12
1.6337404e-09 0.0 2.4326748e-06 1.6337404e-09 0.0 3.9052234e-10 0.0012133373 3.6656656e-05
0.0 0.0010537306 3.6656656e-05 0.0 1.040885e-08 0.0001242535 1.1974275e-05 0.0
0.00010726031 1.1974275e-05 0.0 1.0596446e-09 0.0005157809 3.6999085e-05 0.0 0.00044626318
3.6999085e-05 0.0 4.653905e-09 0.00021466633 1.05479385e-05 0.0 0.00018666133 1.05479385e-05
0.0 1.7189441e-09 6.0748954e-16 9.128948e-14 0.0 4.3179585e-07 9.128948e-14 0.0
3.1236047e-10 0.0015593506 4.653855e-05 0.0 0.001352862 4.653855e-05 0.0 1.4939092e-08
8.107457e-05 2.264972e-05 0.0 6.8550056e-05 2.264972e-05 0.0 5.841178e-10 1.0710052e-14
3.111001e-05 0.0 2.65076e-06 3.111001e-05 0.0 1.5540635e-09 4.8371405e-17 1.1434461e-12
0.0 2.4907097e-06 1.1434461e-12 0.0 1.1245079e-09 0.00043974616 1.4644271e-05 0.0
0.00038243493 1.4644271e-05 0.0 3.0904979e-09 0.00016824462 1.0669323e-05 0.0 0.00014578414
1.0669323e-05 0.0 1.4737238e-09 4.436866e-25 3.1702813e-05 0.0 3.6120036e-06 3.1702813e-05
0.0 2.2877018e-09 0.00166622 6.539295e-05 0.0 0.0014439713 6.539295e-05 0.0
1.5680364e-08 1.1083084e-15 3.801768e-05 0.0 7.914722e-06 3.801768e-05 0.0 4.3032693e-09
0.00055786455 3.70909e-05 0.0 0.00048246593 3.70909e-05 0.0 4.4663757e-09 0.00030605143
3.0819236e-05 0.0 0.0002638998 3.0819236e-05 0.0 1.9170499e-09 0.004539063 0.000119132
0.0 0.003942785 0.000119132 0.0 3.9284522e-08 1.3555166e-06 4.0649492e-15 0.0
1.1820654e-06 4.0649492e-15 0.0 1.6781871e-11 0.00018658787 3.298811e-06 0.0 0.00016401545
3.298811e-06 0.0 2.3294335e-09 0.0017501109 2.8045555e-05 0.0 0.0015236526 2.8045555e-05
0.0 1.7814036e-08 2.5163155e-14 3.5983446e-06 0.0 4.257243e-07 3.5983446e-06 0.0
1.6729489e-10 1.0901226e-05 1.6432132e-05 0.0 8.553859e-06 1.6432132e-05 0.0 2.0291353e-10
9.146514e-06 6.486314e-08 0.0 7.992508e-06 6.486314e-08 0.0 2.085266e-10 2.1201707e-14
5.9647465e-21 0.0 1.9370671e-07 5.9647465e-21 0.0 1.0091539e-10 0.0002077928 2.654696e-05
0.0 0.00017799246 2.654696e-05 0.0 1.5818055e-09 0.0028573254 5.021603e-05 0.0
0.0024879493 5.021603e-05 0.0 2.5192328e-08 0.000109674016 2.2359088e-06 0.0 9.543303e-05
2.2359088e-06 0.0 1.0413094e-09 9.657977e-05 1.2137418e-06 0.0 8.445462e-05 1.2137418e-06
0.0 9.356314e-10 4.3752205e-08 5.616358e-10 0.0 8.714378e-07 5.616358e-10 0.0
3.7676975e-10 0.0013322267 3.2869913e-05 0.0 0.0011612581 3.2869913e-05 0.0 1.3186147e-08
0.0045783026 0.0001378272 0.0 0.0039728596 0.0001378272 0.0 4.484488e-08 2.6741984e-21
5.199152e-11 0.0 1.1441218e-07 5.199152e-11 0.0 9.364905e-11 2.6195661e-27 1.5383348e-05
0.0 1.9365903e-06 1.5383348e-05 0.0 8.214687e-10 1.2151365e-07 4.867919e-07 0.0
1.8937791e-07 4.867919e-07 0.0 2.389731e-10 0.0006043486 3.5766436e-05 0.0 0.00052282616
00000000: c4d4 9839 c915 4731 0000 0000 13eb 8539
00000010: c915 4731 0000 0000 adf8 7831 d054 f12b
00000020: 218a e030 0000 0000 0941 2336 218a e030
00000030: 0000 0000 22b1 d62f d808 9f3a c9bf 1938
00000040: 0000 0000 551d 8a3a c9bf 1938 0000 0000
00000050: 9bd2 3232 0c4a 0239 1fe5 4837 0000 0000
00000060: f1f0 e038 1fe5 4837 0000 0000 eea2 9130
00000070: 7835 073a 772f 1b38 0000 0000 6ef8 e939
00000080: 772f 1b38 0000 0000 2ee8 9f31 0e18 6139
00000090: 0df7 3037 0000 0000 85ba 4339 0df7 3037
000000a0: 0000 0000 f83f ec30 d118 2f26 cd90 cd29
000000b0: 0000 0000 92d1 e734 cd90 cd29 0000 0000
000000c0: d4b8 ab2f 2063 cc3a 6332 4338 0000 0000
000000d0: 8452 b13a 6332 4338 0000 0000 6953 8032
000000e0: 9406 aa38 e7ff bd37 0000 0000 88c2 8f38
000000f0: e7ff bd37 0000 0000 a38f 2030 66ef 4028
00000100: 1e7c 0238 0000 0000 b6e3 3136 1e7c 0238
00000110: 0000 0000 c096 d530 e012 5f24 fdec a02b
00000120: 0000 0000 1126 2736 fdec a02b 0000 0000
00000130: 1b8d 9a30 bb8d e639 aab0 7537 0000 0000
00000140: 8c81 c839 aab0 7537 0000 0000 9d60 5431
00000150: d26a 3039 6500 3337 0000 0000 a2dd 1839
00000160: 6500 3337 0000 0000 0c8c ca30 7950 0917
00000170: a3f8 0438 0000 0000 c065 7236 a3f8 0438
00000180: 0000 0000 ad35 1d31 1165 da3a 9323 8938
00000190: 0000 0000 a343 bd3a 9323 8938 0000 0000
000001a0: 7cb1 8632 5db9 9f26 2c75 1f38 0000 0000
000001b0: 79c9 0437 2c75 1f38 0000 0000 f5db 9331
000001c0: a83d 123a 0d92 1b38 0000 0000 7bf3 fc39
000001d0: 0d92 1b38 0000 0000 a876 9931 8775 a039
000001e0: e743 0138 0000 0000 085c 8a39 e743 0138
000001f0: 0000 0000 19bd 0331 6cbc 943b 81d6 f938
00000200: 0000 0000 7a32 813b 81d6 f938 0000 0000
00000210: cab9 2833 32ef b535 8a74 9227 0000 0000
00000220: 75a7 9e35 8a74 9227 0000 0000 6a9d 932d
00000230: cda6 4339 2461 5d36 0000 0000 90fb 2b39
00000240: 2461 5d36 0000 0000 d413 2031 fa63 e53a
00000250: 5f43 eb37 0000 0000 4cb5 c73a 5f43 eb37
00000260: 0000 0000 7b05 9932 49a6 e228 177b 7136
00000270: 0000 0000 1a8f e434 177b 7136 0000 0000
00000280: 53f1 372f 69e4 3637 bcd7 8937 0000 0000
00000290: 8b82 0f37 bcd7 8937 0000 0000 151b 5f2f
000002a0: fa73 1937 e34a 8b33 0000 0000 8f17 0637
000002b0: e34a 8b33 0000 0000 0547 652f cff7 be28
000002c0: 7d57 e11d 0000 0000 b2fd 4f34 7d57 e11d
000002d0: 0000 0000 50ea dd2e f4e2 5939 2ab1 de37
000002e0: 0000 0000 7da3 3a39 2ab1 de37 0000 0000
000002f0: d566 d930 f741 3b3b 0d9f 5238 0000 0000
00000300: dd0c 233b 0d9f 5238 0000 0000 8466 d832
00000310: ca00 e638 9f0c 1636 0000 0000 3823 c838
00000320: 9f0c 1636 0000 0000 d11d 8f30 df8a ca38
00000330: dae7 a235 0000 0000 3b1d b138 dae7 a235
00000340: 0000 0000 9a97 8030 0fea 3b33 9b61 1a30
00000350: 0000 0000 c0ec 6935 9b61 1a30 0000 0000
00000360: a121 cf2f 1c9e ae3a cddd 0938 0000 0000
00000370: 5b35 983a cddd 0938 0000 0000 4a89 6232
00000380: 9605 963b b585 1039 0000 0000 c32e 823b
00000390: b585 1039 0000 0000 789b 4033 850e 4a1d
000003a0: 3fa9 642e 0000 0000 c3b2 f533 3fa9 642e
000003b0: 0000 0000 baef cd2e 1d8b 4f13 7d0b 8137
000003c0: 0000 0000 5ef6 0136 7d0b 8137 0000 0000
000003d0: b9cd 6130 6b79 0234 16ac 0235 0000 0000
000003e0: ce57 4b34 16ac 0235 0000 0000 7960 832f
000003f0: 266d 1e3a eb03 1638 0000 0000 450e 093a

exp_avg f4 [128]
1.4969443e-05 -1.6614501e-06 2.0477202e-05 9.52292e-06 -2.9321163e-05 1.5902737e-07 -6.375563e-07 3.035994e-05
4.7364706e-06 -4.5505269e-07 -1.785251e-06 1.8530767e-05 -2.1821526e-05 -1.4472496e-07 -4.564771e-05 1.1105409e-05
-3.1652202e-05 -3.1516654e-05 -1.0762491e-05 7.9515746e-07 3.3024247e-05 -7.004379e-05 -3.0749013e-06 1.5862515e-05
4.8391144e-06 -5.886763e-07 1.2327371e-05 2.9273853e-05 4.003524e-06 -1.5255654e-05 -8.170666e-07 6.1465405e-05
8.386992e-05 2.6887545e-07 1.5743532e-06 -4.5375077e-06 -2.254329e-05 -7.301414e-08 -1.4666893e-05 -2.4397887e-05
1.707378e-05 -1.0270809e-05 2.5820278e-05 7.4643985e-06 1.1957714e-05 -9.40015e-06 -1.878878e-05 -9.251623e-06
0.000176075 1.2838023e-05 7.105652e-07 5.0009493e-08 8.609347e-06 -3.4339863e-07 -2.7197426e-05 -3.0462618e-06
-8.293486e-07 9.655494e-06 3.2404652e-05 1.7627009e-06 9.954917e-06 6.5632535e-06 1.3455944e-05 -7.981577e-06
-1.8664216e-05 -7.728533e-07 1.0101845e-06 1.6638798e-05 2.8412344e-06 6.3251287e-07 9.669451e-05 2.8518447e-05
-3.030953e-06 7.709277e-06 2.796327e-05 3.103204e-05 2.3661809e-05 -1.8950406e-05 -2.25288e-06 -8.380137e-06
3.1611864e-07 1.0133684e-05 3.6138226e-05 1.1986827e-05 5.0936338e-05 5.680759e-05 -1.0638246e-06 1.2240042e-05
6.8830677e-06 6.262858e-06 6.905886e-06 -5.77862e-06 1.5169253e-05 -2.4414137e-06 5.378694e-05 1.6650896e-05
9.429462e-06 6.196399e-06 -2.5192146e-05 1.8588738e-06 5.7272722e-05 1.352864e-06 2.3838478e-05 -2.0346999e-05
2.507032e-05 -4.1620674e-06 3.907842e-05 1.9616948e-05 2.8852503e-05 2.0296782e-06 2.1105716e-05 1.2600002e-06
1.0357695e-06 1.9753219e-05 5.154392e-05 -2.4431286e-06 4.3773216e-05 -9.2334597e-07 -5.1483806e-07 -3.0380928e-05
1.0129313e-05 -1.2005347e-05 -2.0717557e-06 -1.8891509e-06 1.0796679e-05 1.5045321e-05 -8.861656e-07 4.8073536e-05
00000000: 4525 7b37 fefe deb5 75c6 ab37 a1c4 1f37
00000010: b8f6 f5b7 1cc1 2a34 8924 2bb5 7aad fe37
00000020: f9ed 9e36 f74d f4b4 c29c efb5 8572 9b37
00000030: 5f0d b7b7 b265 1bb4 db75 3fb8 5e51 3a37
00000040: 4bc2 04b8 c030 04b8 8c90 34b7 ce72 5535
00000050: 8483 0a38 79e4 92b8 675a 4eb6 7e10 8537
00000060: ad5f a236 8705 1eb5 a8d1 4e37 1f91 f537
00000070: 0256 8636 89f2 7fb7 6454 5bb5 fde6 8038
00000080: 52e3 af38 f659 9034 5d4e d335 e540 98b6
00000090: 591b bdb7 f3cb 9cb3 d311 76b7 10aa ccb7
000000a0: aa39 8f37 ca50 2cb7 a098 d837 b276 fa36
000000b0: fe9d 4837 56b5 1db7 999c 9db7 6b37 1bb7
000000c0: c6a0 3839 e462 5737 abbd 3e35 05ca 5633
000000d0: dd70 1037 595c b8b4 0726 e4b7 616e 4cb6
000000e0: 67a0 5eb5 08fe 2137 3bea 0738 f195 ec35
000000f0: 0b04 2737 eb39 dc36 d7c0 6137 9de8 05b7
00000100: 1991 9cb7 1376 4fb5 ad95 8735 8c93 8b37
00000110: 09ac 3e36 f4c9 2935 78c8 ca38 e63a ef37
00000120: 6067 4bb6 1857 0137 aa92 ea37 6628 0238
00000130: 597d c637 b0f7 9eb7 2f30 17b6 6a98 0cb7
00000140: 04b7 a934 d703 2a37 2093 1738 081b 4937
00000150: 7aa4 5538 af44 6e38 bcc8 8eb5 955a 4d37
00000160: 1af5 e636 8a25 d236 1cb9 e736 f8e5 c1b6
00000170: 727f 7e37 2bd7 23b6 4999 6138 87ad 8b37
00000180: 3b33 1e37 aaea cf36 b953 d3b7 6b7e f935
00000190: 1e38 7038 0e94 b535 bef8 c737 d9ae aab7
000001a0: 1a4e d237 e3a7 8bb6 22e8 2338 138f a437
000001b0: 4708 f237 9b35 0836 2e0c b137 471d a935
000001c0: c504 8b35 b7b3 a537 dd30 5838 a1f4 23b6
000001d0: 2299 3738 dadb 77b5 6733 0ab5 8cda feb7
000001e0: 11f1 2937 936a 49b7 7e08 0bb6 bb8e fdb5
000001f0: 6223 3537 296b 7c37 d6e0 6db5 91a2 4938

exp_avg_sq f4 [128]
4.70285e-08 8.0423455e-08 1.889122e-07 2.5694307e-08 9.129747e-08 3.2975702e-08 1.4274238e-08 2.5108795e-07
1.9803574e-08 8.7628145e-08 8.233748e-08 6.688497e-08 2.7205372e-08 1.1940519e-07 2.6794265e-07 2.6164352e-07
9.384797e-08 5.333373e-08 7.009199e-07 2.253486e-10 5.995772e-08 2.616016e-07 1.4072741e-08 1.1390939e-08
2.6234617e-09 6.4035937e-09 5.0080498e-08 4.2552423e-07 1.6795056e-08 1.3561986e-08 2.8204704e-08 1.9675593e-07
7.3092986e-07 3.782216e-09 6.4019666e-08 3.5993597e-09 1.01631876e-07 5.8609277e-09 3.9440547e-08 6.7671536e-08
2.3074227e-07 8.584633e-09 2.8818974e-07 3.3336858e-07 4.0585928e-08 2.2333632e-08 2.7225063e-08 1.4891651e-08
1.5938999e-06 1.1365734e-08 1.7076966e-08 2.0205947e-08 8.591768e-09 4.1714294e-08 8.256253e-08 1.1402591e-08
6.1272307e-09 1.09456275e-08 6.7463326e-08 7.03588e-09 8.221382e-09 7.072079e-09 2.0143345e-08 5.690139e-08
5.7947222e-08 4.5460875e-09 4.5779303e-10 3.6922305e-08 1.7884995e-09 3.4885483e-09 3.5885034e-07 1.6188945e-08
1.3004247e-08 1.9955587e-08 7.2378384e-08 1.8816512e-07 4.821862e-08 2.7765516e-08 5.620483e-09 8.157522e-08
4.2717235e-07 3.1122358e-08 1.8631394e-07 1.1232791e-07 1.02184686e-07 4.517135e-07 1.2262055e-07 2.5972131e-08
7.01771e-08 4.046803e-08 3.337198e-08 8.784099e-09 4.4083887e-08 4.32838e-07 1.6544605e-07 3.618408e-08
3.134621e-08 1.2590043e-08 8.2427664e-07 1.1703328e-07 1.5923362e-07 1.3244346e-09 1.1415118e-06 1.2682897e-08
2.2561585e-08 5.109188e-08 4.6795996e-08 1.6003047e-07 7.955893e-07 8.678387e-08 9.6036274e-08 4.977278e-10
2.9564655e-08 1.9330446e-07 8.886824e-08 8.966982e-08 1.02469265e-07 3.2845097e-08 8.20696e-09 5.553194e-08
1.3135685e-08 1.1923867e-08 1.4954411e-09 1.080212e-07 1.2231058e-07 5.266649e-09 1.5734685e-08 1.6290032e-07
00000000: 62fc 4933 43b5 ac33 cad7 4a34 61b6 dc32
00000010: 510f c433 2ba1 0d33 c33a 7532 44cd 8634
00000020: 851c aa32 152e bc33 82d1 b033 67a2 8f33
00000030: 3fb1 e932 d935 0034 c2d9 8f34 0378 8c34
00000040: 7889 c933 0e11 6533 d926 3c35 fec5 772f
00000050: 1bc2 8033 4072 8c34 92c4 7132 e1b1 4332
00000060: 6d48 3431 9b06 dc31 1718 5733 9b73 e434
00000070: b844 9032 3ffe 6832 cd46 f232 dc43 5334
00000080: 1e35 4435 b9f4 8131 2f7b 8933 9b58 7731
00000090: b740 da33 4461 c931 5765 2933 d252 9133
000000a0: f4c1 7734 9d7b 1332 7fb8 9a34 d4f9 b234
000000b0: b350 2e33 2dd8 bf32 8cdc e932 2cd6 7f32
000000c0: fced d535 0743 4332 a5b0 9232 5991 ad32
000000d0: ff9a 1332 5a29 3333 3b4d b133 20e5 4332
000000e0: b187 d231 610b 3c32 5be0 9033 41c0 f131
000000f0: 053e 0d32 aafe f231 af07 ad32 bd63 7433
00000100: a5e1 7833 cf33 9c31 a4ac fb2f 8194 1e33
00000110: 3bcf f530 31bb 6f31 04a8 c034 de0f 8b32
00000120: 4869 5f32 cd6a ab32 706e 9b33 6f0a 4a34
00000130: ef18 4f33 0481 ee32 4b1e c131 742e af33
00000140: 1f56 e534 65ab 0533 960d 4834 ec38 f133
00000150: a070 db33 0883 f234 aea9 0334 5219 df32
00000160: 45b4 9633 12cf 2d33 e154 0f33 e0e8 1632
00000170: bf56 3d33 cd60 e834 77a5 3134 d168 1b33
00000180: 86a1 0633 984b 5832 dc43 5d35 ba53 fb33
00000190: cef9 2a34 6607 b630 0c36 9935 f9e3 5932
000001a0: 73cd c132 1e70 5b33 befc 4833 d7d4 2b34
000001b0: 7b90 5535 f05d ba33 803c ce33 7bd0 0830
000001c0: 5df5 fd32 208f 4f34 d5d7 be33 8190 c033
000001d0: 130d dc33 9111 0d33 97fe 0c32 0482 6e33
000001e0: 5bab 6132 b9d9 4c32 2888 cd30 48f9 e733
000001f0: 7a54 0334 eff5 b431 f028 8732 b3e9 2e34
