results/test_5/Boss/Boss-52224.onnx (onnx, 75574 bytes, 7 tensors)

network_body._body_endoder.seq_layers.0.weight f4 [128, 7]
000000 81 7d c8 3e 48 a3 82 bf c4 ab 90 3e 4f a9 9a be
       0.39158252 -1.020608 0.28256047 -0.30207297
000010 21 ff 00 3f d7 dc d9 3e 92 8c f2 bd 6d 47 00 bf
       0.50389296 0.425513 -0.11843218 -0.5010899
000020 7e e1 02 bf fd 3d 01 be a9 67 01 3d 79 d6 f1 3d
       -0.51125324 -0.12621303 0.031593 0.118084855
000030 81 35 92 3e ff 94 54 be 35 d4 00 3f a4 57 f4 3d
       0.28556445 -0.20759962 0.503238 0.119307786
000040 18 7c b4 be c4 a2 8f 3d c6 31 2e 3f d8 e5 60 be
       -0.35250926 0.07013467 0.680447 -0.21962678
000050 24 d2 82 3d 91 a6 80 3e 15 fb 1e 3f e4 4e f9 bd
       0.063877374 0.2512708 0.6210187 -0.1217325
000060 d4 dd 49 3d f1 a0 28 3f b8 7c 18 3f 36 d7 b3 3e
       0.049283817 0.6587058 0.59565306 0.3512513
000070 b7 d8 c9 3d 57 f5 17 be 11 29 81 3e 89 6f 39 3f
       0.09855788 -0.14839683 0.25226644 0.72435814
000080 23 b2 b0 3e 90 f4 4e 3e f1 ec 1e 3f 94 a4 0b 3f
       0.34510908 0.2021048 0.62080294 0.54548
000090 67 b7 03 bf 4b 0a 00 3f 87 4b 8d 3e 5d 3d 02 be
       -0.51451725 0.50015706 0.27596685 -0.1271872
0000a0 09 6a 50 bf b0 df f9 3d 02 78 8e bd 8b f9 18 be
       -0.81411797 0.12200868 -0.069564834 -0.14938943
0000b0 f8 41 86 be d6 4d b0 be 5b 44 f0 be a3 bc ac be
       -0.26222205 -0.34434384 -0.4692715 -0.33737668
0000c0 ce 39 cc 3b 17 5d 8e 3e cc 85 a8 bd 1b 02 7c 3d
       0.006232477 0.27805397 -0.08228645 0.061525445
0000d0 a1 56 39 be 6e 73 ef 3e c8 a8 79 be e6 18 b6 bd
       -0.18099453 0.46767753 -0.24380791 -0.08891468
0000e0 a4 3b 0b 3f ff 25 f0 3e 9a 88 9d 3e 79 02 75 3e
       0.5438788 0.4690399 0.3076828 0.23926724
0000f0 86 23 3a be 6e 4a e0 bc 46 2d df 3e 09 44 de bb
       -0.18177614 -0.02737924 0.43589228 -0.0067830128
000100 9c 7e 18 be 61 45 45 be 75 9c cb be 8a fb a5 3d
       -0.14892048 -0.19264747 -0.39767805 0.08104618
000110 3b f5 16 bd 41 66 32 3f 86 74 56 be 7b bc 77 be
       -0.036854964 0.6968728 -0.20942888 -0.24192993
000120 c9 f5 f6 3d 80 66 89 be 63 94 84 be df 14 d0 3e
       0.120585985 -0.26836014 -0.2589446 0.40640923
000130 eb c8 26 3f 13 a5 c3 3e fd f1 05 bf 77 f2 1f 3e
       0.65150326 0.3821188 -0.5232237 0.15619837
000140 7a 9f 95 3e 33 c4 cf be 28 95 7d be cd 33 47 be
       0.29223233 -0.40579376 -0.2476393 -0.19453354
000150 2c 09 8f 3e 15 78 82 bd c4 e9 e4 bd 4b c5 39 3e
       0.27936685 -0.0637056 -0.111774 0.18141668
000160 07 d9 06 be 26 de b3 3d c4 86 3f be c0 ab 0f bf
       -0.13168727 0.08782606 -0.18703753 -0.56121445
000170 af a9 59 be 23 b5 eb 3d 34 ea a2 be fe 86 de 3d
       -0.21256135 0.115091585 -0.31819308 0.108655915
000180 01 08 f1 bd c8 49 4a 3f c7 a5 bd be e5 01 4b 3e
       -0.11769105 0.7901883 -0.3704054 0.19824941
000190 11 85 47 3e 2b b5 00 3f 15 7d 11 3f c1 95 ab bf
       0.19484355 0.5027644 0.56831485 -1.3405076
0001a0 23 95 7f bc d8 72 20 be 1c 38 30 be 9b 30 5e 3f
       -0.015599522 -0.1566881 -0.17208904 0.86792916
0001b0 e1 13 85 be b0 5c 83 3d bd f2 ae 3e 9b 07 6d 3f
       -0.2599173 0.06414163 0.3416957 0.9258973
0001c0 a3 94 82 3e de e2 af bd a7 d4 d2 be 70 91 9e 3e
       0.25504026 -0.08588193 -0.41177866 0.30970335
0001d0 0e 48 0b 3e b3 08 15 3f 17 2b b7 3e 53 3a 7d be
       0.13601705 0.582164 0.35775062 -0.2472928
0001e0 b4 60 2d 3e 86 e2 15 3f 9b f8 e2 3e 30 44 93 be
       0.1693142 0.5854877 0.44330296 -0.2876296
0001f0 d2 e1 44 3d 37 ab b1 3e c0 6c cf 3e ec 24 1a bb
       0.04806692 0.3470094 0.40512657 -0.0023520542
000200 9c b1 d2 be 45 07 e1 3d c7 13 ef bc 0e 8b 5f 3d
       -0.4115113 0.10987715 -0.029184235 0.054575972
000210 f2 c4 28 3f 97 04 09 bf 06 7f 13 be cc e8 5f 3e
       0.65925515 -0.5352263 -0.14403924 0.21866149
000220 22 5e cf 3e 24 42 dc be d6 14 cd bd f4 23 e4 be
       0.40501505 -0.4301921 -0.1001374 -0.4455868
000230 a6 bc bc 3e f8 14 d3 bd 8e 90 78 be e4 51 b6 bd
       0.36862677 -0.10306734 -0.24273893 -0.08902338
000240 13 04 d8 3d 4a f0 a6 3d 18 fd d5 be 40 80 3a 3f
       0.10547652 0.081513 -0.41794658 0.72851944
000250 1e 97 c9 3e 47 cc 27 3e 6c 13 42 3e 01 f0 43 bf
       0.39373106 0.1638652 0.18952721 -0.7653809
000260 66 19 6f bd 05 62 41 be cd 1d ce be 85 2b e7 3e
       -0.05837383 -0.18885048 -0.4025711 0.4515039
000270 76 a6 fe bd e1 f2 3e bf 97 63 21 bd f8 72 dc be
       -0.12434094 -0.74589354 -0.039401617 -0.43056464
000280 f0 fa 78 3d 42 f0 ae 3d ae 7c e4 3d be da 1c be
       0.060786188 0.08541919 0.11156593 -0.15317819
000290 b2 c3 a3 be 92 ed a9 3e 97 8c 25 be c2 82 ac 3c
       -0.3198524 0.33189064 -0.16166912 0.021058444
0002a0 86 5e d6 bd e4 f6 55 3e a1 b7 a6 be 28 70 81 3d
       -0.10467248 0.20894963 -0.32561973 0.0632022
0002b0 77 e6 b8 be c7 f5 19 be a5 10 9b 3e 77 6c 86 be
       -0.3611333 -0.15035163 0.30286136 -0.26254627
0002c0 db 2f cf be 46 8c 5d 3e 73 7e 4c bd 72 b5 1c bf
       -0.40466198 0.21635541 -0.04992528 -0.61214364
0002d0 a9 d4 63 3e db a6 9a 3d e7 9d 0c 3e 79 0a 0d 3f
       0.22249092 0.075513564 0.1373211 0.55094105
0002e0 3c bf 6e 3e 3c ae 1c bc 25 87 16 3d 99 2b e4 3e
       0.23315138 -0.009563025 0.036749978 0.44564512
0002f0 3f d1 b6 3d c4 40 cb 3c 0f d9 92 3e 82 e9 da bd
       0.08926629 0.024811156 0.28681228 -0.10689069
000300 a9 66 57 3f bc f1 5a bf 28 cf b4 3e b4 9b 4b bf
       0.8414102 -0.8552511 0.35314298 -0.7953446
000310 b8 af 39 3f 38 f3 e2 be 47 07 e7 3e ae da cc 3e
       0.7253375 -0.44326186 0.4512274 0.4001059
000320 e7 ae fc 3d 16 69 85 3e fc 8d d3 3d 5e c0 96 be
       0.123380475 0.26056737 0.10329816 -0.2944364
000330 b7 7e 5e bc 45 0f 8a be 38 7b de 3e 2d 24 19 be
       -0.013580016 -0.26964775 0.43453383 -0.14955206
000340 ab 3e e0 3c 9b a2 92 be 45 9e 62 be b5 22 66 be
       0.027373632 -0.28639683 -0.22130688 -0.22474177
000350 ba b8 a3 3d 70 4e 0f be a7 a2 25 be 19 31 22 3e
       0.07994218 -0.13994765 -0.16175328 0.15839042
000360 77 bd 71 be dc 30 05 3f 05 61 dd be f8 a0 34 3e
       -0.23607431 0.5202768 -0.43238083 0.1763953
000370 a9 c7 03 3f db da 91 3e 44 54 9d 3e 8c 90 e7 3e
       0.5147653 0.28487286 0.30728352 0.45227468
000380 82 82 01 3f 70 b4 c9 3d b4 4d 2d 3f 51 55 c5 be
       0.50589764 0.09848869 0.6769669 -0.38541654
000390 40 b9 f4 3b e5 ea f2 be 00 d6 00 bf 20 22 16 be
       0.0074683726 -0.47444835 -0.5032654 -0.14661455
0003a0 57 51 10 bf 10 4d 2b 3d 41 84 1c bf 3a de b7 3d
       -0.56374115 0.04182154 -0.61139303 0.08977933
0003b0 76 65 3b be c8 09 7f bc 0a 62 f9 be 6e cb fc 3c
       -0.18300423 -0.015566297 -0.4870761 0.030858722
0003c0 6a 2f 86 bb 72 01 06 bf 22 a8 90 bd d2 85 05 3d
       -0.0040950077 -0.52345955 -0.07063319 0.032598324
0003d0 e0 87 01 3f 1e a7 f2 be d7 ed 0a 3f 46 be 38 be
       0.50597954 -0.47393125 0.54269165 -0.18041334
0003e0 d5 44 98 3d 5d 27 64 be 1d 86 b5 3e 99 bc dd 3e
       0.07435004 -0.22280641 0.35453883 0.4330795
0003f0 3d 91 18 bd 59 d4 cc 3c 8b 8c ca 3d 40 cf 61 3e
       -0.037247885 0.025003599 0.09890088 0.22051716

network_body._body_endoder.seq_layers.0.bias f4 [128]
000000 ce 7c 04 3b dd 6d 2e 3b 80 44 cb ba 54 d7 aa ba
       0.002021599 0.0026615777 -0.0015508085 -0.0013034143
000010 2a 1f ee 39 d4 38 76 ba a8 4b b8 ba 97 ed e3 b9
       0.00045418116 -0.00093926233 -0.0014060633 -0.00043473832
000020 0c 0e 77 ba e9 56 95 3b cc f2 2d 3c ed 8c 24 3a
       -0.00094243954 0.0045574796 0.010616969 0.0006277103
000030 00 bc 1d 39 a0 f1 7c 3c c8 c3 4d 38 78 99 d9 3b
       0.00015042722 0.015438467 4.9058144e-05 0.0066406094
000040 70 61 89 b8 52 64 e2 b8 e5 40 4e 3a 5e 26 dd 3b
       -6.550818e-05 -0.00010795206 0.00078679464 0.0067489585
000050 6b 5b 9b ba ee 2f ae b9 62 44 e3 39 0f e4 30 ba
       -0.0011852806 -0.00033223577 0.00043347763 -0.00067478506
000060 b5 da 03 bc 31 3c d8 bb ab 3c b0 39 79 7e 58 b9
       -0.008047749 -0.0065989722 0.00033614537 -0.0002064648
000070 e2 b3 60 39 46 a4 58 38 86 59 ed 3a cc 54 f5 b9
       0.00021429316 5.1651405e-05 0.0018108345 -0.0004679322
000080 c0 03 09 38 e2 c4 87 3b 49 e8 c5 3b 7c ff bb b9
       3.2666838e-05 0.0041433433 0.0060396534 -0.0003585777
000090 31 02 8b ba 04 9c 53 3b 1e 84 d9 3a 81 4e c0 b8
       -0.0010605511 0.0032289037 0.001659516 -9.169896e-05
0000a0 a4 b5 12 ba e2 4c 18 39 43 a2 73 ba d0 ef f5 38
       -0.00055965246 0.0001452449 -0.0009293893 0.00011727179
0000b0 50 9b 05 3b 25 1e 15 3c 7b 67 19 ba 44 33 4b bb
       0.0020386763 0.009101425 -0.00058519066 -0.0031005898
0000c0 f1 5a b9 3a 13 d1 88 38 5f 7e 61 3b b1 72 c2 39
       0.0014141483 6.5239285e-05 0.0034407598 0.00037088015
0000d0 b2 46 8c b9 14 a3 4c b9 e3 9e 29 b9 6e 9a 3f ba
       -0.00026755553 -0.00019515707 -0.00016176286 -0.00073090836
0000e0 61 f6 df 3b f1 01 01 3b b2 b0 da 3a 75 a8 81 3b
       0.0068347906 0.0019684995 0.0016684739 0.003956849
0000f0 8b 5a 5d 38 b7 13 21 ba b1 1f d6 3b 4b be 87 3b
       5.277483e-05 -0.00061446003 0.0065345396 0.0041425577
000100 8b 36 99 ba 26 fd 00 3b 91 8f 00 bc ff a5 9a b9
       -0.0011689229 0.0019682138 -0.007846729 -0.00029496846
000110 11 92 cf 3b 3b 8e fd 3a bf 91 d0 b8 5f 49 7b ba
       0.006334551 0.0019344756 -9.94536e-05 -0.0009585823
000120 a0 c3 54 3a ea b4 fe b8 8f 51 27 ba 3d 2a 9a ba
       0.00081163086 -0.00012145362 -0.00063826976 -0.0011761856
000130 97 17 e6 38 ac f1 bb ba 00 84 af ba 9d 0d 30 b9
       0.000109716486 -0.0014338992 -0.001339078 -0.0001678974
000140 f2 f6 f3 b8 ab 0d 04 bb 4f d5 ab b9 67 d6 67 ba
       -0.0001163314 -0.0020149748 -0.0003277459 -0.0008843899
000150 62 8a 66 b9 90 0a 32 ba ec 3b 2f 3c 08 bf f2 b6
       -0.00021986061 -0.0006791735 0.010695439 -7.234401e-06
000160 0b 59 85 3a 7d 89 6a ba e2 0b 64 3a 38 bf da 3a
       0.0010173632 -0.0008946879 0.00086992804 0.0016689068
000170 a7 f0 d6 b9 db d1 6b 35 ae f9 d5 b7 a3 28 cb 38
       -0.0004099656 8.78497e-07 -2.5507845e-05 9.6873635e-05
000180 b5 d2 92 3a 8b 43 87 ba c5 8d 35 38 4a 98 02 b9
       0.0011201712 -0.0010319812 4.3285796e-05 -0.00012454498
000190 bd e7 b4 b9 39 07 68 b9 05 df 13 ba 37 76 b0 ba
       -0.00034504934 -0.00022127935 -0.00056408375 -0.0013462965
0001a0 e1 7b 05 3a 1b 77 aa b9 cb 5a af b9 86 98 33 3a
       0.0005092007 -0.00032513667 -0.00033446247 0.0006851036
0001b0 23 d5 d4 b9 1c 98 b2 ba 66 9b 12 b9 67 5a 1f ba
       -0.0004059459 -0.0013625654 -0.00013981535 -0.00060788397
0001c0 f2 ff 37 bb c7 9c df 38 1f bc 29 38 91 4c 83 3b
       -0.002807614 0.00010662671 4.046794e-05 0.00400693
0001d0 e9 60 13 3a 20 fb 16 3b 35 b4 ea bb b1 64 c2 b9
       0.0005622046 0.0023037866 -0.0071625956 -0.00037077584
0001e0 1a 28 b3 3a 66 14 aa 3b 2f c1 60 b9 bf ce f7 3b
       0.0013668567 0.00519042 -0.00021434271 0.007562488
0001f0 21 71 39 b9 8c 7c b6 38 ce fb 28 3b c4 5a 15 b9
       -0.00017685119 8.701635e-05 0.0025784853 -0.0001424356

network_body._body_endoder.seq_layers.2.weight f4 [128, 128]
000000 24 19 66 3d 03 0c 66 bc 6a c5 f2 3d b9 d5 b5 3b
       0.05617632 -0.01404095 0.1185406 0.0055491594
000010 3c 76 0a 3e c4 20 04 3e f4 f1 3b 3e 38 bd bf 3c
       0.13521665 0.12903124 0.18354017 0.023405656
000020 9c cf 05 bc 14 6b 37 bd 90 3b 1b 3d 69 f3 0b be
       -0.008167174 -0.044779852 0.0378986 -0.13667072
000030 b9 b8 87 3c dd cc b2 bd f9 85 e5 3d e6 a5 6c bd
       0.016567575 -0.08730481 0.11207194 -0.0577754
000040 86 d1 c5 3d 81 45 0b be d9 8d e1 bd 2f 37 bc bd
       0.09659104 -0.13600732 -0.110133834 -0.09190213
000050 b3 b2 fd bc 7e 34 8a 3c a1 f8 5c 3e c3 d3 26 bd
       -0.030969 0.016870733 0.2157922 -0.040729295
000060 a7 11 e6 bd 51 30 93 3b 86 f9 81 bd 8e 00 c4 bd
       -0.11233836 0.0044918437 -0.06346421 -0.09570418
000070 5b 9b 50 3d 95 4e 54 3d e5 50 ab 3d 97 6a 63 bd
       0.05092941 0.051832754 0.08365039 -0.055521574
000080 a5 0b b1 3d 35 58 26 3e 4d 35 9d 3c cc 0f ae 3d
       0.08644799 0.16244586 0.019190455 0.08499107
000090 84 9f ed 3d ef f4 93 3d 53 94 18 3d 2c 85 76 bd
       0.11602691 0.07224452 0.037250828 -0.060185596
0000a0 e9 27 71 3c 8a cc 09 bb 77 a7 26 3d bc 09 07 bd
       0.014718988 -0.0021026456 0.04068705 -0.032968268
0000b0 54 7e 06 3d cf 5e 28 bb 2a 5c be 3c 75 8a c7 bd
       0.03283532 -0.0025691276 0.023237307 -0.097432055
0000c0 a6 8a b2 ba 8a b4 79 bd 96 45 3e bd 85 85 2a 3e
       -0.0013621643 -0.06096319 -0.04645308 0.16652496
0000d0 7d 47 2d be 74 6c d8 3d 01 35 b6 3d 2f 67 8f 3b
       -0.16921802 0.10567561 0.088968284 0.004376314
0000e0 05 22 1e bd 77 35 05 be 4b c9 38 3d 92 4c 30 bb
       -0.038606662 -0.13008676 0.045113843 -0.0026901108
0000f0 3f 1a 9e bc e4 38 8a 3d c4 dd 34 3c cc 75 46 be
       -0.019299624 0.06749132 0.011039201 -0.19380873
000100 93 7f 14 bd fb 32 54 3e f7 a3 9f 3d a1 a9 98 bd
       -0.036254477 0.20722573 0.07794946 -0.07454229
000110 1a ef d2 bd a0 a1 8d 3d f4 15 ba bd b3 bc 21 3d
       -0.10299511 0.06915593 -0.090862185 0.0394866
000120 04 05 00 be d3 2a e1 3b 6e f4 54 3d 84 1f 74 bd
       -0.12501913 0.00687156 0.05199092 -0.05960037
000130 d5 50 5c 3c 48 fe 38 bd d5 cb 1c be a8 78 c4 3d
       0.013447006 -0.045164376 -0.15312131 0.09593326
000140 de fe a1 bd 1d cd c1 bc 9f 64 03 be ad 4e cd 3d
       -0.0790994 -0.023657376 -0.12831353 0.10024772
000150 b4 b6 12 3e 54 75 79 bd 13 ba 9c bc 24 c2 9b bc
       0.14327508 -0.06090291 -0.019131696 -0.019013472
000160 ef 3f ca bd 09 a7 b7 ba 85 23 2c bd a3 cf f1 3d
       -0.098754756 -0.0014011572 -0.04202606 0.11807182
000170 b4 45 09 bd d2 a5 b6 3c c2 cb 8f 3c 46 77 7c 3c
       -0.03351374 0.022295866 0.017553214 0.015409296
000180 95 c2 2a bd 76 28 d5 3d 00 7e ec bd 47 bc 3c bc
       -0.041689474 0.10408108 -0.1154747 -0.011519498
000190 73 1c ac 3d 7c b8 b7 bd 8c 09 11 3e 2f 4d 19 3d
       0.08403864 -0.089707345 0.14163798 0.037427124
0001a0 f9 63 4f bb 7a 5a 24 bd 69 b3 a0 bc b2 4d 2f bd
       -0.0031645282 -0.040125348 -0.0196168 -0.042798705
0001b0 a6 ca 35 bd 3f 07 0b 3d 1d 1d 3b be 89 cb ea 3d
       -0.044382714 0.033942457 -0.18272825 0.114646025
0001c0 8b fa d5 3c 32 bc 17 3c ae 1f 84 bd 2c f8 10 bd
       0.026120445 0.009261178 -0.06451355 -0.035392925
0001d0 dd 16 f3 bd 07 37 9e 3c b4 45 82 3e b9 39 fa bd
       -0.11869595 0.019313348 0.25443804 -0.12218041
0001e0 9f 20 81 3a 4e e0 8e 3d d1 64 85 bd 55 0a 21 3e
       0.0009851641 0.069763765 -0.0651337 0.15726598
0001f0 69 1e ba bd c9 ce 45 be 3f 06 10 3e 46 2c 34 be
       -0.090878315 -0.19317164 0.14064883 -0.17595014
000200 21 82 7f bd 7b c1 13 3d ec 55 97 bd c2 6c 09 3d
       -0.06237996 0.03607319 -0.07389435 0.033550985
000210 94 c2 b2 bd 14 96 a9 3c f9 44 39 3d 75 5d 00 bd
       -0.08728519 0.020701446 0.045231793 -0.031339128
000220 61 ac 1d 3e 40 5c cf 3c bc bf 54 bd 04 a8 68 3c
       0.15397789 0.025312543 -0.051940665 0.014200214
000230 c5 df 8f 3c 7d e4 a0 3d b3 94 db bd 57 1a 83 3d
       0.017562756 0.07856081 -0.107217215 0.06401508
000240 e6 c1 f8 3d 01 b5 3f 3d 1c 72 a6 bd 54 7f 31 3d
       0.12146358 0.04680348 -0.081272334 0.04333432
000250 7a 2a 47 3e 97 4b f0 bb 26 ab 1c bd 17 e4 b8 3c
       0.19449797 -0.0073332298 -0.038249157 0.0225697
000260 f6 34 d3 bd eb ef 3b bd 3e f6 ba 3d a1 0d c3 bd
       -0.10312836 -0.0458831 0.09128998 -0.09524084
000270 7a af d8 bd df 05 08 bd 7d d4 b4 3c 4c 8e 97 3c
       -0.105803445 -0.033208724 0.022073979 0.01850047
000280 36 a8 3b 3c e2 63 6e bd 67 c0 19 3e c3 4f ce 3c
       0.011453679 -0.058200724 0.15014802 0.025184518
000290 d1 44 10 3e e1 b4 ce 3d df d9 65 bd 32 09 8b 3d
       0.14088751 0.10093094 -0.05611598 0.06788863
0002a0 f7 5e 5f 3c f6 73 8e 3d 1d 04 d8 3d 2b b4 29 be
       0.013633481 0.069557115 0.105476595 -0.16572635
0002b0 d4 9c 05 3d ef 94 3c 3d 23 d4 5a 3b c3 d2 b7 3d
       0.032620266 0.04604047 0.0033390603 0.089757465
0002c0 a2 f3 8c bd 2b 8f 8b bc 73 97 c5 bd a7 3e de bd
       -0.06882407 -0.017036041 -0.09648027 -0.10851794
0002d0 ca a0 4a 3d 30 a2 0f bd d2 f4 79 bd aa a3 b0 ba
       0.049469747 -0.035066783 -0.061024494 -0.001347651
0002e0 b0 77 29 bc 10 c0 1c 3c c6 9d 36 be aa 9f 00 be
       -0.010343477 0.009567276 -0.17833623 -0.12560907
0002f0 3a d0 12 3d df f2 3a 3d 73 59 69 bc 21 77 46 bb
       0.03584311 0.045641776 -0.014242518 -0.0030283409
000300 93 63 a0 bd 59 b6 c2 bd 06 de ac bd 08 00 07 bd
       -0.07831492 -0.09507436 -0.08440785 -0.032959014
000310 96 bf 06 bd 74 9c 62 bc df d9 15 3e 83 cd c2 3d
       -0.032897554 -0.013831247 0.14633892 0.095118545
000320 3e fe e4 3d 12 fb f1 3d 93 fe 02 be 66 28 8a bc
       0.11181305 0.11815466 -0.12792425 -0.016864967
000330 c2 80 0d be e6 7c e9 bc 07 18 aa bd df 23 a6 bd
       -0.13818648 -0.028501939 -0.08305364 -0.081123106
000340 b1 3c 3e bd 69 3b d2 bc 33 d9 4f 3e 1d 54 43 bd
       -0.0464446 -0.025663095 0.20297699 -0.04768764
000350 10 a8 92 3d 17 44 72 bd bb cd 8c 3a 8b 87 16 3e
       0.07160962 -0.059146967 0.0010742465 0.14700143
000360 4a 04 fc bd fc f8 24 3d fa df 8c 3d c1 2e 3e 3d
       -0.123055056 0.040276513 0.06878658 0.046431307
000370 1d 6f 22 be 1c e2 69 bc 11 a6 45 3c 6a 66 b5 3e
       -0.15862699 -0.0142751 0.012063519 0.35429698
000380 4c 6a d6 bd 72 96 df 3d 85 1a 03 3e 7e 27 76 3c
       -0.10469493 0.10917367 0.12803085 0.015024064
000390 d9 1b ed ba 6a 92 4a be 35 9e 5f bd cb 68 b2 3c
       -0.0018089964 -0.19782415 -0.054594237 0.021778485
0003a0 f0 27 e3 3d b2 06 82 3d 07 79 eb 3c 90 f7 b2 3d
       0.11091602 0.06348933 0.028744234 0.08738625
0003b0 2b d9 82 bc 76 3a b4 bd 49 83 38 3e 31 c9 2a 3d
       -0.015972694 -0.08800213 0.18018831 0.041695777
0003c0 69 8a de 3d a5 07 90 bd 2f f3 c7 3d e5 fb 6d bd
       0.108662434 -0.07032708 0.097631805 -0.058101553
0003d0 a1 e3 ac 3d f0 af 61 bc e9 dd cc 3d e5 3f 34 ba
       0.08441854 -0.013774857 0.100032635 -0.0006875976
0003e0 ae 6a c4 bd 91 3b 64 be 8e b7 9d 3d 0b 00 c0 bd
       -0.0959066 -0.22288348 0.07701026 -0.09375008
0003f0 6f d0 31 3e ef 77 a8 bd 92 82 b7 3d 77 b7 bd 3d
       0.17364667 -0.082260005 0.08960451 0.09263509

network_body._body_endoder.seq_layers.2.bias f4 [128]
000000 7b 9d 71 3a 7f 2a 88 ba 0a 60 57 3a 6a 83 19 3c
       0.0009216887 -0.0010388641 0.000821591 0.00936971
000010 fc d5 3c ba 47 ea 17 ba a9 ba 7b b8 d8 ef d3 39
       -0.0007203517 -0.0005795103 -6.0016904e-05 0.00040423754
000020 19 b7 84 ba 60 14 14 3c be 4e 8d ba 79 50 ac 3a
       -0.0010125368 0.009038061 -0.0010780913 0.0013146541
000030 33 9f e9 39 b5 ab 93 b8 fa f4 b5 b7 25 ee 9e ba
       0.00044559836 -7.041489e-05 -2.1690958e-05 -0.0012125416
000040 7d de 95 ba 0a c0 2b 3a ba 8c 47 39 e5 b5 89 39
       -0.0011434105 0.00065517484 0.00019030544 0.00026266198
000050 e4 4a 23 ba 60 b2 9a bb e4 04 2c bb 30 36 97 ba
       -0.0006229116 -0.004720971 -0.0026248032 -0.0011536535
000060 80 9a 79 b9 e2 eb b5 38 23 ab 48 38 bb 92 82 ba
       -0.00023804046 8.674689e-05 4.78431e-05 -0.0009961942
000070 82 c4 6a 3a da 27 03 ba 53 88 0e 3a 1b c6 78 ba
       0.00089556735 -0.0005003192 0.0005437184 -0.0009489969
000080 b6 01 20 b9 00 39 df ba 3e 12 09 3a 74 e1 4d 3a
       -0.00015259426 -0.0017030537 0.00052288536 0.00078537245
000090 9a 30 2c bb 1a c5 32 bb ae 54 2f 3b 50 b8 a1 39
       -0.0026274086 -0.0027278126 0.0026753354 0.00030845637
0000a0 a4 73 15 b9 79 52 96 b9 37 4c 0d ba 49 89 50 3a
       -0.00014252827 -0.00028671676 -0.000539008 0.00079550274
0000b0 ec 95 e4 39 cb 3b 8e bb 6b c5 07 bb 0b 72 ef 3a
       0.0004359925 -0.004340624 -0.0020717036 0.001826824
0000c0 1f 08 75 bb 70 30 95 39 9c 19 22 3a 1f ca a7 ba
       -0.0037388874 0.00028455583 0.00061836257 -0.0012801326
0000d0 7a 0c d7 39 c7 6b 1d 39 85 50 47 ba 35 81 38 b7
       0.0004101729 0.00015012837 -0.0007603246 -1.0997338e-05
0000e0 2c 7d ec 39 99 87 51 3c 87 53 82 3b c8 1f 3d ba
       0.00045106688 0.012788677 0.0039772424 -0.00072145136
0000f0 ca 49 27 b9 8d 36 9a 3c 28 e3 a0 b9 b1 a2 95 3b
       -0.0001595385 0.01882484 -0.00030686823 0.0045665135
000100 36 d8 03 bb d0 1f 32 ba cf 6c 34 bc 46 42 23 ba
       -0.0020117885 -0.00067949016 -0.01101227 -0.0006227832
000110 7e c2 a0 3a a8 b2 f5 3b d4 02 41 ba 5e 3e ba bb
       0.0012264994 0.007498104 -0.0007362787 -0.0056837043
000120 75 90 f0 38 cd 83 ca 38 0e e8 a0 b9 96 26 a7 3a
       0.00011470999 9.6566604e-05 -0.00030690472 0.0012752588
000130 19 c7 3a b9 4b f2 12 bc b2 df 13 39 3a ca ed b8
       -0.00017812512 -0.0089689 0.00014102345 -0.00011338708
000140 46 d9 9b ba 1e 0e 0f 3a 0e e4 39 3b c9 8a e6 b8
       -0.0011890314 0.0005457121 0.002836469 -0.000109931054
000150 98 ba b9 b9 f9 27 43 39 65 e9 c9 b9 dc 1a 3e ba
       -0.00035424973 0.0001861154 -0.000385116 -0.0007251927
000160 f8 c2 7b b9 47 6c ae b9 16 e6 4b bb f5 55 33 3a
       -0.00024009857 -0.0003326854 -0.0031112484 0.00068411167
000170 5b 68 1a 3b d1 d9 d1 3b c0 41 ec b9 49 c1 95 b9
       0.0023560736 0.0064041396 -0.00045062415 -0.00028563503
000180 77 7b 37 3a e0 b7 a6 37 3c 85 cf bb ec 04 ed 3b
       0.00069992937 1.9874366e-05 -0.0063330214 0.0072332527
000190 9d 36 e9 b9 2b 4d fd 3a cb 77 80 ba 21 59 52 3a
       -0.00044481913 0.0019325366 -0.0009801326 0.00080241455
0001a0 a3 8e 1e 3a 1d 42 78 ba 9b a1 cb b7 1f 95 16 3c
       0.0006048476 -0.0009470301 -2.427474e-05 0.009190827
0001b0 d5 4a 01 bc 61 a9 0a 3a 8e 34 9b ba 1c a7 8f b9
       -0.0078913765 0.00052895217 -0.0011841224 -0.00027399592
0001c0 c6 b2 85 bb 3f c8 72 3b f9 42 9a ba fb 88 0b ba
       -0.0040801493 0.0037045626 -0.0011769227 -0.0005322841
0001d0 5a c8 d6 bb f9 98 40 ba e2 99 25 b9 8f 3a b6 39
       -0.0065546455 -0.00073470135 -0.00015792952 0.00034757375
0001e0 0f 76 8e 3b 06 b0 22 3b 19 39 9d bb d0 c6 9f 38
       0.00434757 0.0024824156 -0.0047980663 7.6187425e-05
0001f0 59 6a 34 3a df 1f b5 ba 93 03 7b b9 c8 a2 96 39
       0.0006882302 -0.0013818702 -0.00023938557 0.0002873151

action_model._continuous_distribution.log_sigma f4 [1, 2]
000000 32 22 99 3c 3a 10 e5 3b
       0.018693063 0.0069904597

action_model._continuous_distribution.mu.weight f4 [2, 128]
000000 36 85 6b 3c fd 11 85 ba eb 10 17 3d d2 a9 b7 3c
       0.014375022 -0.0010152456 0.03688137 0.022419844
000010 73 e0 83 3b 99 68 8d bc 35 ad ac 3a ab 78 12 bc
       0.004024559 -0.01726179 0.0013174178 -0.008939902
000020 c9 c9 e5 ba 45 9e 59 3c 1a 82 ad 3b 8e f4 c3 3b
       -0.001753145 0.013282363 0.0052950503 0.005980081
000030 57 06 e7 3c 5e db 34 bc 02 9e 1e bd 6f 1b 0d bd
       0.028201265 -0.011038629 -0.038724907 -0.03444999
000040 c1 a7 28 bd 46 cb 09 3d 2f 01 c3 3c b3 4b 80 3c
       -0.041175608 0.033641122 0.023804275 0.015661096
000050 07 ab b3 bb 4b c7 8d ba c5 f0 21 bc 20 ba 54 bb
       -0.0054830345 -0.001081684 -0.009884064 -0.0032459572
000060 7e 04 18 3c dd f7 a0 3c 44 cb 48 bc 88 f4 a8 bc
       0.009278415 0.01964944 -0.012255494 -0.020624414
000070 03 4c 12 3b e0 e9 b2 bb 8e fc 16 3c 69 a1 45 bc
       0.0022323139 -0.005460009 0.009215487 -0.012062409
000080 79 3a 25 3d 61 d6 b8 bc 28 c3 bf ba 15 35 11 3c
       0.040338967 -0.022563161 -0.0014630305 0.008862753
000090 26 74 c4 39 c1 84 40 3b f5 3a bb bb c6 ff ab 3c
       0.0003747057 0.0029376002 -0.0057138153 0.020995986
0000a0 28 d3 9b 3c cb bd 3d 3c b4 00 bf bc 33 1a 3d bb
       0.019021586 0.011580895 -0.023315765 -0.0028854727
0000b0 fb dd 21 bc 3d b8 80 3b 64 ba c8 bc eb a6 97 3c
       -0.009879584 0.003928213 -0.02450294 0.01851221
0000c0 e1 6e 76 bc 96 28 1b bc 89 a1 c2 3c 74 a2 83 3b
       -0.015041084 -0.009470126 0.023758667 0.0040171687
0000d0 3f 17 8f bb 37 88 e1 bb 8e 71 92 bc 8e 6b c8 3c
       -0.004366785 -0.006882693 -0.017876413 0.024465349
0000e0 2d cc 59 3c 78 01 7d bc 5b e7 13 3d 9a ba 03 bc
       0.013293308 -0.015442245 0.03610931 -0.008040095
0000f0 4e 1b a5 3c 48 6f 77 3d d2 f9 53 bc 74 7d 38 3c
       0.020154621 0.06040886 -0.01293798 0.011260379
000100 34 4f e8 bc 72 27 2c 3b 98 65 b5 3c 45 2c a7 bb
       -0.02835808 0.0026268628 0.02214317 -0.005101713
000110 d5 06 83 39 39 17 07 3d 34 cf fe 3b ec cd 43 bd
       0.00024991357 0.03298113 0.0077761654 -0.047803804
000120 34 13 1b bc c6 a4 fd bc 6c 0e 83 bc fc c8 de 3c
       -0.009465028 -0.03096236 -0.015998088 0.027195446
000130 82 d6 cc 3b 00 01 22 3c a5 fb 90 bc 7b 41 7f 3c
       0.0062511573 0.009887934 -0.017698118 0.015579577
000140 06 8b 0e bc 82 58 3b 3c b0 80 88 3b c3 34 80 bc
       -0.008700138 0.011434676 0.0041657314 -0.015650159
000150 3d eb ac bb b9 3d 78 ba 29 1d 95 3c 4d 5a bb 3b
       -0.005277066 -0.00094696466 0.018202381 0.005717552
000160 11 5d c4 bb 2c d9 b8 bc dc be 03 b9 fb 74 1a 3c
       -0.0059925397 -0.022564493 -0.00012564234 0.009427304
000170 9c 30 5e 3c 77 5a 90 3c af 6b b0 bb 64 de 8b 3c
       0.013561394 0.017621262 -0.0053839306 0.017073818
000180 07 70 de 3c 3c 7c bf 3c ad 35 d3 bc 78 af 08 39
       0.027153028 0.02337467 -0.02578243 0.00013035338
000190 f6 47 07 bb 5b f5 09 ba a6 1e 62 3c 91 74 ee 3c
       -0.0020642257 -0.0005262696 0.0138012525 0.029108318
0001a0 08 09 c2 ba c4 ce 84 3b 72 1a be 3b fb b2 37 3c
       -0.0014803717 0.0040529687 0.0058014924 0.011212106
0001b0 36 7a 08 bb 0e 89 14 3d bb 71 b1 3b 11 0a 73 bc
       -0.0020824797 0.036263518 0.005415169 -0.014833943
0001c0 74 4d 3d bc 9a bc 86 b9 1f a1 8f bc df 54 13 3c
       -0.011554111 -0.0002569899 -0.017532883 0.008992403
0001d0 c0 87 e2 3c e4 33 0d 3c 27 bf 96 3c c3 36 25 bc
       0.027652621 0.008618329 0.018401695 -0.010083857
0001e0 8b 4e 4b 3c 06 51 d7 3c 6e 7e 04 bd ad 91 ae 3c
       0.012408863 0.026283752 -0.032347135 0.021309698
0001f0 30 73 66 bc fb cc b9 3b 14 9f ff 3b 74 63 db 3b
       -0.014065549 0.0056701875 0.007800946 0.0066952053
000200 15 bd a4 3c 1a fd f8 3c dc 69 c6 bc 7f 88 54 bb
       0.020109693 0.030394126 -0.0242204 -0.003242999
000210 6c 13 ed 3c 61 85 3d bc 62 df 42 bb 14 de f0 bc
       0.028939925 -0.011567445 -0.0029735197 -0.02940277
000220 15 b5 ff ba 35 78 4e bc 2b 23 9e 3c 6e 28 05 bd
       -0.0019508923 -0.012601902 0.019303879 -0.03250926
000230 19 7d 39 3c 85 65 6d 3c b0 40 cf bc ba d2 0d 3a
       0.0113213295 0.014489536 -0.0252994 0.0005410124
000240 53 63 42 ba a1 d7 02 b9 fa 23 20 bc c2 29 36 3c
       -0.0007415313 -0.00012478094 -0.0097742025 0.011118354
000250 80 06 b5 3a c8 89 5d bc 26 91 fb 3b 7f c5 b4 3a
       0.0013811141 -0.013521619 0.007677215 0.0013791769
000260 84 56 7b 3c 5a 7e 2a 3d 3e 3d 38 bc 1a f8 08 3c
       0.015340451 0.041624404 -0.01124507 0.008359933
000270 eb 75 f8 bb 90 41 5d 3c d1 0e 75 bc 82 8d a6 3c
       -0.0075824163 0.013504401 -0.014957146 0.020331148
000280 6f 86 8d 3c 42 3c 15 3c d1 7d 4a bc 28 28 74 bc
       0.017276017 0.009108605 -0.0123590985 -0.014902152
000290 3b 2a 81 3c 0a a9 57 3d 17 d4 e6 bc be bf 30 3b
       0.015767207 0.052651443 -0.028177304 0.0026969756
0002a0 f5 1e 3a 3c 7f 89 2d 3b b8 bb e2 3c 5c ba 9e bc
       0.01135992 0.002647966 0.027677402 -0.019375972
0002b0 f6 55 b9 bc 14 21 1e 3c 6c 3f ea bb 7e f0 ac 3b
       -0.022623997 0.009651441 -0.0071486738 0.0052776923
0002c0 32 26 24 bb 85 74 a4 bc 14 72 66 3b 69 44 e7 3b
       -0.002504718 -0.020075092 0.003516321 0.0070577157
0002d0 83 68 15 bd ea 0b 3b bc a8 e0 aa bb fe ee 40 b9
       -0.036476623 -0.011416415 -0.0052147694 -0.00018399578
0002e0 62 8f 22 bb 35 11 39 3c 41 34 ce bb 79 34 2e bb
       -0.00248047 0.011295606 -0.0062928502 -0.002658157
0002f0 c4 74 b5 3c 94 77 73 bb d3 8d a0 bb df f2 7c bc
       0.022150405 -0.0037150132 -0.0048997193 -0.015438764
000300 99 02 51 bc bd 67 b9 bc 29 61 0f bc 1e d0 01 3d
       -0.012756967 -0.022632474 -0.008751192 0.031692617
000310 22 2f 89 bb 25 45 95 3c 42 2f f7 3c 30 6f a7 3c
       -0.004186527 0.018221447 0.030173901 0.02043876
000320 2e 2a 9c bc 3c 03 14 bc d0 d2 72 3c 91 c2 95 bc
       -0.019063082 -0.009033974 0.014820769 -0.018281253
000330 bb c7 21 3c b2 46 0f 3c b2 f0 99 bc e1 e7 21 3c
       0.00987428 0.008744882 -0.01879153 0.009881944
000340 25 9d ae 3a 6d 32 d9 bc 6e 5d 2f bc c7 90 02 bc
       0.0013321979 -0.026513303 -0.010703428 -0.007969088
000350 05 5d 00 3b 28 6a e1 bb 84 e2 43 bb 3d c2 7a 3c
       0.0019586694 -0.00687911 -0.0029889653 0.015305099
000360 d6 98 82 3c 61 c3 7d bc 5e 94 11 ba 3d 63 2d bc
       0.015942018 -0.0154884765 -0.00055534195 -0.010582742
000370 d3 4b 9e bc d1 69 40 bc 74 ff ec 3c af 01 58 3c
       -0.019323265 -0.011743979 0.028930403 0.013183995
000380 3e f5 a3 bc 74 4c 88 bb ef 37 0e bc b6 a1 12 ba
       -0.020014402 -0.0041595045 -0.008680328 -0.0005593555
000390 e0 03 3f 3c 39 1d 4b bd cb c4 6c 3c c9 c2 c7 bb
       0.011658639 -0.049588416 0.014451216 -0.0060962182
0003a0 ef 81 a7 bc 2b 1f d6 3c 75 d3 e9 bb 0e 99 5c bb
       -0.0204477 0.026137909 -0.0071358033 -0.0033660564
0003b0 b1 3d 01 3c 5b a4 b4 bc fc ed b5 3c ca 97 96 bc
       0.0078882435 -0.022051027 0.022208206 -0.018382926
0003c0 80 96 ab 3b d1 b0 8e 3c b7 f3 8c bc b1 ae be 3c
       0.005236447 0.017418297 -0.017206056 0.023276659
0003d0 f9 ee d8 ba a8 90 d6 3c f4 58 26 3c c0 7e cc bc
       -0.0016550712 0.026192024 0.010153044 -0.024962783
0003e0 c6 26 2b bc f2 14 8e 3b cd da 3b bc dc f9 df bc
       -0.010446256 0.004335993 -0.01146574 -0.027340822
0003f0 59 a1 b6 3c d9 01 6f 3c c1 49 ba bb 07 2c a1 3a
       0.022293733 0.014587843 -0.0056850617 0.0012296446

action_model._continuous_distribution.mu.bias f4 [2]
000000 0e 6e 35 3a 3c 1e 83 ba
       0.00069210015 -0.0010003517
