results/test2/Boss/Boss-999944.onnx (onnx, 75574 bytes, 7 tensors)

network_body._body_endoder.seq_layers.0.weight f4 [128, 7]
00000000: 6fc7 1f3f 1b9d d5be 039a fe3d 637f dfbc
00000010: 16bf 4abe 3b1f 1e3f 64de 6b3b 0d37 813e
00000020: 22b3 543f 238c 283d c776 0e3f 44e1 9eba
00000030: 8f03 413f 491f 8cbe 0cf8 c6be 3422 74be
00000040: 6c23 4abe 6f21 92bd bddc dc3e a236 183f
00000050: 8d9f 44bf 107c 353e fa3e a03e 1092 403e
00000060: d452 b7be fe1a 6d3f d32d d93c 2c96 97be
00000070: 62c3 9a3d 8d15 673d ddb0 d43d 800d 103e
00000080: cc8d 1fbf d337 13bd 8f8d e83e 357b 9ebe
00000090: 31a9 253f f7c3 663e 43d1 443e e4cd bbbe
000000a0: 697a 7e3d ed07 a23d 10a1 013f c823 10bf
000000b0: 81bb 3d3d 4c15 e83d 00e4 f3bd f377 253d
000000c0: cad4 9abe a5a1 8a3e 9149 cbbe b04e ce3e
000000d0: 8c25 56bf 428e 313e fccb a33e 9562 103e
000000e0: 42ee 20bd 0a56 143f b39e e6be c2bc 11be
000000f0: ed9d 9a3d b76b 3b3e b8cb 373e 9e8d 8d3d
00000100: fb18 863d d999 913e 4697 843f 57e1 71be
00000110: 6f12 f43e c14c 0d3f 1692 423e c459 27be
00000120: 8af9 18bf 5cc6 7bbe 71a0 af3e a09d 1dbf
00000130: bf04 0bbe 564f 853e bd35 bbbe a636 073e
00000140: c6f3 1ebe 52c1 79bc 0cfe 73bd f3b3 733e
00000150: 0d0e a4be d66a a13e b42b 433d 41b4 943d
00000160: 47e2 06bf a370 65bd 8928 e8be 68a1 db3e
00000170: e4d3 0cbe 8404 15bf 81a1 2c3e 7fcd d83e
00000180: 10ae 4a3f a0b8 713d 4432 bf3e d8b7 903f
00000190: e4b9 323d 1a0b 8ebe cac1 1f3f c9c2 3bbe
000001a0: 0d15 5fbc c45c db3e 818a 7fbe 56e4 8dbe
000001b0: 5697 5bbf 35c5 133f fd86 353f 1f0d ebbe
000001c0: da44 4d3d 9017 403f e8f2 d53e da60 233e
000001d0: 1505 223d 3345 a63c eba1 6bbf 08ff 63bd
000001e0: b29d 533f de27 34bf fa5b 9b3d 6216 873e
000001f0: 55f8 eb3d d3b1 f9be 2e10 f53d a8c2 dc3e
00000200: 3f71 cf3e cc40 443e 6f31 153e a1c7 fb3e
00000210: cbc6 6a3e 1b1e 9b3e 67de 853e 269b 06bf
00000220: d3e5 a73d 011e 35be 9cb2 43be 7c60 cb3e
00000230: 15d6 853f e718 ee3d 7d91 6c3e a3a8 813e
00000240: 05a3 003f a397 7d3d 8695 bd3d a435 91be
00000250: afc3 dabd 18ab d3be 127d ff3e e125 b6be
00000260: 514b 673e 4bc0 79bc 327c 12bd 6c37 c93d
00000270: 4270 873e 305b 0d3f 4508 693e f66c 993e
00000280: cd56 0d3e af35 ed3d 3acc 1cbd 7369 92be
00000290: faaa 9e3e 9cfc 153e 8004 e5be ccad 673c
000002a0: 7442 60be 0dd9 0b3e 8195 c3be 127d a63e
000002b0: d2fc db3e aa9b bfbe 1cc3 fb3e cf3c ec3d
000002c0: 0375 013f 8d5e e23e 0b51 a33e c91c ec3d
000002d0: 7c84 87be 4a82 60bd df63 0bbe f30b 333f
000002e0: ceef b93e 6579 ab3e 6d80 f8be 66b4 fc3e
000002f0: 026f 4d3e 4726 65be 74dc c0be cd5a 32be
00000300: 9a5e d13d 1c03 fa3e 07ca 403d 134e bc3d
00000310: cbce 153e 9e14 3dbe d3ca 273d d83e b83e
00000320: 1973 eebd 2946 65be ad83 243e ca76 073e
00000330: 32c3 b7bd 7f55 953e 27fc 6a3e ea79 b73e
00000340: 3b9f 443e cba6 5abb bd4a a23d 8e2c 6fbd
00000350: e8e9 63be 6dfc f3be 299f 0b3e 540d 29be
00000360: 7b43 f8be 947d c4be e21e 163f f6f0 7fbd
00000370: c705 053e ee11 bf3e 3e48 04bf bf11 3a3e
00000380: 3655 863e 57f1 4cbe 61ea 99be cd93 b5be
00000390: 6c39 78be 6ea7 abbe 2395 c33e b359 f7be
000003a0: 0712 e93e 670d a63d 5138 0f3f b9f6 5abe
000003b0: b070 d1be 4cc1 383d 544c b5bc eae5 263f
000003c0: 8eba 37bf 72c6 94be 95fe 1fbf 03a1 cfbd
000003d0: 339c 173f 7375 583c c81d 03be 17e6 c9bd
000003e0: 7fcf 723e 5c50 8abe a5d7 04be 1290 ae3e
000003f0: 2f24 f5be 75c4 2bbd 0c23 723e b619 86bc
0.62413687 -0.41721424 0.12431719 -0.027282422 -0.19799456 0.61766404 0.003599071 0.25237313
0.83085835 0.04114927 0.5564999 -0.0012121578 0.75396055 -0.2736762 -0.3886112 -0.23841172
-0.19740075 -0.07135283 0.4313716 0.59458363 -0.76805955 0.17723107 0.31298047 0.18805718
-0.3580538 0.9261931 0.026511109 -0.2960676 0.075567976 0.056417037 0.103852965 0.1406765
-0.6232574 -0.03594191 0.454205 -0.30953375 0.6471129 0.22535692 0.19220452 -0.3668052
0.06212846 0.07911668 0.50636387 -0.563046 0.046321396 0.11332187 -0.11908722 0.040397596
-0.3024047 0.2707645 -0.39704564 0.4029441 -0.8365104 0.17339423 0.31991565 0.14100106
-0.03928972 0.57943785 -0.45042953 -0.14232162 0.07549653 0.18302809 0.17948806 0.06911777
0.065477334 0.2843769 1.0358665 -0.23621117 0.47670314 0.5519524 0.1900104 -0.16342837
-0.59755766 -0.24587387 0.34302095 -0.6156864 -0.13576029 0.2603709 -0.36564437 0.1320444
-0.1552268 -0.015243845 -0.05956845 0.23799114 -0.3204197 0.31526822 0.0476491 0.07260943
-0.5268902 -0.056015622 -0.45343426 0.4289658 -0.13752705 -0.58210015 0.16858484 0.4234428
0.7917185 0.059013963 0.37343037 1.1306105 0.04363431 -0.27742845 0.62405074 -0.18336023
-0.013615859 0.42844212 -0.24955179 -0.2771327 -0.85777795 0.5772279 0.709091 -0.45908448
0.05011449 0.75035954 0.41786885 0.15954915 0.039555628 0.020296669 -0.9204394 -0.05566314
0.826625 -0.7037333 0.075859025 0.26384264 0.11521975 -0.48768482 0.11965977 0.4311726
0.40516087 0.19165343 0.14569639 0.49175742 0.22927396 0.30296406 0.26146242 -0.5258049
0.08198132 -0.17687227 -0.19111103 0.3972205 1.0455958 0.116258435 0.23102374 0.25323972
0.5024875 0.06191219 0.09257035 -0.28361237 -0.10681855 -0.41341472 0.4990011 -0.35575774
0.22587325 -0.0152436 -0.035762973 0.09825024 0.26452833 0.55217266 0.22757061 0.29965943
0.13802643 0.11582505 -0.038280703 -0.28596076 0.3098982 0.14647144 -0.44729996 0.0141405575
-0.2190035 0.13657017 -0.382 0.32517296 0.42966324 -0.3742345 0.49172294 0.11535036
0.5056917 0.44212762 0.31897768 0.11528928 -0.26468265 -0.054811753 -0.13612317 0.6994011
0.3631577 0.33491054 -0.4853548 0.49356383 0.20061877 -0.22377883 -0.37668192 -0.1741745
0.10223122 0.48830497 0.04706767 0.09194579 0.14629667 -0.18464896 0.040964913 0.35985446
-0.11643047 -0.22390045 0.16065855 0.13228908 -0.089727774 0.2916679 0.22947751 0.358352
0.19201367 -0.0033363577 0.079244114 -0.0583921 -0.22257197 -0.47653523 0.13634934 -0.1650899
-0.48488984 -0.38377059 0.58640873 -0.062485658 0.12990485 0.37318367 -0.5167273 0.18170832
0.26236886 -0.20013939 -0.3006163 -0.35464326 -0.24240655 -0.33526176 0.3819972 -0.48310623
0.45521566 0.08108025 0.55945307 -0.2138318 -0.40906286 0.045106217 -0.022131123 0.6519457
-0.71769035 -0.29057652 -0.62497836 -0.101381324 0.59222716 0.013211596 -0.1280433 -0.09858339
0.23711966 -0.27014434 -0.12972887 0.34094292 -0.47879168 -0.041935403 0.23646182 -0.016369682

network_body._body_endoder.seq_layers.0.bias f4 [128]
00000000: aa07 19ba fb6c 9bbb 2f42 31bc 3991 84bb
00000010: 4eb2 553b d9b7 0abc 60a6 e3bb 210c 003c
00000020: 1506 25bb ac02 87bc 29eb adbb 9527 01bc
00000030: 900a 0d3c 1d51 adbb de00 9bbb 36f8 59bb
00000040: 3618 07bb ade2 70bb 08be bebb 52b6 00bd
00000050: 989e c5bb 4c2e e33a 2cc3 dfba 1411 45bb
00000060: ddfd 3cbb f291 dfbc c3c7 b0bb 1c6f 86bb
00000070: 5940 9cba 4164 e6ba d93f d9bb 876f c7bb
00000080: ae98 51bc 71e4 ffba 5bb5 95bb 5368 afba
00000090: ba5c 353c e9d9 3fbb dab9 07bb 5198 143b
000000a0: c484 e8ba 8b86 3f39 854a 903b 6e61 bfbb
000000b0: 47c5 fcbb 6ff9 4d3c 0b15 5c3c d57c cbbb
000000c0: 4c66 7cbb b474 403a bd7b 643a d146 15ba
000000d0: da16 04bb f437 51bc ad6b 7b3b 9c7c a5bb
000000e0: 47f6 14bb 6f42 eab9 3268 a9bb 30bd af3a
000000f0: 140c 2ebc 1e5b 553b 8b67 823b 20a6 57bc
00000100: c618 02bc cd54 7a3a 777d 55ba b050 c63b
00000110: 5539 34bb f774 01bc 878f 27bb cc6f 5bbc
00000120: 830c 2bbc 6283 0fbb ffda 02bd faca 15bc
00000130: e3d5 56bb fb15 963b 94d3 a0bb 19f0 0abb
00000140: 724e f639 0f17 c8ba fd00 223c 41fd 5e3a
00000150: 718d 823b 4649 083c 0a94 c5bb 2dde cdbb
00000160: c50b 22bc 0bf3 34bb 3a5a c8bb 0b5e b7bb
00000170: f4b9 77bb b786 25ba 2970 edba ec06 cd3a
00000180: 7237 e23a 7747 c5bb 4187 7cbc 2ba3 003c
00000190: 7b90 09bb 040b 80bb 2860 313c 1800 11bc
000001a0: b072 113c 2229 d5bb 16cc 9dbb b22b 9f39
000001b0: cef7 633b 9ef5 39bb 51a3 dbbb 8cc7 4fb9
000001c0: d4d2 58bc 135a 84bb 7add 263c fa6a bcbb
000001d0: 64a6 74bb cfd1 aa3b b951 8739 46a7 873b
000001e0: 4514 153a d417 88bb 1f3e 4fbb 6d43 98bc
000001f0: 290e b1bc a97f c3b9 ac61 99ba e0d2 ed3a
-0.0005837629 -0.004743216 -0.010819002 -0.004045632 0.0032607499 -0.008466684 -0.0069473237 0.007815392
-0.0025180627 -0.016480766 -0.0053075743 -0.007882972 0.008608475 -0.0052892105 -0.004730328 -0.0033259518
-0.0020613796 -0.0036756203 -0.0058209933 -0.031423874 -0.0060308687 0.0017332523 -0.0017071716 -0.0030069994
-0.0028837838 -0.027291272 -0.005394907 -0.0041026007 -0.0011921033 -0.0017577485 -0.0066299257 -0.006086293
-0.012792749 -0.0019523037 -0.0045687384 -0.0013382531 0.011069471 -0.0029274172 -0.0020710141 0.0022673795
-0.0017739763 0.000182653 0.0044034147 -0.005840472 -0.007713947 0.012571677 0.013432751 -0.0062099495
-0.0038513122 0.0007341609 0.0008715948 -0.00056944514 -0.0020155222 -0.012769688 0.003836374 -0.005050255
-0.00227298 -0.00044681455 -0.0051698918 0.0013407823 -0.010622997 0.003255553 0.0039796284 -0.013162166
-0.007940477 0.00095493795 -0.0008144001 0.006052099 -0.0027499993 -0.007901422 -0.0025567727 -0.013393354
-0.010439995 -0.0021898379 -0.031947132 -0.009142632 -0.0032781295 0.004580257 -0.0049080346 -0.0021200238
0.00046979223 -0.0015265661 0.009887931 0.00085063657 0.0039841463 0.008318251 -0.0060296105 -0.006282589
-0.009890501 -0.0027610685 -0.0061142715 -0.0055959276 -0.0037800046 -0.00063143246 -0.0018115091 0.0015642322
0.0017258956 -0.006020482 -0.015413106 0.007851402 -0.0020990658 -0.003907563 0.010826148 -0.00885012
0.008877441 -0.0065051476 -0.0048155887 0.000303594 0.0034785154 -0.002837516 -0.0067028184 -0.00019815395
-0.013233859 -0.004039058 0.01018464 -0.0057500573 -0.0037330622 0.0052129994 0.00025810095 0.0041398136
0.00056869193 -0.004153231 -0.003162272 -0.018586839 -0.021613197 -0.00037288413 -0.0011702082 0.0018144511

network_body._body_endoder.seq_layers.2.weight f4 [128, 128]
00000000: db39 bdbc 2f5d debc a98f 093e 7578 b3bc
00000010: 8a95 dabc 2377 9f3d ebbd bbbd a5dd 043e
00000020: 6728 0d3d fd9e 99bd f64d 243e 3d9a 0dbd
00000030: 1a53 bb3c 37b8 48bd 8cd9 d23b e0ed fbbb
00000040: 701f 9fbd 3043 5abd d82e b83d 3eb1 b2bd
00000050: 97f2 7ebd 3baa 41bd f038 5c3d 2c88 20be
00000060: 25f8 0e3c 1abe 4c3d 86fb 77bd 79ac 1abe
00000070: d0cd bdbb fff6 9a3d b7cd 88bd bc9c 853d
00000080: c0ab 4d3c f98b 753c 8a21 ed3b dd3a 893d
00000090: fbd8 6b3e a3a3 c23d 5173 dd3c 3d02 46bd
000000a0: c5d9 eebd 50ae e0bc 7f6b 4dbe 5a1b a7bd
000000b0: f66f 003e 7f11 24bd 646b 1e3e 2aae c03d
000000c0: 0bdc 8abd 3e40 103c c54f 2abd 9426 b43d
000000d0: 703c 123e befb 6ebe 9035 d73d 99b2 27be
000000e0: 0379 21be ccdf edbd 6336 7ebd 949a c13c
000000f0: c27c 243c 8222 b0bd bb04 a7bd 8189 9bbc
00000100: 47b2 043e af1f e2ba 25a1 26be 1e0f 9ebd
00000110: 719d 89bc ed27 ffbd 6cc7 61bd ed44 293e
00000120: fa22 64bc f383 f8bc 12a4 023c ba96 40be
00000130: 342d c33c 4bbc 0fbc 8d18 e33d b08e bdbd
00000140: 48ec 99bc d2c6 493c 92c7 bd3d 67e2 513c
00000150: d7e4 9e3d 69c2 9abc 4cf0 14be 01e0 ed3d
00000160: 178e 0bbd b18b b73c 584f 2dbe 0518 d33d
00000170: 2b6c a2bd 70ac 9abd e1dc 913d 6c5e b9bd
00000180: 82be 603b d121 bb3d 55d6 ab3d 7a37 03be
00000190: 83a4 b4bd c34f 5b3d 5a7a b1bc b20f a0bd
000001a0: f8c2 113d 9850 97bc 2c39 343d 9148 9e3d
000001b0: 7783 d73c 7d05 b3bb c9e9 c9bc e2f1 aebd
000001c0: 9053 9b3c 0a8d 31be 8d71 9e3d abca 9a39
000001d0: d403 29be 5d7d 7e3a 6553 eabc c79f 5dbb
000001e0: ff1e 883d 024e 5f3d 3bb7 f6bc 426b c13c
000001f0: bf41 53bd 9ec0 443e 4172 75ba a721 afbd
00000200: c1f6 2b3c b465 69bd d4b2 75bd 1547 f73d
00000210: 282d 06bc 73fb 0b3e a1ae 0dbe 2bae 8abc
00000220: 9c3b 7ebd f094 743d da3e 323e 164e 04be
00000230: 4733 b73c 64d2 873d ed83 06bd 576f 0abc
00000240: 6a0c 0b3e 487b 7f3d 1875 87bb 71f9 cc3a
00000250: 4920 2c3d 3ca4 04be 2e52 ce3c bde3 af3d
00000260: 86b1 f33d 9053 8aba 8d51 843c 0eec 863d
00000270: 6a01 39bd 6ea2 25bd 76b8 893d 3143 993d
00000280: 4f9d 953d 2e22 213c 441b e03d 066f 103e
00000290: 03ff f3bd 5754 1ebd 6d09 e2bb 5188 163e
000002a0: de85 033d 230d 393d 8571 b33c 00a2 3dbe
000002b0: c206 853d 7b02 343d 88f3 9bbd 3fed 083e
000002c0: 9488 ffbd c5e3 eabd f7b2 6bbd b5ac 4dbd
000002d0: cb0a 2fbd 266a f03d c713 c63d d74b 82bd
000002e0: 1f81 a5bd 58cb c1bb f839 69bc bea0 6abd
000002f0: 16c5 36be 0570 57be e809 d53c 67b1 c93d
00000300: a550 c63d 0ee0 09be 097b fbbc 4361 c8bd
00000310: eb53 dcbd d9f6 01be e6ad ccbd 2f5b b33d
00000320: f51f b9bd 3192 cf3d 771a 153e 08e9 87bd
00000330: 668b f6bd ecab 8dbd 0ef8 5ebd afb0 3f3d
00000340: 7fc1 21bd 32b8 76bd 3930 6a3c 95e4 c1bc
00000350: 8fee 32bd 3f03 103c baa2 c93b 6996 7abd
00000360: 6104 173e f08d 51bd 1334 be3c b49e 94bd
00000370: e4e2 693e 6dd2 b93d 9544 16bb d2d2 423c
00000380: 6d4c 94bc 33a6 d13c 1005 703c 1947 a63d
00000390: 13d9 7f3d 5dc2 0b3c 3365 a5bc 67d1 a3bd
000003a0: f816 1e3e ba98 dc3d 4096 94bd 00e1 45bc
000003b0: 455f d23d 4d07 18bd 031d 6a3d 9971 8b3d
000003c0: 7534 0a3d 9b47 c93c 4211 603d cd4e 9f3c
000003d0: 0da0 99bd d19e aebd 2341 5cbe 2c15 01be
000003e0: 667d adbd 69b8 ecbd 4b13 c4bd cdd7 d63d
000003f0: cdd7 553d 6d35 403e 9c4a 013c fed7 40bd
-0.023098877 -0.027144043 0.13433708 -0.021908024 -0.026682634 0.077863954 -0.09167083 0.12975176
0.03446236 -0.07501028 0.16045365 -0.03457092 0.022866774 -0.049003806 0.006434625 -0.007688269
-0.07769668 -0.05328673 0.0899331 -0.087252125 -0.06224307 -0.047281485 0.053765237 -0.15676945
0.008726154 0.049985982 -0.060542606 -0.15104856 -0.005792357 0.07566642 -0.06679862 0.06524035
0.012553155 0.014986985 0.007236664 0.067006804 0.2303199 0.095038675 0.027032526 -0.04834198
-0.1166263 -0.027426869 -0.20060538 -0.08159514 0.1254271 -0.040055748 0.15470654 0.09408219
-0.06780251 0.008804379 -0.04157998 0.08796421 0.14280868 -0.2333822 0.10508263 -0.16376723
-0.15768819 -0.116149515 -0.062063586 0.023633279 0.01003951 -0.08600332 -0.08155199 -0.018986465
0.12958632 -0.0017251874 -0.1627241 -0.07717727 -0.016798707 -0.12458787 -0.055121824 0.165302
-0.013924355 -0.030336356 0.007973688 -0.18807498 0.023825265 -0.00877292 0.11088667 -0.09255731
-0.018789425 0.012315469 0.09266581 0.012810326 0.077584915 -0.01889153 -0.14544791 0.11614991
-0.034071054 0.022405477 -0.16924798 0.10307316 -0.07930788 -0.07552421 0.071222074 -0.09051213
0.003429324 0.09137309 0.0839049 -0.12814131 -0.088204406 0.053542864 -0.021664787 -0.07815494
0.035586327 -0.018471047 0.043999836 0.07728685 0.026307805 -0.0054633007 -0.02464761 -0.08542229
0.018960744 -0.17338958 0.07736502 0.00029524168 -0.16505367 0.00097080116 -0.028604219 -0.0033817159
0.06646537 0.054517753 -0.030116668 0.023610715 -0.051576372 0.19214103 -0.00093630335 -0.085513406
0.010495842 -0.056981757 -0.059984997 0.12074105 -0.008189477 0.13670139 -0.13836147 -0.016928753
-0.062068567 0.05971235 0.17406788 -0.12920412 0.022363318 0.06631926 -0.032840658 -0.008449397
0.13578954 0.06237343 -0.0041338317 0.0015638304 0.042022977 -0.12953275 0.02518567 0.085883595
0.11899094 -0.0010553468 0.016152168 0.065879926 -0.045167364 -0.04043811 0.06724636 0.07483519
0.07305395 0.009834809 0.109427005 0.14104852 -0.11913874 -0.03865465 -0.0068980963 0.14700438
0.032110088 0.045178544 0.021904716 -0.1851883 0.064954296 0.043947678 -0.07614809 0.13371752
-0.12477222 -0.11469225 -0.05754372 -0.050213534 -0.042734902 0.11738996 0.09671741 -0.063621216
-0.080812685 -0.005914133 -0.014235012 -0.057282202 -0.1784862 -0.21038826 0.0260057 0.0984829
0.096833505 -0.13464376 -0.030698316 -0.09784176 -0.107581936 -0.12691821 -0.09994106 0.08757626
-0.090392984 0.10135306 0.14560877 -0.06636244 -0.12038307 -0.06917557 -0.054435782 0.046799358
-0.039491173 -0.060234256 0.014293724 -0.023668567 -0.04368454 0.008789836 0.0061534317 -0.0611786
0.14747764 -0.051160753 0.02321819 -0.07256833 0.22840458 0.09073339 -0.0022929062 0.011891084
-0.018102849 0.025591945 0.0146496445 0.081190296 0.062462877 0.008530227 -0.020189857 -0.07998925
0.1543845 0.10771318 -0.072552204 -0.01207757 0.102720775 -0.037116338 0.057156574 0.068087764
0.033741433 0.024570277 0.05470396 0.019446755 -0.075012304 -0.085263856 -0.21509223 -0.12605733
-0.084711835 -0.11558611 -0.09573992 0.104903795 0.052207757 0.1877038 0.007891323 -0.047080986

network_body._body_endoder.seq_layers.2.bias f4 [128]
00000000: 66ce 483c d0ac 7ebb cd56 30bb 0a77 84b9
00000010: 8a27 aeba 128f 1abb 5f66 c9bb 02a8 d8b9
00000020: d48a 70bb 04d0 87ba 3f5f ac39 a0ea 46bb
00000030: 0fe0 cdba e375 21ba c226 583a 6aaa a2bb
00000040: 8d0f fbba 9255 9ebb 6cae 22bc d0b5 543c
00000050: b678 9cbb cd83 ecbb 8027 33bb 1c72 69bb
00000060: 7bae bfbb b948 f8bb 08b6 633b 680e 49ba
00000070: 278c e83b 490d f5ba 699d 3fbb a117 1d3c
00000080: ade8 79bb ecf5 173c 8bf7 4c3b 6b53 63bb
00000090: 576a 50b9 290e 593a b04b a4bb 6733 abb9
000000a0: 7d5f aabb cf44 ef3a b5ab 5abb 2b77 07bb
000000b0: 5ad1 99bb 2934 e3ba 605e f8bb f657 d6bb
000000c0: 0cc9 9cbb 380b 21bb e513 0abb 0acd 18bb
000000d0: 1cab 813a dbd4 763a d651 21bb 21dc 0dba
000000e0: 6f39 2d3b 33ee 03bb e4d0 94bb 058b 7abb
000000f0: c0b5 acbb 4cdc 9cba 886e 10bc 8ca9 cdbb
00000100: 1114 9e38 0063 16bc 52af 09bc 6196 ccba
00000110: 7731 75bb 70e5 69bb 482e cbb8 0385 39bb
00000120: 25d1 d0b9 0192 723b a8fd c9bb 9fe8 86ba
00000130: c958 f93b 599d f33b e278 c3ba cf96 4bbc
00000140: 1aed 3ebb 92b0 efba a973 5abb 9825 7d3a
00000150: d2ce 59bb 6005 1f3c 3718 1eb9 2e31 be3b
00000160: 89eb 913b 03e6 adbb e033 86bb 26eb 98ba
00000170: 80ff 02bb 8136 13bb 0865 a6bb 0156 9fbb
00000180: 734d f9bb 6e0a f3ba d2f3 84bb 4be2 7cbb
00000190: 1f6d 1bbc f08c e0ba 3fb4 56bb 0c75 43bb
000001a0: c8f5 1abc 026f 433b 5d97 09b9 9a5a 8aba
000001b0: fae9 d6ba 649f 94bb 36ae cfbb 65e6 5138
000001c0: 74d1 76ba dccc 35bb c7bf 9cbb a332 12bb
000001d0: 8b83 97bb 1967 763a 0c84 6bbb 9bfb 13bb
000001e0: 2cae 123c e866 e5bb 0866 98bb 85b9 2bbb
000001f0: 45cb 9f3c 8dab 86bb fa54 07bb aa15 71b8
0.0122562405 -0.0038860328 -0.0026907206 -0.00025265693 -0.001328693 -0.0023583812 -0.006146237 -0.00041323906
-0.0036703842 -0.0010361676 0.0003287736 -0.003035225 -0.0015707033 -0.0006159229 0.00082455215 -0.0049641626
-0.0019154415 -0.004831978 -0.009929281 0.012982801 -0.004775132 -0.0072178603 -0.0027336776 -0.0035620993
-0.005849657 -0.0075770286 0.003474595 -0.0007669688 0.0070967856 -0.0018695976 -0.002923811 0.009588153
-0.003813307 0.009274941 0.0031275477 -0.0034687172 -0.0001987604 0.0008280003 -0.0050139055 -0.0003265396
-0.0051993714 0.001825476 -0.0033366506 -0.0020670395 -0.004694146 -0.001733427 -0.0075796098 -0.0065412475
-0.004784709 -0.0024573337 -0.0021068987 -0.0023315572 0.0009892914 0.0009415873 -0.0024615428 -0.0005411525
0.0026431938 -0.0020130991 -0.0045415033 -0.0038229835 -0.0052706897 -0.0011967509 -0.008815415 -0.006276315
7.537765e-05 -0.009178877 -0.008403616 -0.0015608781 -0.0037413517 -0.0035689734 -9.688415e-05 -0.002830804
-0.00039828676 0.0037013295 -0.0061642714 -0.0010292715 0.007609461 0.007434529 -0.0014913345 -0.012426092
-0.0029133023 -0.0018286875 -0.00333331 0.0009656786 -0.0033234847 0.009705871 -0.00015077075 0.0058042025
0.004453127 -0.0053069605 -0.0040955395 -0.0011666759 -0.0019988716 -0.0022462907 -0.005077962 -0.0048625474
-0.0076081096 -0.0018542537 -0.004057386 -0.003858703 -0.009486466 -0.0017131846 -0.0032761244 -0.0029824404
-0.009458013 0.0029820804 -0.00013121725 -0.0010555566 -0.0016396635 -0.0045356024 -0.0063379062 5.0044055e-05
-0.0009415366 -0.0027740514 -0.004783604 -0.0022308014 -0.0046238354 0.0009399518 -0.003593686 -0.0022580388
0.008952659 -0.007000793 -0.004650835 -0.0026203108 0.019506106 -0.004109806 -0.0020650015 -5.7479054e-05

action_model._continuous_distribution.log_sigma f4 [1, 2]
00000000: 5540 813c 226e 51bc
0.015777746 -0.012782605

action_model._continuous_distribution.mu.weight f4 [2, 128]
00000000: daa2 8cbc ae45 963b 65bd 633c ef7b 52ba
00000010: 76e9 36bc 8fc7 e0bc f19a babb 44ca 473c
00000020: 1c7f 57bb 33b7 97bb 711a b2ba ecb5 82bc
00000030: 1af9 143d 272f e2bb 4e0e 82bb 0437 9a3b
00000040: c458 85bc 195e eabb 0afe 483c 725b 0fbd
00000050: 0c28 25bd 78f4 18bc 5b87 22bb 6767 323c
00000060: 4d40 b1bc 8345 a8bb 434e 3e3b b092 29bb
00000070: 69c6 b13c cd09 0cbd d0c4 92ba 54ee 853c
00000080: d8f2 293d a368 93bb 618f fcbb 766d 1d3c
00000090: 08a9 83bc b3d7 cebc 3a85 a2bc 277e c23b
000000a0: e746 603a 1e89 afbc fe18 f03a 1f7f 1f3c
000000b0: c25d b13c a448 f43c ced6 76bb 6f82 11bd
000000c0: f038 373c 3ce1 06bd 3eb5 4b3c 11f2 c5bc
000000d0: 61df ccbc 3f63 0dbc 3266 e2b9 ae16 7dbc
000000e0: 1dc4 e9bb 6f6d 2b3c fc4a 143c e165 f1bb
000000f0: abdd 4aba 118b 4f3d 9b7c 843b f059 113a
00000100: dd9a a2bc 62e5 1eba 679a 2c3c eca3 e4bb
00000110: 2f09 8dbc 1e16 1d3c fdfb 4b3c b42a ee3b
00000120: c8dc d839 83d5 ed3b 75b2 103d 1387 313d
00000130: bc6c 4bbb 7f4b 68bc bf55 bd38 a37a 8739
00000140: 37ab fdbc 4941 f33c 4db3 823c c622 b53c
00000150: fb69 74bc 357a 0dbc 7908 e5bb a895 cbb8
00000160: 4a82 9f3c b15c 98bb e591 a03b e8f2 e73c
00000170: a339 febc 1f6a 1cbd 0dce aebb 9adb 1d3c
00000180: 2574 543c 4ad5 93bc 4f43 2e3b 70f4 19bc
00000190: b089 853c dbfd f2bb 7efc 83bc c58e 793c
000001a0: 424c c4ba 4cb8 593c 32dc 573c 4b6a 15bd
000001b0: 39aa c8bc 4476 9fb9 b4dd ccbb eba1 3cbc
000001c0: 59ce be3c f201 9abc 6379 91bc 2bed 86bc
000001d0: 898a f9bb e7d4 01bd 0abb fc3a 5653 dcbc
000001e0: 0c0d 7dbc 8c08 ee3b 3580 c5bb c6ce 65bc
000001f0: 2dad 51bc 374a 393c 5008 0abd c1a0 6fbc
00000200: 857f a83c d486 9bba 0f45 18ba 931a a13c
00000210: ca0c 64bc a550 31bd 860b 84bb 7676 103c
00000220: aa87 2cbc 7c8d 4d3c 9f1e ef3c 111a 8fbc
00000230: 9063 e2bb c301 0d3c fe00 173b ee20 2fbc
00000240: 467c 9c3b 018e 02bd 8515 cfbc e045 663c
00000250: f777 df3b 5cc2 8ebc 9b4a 293b 173b 7139
00000260: 8d9f 24bd 6372 4abb 4c87 1abd 4c37 8a3c
00000270: 38a9 243d a918 d6bc ac51 123c 9cb9 6c3d
00000280: 2df6 483d 6870 a63c 5a0e e63c 5a1d 2e3b
00000290: 95b1 61bd 93e3 78bc 62f5 93bc b53e 083c
000002a0: f04f 09bc 26b0 61bb d956 b4ba 6a3d 283c
000002b0: 6500 9abb e23c cfba 1e86 03bc 9361 8dbc
000002c0: 2ef1 0bbc 17fe e6bb c09f 0e3c d2e5 45bc
000002d0: 7092 b8bc e4aa 9c3b 6a29 4b3b 5c73 88ba
000002e0: 2488 f63c 0703 66ba db51 0b3b 6b0b 36bb
000002f0: a842 d4bb 4b52 39bc 5c3f b0bc 8d68 9f3b
00000300: 88b7 eb3c 6737 86ba 118c ba3b 6337 003d
00000310: 9569 873b 3dbf bbbc 56e3 d63c aae7 343c
00000320: 1680 a03c eebf e4bb 0adc 20bd b004 393b
00000330: 25fe 3a3c 11b6 b53c dc48 cf3b 88ec abb8
00000340: 015f 75bc dc82 debb 4b11 b1bc 97f3 813c
00000350: ca72 a6bb 931f 8f3c ea89 f43b e1a5 073d
00000360: 5fe4 57bc 56dc 81bc 7e4f 22bc e7d6 fb3b
00000370: 435d 46bc f80e a83c 267f fabc 68e3 e4bb
00000380: 05f6 353c 52ce b4bb 221b 9bbc 9653 86bc
00000390: c2ed 42bd 3c03 cebc 7b35 02bc 7d5c ccbc
000003a0: a2c3 4ebc 9efd 903c 7443 da3c d157 0c3c
000003b0: 2f37 13b9 daee 8dbc 4d79 9bbc 1b7b 223c
000003c0: 5116 2c3c 9fde bebb 6238 8bbc d4a3 dcbb
000003d0: ca0e 16bc 5107 9c3c 2b2f e1bc 2318 19bc
000003e0: 13a8 d93c 8644 9cbc f00d 7d3b 44d5 83bb
000003f0: 7937 c43c f951 f13a a3c5 33bc a08e 313c
-0.017167497 0.004585943 0.013900136 -0.0008029332 -0.01116406 -0.027438907 -0.00569474 0.01219422
-0.003288216 -0.0046299933 -0.0013588202 -0.015955888 0.036370374 -0.0069025937 -0.0039689904 0.0047062654
-0.016277678 -0.0071523306 0.012267599 -0.03499932 -0.040321395 -0.00933563 -0.0024799916 0.010888911
-0.021637106 -0.0051352396 0.0029038347 -0.0025874786 0.021701055 -0.034189034 -0.0011197571 0.016348995
0.04149136 -0.0044985577 -0.007707522 0.009608617 -0.016071811 -0.025249338 -0.019838918 0.0059354487
0.0008555487 -0.021427687 0.0018317995 0.009734898 0.021651153 0.029819794 -0.0037664655 -0.03552478
0.011183009 -0.032929644 0.012433348 -0.024163278 -0.02500886 -0.008629619 -0.0004318222 -0.015447302
-0.007133974 0.010463103 0.009051081 -0.0073668812 -0.00077387196 0.050669733 0.0040431744 0.0005544713
-0.019849235 -0.00060614024 0.010534859 -0.006977549 -0.017216293 0.009587793 0.012450215 0.007268274
0.00041363225 0.0072581186 0.03532644 0.043341707 -0.0031040153 -0.014178156 9.028194e-05 0.00025840578
-0.03096543 0.029694216 0.015954638 0.022111308 -0.014917846 -0.008635093 -0.0069895354 -9.70767e-05
0.019471306 -0.0046497216 0.0049002045 0.028314069 -0.031033343 -0.038187142 -0.0053346218 0.009634877
0.012967144 -0.01804604 0.0026590412 -0.009396657 0.016301006 -0.007415516 -0.016111609 0.015231793
-0.001497634 0.013288569 0.013175057 -0.036478322 -0.024495231 -0.00030414958 -0.006252015 -0.011513214
0.023291754 -0.018799756 -0.017758077 -0.016470512 -0.0076153916 -0.03169718 0.0019281816 -0.026895206
-0.015445005 0.0072642025 -0.0060272464 -0.014026349 -0.012797636 0.011309198 -0.033699334 -0.014625729
0.020568619 -0.0011865743 -0.00058086304 0.019665992 -0.013919065 -0.0432898 -0.004029694 0.008817306
-0.010530392 0.01254594 0.029189406 -0.017468484 -0.0069088414 0.008606377 0.0023041363 -0.010689003
0.0047755567 -0.031873707 -0.025278816 0.014054745 0.006819721 -0.017426662 0.0025831822 0.00023005564
-0.040191222 -0.0030890934 -0.037726685 0.01687207 0.040200442 -0.026134806 0.008930605 0.0577942
0.049062897 0.020317271 0.028083015 0.0026567788 -0.055100996 -0.015190977 -0.018061344 0.008315732
-0.008380875 -0.0034437268 -0.0013758793 0.0102685485 -0.004699754 -0.0015810991 -0.0080275815 -0.017258441
-0.008541388 -0.007049333 0.00870508 -0.012078719 -0.022530764 0.004781114 0.0031000027 -0.0010410356
0.030094214 -0.0008774255 0.0021258506 -0.0027777802 -0.0064776726 -0.011311124 -0.021514587 0.0048647583
0.028774038 -0.00102399 0.0056929667 0.03130282 0.0041324594 -0.022918338 0.02623145 0.011041561
0.019592326 -0.0069808876 -0.039272346 0.0028231554 0.011413132 0.022181543 0.006325824 -8.197973e-05
-0.014976264 -0.006790502 -0.021614691 0.015863223 -0.005079602 0.01747111 0.0074627297 0.03311718
-0.0131770065 -0.015852135 -0.009906648 0.0076855305 -0.012107196 0.02051495 -0.030578207 -0.0069851168
0.011106019 -0.0055177594 -0.018933836 -0.016397279 -0.047590025 -0.025148027 -0.007947321 -0.024946446
-0.012619885 0.01769906 0.026643492 0.008565859 -0.0001403957 -0.017325807 -0.01897874 0.009917046
0.0105033675 -0.0058248783 -0.016994659 -0.006733397 -0.009158799 0.019046457 -0.027488312 -0.009344134
0.026569402 -0.019075643 0.0038613044 -0.004023226 0.023952233 0.001841127 -0.010972413 0.010837227

action_model._continuous_distribution.mu.bias f4 [2]
00000000: 8aec bd38 c545 f63a
9.056281e-05 0.0018789103
