results/test2/Boss/Boss-500708.onnx (onnx, 75574 bytes, 7 tensors)

network_body._body_endoder.seq_layers.0.weight f4 [128, 7]
0	0x3f1fd0de	0.6242808
1	0xbed5673b	-0.4168032
2	0x3dfe9a03	0.12431719
3	0xbcde15d1	-0.027110012
4	0xbe4a5354	-0.1975835
5	0x3f1e1f3b	0.61766404
6	0xb99811da	-0.00029005
7	0x3e82957e	0.25504678
8	0x3f5535fb	0.8328549
9	0x3d288c23	0.04114927
10	0x3f0f223d	0.5591162
11	0x3a4dc2ef	0.0007849177
12	0x3f41038f	0.75396055
13	0xbe8f1d4a	-0.27952033
14	0xbec863a7	-0.3913853
15	0xbe6e6655	-0.23281224
16	0xbe4a236c	-0.19740075
17	0xbda20a33	-0.079121016
18	0x3edfba9f	0.43697068
19	0x3f1836a2	0.59458363
20	0xbf463455	-0.774236
21	0x3e378acf	0.17924045
22	0x3ea13358	0.31484485
23	0x3e409210	0.18805718
24	0xbeb64b90	-0.35604525
25	0x3f6d9525	0.928057
26	0x3cd92dd3	0.026511109
27	0xbe9b83d7	-0.30374023
28	0x3d9d412f	0.076784484
29	0x3d6bd0a3	0.05757202
30	0x3dd4b0dd	0.103852965
31	0x3e115cc6	0.14195547
32	0xbf1f4210	-0.6221018
33	0xbd1337d3	-0.03594191
34	0x3ef10c9a	0.47079927
35	0xbe9a1372	-0.3009296
36	0x3f272908	0.65296984
37	0x3e66c3f7	0.22535692
38	0x3e4db76e	0.20089504
39	0xbeb8ce27	-0.36094782
40	0x3d7e7a69	0.06212846
41	0x3daa1c4f	0.08306181
42	0x3f0299b2	0.5101577
43	0xbf0f48ea	-0.55970633
44	0x3d3dbb81	0.046321396
45	0x3defc8b3	0.11708202
46	0xbded0cd0	-0.115747094
47	0x3d2577f3	0.040397596
48	0xbe9e762e	-0.3094954
49	0x3e8a089a	0.26959687
50	0xbece3a7f	-0.40279004
51	0x3ece4eb0	0.4029441
52	0xbf556003	-0.8334963
53	0x3e2bac84	0.16765028
54	0x3ea3cbfc	0.31991565
55	0x3e06968b	0.13143365
56	0xbd1cae93	-0.038252424
57	0x3f14ae73	0.5807869
58	0xbee69eb3	-0.45042953
59	0xbe10bbe9	-0.14134182
60	0x3d9d60b2	0.07684459
61	0x3e3b6bb7	0.18302809
62	0x3e2b9820	0.1675725
63	0x3daa4c1e	0.083152995
64	0x3da43c56	0.08019321
65	0x3e9199d9	0.2843769
66	0x3f866460	1.0499382
67	0xbe62cfac	-0.22149533
68	0x3ef4126f	0.47670314
69	0x3f134ca5	0.57538825
70	0x3e44164a	0.19149128
71	0xbe2634cd	-0.1623108
72	0xbf18f98a	-0.59755766
73	0xbe7a4cb8	-0.24443328
74	0x3eb032de	0.3441381
75	0xbf1d9da0	-0.6156864
76	0xbe182abf	-0.14860056
77	0x3e86c456	0.26321667
78	0xbeba5497	-0.36392662
79	0x3e0736a6	0.1320444
80	0xbe1c0085	-0.15234573
81	0xbc5d9d3b	-0.013526256
82	0xbd73fe0c	-0.05956845
83	0x3e775e20	0.24157
84	0xbea08474	-0.31351054
85	0x3ea005b5	0.31254354
86	0x3d432bb4	0.0476491
87	0x3db398f4	0.08769408
88	0xbf0794c9	-0.52961403
89	0xbd6570a3	-0.056015622
90	0xbee47d40	-0.44626808
91	0x3ede6507	0.43436453
92	0xbe071258	-0.13190591
93	0xbf150484	-0.58210015
94	0x3e32299c	0.17398685
95	0x3edbae42	0.42906386
96	0x3f4aae10	0.7917185
97	0x3d93029a	0.071782306
98	0x3ec094e3	0.37613592
99	0x3f90f1a8	1.1323748
100	0x3d32b9e4	0.04363431
101	0xbe8cafa7	-0.27477762
102	0x3f203581	0.6258164
103	0xbe3bc2c9	-0.18336023
104	0xbcbaafad	-0.022788847
105	0x3ed89fe2	0.4230948
106	0xbe81c7d0	-0.25347757
107	0xbe8de456	-0.2771327
108	0xbf5d3fac	-0.8642528
109	0x3f12c3fa	0.57330287
110	0x3f3586fd	0.709091
111	0xbee69b61	-0.4504042
112	0x3d5119c9	0.05104998
113	0x3f405652	0.75131714
114	0x3ed5f2e8	0.41786885
115	0x3e245729	0.16048874
116	0x3d25efa8	0.040511757
117	0x3ca64533	0.020296669
118	0xbf6cff25	-0.9257682
119	0xbd5b4171	-0.053529207
120	0x3f54041b	0.82818764
121	0xbf3427de	-0.7037333
122	0x3d9f948c	0.07792005
123	0x3e87e347	0.26540586
124	0x3debf855	0.11521975
125	0xbefc944e	-0.49331897
126	0x3e003f9e	0.12524268
127	0x3edfa298	0.43678737
128	0x3ecf713f	0.40516087
129	0x3e49edc9	0.19719614
130	0x3e1af144	0.15131098
131	0x3efbc7a1	0.49175742
132	0x3e722f17	0.23650776
133	0x3ea6b278	0.32558036
134	0x3e9230c8	0.28552842
135	0xbf069b26	-0.5258049
136	0x3dd5e7a2	0.10444571
137	0xbe1c7935	-0.15280612
138	0xbe43b29c	-0.19111103
139	0x3ec9c0ef	0.3940501
140	0x3f8650f9	1.0493461
141	0x3df581b3	0.11987629
142	0x3e6c917d	0.23102374
143	0x3e839521	0.25699714
144	0x3f01901c	0.5061052
145	0x3d7d97a3	0.06191219
146	0x3db58603	0.08863451
147	0xbe91ed9d	-0.28501597
148	0xbddca392	-0.10773386
149	0xbed3ab18	-0.41341472
150	0x3efecf03	0.49767312
151	0xbeb69de3	-0.35667333
152	0x3e674b51	0.22587325
153	0xbbc8d77b	-0.006129203
154	0xbd095caf	-0.033535656
155	0x3dcef51d	0.101053454
156	0x3e877042	0.26452833
157	0x3f0df2f4	0.5544884
158	0x3e6be732	0.23037413
159	0x3e996cf6	0.29965943
160	0x3e1140fb	0.14184944
161	0x3df02b78	0.11727041
162	0xbd16cebd	-0.036818255
163	0xbe926973	-0.28596076
164	0x3e9f6a5b	0.3113583
165	0x3e177c0d	0.14793415
166	0xbee50480	-0.44729996
167	0x3c0cdfef	0.008598312
168	0xbe5f15bd	-0.21785636
169	0x3e0c9557	0.13728844
170	0xbec39581	-0.382
171	0x3ea70f9a	0.3262909
172	0x3edc5af6	0.43038148
173	0xbebf9baa	-0.3742345
174	0x3ef75d3e	0.48313326
175	0x3e0b3b5c	0.13596863
176	0x3f0724e1	0.5279065
177	0x3ee25e8d	0.44212762
178	0x3eadcf29	0.33947113
179	0x3e0ccdea	0.13750425
180	0xbe87847c	-0.26468265
181	0xbd3ec42a	-0.046573795
182	0xbe05ac58	-0.13054025
183	0x3f34abeb	0.70574826
184	0x3eb9efce	0.3631577
185	0x3eae5618	0.3405006
186	0xbef54081	-0.47900775
187	0x3efcb466	0.49356383
188	0x3e5fd8d7	0.21860062
189	0xbe636252	-0.22205475
190	0xbebd70ee	-0.3700022
191	0xbe325acd	-0.1741745
192	0x3dd3c000	0.103393555
193	0x3efd6ea2	0.4949847
194	0x3d40ca07	0.04706767
195	0x3dc0fbee	0.09423052
196	0x3e178e98	0.14800489
197	0xbe3b134a	-0.18269077
198	0x3d27cad3	0.040964913
199	0x3eb92154	0.3615824
200	0xbdea706a	-0.114472225
201	0xbe654629	-0.22390045
202	0x3e2ebe27	0.17064725
203	0x3e07f99f	0.13278817
204	0xbdb81ca3	-0.08989837
205	0x3e95557f	0.2916679
206	0x3e6b6d9c	0.22991031
207	0x3eb7638d	0.3581814
208	0x3e449f3b	0.19201367
209	0xbc36a77e	-0.011148332
210	0x3d8e2be1	0.06941963
211	0xbd668693	-0.056280684
212	0xbe63e9e8	-0.22257197
213	0xbef7fe7b	-0.4843634
214	0x3e0dc8a0	0.13846064
215	0xbe290d54	-0.1650899
216	0xbefd33ba	-0.49453527
217	0xbec061a3	-0.3757449
218	0x3f18994a	0.596089
219	0xbd7ff0f6	-0.062485658
220	0x3e0d58b0	0.13803363
221	0x3ec406ba	0.38286382
222	0xbf04483e	-0.5167273
223	0x3e497f9a	0.19677582
224	0x3e846f2d	0.2586607
225	0xbe469ae9	-0.19395031
226	0xbe99ea61	-0.3006163
227	0xbebb246c	-0.36551225
228	0xbe71e2fe	-0.23621747
229	0xbeaba76e	-0.33526176
230	0x3ec654c9	0.3873656
231	0xbef6a08e	-0.48169369
232	0x3ee997e6	0.45623702
233	0x3da60d67	0.08108025
234	0x3f0f9355	0.56084186
235	0xbe59eacd	-0.21280976
236	0xbed170b0	-0.40906286
237	0x3d357e32	0.044309802
238	0xbc3e9daf	-0.011634274
239	0x3f271380	0.6526413
240	0xbf37ba8e	-0.71769035
241	0xbe96b591	-0.294354
242	0xbf1fd0ff	-0.6242828
243	0xbdcfa103	-0.101381324
244	0x3f18f3b5	0.5974687
245	0x3c5cdacb	0.013479899
246	0xbe028d4f	-0.12749217
247	0xbdc9e617	-0.09858339
248	0x3e732022	0.23742726
249	0xbe8a0812	-0.26959282
250	0xbe04d7a5	-0.12972887
251	0x3eae7176	0.3407094
252	0xbef44a67	-0.47713014
253	0xbd19608c	-0.03744559
254	0x3e72230c	0.23646182
255	0xbbae407c	-0.0053177457

network_body._body_endoder.seq_layers.0.bias f4 [128]
0	0xba3f1e45	-0.0007290582
1	0xbac2408f	-0.0014820265
2	0xbb522e50	-0.0032071061
3	0xbb047a59	-0.0020214526
4	0x3b7d541e	0.0038654874
5	0xba8fab1f	-0.0010961032
6	0xbb3772cf	-0.0027992015
7	0x3b9d606a	0.004802753
8	0xba6e5e3c	-0.00090930215
9	0xbb4198a9	-0.0029540455
10	0xbb5f82d8	-0.0034105089
11	0xbbb0ca3a	-0.005395201
12	0xbbad9e49	-0.00529841
13	0x37898f4d	1.6398402e-05
14	0xbac0e540	-0.0014716759
15	0xbb873873	-0.0041266023
16	0xba983912	-0.0011613688
17	0xba523e74	-0.00080201705
18	0x39073c8d	0.0001289716
19	0xbbf5aacf	-0.0074971686
20	0xbb1b0a20	-0.0023657158
21	0xb9dbe659	-0.00041942557
22	0xb9e07a40	-0.00042815693
23	0xbae0641b	-0.0017119678
24	0xbabc033a	-0.0014344223
25	0xbbb89293	-0.0056327074
26	0x386b8b31	5.6158e-05
27	0x3976453f	0.00023486184
28	0x3993765d	0.00028126212
29	0xba15a953	-0.000570913
30	0x3a104d59	0.000550469
31	0x3a616b95	0.00085991
32	0xba6aa25d	-0.00089505856
33	0xb9a38996	-0.00031192292
34	0xb8db97e5	-0.00010471026
35	0xbac2618a	-0.0014830094
36	0x389ecb81	7.571933e-05
37	0x38463555	4.7256548e-05
38	0x3a0622d7	0.0005116886
39	0x3acc729b	0.001559812
40	0xba0da254	-0.0005402912
41	0x3aa56de6	0.0012621253
42	0x3bbfe7f8	0.0058565103
43	0xbb49a501	-0.0030768516
44	0xbb1023e7	-0.0021994056
45	0xbb6ff9fa	-0.0036617504
46	0x3b5eb49b	0.003398216
47	0xb9c4a74d	-0.00037508682
48	0x3ae74db2	0.0017647056
49	0x3ba8cdb4	0.005151475
50	0xbac9fe04	-0.0015410786
51	0xbbb493b7	-0.005510773
52	0x391fd1de	0.00015241603
53	0xbbade31e	-0.0053066155
54	0xbba5b245	-0.005056652
55	0xb9a0db0d	-0.00030680784
56	0xb71c5684	-9.318468e-06
57	0x395b456d	0.0002091133
58	0xbb073fe2	-0.0020637442
59	0xba4a87c8	-0.00077259215
60	0xbb340273	-0.002746728
61	0x3a449dc8	0.0007500318
62	0x3a014f4e	0.0004932777
63	0xba9b6bcd	-0.0011857689
64	0x3b9a015d	0.0046998695
65	0x3ab9d18b	0.0014176829
66	0x3ba5ec03	0.005063535
67	0xbb9365a8	-0.0044982024
68	0xbb83bacd	-0.004020071
69	0xb7ff6142	-3.0443658e-05
70	0xba9e190f	-0.0012061911
71	0x3a5f8df4	0.00085279276
72	0xbb246309	-0.0025083444
73	0xba3bb394	-0.0007160243
74	0xbbf4c9a4	-0.0074703265
75	0xba7f07a7	-0.00097286183
76	0xb9f40711	-0.00046544572
77	0xbbdcb783	-0.0067357435
78	0xbb094138	-0.0020943414
79	0xba73e3b7	-0.00093036465
80	0xba166c62	-0.0005738196
81	0xbad231b0	-0.0016036537
82	0x39c04e31	0.0003667935
83	0x3a570a1e	0.00082031067
84	0x3a54e8aa	0.0008121828
85	0x3a5c5a69	0.0008405806
86	0xbb267bd4	-0.0025403397
87	0xbb9c24ec	-0.0047651436
88	0xbae37f75	-0.0017356711
89	0xba3e06ba	-0.0007248927
90	0xbb3d9449	-0.0028927496
91	0xbae84f18	-0.0017723767
92	0x3b6b7ddb	0.003593317
93	0xba1b3b44	-0.0005921612
94	0xba83827c	-0.0010033394
95	0x3a9c49a8	0.0011923807
96	0x3b00fff3	0.0019683808
97	0xbbdd00db	-0.0067444867
98	0xbbc57ee6	-0.0060270904
99	0x3a90c9ca	0.0011046466
100	0x3a4fde13	0.0007929515
101	0xbafdb890	-0.0019357372
102	0xba7bfd11	-0.00096126
103	0xbabccd0e	-0.0014404373
104	0x3bafceca	0.0053652273
105	0xbb1e418a	-0.002414795
106	0xbb09c7cb	-0.0021023627
107	0x3a4d6fb2	0.00078367733
108	0x3b50d4dd	0.0031865158
109	0x3a96e9f1	0.0011513812
110	0xbae7cbb8	-0.0017684614
111	0xba4fa778	-0.0007921378
112	0xba193764	-0.00058447407
113	0xbab6f063	-0.0013957139
114	0xba6689f4	-0.00087943603
115	0x3af6e24a	0.001883575
116	0x3a2dce1b	0.00066301384
117	0x3b070155	0.002060016
118	0xbc09267d	-0.008370993
119	0xbbb0ff3a	-0.005401519
120	0x3ac2da7d	0.001486614
121	0xb776e85d	-1.4716844e-05
122	0xbac3cbed	-0.0014938094
123	0xbba6c6b8	-0.005089607
124	0xbbd72678	-0.006565865
125	0x3b3ff0bc	0.0029287776
126	0xba970ec7	-0.001152479
127	0xb94b9bb2	-0.0001941759

network_body._body_endoder.seq_layers.2.weight f4 [128, 128]
0	0xbd167c36	-0.03673955
1	0xbc89d478	-0.016824946
2	0x3e0e610f	0.13904212
3	0xbca03191	-0.019554885
4	0xbc3d3b46	-0.011549776
5	0x3dbbbeca	0.091672495
6	0xbd9c4dd5	-0.07632033
7	0x3de9bf5c	0.11413452
8	0x3d1ed250	0.03877479
9	0xbd62e48d	-0.055393744
10	0x3e1c97cf	0.15292285
11	0xbd4d718c	-0.050157115
12	0x3d1ad599	0.03780136
13	0xbd10d84c	-0.035362527
14	0x3c3dbc45	0.0115805315
15	0xbca0a410	-0.019609481
16	0xbd897fb0	-0.067138076
17	0xbd3319f3	-0.04372592
18	0x3dceecc3	0.101037525
19	0xbd95222b	-0.07281908
20	0xbd502f03	-0.050826084
21	0xbd0460e6	-0.032318972
22	0x3d8b6203	0.068058036
23	0xbe09bd85	-0.13451202
24	0x3ca5d4c5	0.020243058
25	0x3d798abe	0.06092333
26	0xbd30f3a3	-0.0432011
27	0xbe096ce8	-0.1342045
28	0x3c1f91ca	0.009739349
29	0x3dba1b97	0.090872936
30	0xbda3f74f	-0.08006155
31	0x3d99939f	0.074988596
32	0xbb34eea8	-0.002760807
33	0x3d080691	0.033209387
34	0xbbdcba3b	-0.0067360676
35	0x3da86de3	0.08224084
36	0x3e65315a	0.22382107
37	0x3de1bc00	0.11022186
38	0x3c3ef9e0	0.0116562545
39	0xbd330abc	-0.04371141
40	0xbdf9a0cf	-0.12188875
41	0xbca394c0	-0.01996839
42	0xbe56734b	-0.20942418
43	0xbda4c430	-0.08045232
44	0x3e100f51	0.14068343
45	0xbccd8eb8	-0.025092468
46	0x3e2cbdf2	0.16869333
47	0x3dbb8abb	0.0915732
48	0xbd9ee85b	-0.07759162
49	0xbbdf2498	-0.0068097822
50	0xbcdb53b5	-0.026773313
51	0x3dd231c0	0.10263395
52	0x3e0bdeae	0.13659164
53	0xbe7e1874	-0.24814016
54	0x3dd2ca09	0.102924414
55	0xbe1b57ff	-0.15170287
56	0xbe12ce62	-0.14336541
57	0xbdc9fef2	-0.0986308
58	0xbd18a059	-0.037262294
59	0x3d015593	0.03157575
60	0x3ca910af	0.020637838
61	0xbdccc291	-0.09998048
62	0xbdc47193	-0.09591975
63	0xbce9fce0	-0.028562963
64	0x3de976e0	0.11399627
65	0x3c5cf452	0.013485985
66	0xbe170283	-0.14747052
67	0xbdbda7ed	-0.09260545
68	0xbcec9646	-0.02888025
69	0xbe0e127d	-0.1387424
70	0xbd26aa56	-0.04068979
71	0x3e1ada7d	0.15122409
72	0x3abbb5ea	0.0014321182
73	0xbd27ca0f	-0.040964182
74	0x3c37d692	0.011220591
75	0xbe3470a9	-0.17621101
76	0x3d21e000	0.039520264
77	0xbcc6a322	-0.02424771
78	0x3e027eb0	0.1274364
79	0xbda58d62	-0.08083607
80	0xbd036893	-0.03208215
81	0x3ce3bec7	0.02780093
82	0x3dc15218	0.09439486
83	0x3ce34b06	0.027745735
84	0x3da3d1dc	0.07999012
85	0xbd0b225c	-0.033968315
86	0xbe2409f3	-0.1601942
87	0x3dcea81c	0.10090658
88	0xbcc28376	-0.023744326
89	0x3d19d0db	0.037552696
90	0xbe191f9d	-0.14953466
91	0x3dedd99e	0.11613773
92	0xbdc1f13a	-0.094698384
93	0xbd5fa491	-0.054600302
94	0x3da7927c	0.081822366
95	0xbdd89811	-0.10575879
96	0xbbb93c73	-0.005652958
97	0x3da3fbcd	0.080070116
98	0x3dcb2f8e	0.0992118
99	0xbe12c11d	-0.1433148
100	0xbdadf1b6	-0.08493368
101	0x3d8b3ef1	0.067991145
102	0xbd189275	-0.037249047
103	0xbd69d186	-0.057084583
104	0x3d48f134	0.049058154
105	0xbc7ec679	-0.015550249
106	0x3ce92974	0.02846215
107	0x3d93ba8f	0.072133176
108	0x3d0f69bf	0.035012957
109	0x3be4c75d	0.006981774
110	0xbc183159	-0.009289109
111	0xbdc7daf8	-0.09758562
112	0x3b606b0c	0.0034243492
113	0xbe21e000	-0.15808105
114	0x3d7d8244	0.06189181
115	0xba98b445	-0.0011650404
116	0xbe2cedcb	-0.16887586
117	0xbc0f8cb3	-0.008761573
118	0xbd2f4d7a	-0.042798497
119	0xbc9a1fb0	-0.018813938
120	0x3da34026	0.0797122
121	0x3d71f167	0.05906811
122	0xbb996ff1	-0.004682534
123	0x3d42bfa0	0.04754603
124	0xbd4c205e	-0.049835555
125	0x3e3511ec	0.17682618
126	0x3c0efda7	0.008727468
127	0xbdca46d2	-0.09876789
128	0x3c53d01f	0.012928038
129	0xbd5f7195	-0.05455168
130	0xbd6e6667	-0.058203127
131	0x3dfcad08	0.123376906
132	0xbbefc19b	-0.0073167807
133	0x3e0c7ebb	0.13720219
134	0xbe0b2ec5	-0.1359206
135	0xbc5993c0	-0.013279855
136	0xbd729e4f	-0.059233006
137	0x3d7e43cc	0.062076375
138	0x3e362543	0.17787652
139	0xbe008592	-0.12550953
140	0x3caac56e	0.020846095
141	0x3d8c9d57	0.06865948
142	0xbcf8c951	-0.030369433
143	0xbc02706e	-0.007961376
144	0x3e0db931	0.13840176
145	0x3d84bb34	0.06481019
146	0xbaed8e87	-0.0018124141
147	0x3b7ca5ba	0.003855093
148	0x3d361e08	0.044462234
149	0xbe013de7	-0.1262127
150	0x3ce2a965	0.027668664
151	0x3db50c30	0.08840215
152	0x3df8f3d0	0.121558785
153	0x3aacecc7	0.0013193124
154	0x3c9727fe	0.018451687
155	0x3d84c3a1	0.06482626
156	0xbd2fbdc3	-0.04290558
157	0xbd1bd557	-0.038045254
158	0x3d8dae1b	0.069179736
159	0x3d9e496a	0.07728846
160	0x3d9d714d	0.07687626
161	0x3c461c24	0.01209167
162	0x3de31d50	0.11089575
163	0x3e131150	0.14362073
164	0xbdeefd52	-0.11669411
165	0xbd14edb6	-0.03635951
166	0xbb9b5615	-0.0047404864
167	0x3e18e019	0.14929236
168	0x3d044afb	0.03229807
169	0x3d429e70	0.04751438
170	0x3ca393dc	0.019967966
171	0xbe3bd528	-0.18343031
172	0x3d8a72d1	0.06760181
173	0x3d292aaf	0.041300472
174	0xbd9e4f73	-0.077299975
175	0x3e0b3560	0.1359458
176	0xbdfe0603	-0.124034904
177	0xbde32a64	-0.1109207
178	0xbd7c295c	-0.06156288
179	0xbd4b5291	-0.04963929
180	0xbd24cb2a	-0.040232815
181	0x3df3adae	0.11898361
182	0x3dc90e03	0.09817126
183	0xbd7aeb4f	-0.061259564
184	0xbda09a3d	-0.078419186
185	0xbb634a06	-0.0034681573
186	0xbc3efd69	-0.011657097
187	0xbd5fe9b6	-0.054666243
188	0xbe34513a	-0.1760911
189	0xbe544b18	-0.20731771
190	0x3ceb40c9	0.028717415
191	0x3dcbd7d8	0.09953278
192	0x3dceef06	0.10104184
193	0xbe0bd02b	-0.13653629
194	0xbd0da9a1	-0.0345856
195	0xbdbe9af5	-0.093068995
196	0xbdd8545b	-0.105629645
197	0xbe06d8fe	-0.13168713
198	0xbdd0cdf3	-0.10195532
199	0x3db83c75	0.08995906
200	0xbdb43490	-0.08799088
201	0x3dd3ea8c	0.10347471
202	0x3e176f5b	0.14788572
203	0xbd831882	-0.06401159
204	0xbdf1aa7c	-0.118000954
205	0xbd8e4748	-0.069471896
206	0xbd551377	-0.052020516
207	0x3d49ebfc	0.049297318
208	0xbd16a08d	-0.036774207
209	0xbd6c3670	-0.057669103
210	0x3c1eb4ea	0.009686688
211	0xbcafce2b	-0.021460613
212	0xbd29863b	-0.041387778
213	0x3c1c1493	0.00952639
214	0x3c1b501b	0.009479548
215	0xbd6b1873	-0.057396363
216	0x3e19754d	0.14986153
217	0xbd474ae5	-0.04865541
218	0x3cd28533	0.02569828
219	0xbd94d19d	-0.07266543
220	0x3e691713	0.22762708
221	0x3dbf5e5b	0.09344169
222	0x394e27a3	0.00019660457
223	0x3c6a55c9	0.014302679
224	0xbc867d65	-0.016417215
225	0x3cc92d27	0.024557663
226	0x3c2fc22a	0.010727445
227	0x3daaf0e8	0.083467305
228	0x3d84705d	0.06466744
229	0x3c3a2fdb	0.011363949
230	0xbc7a78ee	-0.015287621
231	0xbd9f0052	-0.07763733
232	0x3e20bd72	0.15697268
233	0x3de1db8a	0.11028202
234	0xbd8d4652	-0.06898178
235	0xbc2bbf3d	-0.0104826065
236	0x3dd50ece	0.104032144
237	0xbd1ee7f5	-0.03879543
238	0x3d678e46	0.056532167
239	0x3d8f3d6d	0.06994138
240	0x3d1ae70a	0.037817992
241	0x3cde21a0	0.027115643
242	0x3d6b4691	0.057440344
243	0x3caf1b00	0.02137518
244	0xbd97cb1f	-0.07411789
245	0xbdaaac01	-0.083335884
246	0xbe59ceef	-0.21270345
247	0xbdfad9ac	-0.12248549
248	0xbda88557	-0.082285576
249	0xbde7f33a	-0.11325689
250	0xbdbef5b2	-0.093242064
251	0x3ddbc33c	0.107305974
252	0x3d5f7cdb	0.05456243
253	0x3e400484	0.18751723
254	0x3c2b135a	0.0104416255
255	0xbd36ab4e	-0.044596963

network_body._body_endoder.seq_layers.2.bias f4 [128]
0	0xbb22d710	-0.0024847426
1	0xbaeb4dd3	-0.001795227
2	0x3ba9a4a0	0.0051770955
3	0x3a675fee	0.00088262453
4	0xba164836	-0.0005732806
5	0xba43b091	-0.000746497
6	0xba885626	-0.0010401651
7	0x3a8fe619	0.0010978609
8	0xbacab0da	-0.0015464083
9	0x3a4ae182	0.0007739292
10	0x3a80258e	0.0009776817
11	0xba44d821	-0.00075090124
12	0xba8d60b1	-0.0010786263
13	0x3ae15239	0.0017190642
14	0xbb21cfba	-0.0024690465
15	0x399f4b73	0.00030383057
16	0x39ecba5b	0.00045152273
17	0xbb01a534	-0.0019782307
18	0x3aa97f74	0.0012931661
19	0xbb782228	-0.0037862156
20	0xbaa495e4	-0.0012556878
21	0xbb6971d9	-0.0035620837
22	0x39a068c0	0.00030595623
23	0xba7fb2f3	-0.00097541435
24	0xbb96a27d	-0.004597007
25	0xbb901ba6	-0.004397827
26	0xb86858e1	-5.5395885e-05
27	0x3a51fcd5	0.0008010392
28	0x3b5d0251	0.0033723305
29	0xb914a95c	-0.00014177471
30	0x39be3eed	0.00036286507
31	0x3b27f6bc	0.0025629243
32	0x3a89cc65	0.0010513185
33	0x39bb6f0e	0.00035750162
34	0xbb8339cd	-0.004004693
35	0xb9bd5cfc	-0.00036118168
36	0xbb3847db	-0.0028119
37	0x3b87b083	0.004140915
38	0xbbab963d	-0.0052364157
39	0x395e9a41	0.00021229034
40	0xbb0afa2c	-0.0021206243
41	0x3aa9aab5	0.0012944551
42	0xbb141c14	-0.0022599744
43	0xb9d46026	-0.00040507427
44	0xbaf8e3c7	-0.0018988781
45	0xba8e05f8	-0.0010835519
46	0xbb0447a5	-0.0020184305
47	0xbba8da63	-0.005152987
48	0xbb10b08b	-0.0022077884
49	0xba93b1ff	-0.0011268257
50	0xba1a321b	-0.00058821
51	0xb7314adf	-1.0567454e-05
52	0x3939b8cc	0.00017711817
53	0xbadb7d7b	-0.001674577
54	0xba2e459c	-0.0006647946
55	0xbb9d9ef7	-0.00481021
56	0xb99ea339	-0.0003025772
57	0xbab68da4	-0.001392771
58	0xbac25614	-0.0014826679
59	0xb9629e4a	-0.00021612007
60	0xbb00b483	-0.0019638843
61	0xba8378d3	-0.0010030515
62	0xba9d6ef4	-0.0012011216
63	0x3b41435b	0.002948961
64	0x3a8f00ac	0.0010910234
65	0xbb30939f	-0.0026943458
66	0xbb500b5f	-0.003174506
67	0xbb80acc4	-0.0039268453
68	0xb8abe193	-8.195932e-05
69	0xbaeb597f	-0.0017955749
70	0x3a0466db	0.0005050727
71	0x3a326ec5	0.0006806667
72	0x3a8ad2f3	0.0010591432
73	0xbb04af45	-0.002024607
74	0x3b99d874	0.0046949927
75	0xba74e79b	-0.0009342373
76	0x3b7e419c	0.003879643
77	0xbb9982f8	-0.004684802
78	0xb91be7b2	-0.00014868265
79	0xbbb43b52	-0.0055002356
80	0xbaa9b63b	-0.0012947986
81	0xba9bd644	-0.0011889418
82	0xbafe57cc	-0.0019404828
83	0x3bb25d1b	0.005443228
84	0xb8d37125	-0.00010082339
85	0xbb0d07a5	-0.002151945
86	0x3b07bbca	0.0020711296
87	0x3a976d1c	0.0011552903
88	0xbc18bcb2	-0.009322332
89	0xbac54077	-0.0015049119
90	0xbb077d99	-0.0020674227
91	0xba546ec4	-0.00081036636
92	0x38a302d5	7.772973e-05
93	0x396100af	0.00021457927
94	0xbac9327b	-0.0015350127
95	0xbb108ce6	-0.0022056638
96	0x3ba1eaca	0.004941319
97	0xba9abaaf	-0.0011804904
98	0xbaf73a80	-0.0018862039
99	0xbb1d2a3c	-0.0023981472
100	0xbb334449	-0.0027353934
101	0x3a86d610	0.0010287184
102	0xb96c1e5c	-0.00022518024
103	0x3b3380cf	0.0027390008
104	0xbbc227c7	-0.005925152
105	0x3ab537ad	0.0013825797
106	0x39c0274d	0.00036650375
107	0x3a2ec63c	0.00066671125
108	0x39be2e92	0.00036274322
109	0xbae69261	-0.0017591232
110	0xbb20351f	-0.0024445725
111	0x3aa86e66	0.0012850284
112	0xba22c514	-0.00062091765
113	0x3746f547	1.1858828e-05
114	0xbbaf02de	-0.005340918
115	0x3990daa6	0.00027628726
116	0xba926f2b	-0.0011172047
117	0x3ab6c9ee	0.0013945678
118	0xbb602087	-0.0034199075
119	0x38d273f2	0.00010035177
120	0xbb1862e8	-0.0023252312
121	0xbb2e3520	-0.0026581958
122	0xbb769b34	-0.003762913
123	0xbb38f93c	-0.0028224727
124	0x3af7cf7c	0.001890644
125	0x3a7d6183	0.00096657145
126	0xbbadaa3c	-0.0052998345
127	0xbb2fc9dd	-0.00268232

action_model._continuous_distribution.log_sigma f4 [1, 2]
0	0xbbff0af0	-0.0077832863
1	0xbc365183	-0.011127832

action_model._continuous_distribution.mu.weight f4 [2, 128]
0	0xbcacd408	-0.021097198
1	0x3c06bd44	0.008223835
2	0x3cb338db	0.021877697
3	0xbae8e7fe	-0.0017769334
4	0xbc539c8b	-0.012915741
5	0xbcee77ed	-0.02910992
6	0xbbf0f46b	-0.0073533556
7	0x3c649f95	0.013954063
8	0xbba66a37	-0.0050785798
9	0xbbd04524	-0.0063558985
10	0xbb004555	-0.0019572575
11	0xbca05218	-0.019570395
12	0x3d16ec55	0.036846478
13	0xbc43a487	-0.011941082
14	0xbbd54098	-0.0065079443
15	0x3b3492c7	0.0027553306
16	0xbca136e0	-0.019679487
17	0xbc1327c8	-0.008981653
18	0x3c835194	0.01603011
19	0xbd454467	-0.048160937
20	0xbd2eaae8	-0.042643458
21	0xbcad6ec2	-0.021170978
22	0xbbc95b12	-0.0061448896
23	0x3c24f9ba	0.010069305
24	0xbd0d9463	-0.03456534
25	0xbb6d3912	-0.0036197347
26	0xbc35f8ab	-0.01110665
27	0xbb5ff4aa	-0.003417293
28	0x3cfacee6	0.030616235
29	0xbd17c407	-0.03705218
30	0xbaf43423	-0.0018631261
31	0x3ce5d836	0.028057199
32	0x3d32247f	0.043491837
33	0x3b9c4d83	0.0047699823
34	0xbbf0ae13	-0.00734497
35	0x3c624419	0.013810181
36	0xbcbd2ae4	-0.02309174
37	0xbd08178f	-0.033225592
38	0xbcf4816d	-0.029846871
39	0x3c0f86ba	0.008760149
40	0x3a85831c	0.0010186168
41	0xbcf4b838	-0.029872999
42	0x3a323ee0	0.000679953
43	0x3c20acdc	0.009806838
44	0x3cbe0132	0.02319393
45	0x3cf63af8	0.030057415
46	0xbb898626	-0.0041969
47	0xbd140228	-0.03613487
48	0x3c3b01f2	0.011414038
49	0xbd172595	-0.036901075
50	0x3c50f4d6	0.012753686
51	0xbcd60848	-0.026126996
52	0xbce6f58f	-0.028193263
53	0xbc3dc49a	-0.011582518
54	0xb9be1e91	-0.00036262398
55	0xbc9dde1d	-0.01927095
56	0xbc11a30c	-0.008888971
57	0x3c3d9d2a	0.011573115
58	0x3c1b7211	0.009487645
59	0xbc2fed09	-0.010737666
60	0xbb01c86a	-0.0019803294
61	0x3d50cb76	0.050975285
62	0x3af7c615	0.0018903638
63	0x3be1b11b	0.0068875677
64	0xbcbbd8ca	-0.022930522
65	0xbb0e6e26	-0.0021733134
66	0x3b9fc7a7	0.0048760953
67	0xbbad2778	-0.005284246
68	0xbc9c150c	-0.019053005
69	0x3c1ced20	0.009578019
70	0x3c54a26f	0.01297818
71	0x3bf10618	0.0073554628
72	0x3ac9cb8e	0.0015395747
73	0x39d21cb6	0.00040075713
74	0x3d301574	0.04298921
75	0x3d3548a7	0.04425874
76	0x3bca6a8b	0.0061772517
77	0xbc058645	-0.008149688
78	0x39fd4d6b	0.000483136
79	0x3a7bc960	0.00096048974
80	0xbd054630	-0.03253764
81	0x3d007b0d	0.03136735
82	0x3c8816ce	0.016612437
83	0x3d053d55	0.032529194
84	0xbc8afe35	-0.016966918
85	0x3a57799c	0.00082197203
86	0xbc3d7933	-0.011564541
87	0x3a9e9810	0.0012099762
88	0x3be9bcd2	0.007133105
89	0xbba49dc2	-0.005023689
90	0x3bd83872	0.0065985257
91	0x3cf6a9ec	0.030110322
92	0xbd079d3f	-0.033108946
93	0xbd334fc3	-0.04377724
94	0xbbbb1f93	-0.005710551
95	0x3c2f3735	0.010694315
96	0x3ce5b748	0.028041497
97	0xbca7d3e3	-0.020486778
98	0x3b38e471	0.0028212334
99	0xbc59f195	-0.013302227
100	0x3c8678ae	0.016414966
101	0xbc95b36c	-0.018274032
102	0xbc9079d7	-0.017636223
103	0x3c6c76eb	0.014432649
104	0xbc5c16a0	-0.013433129
105	0x3c9944cf	0.018709568
106	0x3c551dd0	0.013007596
107	0xbd1c2868	-0.038124472
108	0xbce71e24	-0.028212614
109	0xb9c1c8d3	-0.00036961454
110	0xbbe15a44	-0.0068772156
111	0xbc9c1c2d	-0.019056404
112	0x3cd9386b	0.02651616
113	0xbcaa22be	-0.02076852
114	0xbce0cbe6	-0.027440976
115	0xbca56ffc	-0.020195
116	0xbc18b5c0	-0.009320676
117	0xbd1c54f7	-0.038166966
118	0xbc39130e	-0.011296047
119	0xbce64b7d	-0.028112167
120	0xbc183cfb	-0.009291883
121	0x3c07a85d	0.008279887
122	0xbc2b72f1	-0.010464416
123	0xbc7454db	-0.014912809
124	0xbc6a178f	-0.014287843
125	0x3c98c230	0.018647283
126	0xbd3b416d	-0.04571669
127	0xbc818dc5	-0.015814671
128	0x3cd87de1	0.026427211
129	0xba2c73d4	-0.0006578539
130	0xbba528d1	-0.005040266
131	0x3cbbadb7	0.022909982
132	0xbc7f665c	-0.015588369
133	0xbd35966d	-0.04433291
134	0xbb9c189b	-0.0047636754
135	0x3c12aa4b	0.008951734
136	0xbc7a36b8	-0.015271835
137	0x3c7f96fd	0.015599963
138	0x3cffbd3f	0.03121817
139	0xbcad8699	-0.021182345
140	0xbbe69ba5	-0.0070375972
141	0x3c63a7d9	0.0138949985
142	0x3be27db2	0.0069119567
143	0xbbb2b089	-0.0054531735
144	0x3bc75e29	0.006084223
145	0xbd04b1e7	-0.032396223
146	0xbd06bf9e	-0.032897584
147	0x3cbf0f8c	0.023322843
148	0x3b94d218	0.0045416467
149	0xbc76c09d	-0.015060571
150	0x3bb3b458	0.005484145
151	0x3b2e6425	0.0026609984
152	0xbcbc62ea	-0.022996385
153	0xbbf1ef0d	-0.0073832334
154	0xbccf65b2	-0.025317047
155	0x3c9851d1	0.0185937
156	0x3ce2dcaf	0.02769312
157	0xbce20b7c	-0.027593367
158	0x3c2805d6	0.010255298
159	0x3d310bfd	0.043224324
160	0x3d53e2f7	0.051730122
161	0x3be198b7	0.00688466
162	0x3cb7c8c2	0.022434596
163	0x3b368e33	0.0027855753
164	0xbd357377	-0.04429957
165	0xbb7a3eed	-0.003818448
166	0xbb79c14a	-0.0038109594
167	0x3c0b11ad	0.008488101
168	0xbc43d389	-0.011952289
169	0x3bf89b30	0.007586859
170	0xbaae8896	-0.0013315852
171	0x3c3b4304	0.011429552
172	0xbba59ae0	-0.005053863
173	0xbabb406d	-0.0014286168
174	0xbc224e9b	-0.009906436
175	0xbcbe7d90	-0.023253232
176	0xbc13dadd	-0.009024349
177	0xbbe6966d	-0.007036975
178	0x3c21111f	0.009830742
179	0xbc48f08e	-0.012264384
180	0xbcdc6ad7	-0.026906414
181	0x3baf3aef	0.0053476016
182	0x3bbfc67c	0.0058525186
183	0x3b66601b	0.0035152498
184	0x3ce7827f	0.028260468
185	0xbb2b69c1	-0.0026155564
186	0x3b3daf9a	0.0028943778
187	0xbb6278d7	-0.003455689
188	0xbc32fbed	-0.010924322
189	0xbc3b7d00	-0.011443377
190	0xbc9fab20	-0.019490778
191	0xbb2ae0f8	-0.0026074033
192	0x3d036912	0.032082625
193	0xbb4d6461	-0.0031340348
194	0x3c72f97d	0.01482999
195	0x3d04b13f	0.032395598
196	0x3ad9a197	0.0016603944
197	0xbcc102be	-0.023560878
198	0x3ced53a2	0.028970543
199	0x3c3ac267	0.011398888
200	0x3caf831b	0.02142482
201	0x3b6ce7bd	0.003614887
202	0xbd2dbf4f	-0.042418774
203	0x3b4c9de6	0.0031222044
204	0x3aedac86	0.0018133081
205	0x3c291208	0.01031924
206	0x3bf69654	0.0075252447
207	0xbac0885f	-0.0014689079
208	0xbc798b1d	-0.015230921
209	0xbbf03127	-0.007330078
210	0xbcbb9d2f	-0.0229021
211	0x3b82a6f7	0.003987189
212	0xbbb0814b	-0.0053865067
213	0x3b9debe5	0.0048193806
214	0x3c1e81bf	0.009674489
215	0x3d1b2a2e	0.037882023
216	0xbadbac2a	-0.0016759683
217	0xbc98a014	-0.018631019
218	0xbc75ed9d	-0.015010265
219	0x3c11443c	0.008866366
220	0xbc46c338	-0.012131505
221	0x3caede92	0.021346364
222	0xbd087265	-0.03331222
223	0xbbfdc637	-0.0077445763
224	0xbc027bd7	-0.007964096
225	0xbba8df1f	-0.005153551
226	0xbcb16079	-0.021652447
227	0xbc988ab1	-0.01862082
228	0xbd4f4cfe	-0.050610535
229	0xbca524ee	-0.020159211
230	0xbc0899f5	-0.0083374875
231	0xbcc0685e	-0.023487266
232	0x3b4e0c61	0.0031440484
233	0x3ca08a1a	0.019597102
234	0x3ce2b1cc	0.02767267
235	0x3c1bf90e	0.0095198285
236	0x3a373525	0.0006988815
237	0xbc9889e0	-0.018620431
238	0xbcc37f27	-0.023864342
239	0x3c82a152	0.015946064
240	0x3c512a24	0.012766395
241	0xbbbdeeb6	-0.005796279
242	0xbb4b193d	-0.0030990385
243	0xbc1280c8	-0.008941837
244	0xbc339526	-0.010960853
245	0x3cc9f062	0.024650756
246	0xbc6c19f0	-0.014410481
247	0xbc17ffa3	-0.009277257
248	0x3cf80df7	0.030280096
249	0xbcaf684f	-0.021412043
250	0xba2cc3ea	-0.0006590473
251	0xbb9efdd4	-0.004852036
252	0x3d1f49f5	0.03888889
253	0xbafbd002	-0.0019211771
254	0x3af8283d	0.001893289
255	0x3c3b0b39	0.01141625

action_model._continuous_distribution.mu.bias f4 [2]
0	0xba379925	-0.00070037163
1	0x3aa59d29	0.0012635338
