results/move_test_2/Boss/Boss-513020.onnx (onnx, 75574 bytes, 7 tensors)

network_body._body_endoder.seq_layers.0.weight f4 [128, 7]
000000 19 73 65 3e 5f 3a 95 3e 46 ed 49 bf d1 c9 89 3e
       0.22407188 0.29146096 -0.78877676 0.26911786
000010 30 9f f6 bd 7b b8 2f be a1 ca a4 bf 0c ae 2b 3e
       -0.12042081 -0.17160217 -1.2874337 0.16765612
000020 0e 75 da bd 18 c4 f1 be 9d 7b 4b be a8 dd e9 be
       -0.10666858 -0.4721992 -0.19871373 -0.45676923
000030 b6 40 23 bc 63 57 5e 3e ef ce 98 3e 4c 29 79 3e
       -0.009964159 0.21713023 0.29845378 0.2433216
000040 c2 b1 5b 3e fd bb c2 3c 27 95 06 3e c4 02 e1 3d
       0.21454528 0.02377128 0.13142835 0.109868556
000050 9c 95 b2 3e ad cb 11 3f 4d bb ec 3a a2 58 4d 3d
       0.34879768 0.5695141 0.0018061191 0.050133355
000060 4e f2 c2 be 95 39 bf 3e 7c bf a4 bd f2 2e b6 3d
       -0.3807549 0.3734862 -0.08044335 0.08895673
000070 10 0c a5 3e 1a d2 5e bd 47 5d 2a 3e 0a b0 92 3f
       0.32235765 -0.054399587 0.16637145 1.1459973
000080 ca 82 62 bf f0 e9 b7 3e 36 92 a1 be 5b 91 98 3d
       -0.8848082 0.35920668 -0.31556863 0.07449599
000090 0f c4 38 3d 04 b9 28 3e 88 9c 09 3f c4 87 fc 3c
       0.04510885 0.16476828 0.5375447 0.030826457
0000a0 26 55 e7 3d 7a 13 0f 3f 15 13 bb 3e 05 35 0d 3d
       0.11295538 0.55889094 0.36537996 0.03447439
0000b0 b7 8f 17 bf 51 49 df bc 42 0a 3d 3e 91 e6 26 bf
       -0.59203666 -0.02725664 0.18460944 -0.65195566
0000c0 72 ea 0f bf 6a 84 6a 3e 6e 3e ab be 5b fe 6c be
       -0.5621711 0.22902074 -0.33446068 -0.23143904
0000d0 8d a1 1f bc eb aa b6 3e 6d 23 0a be db 25 19 3f
       -0.009743107 0.35677275 -0.13490076 0.5982339
0000e0 23 c2 b4 be 3f 71 9b 3e 5e 78 ed 3d a6 15 49 3d
       -0.35304365 0.30359837 0.11595224 0.04909291
0000f0 0c 34 81 3e 1d df 84 bf 07 19 5f 3e 2c aa 17 3e
       0.2523502 -1.0380589 0.21786891 0.14811009
000100 fb 2a 28 bf 45 d8 a8 3d 00 66 7f be bd 83 8b bd
       -0.65690583 0.08244375 -0.24941254 -0.068122365
000110 51 50 82 3d 8a f6 bd be 31 ba b6 3c d7 03 03 be
       0.063629754 -0.37102157 0.02230558 -0.12794434
000120 83 ce 70 3e 76 e7 c9 bd e3 02 0d be b3 22 2b 3e
       0.23516278 -0.09858601 -0.13770632 0.16712455
000130 bb 78 09 bf ef 3b c3 be 98 ad 17 3e b2 90 e7 be
       -0.53699845 -0.38131663 0.14812315 -0.4522758
000140 c2 54 33 3c bd 67 95 3e 31 2f 24 be ef 2e 78 be
       0.010945501 0.2918071 -0.16033627 -0.24236654
000150 c5 d0 3f be 0c 8f 26 be 89 79 e0 3e ab 7a b5 3e
       -0.18731983 -0.16265506 0.43842724 0.3544515
000160 11 8f be 3e 53 a5 ba 3e 74 63 c7 bf dd f4 d9 3e
       0.37218526 0.36454257 -1.5577226 0.42569628
000170 83 96 98 be ab a5 45 3f 2a b1 96 bd 13 9c 4e 3d
       -0.2980233 0.77205914 -0.0735801 0.050441813
000180 04 88 07 3f f8 d7 f9 bd ec 4a 08 3f a0 f5 24 bf
       0.5294192 -0.12199396 0.5323932 -0.64437294
000190 de d5 2d bf ae 52 cb be a2 1b 96 be d4 cf a3 bd
       -0.6790446 -0.39711517 -0.29317957 -0.079986244
0001a0 7d 00 55 be 89 5b d7 3e 3e 83 ec bc dc 54 bd be
       -0.20800968 0.42062023 -0.028871175 -0.36978805
0001b0 9b ae 21 3e 44 4f 15 be 80 1b b9 3e b7 d9 ba 3e
       0.15789263 -0.14581019 0.36153793 0.36494228
0001c0 da c2 a6 3e 29 0e 0e bf 6f be 14 3e a5 e2 89 3e
       0.32570535 -0.55490357 0.1452577 0.2693073
0001d0 93 dd 28 3e 69 84 c2 be f4 28 ea be 7b 6c 58 3e
       0.16490774 -0.37991646 -0.4573437 0.21135132
0001e0 47 8e 9d be 8c 45 8b 3e 16 0c f2 3e 5c 5a c5 bc
       -0.30772611 0.27201498 0.47274846 -0.024090938
0001f0 09 ab 22 3f e6 9a 4a 3e 90 ff 26 3e f4 04 26 3f
       0.6354223 0.19785652 0.16308427 0.6485131
000200 38 95 65 bc db 80 e9 3c 9b 91 86 be 59 af 82 be
       -0.014012627 0.028503826 -0.26282963 -0.25524405
000210 b2 d0 f7 bd 86 be 0a 3c ab 54 f0 bd c3 31 98 be
       -0.12100352 0.008468276 -0.11734899 -0.29725465
000220 2f e4 39 bd 97 3c 41 3e 08 73 33 bd 99 74 17 3d
       -0.04538363 0.1887077 -0.043810874 0.03697643
000230 97 dc b6 3e 43 c6 20 3e fa 0c 38 3f 3b 33 97 be
       0.35715172 0.15700631 0.718948 -0.29531273
000240 f4 f4 03 3f 23 6f 02 be f6 01 bc be 37 f2 8d bd
       0.51545644 -0.12737708 -0.36720246 -0.069309644
000250 99 dd ef 3d 67 82 cd 3e 51 a0 f4 3d 43 fd 4c be
       0.11712188 0.40138552 0.119446404 -0.20018487
000260 b6 52 cb be ad 66 b7 3e 89 b1 4d be 27 f6 44 3f
       -0.3971154 0.35820523 -0.20087256 0.769381
000270 e1 46 99 bd b9 1e dc be b9 c7 d2 be 4a 0b 6d 3e
       -0.07484222 -0.4299219 -0.41168 0.23148838
000280 07 97 1b bd 3f 6f 0f 3f 46 db 2d be d5 5a 24 be
       -0.037985828 0.56029123 -0.16978177 -0.16050275
000290 25 ec af be 35 bc 28 be cf d7 b1 be 42 fc 16 be
       -0.3435985 -0.16478045 -0.3473496 -0.14744666
0002a0 02 74 e0 3e f1 1a cb bd b2 4b 8c be 07 de 85 3d
       0.43838507 -0.09917248 -0.274015 0.06536489
0002b0 bb 23 f2 be 5f e6 56 bd 78 b7 af 3e 05 85 af 3e
       -0.47292885 -0.052465793 0.34319663 0.34281173
0002c0 fa 97 2e 3f 49 8b 0d 3e c3 4e aa be 2b b6 6b be
       0.6820065 0.13822664 -0.33263215 -0.2301871
0002d0 9f 50 12 3f cd d1 d2 3e 01 47 07 be 41 1b 98 3e
       0.5715427 0.4117569 -0.1321068 0.29708293
0002e0 69 3a f3 be e1 b9 48 3f b2 04 15 3f 79 bf 07 be
       -0.475055 0.7840863 0.5821029 -0.13256635
0002f0 b8 08 48 bf 15 9f cb 3e aa 99 96 3c e7 08 f3 be
       -0.78138304 0.39769807 0.01838382 -0.4746773
000300 ff 27 11 bf 1c b3 b3 3e 5d fc f2 be 9a cf e5 3e
       -0.56701654 0.35097587 -0.47458163 0.4488495
000310 ff db 10 3e e5 89 13 3f ad 91 80 3e 74 62 9f be
       0.14146422 0.57632285 0.25111142 -0.311298
000320 8a 00 8f 3e 0c 89 a4 3e b5 e6 df be fa 5f bd 3d
       0.279301 0.32135808 -0.43730703 0.09246822
000330 4c f7 27 bf 29 e4 4e 3e 49 a3 29 bf 30 13 df 3e
       -0.6561172 0.20204224 -0.6626478 0.43569326
000340 87 ee 03 bb 5b eb 6d 3f 8c ab 92 3e 6f 16 16 3e
       -0.0020131187 0.9293725 0.28646505 0.14656995
000350 32 71 0c 3f 14 d7 0d bf 5a 4b e4 bd 2d 3d 91 be
       0.5486022 -0.5540631 -0.11147185 -0.28366986
000360 85 5f 84 be 5b 7f 61 be 4b f5 b1 3f c9 86 c3 3e
       -0.25854126 -0.22021239 1.3902982 0.3818877
000370 b2 6f 37 be 64 3f dc 3e e3 a2 c9 3e 75 59 31 3f
       -0.17913702 0.43017113 0.39382085 0.69277126
000380 34 f0 94 be bb 8d a9 3e 84 26 2a 3f 02 88 1e 3e
       -0.2908951 0.33115944 0.6646502 0.1548157
000390 b3 5d 9c be 48 1c 9f 3e 66 55 b3 be d4 db a3 be
       -0.30540237 0.31076264 -0.3502609 -0.32003653
0003a0 f6 12 80 bc 00 04 fc bd a4 c6 8e 3e d4 1a 42 bf
       -0.015634041 -0.123054504 0.27885926 -0.75822186
0003b0 fc a8 99 3e 91 22 1c bd 62 26 0a 3e bb 24 8f be
       0.30011737 -0.038118903 0.13491204 -0.2795771
0003c0 0f 0a 40 bf 0c 0c 30 3f 5a 66 af be 7d 96 11 3f
       -0.7501535 0.6876838 -0.34257776 0.5687025
0003d0 4e 56 b4 3e 76 07 41 bf f9 12 ab 3d 45 2e 02 bf
       0.35222095 -0.7540201 0.08353228 -0.5085185
0003e0 e7 32 09 bf 33 36 d8 3c 41 1f c0 3e 3f 20 f8 3c
       -0.53593296 0.026393032 0.37523845 0.030288814
0003f0 7e 1f 31 bf cf 4c 9d 3e 3b 97 fe 3e 44 95 a7 3d
       -0.6918868 0.30722663 0.49724755 0.08182767

network_body._body_endoder.seq_layers.0.bias f4 [128]
000000 40 3a 31 3d 07 fe bf 3b ff f2 3c 3b e0 9d f9 3b
       0.043268442 0.00585914 0.002883136 0.007617697
000010 53 68 24 3c e4 e9 06 3c 38 3b 34 3c ef 86 b1 3c
       0.010034638 0.008234475 0.011000447 0.021670787
000020 98 ab bd bc 12 8a bf 3c d4 b1 81 bc 4b 0f da bb
       -0.023153111 0.023381267 -0.015831865 -0.006654655
000030 69 79 8f bb c5 46 ce 3c 90 08 b3 3c 69 76 24 3d
       -0.004378487 0.02518023 0.021854669 0.040151987
000040 4a 5d 7a 3d d2 0a bd 3c 60 23 de 3b 46 80 6a ba
       0.061124124 0.023076449 0.0067791194 -0.0008945506
000050 c3 cc 02 bc 59 af 0c 3d de 4c 18 3d da 2c c6 3c
       -0.007983389 0.034346912 0.03718268 0.024191309
000060 50 f4 c4 bb 6a 18 de 3c d2 e5 4d bc e3 2a 58 3c
       -0.0060105696 0.02711125 -0.012567 0.013193819
000070 61 50 71 bc 71 15 84 3d 5b 38 6e 3d 52 be d7 bc
       -0.0147286365 0.06449402 0.058159214 -0.026335869
000080 6c f2 53 3d 1a 8f 81 3c 57 84 80 3c b4 63 8e 3d
       0.051744863 0.015815306 0.015688105 0.069526106
000090 7e 1b cf bb 79 e1 2a 3b 8b 60 3b 3c 1e f4 26 bc
       -0.006320416 0.0026074334 0.011436592 -0.010190038
0000a0 c0 21 02 3d 57 5f 34 bc af fe 4a 3d 91 54 81 3d
       0.031770468 -0.011009059 0.04955929 0.06314958
0000b0 8f 5a dc 3d 2c bb 2f 3c 66 93 7c 3c 6b 91 89 3c
       0.1075946 0.010725778 0.015416002 0.016792974
0000c0 3d 36 06 3c 6d f6 a0 3c a6 52 10 3d 40 3a 11 3b
       0.008191642 0.019648755 0.03523507 0.0022159964
0000d0 60 69 bf 3d 11 9d 11 bc 6f 8b b9 bb 66 23 37 3c
       0.093462706 -0.008887545 -0.0056623737 0.011177873
0000e0 ab 0a 08 3d 56 3e 7d ba 5e ea 21 bc b9 e1 20 3c
       0.0332133 -0.0009660473 -0.009882538 0.0098194415
0000f0 3c 4a 99 bc b0 be e9 3c 44 1b 82 3c 9c 9e 19 3b
       -0.018712156 0.02853331 0.015882142 0.0023440486
000100 55 7d 72 bb bb 2d 58 bc d8 83 7f 3c 7b 79 83 bc
       -0.0037000973 -0.013194497 0.015595399 -0.016049137
000110 c9 01 d5 3a df 2e 11 3d da c3 35 3d f7 88 8c bc
       0.0016251142 0.03544509 0.04437623 -0.017155154
000120 db 89 20 bd 8a 44 00 3c 3d a4 47 3c 3b 8b 52 3d
       -0.03919397 0.007828841 0.012185154 0.05140231
000130 97 1e d2 bc 4e 2b 7a 3d 99 c7 f0 bb f0 98 6b 3b
       -0.025649352 0.061076455 -0.0073480126 0.0035949312
000140 26 5d cc 3c eb de 3d bc 8a 1b 31 3d 23 0a e4 3c
       0.02494676 -0.011588792 0.043239154 0.027836865
000150 7e 82 6d bb 0d bb 50 3b be dd b7 bc 73 57 86 3c
       -0.003624111 0.0031849772 -0.022444602 0.01639912
000160 77 7b 75 bd 43 c5 01 3c 78 db 87 bc 10 8e cf bb
       -0.0599322 0.007920566 -0.016584143 -0.006334074
000170 24 7f 8b 3a 73 2a 3c bc ba c9 b4 bc 61 9a 7a bc
       0.0010642749 -0.01148473 -0.022068847 -0.015295596
000180 00 65 36 bc 89 ec 8a bc 81 e4 b4 bc bd 59 b9 3c
       -0.011132479 -0.016958492 -0.022081615 0.022625798
000190 51 f0 c3 3c ba d6 01 bd fe c4 cf 3c a3 aa d6 3c
       0.023918303 -0.03169892 0.025362488 0.026204413
0001a0 74 e1 7c bb 6e 4e 02 3c f4 ac 30 3d a2 17 eb 3c
       -0.003858653 0.007953269 0.04313369 0.028697792
0001b0 70 2a 30 3d a2 ad b6 bc 95 49 d6 3b 68 60 f1 bc
       0.04300922 -0.022299591 0.0065395334 -0.029464915
0001c0 34 ff cc 3c 3f 59 e3 3a df b7 91 3c 18 4a 48 3b
       0.025024034 0.0017345323 0.017787872 0.0030561741
0001d0 ae d9 51 3d a0 d9 43 bc d4 72 07 bc 22 cc 55 3d
       0.051232986 -0.011953741 -0.008267123 0.05219663
0001e0 19 6a c6 3c 16 e8 63 bc e2 ca 26 bc fe 8a 30 3d
       0.024220513 -0.013910314 -0.010180207 0.043101303
0001f0 40 53 21 3d 56 df aa bc f9 02 cd 3a 9c 23 3f 3d
       0.039386034 -0.020858448 0.0015641145 0.04666482

network_body._body_endoder.seq_layers.2.weight f4 [128, 128]
000000 ee 65 af bd dd ad 1c 3c 26 65 c5 bc da ad 77 3c
       -0.085643634 0.009562937 -0.024096083 0.015117133
000010 17 66 95 bd 2d cf 1b 3e c0 76 6e bd 9a 51 d1 3d
       -0.07294863 0.1521575 -0.058218718 0.102206424
000020 3c 3f 65 bd 39 1c 2e 3d 5f a9 99 3d e5 62 11 be
       -0.055968508 0.042507384 0.07503008 -0.14197882
000030 45 d6 89 bd f3 d3 76 bd a6 55 66 3e 42 4e 29 be
       -0.06730322 -0.060260724 0.2249361 -0.16533759
000040 33 d3 c5 bd 6b 31 cd 3c c2 26 11 be 20 ac 3c 3d
       -0.09659424 0.025047978 -0.14174941 0.04606259
000050 20 6c 9d 3c 10 63 bd 3c 0f 37 c4 bb ad 84 9f 3d
       0.019216597 0.023118526 -0.005988009 0.07788978
000060 24 51 8c 3c 49 43 87 3c b6 11 20 be 94 52 a8 3d
       0.017128535 0.016511576 -0.15631756 0.082188755
000070 c7 9c c0 bc bf 22 47 bd f1 51 a7 bd 70 94 c9 bd
       -0.023512257 -0.04861712 -0.08169926 -0.09842765
000080 77 7c 3a bd 1c ae 56 3c 6d 1d b2 bd 1d 67 ec 3c
       -0.045528855 0.013103034 -0.08697019 0.028857762
000090 56 64 2f be 7a fc 4f 3a 07 1b bd bd ff 4c b5 bd
       -0.17128119 0.0007934045 -0.09233671 -0.088525765
0000a0 13 04 39 3d 44 91 c9 bd f8 67 c4 3d 34 bf d2 3c
       0.0451699 -0.0984216 0.09590143 0.025725938
0000b0 e2 89 ca bc 15 ba 7e bd bb 09 ac bd b1 d0 20 3e
       -0.02472395 -0.06218918 -0.084002934 0.1570461
0000c0 cd 2f 63 bd a3 49 79 bd 66 03 84 3d 80 b0 9f 3d
       -0.05546551 -0.06086124 0.06445961 0.077973366
0000d0 aa 26 03 be bb ae ab bc d7 a8 97 bd 94 75 16 be
       -0.12807718 -0.020957341 -0.074052505 -0.1469329
0000e0 d1 fa 65 3d 8e 66 ed 3d 26 8f 51 bd d9 08 0e 3e
       0.0561474 0.115918264 -0.051161908 0.13870563
0000f0 e5 57 d6 bc f6 40 7f 3d 5b 73 5f 3d 3b 70 e0 3d
       -0.026164958 0.06231781 0.05455337 0.10958906
000100 ff cd ed 3d e0 41 09 3d 2d ee 4f 3e 9c 30 a8 bd
       0.11611556 0.03351009 0.203057 -0.082123965
000110 f7 5b 0a bc 97 88 82 be 35 d6 54 ba 2e 42 76 bd
       -0.008444778 -0.25494835 -0.00081190775 -0.060121708
000120 00 f9 62 3d 22 b6 da bc 3a f0 fa 3b 85 49 67 3e
       0.055413246 -0.026698176 0.007658032 0.22586639
000130 1d d9 24 3e 20 a5 86 3d ab 7c dd 3d 0a 64 77 bd
       0.16098447 0.06574464 0.10814794 -0.06039814
000140 29 fc a5 bb 7f 3e ad 3d 49 50 91 3c b8 82 29 3d
       -0.00506546 0.08459186 0.017738478 0.04138443
000150 21 69 56 3d 7e 81 82 3c dc 46 f8 ba 58 2b 1d bb
       0.052346352 0.015930887 -0.0018942016 -0.0023982134
000160 3a 6f 7f 3e c8 ee 0a 3e c6 d5 da 3a 54 6d 07 bc
       0.24944773 0.1356765 0.001669579 -0.008265812
000170 83 ea 30 be e9 b3 fb bc bf 27 56 bd ac 1e b3 3d
       -0.17276959 -0.030725436 -0.052284 0.087460846
000180 9f 8b a6 bc 28 e7 e6 3d 8b 2f 1f 3d 0f 2b 88 3d
       -0.020330248 0.11274558 0.0388637 0.06648838
000190 f8 aa 8f bc 24 31 da 3a 60 3e c5 bd f9 ed 14 bd
       -0.017537579 0.0016646725 -0.09631038 -0.03635976
0001a0 09 40 88 3d d8 56 bb 3c e4 4c 83 3e 17 a5 ba bd
       0.06652839 0.022868559 0.256446 -0.0911352
0001b0 ea 36 95 bd ee 97 43 bd 7e 2f ed bd bb 34 53 bd
       -0.07285865 -0.047752313 -0.11581324 -0.05156396
0001c0 06 92 3d 3e a0 36 c8 3d 43 fd 05 3d 4f 8c d5 3c
       0.18512735 0.09776044 0.032712232 0.02606788
0001d0 65 a5 4d bd d4 33 59 3e 71 af 83 3d aa bf d2 bc
       -0.05020656 0.21211177 0.06429947 -0.025726158
0001e0 f1 02 a5 bd 2c d5 d0 3c 8e 5a a3 3d f5 e7 26 3e
       -0.08057202 0.025492273 0.07976256 0.16299422
0001f0 f8 6f 81 bc b3 67 ee 3b a4 cf 04 3d e0 cf 96 3d
       -0.015800461 0.0072755455 0.032424584 0.07363868
000200 c9 06 8e bd 2c 27 d7 bd 9b 49 78 3c 26 2c aa bd
       -0.06934888 -0.10505518 0.015154268 -0.08309202
000210 a8 b7 33 bc 95 23 9f bd c3 11 9f 3d f2 7e 10 be
       -0.01096908 -0.077704586 0.0776706 -0.14110926
000220 f2 b0 c1 bd 07 69 c0 3d 94 e8 31 be e5 07 36 bc
       -0.09457578 0.093950324 -0.17373878 -0.011110281
000230 77 4e 82 ba 0e 62 92 3c 27 b8 73 3d ab e0 75 3d
       -0.0009941597 0.017869022 0.059501793 0.060028713
000240 ad 14 e0 3d a4 ac c4 bc d2 2e ec 3d 3e a0 ac 3d
       0.109414436 -0.024008103 0.11532368 0.08429001
000250 31 5f 92 be db 86 3a 3e 1e 1f e5 3d 7f 3e 03 bd
       -0.2858825 0.18215506 0.11187576 -0.032042023
000260 34 ab 43 3d cc 16 36 3e ce 90 9e bb 55 b7 ce bd
       0.047770694 0.17782134 -0.0048390394 -0.100935616
000270 8d 1b 9c 3d 54 e2 84 bd a1 c3 54 bd 52 51 d6 bd
       0.076224424 -0.06488481 -0.05194438 -0.10464729
000280 e0 68 9c bd 0f fa 87 3d 59 2a fa bc 2c 26 6c bd
       -0.07637191 0.06639492 -0.030537771 -0.05765359
000290 e2 dc 32 3b 4c 59 06 be d3 e2 c1 bb a1 c8 b5 bd
       0.00272923 -0.13120002 -0.005916932 -0.088761576
0002a0 6d 99 59 be 48 f0 d2 bd 5b 85 e6 bc fa ce de 3d
       -0.21249934 -0.10299736 -0.02813976 0.108793214
0002b0 2c 87 3e be e5 c4 7d 3d 65 9c a3 bd e1 5b 3d bd
       -0.18606251 0.06195535 -0.07988814 -0.0462302
0002c0 c7 2a 5d 3e 3c 1c b2 bc 8c 23 84 3c 4f 79 37 3e
       0.2159835 -0.021741979 0.016130231 0.1791737
0002d0 79 db 24 be 3c bd b2 3c 02 9a ec 3b bf ff 62 3e
       -0.16099347 0.02181875 0.0072205076 0.22167872
0002e0 a1 4c 02 be d9 4a 25 bd 68 56 af 3d 31 2a a6 3c
       -0.12724544 -0.040354583 0.085614026 0.02028379
0002f0 a5 f3 fc 3c 58 ab 3a 3e bb ec 89 3d 55 78 17 3e
       0.030877898 0.18229425 0.06734606 0.14791997
000300 bf b5 85 bd 9b 50 41 bd 31 f9 20 3e 90 26 e0 bc
       -0.06528806 -0.047196012 0.15720059 -0.027362138
000310 75 03 8b 3c 88 ce b7 3d 5b 48 ca 3c 35 e3 eb bd
       0.016969422 0.089749396 0.024692705 -0.11517946
000320 64 99 2c 3d ed 96 24 3e 43 65 86 3d 68 54 60 3d
       0.042138472 0.16073199 0.06562283 0.054767996
000330 e0 29 0b be f8 3e 1c 3e b4 4f 52 3d 46 34 cd 3d
       -0.13590193 0.15258396 0.051345542 0.10019736
000340 69 ef a3 3d 48 93 e4 bc 76 76 2c 3c 1c 38 06 bd
       0.08004648 -0.02790226 0.01052629 -0.032768354
000350 7c 1d 6a 3d 82 3b 36 3e 55 19 b7 3d c6 97 fa 3c
       0.057157025 0.17796138 0.089403786 0.03058995
000360 73 cf 22 bd 52 65 b7 3d 64 e4 24 bd 04 9f 07 be
       -0.03974862 0.08954872 -0.040256873 -0.13244253
000370 76 e4 d4 3c 9a e0 37 bd 9d 39 8c 3d 80 74 1d be
       0.025987845 -0.04489193 0.06846926 -0.15376472
000380 2c 45 f7 bd a7 99 93 3d 57 8f ac bd a9 3a f6 3c
       -0.1207374 0.07207041 -0.084257774 0.030057268
000390 bc 91 ac 3d d0 56 13 3e 21 22 e8 bd 45 e5 b3 3b
       0.08426234 0.14388585 -0.113346346 0.0054899775
0003a0 89 fb 29 3e 03 61 79 bc 20 8b ff bd 6b 66 ee bd
       0.1659986 -0.015220883 -0.12477708 -0.116406284
0003b0 00 e7 73 3d ce d3 3f 3d 6a ad 54 3d ba f2 0d bd
       0.05954647 0.046832852 0.051923193 -0.03465531
0003c0 f1 10 3d 3d 22 60 ab 3d 2e c4 90 bd bd a3 3a 3e
       0.046158735 0.08367945 -0.07068668 0.18226524
0003d0 16 d2 2c 3d 55 22 77 bd 06 09 7d bd ae f7 d2 bb
       0.04219254 -0.060335476 -0.061776184 -0.006438217
0003e0 47 ca a4 bd 8f f7 b2 bc f6 7d 2b bd 48 f4 39 be
       -0.08046394 -0.02184656 -0.041868173 -0.18159592
0003f0 cb 94 87 3c 85 16 c5 3d 8c b4 a1 bc 3a 17 48 3d
       0.016550442 0.09623436 -0.019739412 0.048850276

network_body._body_endoder.seq_layers.2.bias f4 [128]
000000 88 de 2b b9 b6 86 0a 3c c7 d7 c3 3a e8 de 49 3c
       -0.0001639073 0.008454969 0.0014941626 0.012321211
000010 95 cb 48 bb b1 aa 9f bb 61 f4 bc bb 92 67 04 3c
       -0.0030638922 -0.004872643 -0.005766437 0.008081334
000020 d0 d6 71 bb 6c 3c 9d 3c 52 8d 7a 3c 00 6a 35 bb
       -0.003690172 0.01919385 0.015292482 -0.002768159
000030 83 11 06 3c 90 14 d3 3b 46 b7 05 bb 33 88 38 3c
       0.008182886 0.00644166 -0.002040343 0.011262941
000040 6c 9b f5 39 f8 86 bf bb ac e7 34 3c de 3a 71 ba
       0.0004684584 -0.005844947 0.011041563 -0.00092021923
000050 a0 48 2c bc cf 22 e6 3a 56 aa df 39 89 fe 9e 3b
       -0.010515362 0.0017557981 0.00042660785 0.0048521203
000060 45 0e 3e 3c 8e 7a 34 3c 97 44 1a 3c 33 60 29 3d
       0.011600082 0.011015547 0.009415767 0.04135151
000070 5d 71 9c 3b 4c 88 13 bc 3f ad 37 3a a7 b1 3a bb
       0.004774256 -0.009004664 0.00070067117 -0.0028487237
000080 f8 07 0a bb 50 bd f1 ba 31 f2 b1 bb a2 67 21 3b
       -0.0021061879 -0.001844326 -0.005430483 0.002462842
000090 9e bb 0e 3b 4a 84 a9 3c 6f 80 c4 39 e5 a8 04 3c
       0.002177931 0.020692963 0.00037479724 0.008096908
0000a0 0d c1 90 b9 e6 a9 99 38 88 15 18 bc c1 af 84 ba
       -0.00027609654 7.3272546e-05 -0.009282477 -0.001012318
0000b0 ac 51 49 bc a0 3d 8c 3b 09 62 e5 3b 64 a8 87 b8
       -0.0122875385 0.004279807 0.007000212 -6.468667e-05
0000c0 a0 5e a4 3b ab 1f 46 3c 0c 5d 9b bb fb eb 2f 3c
       0.005016163 0.012092511 -0.0047413167 0.0107374145
0000d0 28 ed 8f 3c 50 59 cf 3b e0 ed ed ba d1 12 24 bb
       0.01756914 0.0063277856 -0.0018152557 -0.002503563
0000e0 57 b0 5d 3c 04 26 a1 b9 56 41 e3 bb ed 2c c6 3b
       0.013530812 -0.00030736637 -0.006935279 0.006047836
0000f0 46 2d e0 ba 19 13 c7 bb 57 0c ff 3b cf 91 24 bb
       -0.0017103336 -0.0060752747 0.0077834534 -0.0025111323
000100 70 f7 9d b9 38 b7 50 bc 88 8f ba bb 1c d9 f4 3b
       -0.0003012973 -0.012738995 -0.00569338 0.0074721705
000110 57 39 5a 3c b5 4c da 3b 23 10 ca ba 8f ab c7 bb
       0.013319335 0.006661976 -0.0015416186 -0.0060934494
000120 52 b9 4e 3c 3a 08 3f 3c f5 2b 9c ba c1 89 3a 3b
       0.012617426 0.011659676 -0.0011914956 0.0028463455
000130 cf fc 6c 3c a0 3d d9 3b 54 ab b2 bb a5 66 dc 3b
       0.014464571 0.0066296607 -0.005452553 0.0067261034
000140 f8 e8 cc bb b0 bd 08 bc 74 8b 78 bb 87 a7 b7 39
       -0.006253358 -0.008346006 -0.0037924917 0.00035029298
000150 1b 1a d9 bb 48 22 3b 3b 26 95 98 3c be 33 c1 3c
       -0.0066254265 0.0028554369 0.018625807 0.023584243
000160 12 b5 29 3c 7a d0 80 3c 15 b8 b7 3a f4 ab 8d bc
       0.010358112 0.01572441 0.0014016653 -0.017293908
000170 f5 cb a8 3b 8b 4f 84 3c e4 fd 64 3b 8d f8 87 3b
       0.0051512667 0.01615121 0.003494137 0.0041495026
000180 81 ab 44 ba 98 ff 6c 3c 16 27 3e 3c fe 1d 49 3c
       -0.0007502363 0.014465235 0.0116059985 0.012275217
000190 83 62 99 bc 79 f0 b4 ba 28 5e 1e ba 29 6a 06 bc
       -0.018723732 -0.0013804577 -0.0006041252 -0.0082040215
0001a0 4b 49 63 3a 46 a1 c1 bb bc f6 0c 3b 08 15 6f ba
       0.00086702843 -0.005909118 0.002150937 -0.00091202604
0001b0 6e 25 88 bb 3f a2 3f 3b 3e 24 e4 bb d1 0f 30 bb
       -0.0041548526 0.0029240993 -0.006962328 -0.0026864896
0001c0 56 18 7d 3c 6f 8a c3 3c c6 27 56 bc 35 3b ab 3b
       0.015447697 0.023869721 -0.013071006 0.005225564
0001d0 a3 02 2d 3b 63 d2 3f 3b dd 26 f1 ba 6f 7d bc 3c
       0.0026399277 0.0029269687 -0.0018398423 0.02300903
0001e0 fe d7 12 3c af cd db 3a 4c ca 49 bc 6f 10 29 3b
       0.008962629 0.0016769673 -0.012316298 0.0025797149
0001f0 fb 07 cf bb a0 c0 5f 3c 01 d9 fe 3b 8f fd e9 ba
       -0.00631809 0.013656765 0.0077773337 -0.0017852056

action_model._continuous_distribution.log_sigma f4 [1, 2]
000000 c1 05 1b be e8 4a c5 be
       -0.15138914 -0.3853371

action_model._continuous_distribution.mu.weight f4 [2, 128]
000000 81 a3 7b 3d b5 4f 39 3d 63 7b 67 3c 9a 3d 62 3d
       0.061435226 0.04524203 0.014128539 0.05523453
000010 55 33 cd bb 69 4d 54 bd 67 c0 0e bb 9f 06 2b bd
       -0.006262223 -0.051831637 -0.0021782161 -0.04175436
000020 9b 24 84 3c af b7 59 bc 0a fc 8d 3d c5 fd a7 3c
       0.016130736 -0.0132884225 0.06932838 0.020506749
000030 1f b7 9d bd 45 8c 8a 3c 1d 5e 22 3d 10 66 9c bc
       -0.07700943 0.016912589 0.039640535 -0.019091636
000040 bb 7c db 3c a8 e4 d1 bc 92 b5 87 bd 97 ec 34 bb
       0.026792875 -0.025621727 -0.06626429 -0.002760684
000050 dd 9f 41 bd e4 32 c7 3c 9b 4c 27 bd 22 31 80 3c
       -0.047271598 0.024316259 -0.04084454 0.015648428
000060 a7 45 77 3d a8 f3 a2 bd 5a b7 16 bd 33 83 ac 3d
       0.06036916 -0.0795663 -0.03679595 0.08423462
000070 ff e7 06 bd f6 21 81 3c c9 74 2f bd ff 2d 44 bd
       -0.032936092 0.015763264 -0.042835984 -0.047895428
000080 fd 29 1a 3d 9f 3c d2 bc d2 d5 b7 bc bc 86 37 3d
       0.0376377 -0.025663672 -0.022440825 0.044806227
000090 94 aa 3d bc 4d a7 93 3d 33 d7 e3 3c 62 83 e2 3c
       -0.0115763135 0.072096445 0.027812576 0.027650539
0000a0 2c 49 9d 3d ee 06 16 3d 70 84 a1 bc 50 b3 a1 ba
       0.07679972 0.036627702 -0.019716471 -0.0012336764
0000b0 74 48 c7 bc b9 aa 88 bd 22 3d 8a bc 64 a6 63 bc
       -0.02432654 -0.06673188 -0.016874854 -0.013894651
0000c0 de 31 ba bc b0 ae fa bc 1d 0f 90 3b 66 04 bb bc
       -0.022728857 -0.030600876 0.004396333 -0.022829246
0000d0 b8 f3 b1 bd b0 a2 73 3c 6a 2f 88 3c 26 9a 12 3d
       -0.08689064 0.014870331 0.016624171 0.03579154
0000e0 47 71 0c bd cf 24 1b 3d 17 0f d0 bb 5c 0f 72 bd
       -0.034287717 0.0378769 -0.006349455 -0.05909668
0000f0 c4 40 8b 3c b0 c3 cb 3c 0b ee c8 ba a3 a2 2d 3d
       0.016998656 0.024873585 -0.0015329731 0.04239143
000100 f6 27 45 3d 8a cf 09 3c d3 43 ff bc b0 7e 2b bd
       0.048133813 0.008411298 -0.03116027 -0.041868865
000110 ab e8 a1 3d 3a b0 37 3d 93 3a fa 3c 0e 6a 02 bc
       0.07905706 0.044845797 0.030545508 -0.007959856
000120 45 6f 83 bd 01 bf 11 bd 5a 06 dc 3c 35 28 b2 bc
       -0.06417707 -0.035582546 0.026858497 -0.021747688
000130 c7 ee 96 3d 2d 2f 02 bc b6 4d 1d bd 50 82 47 3d
       0.07369762 -0.007945818 -0.03840419 0.04870826
000140 c6 0d 86 ba 17 3d d8 bc fa 59 f1 3c e0 ef 30 bd
       -0.0010227493 -0.026396317 0.02946185 -0.043197513
000150 15 37 e0 bb 74 1b 0f 3d 44 9d a1 3c cb f3 86 3d
       -0.006842504 0.03493829 0.01972831 0.065894686
000160 40 59 7c bd 38 58 36 3d 33 43 f2 3c 62 3e e3 bc
       -0.061608553 0.044517726 0.029573059 -0.027739707
000170 70 dd 68 bd cf 45 1a 3d 12 32 b7 bd d2 20 89 3d
       -0.056851804 0.03766423 -0.08945097 0.06695713
000180 96 4f ac 3c 47 b1 0d 3d fa 11 0d bd d0 27 84 3d
       0.021034043 0.034592893 -0.034440972 0.06452906
000190 b8 f8 c3 bb d3 c8 26 3d 78 f3 59 bc 41 44 a7 bb
       -0.0059805773 0.040718865 -0.013302676 -0.005104572
0001a0 83 93 3d bd 3b 03 19 3d ba 71 6c bd cb 2a 6d bc
       -0.046283256 0.037356596 -0.057725646 -0.014475535
0001b0 03 ac b0 bb 5a 61 c2 3c 60 21 0e 3c 3d d0 71 bd
       -0.005391599 0.023728061 0.008674949 -0.059036482
0001c0 20 23 82 bd b1 4b 3a 3d 5e 4a 01 bd 03 ab b7 3c
       -0.06354356 0.04548234 -0.031565063 0.022420412
0001d0 32 b9 79 bd 7a d3 01 bd 9d f6 30 bd c3 2b bd 3d
       -0.06096763 -0.03169582 -0.04320394 0.092368625
0001e0 bc ed 81 3d 0c 3e 18 bd a2 8c 96 3b 83 05 e5 3b
       0.06344172 -0.037168548 0.0045944015 0.0069891824
0001f0 b0 7c d2 bc 14 08 1c bd 0f 75 82 3d 1b fa 07 bd
       -0.025694221 -0.03809364 0.063699834 -0.033197504
000200 31 04 20 3d 37 cc 8c bd ee 9a 31 3c 7b cd c7 b8
       0.039066497 -0.068748884 0.010840161 -9.527333e-05
000210 23 2d 98 bb 82 7a b0 bb d9 61 c3 3c 01 1c ce 3b
       -0.0046440526 -0.005385698 0.023850368 0.0062899594
000220 66 da d2 3c 3d 2a 87 bd 9f 9e b1 bc f3 a7 32 3c
       0.025738906 -0.06599853 -0.021682082 0.0109043
000230 d4 49 27 bd f3 c3 a3 3c ca 74 10 3d d9 57 5a bd
       -0.040841892 0.019990897 0.03526763 -0.053306434
000240 93 f2 3e 3c ba bb 24 3c bd 62 b5 ba bf bc b6 bc
       0.011654514 0.010054523 -0.001383863 -0.022306798
000250 0d e5 3f 3c 04 2d bd 38 b2 30 53 3c 9a 54 81 3c
       0.011712325 9.020607e-05 0.012890028 0.015787411
000260 63 3d d7 bc 67 59 a1 3c de 4d 77 3c 93 49 af bd
       -0.026274389 0.01969595 0.015094249 -0.08558955
000270 3c 86 87 3c 4b 87 3c 3c 04 2b 01 3d 44 e4 8b 3d
       0.0165435 0.011506866 0.031535164 0.068306476
000280 de 7e cb 3c cd 34 88 bc b6 ea 17 3d 8c 95 6f 3a
       0.024840768 -0.01662674 0.037089072 0.00091394107
000290 6f ab 5b bd b3 7f 98 bd f6 8f b3 3b 1a 8d c0 bc
       -0.05363029 -0.07446232 0.005479808 -0.023504782
0002a0 4d 39 67 3d de 52 17 3d 9d a4 95 ba 94 74 bc 3c
       0.05645113 0.036944263 -0.0011416856 0.023004808
0002b0 42 df de b9 ab 44 04 bc 03 c3 6b bd 46 8d 1f bd
       -0.0004250948 -0.008073012 -0.057559025 -0.03895309
0002c0 73 3b 05 3d 05 fe 36 bd 2c bc e3 3c 82 fa e6 bc
       0.0325274 -0.044675846 0.027799688 -0.028195623
0002d0 f8 22 2d bd 83 2d 7b 3d eb 77 8d 3c fa d0 6c 3d
       -0.042269677 0.0613227 0.017269095 0.057816483
0002e0 bb 63 59 bd 78 ff 35 3d 16 17 56 3d 43 f4 e4 bb
       -0.053073626 0.044433087 0.05226811 -0.006987126
0002f0 81 66 2c bc 88 4f 34 3c da fe 32 bc e9 db 25 3d
       -0.010522486 0.01100529 -0.010925019 0.040492926
000300 e7 20 48 bc 5d bc fa bb 6e 29 08 bd 4b bc 41 3d
       -0.012214876 -0.007651849 -0.033242635 0.04729871
000310 f6 80 4e 3c 77 53 99 3c 22 a8 a7 3d 39 02 cb 3c
       0.012603989 0.018716557 0.08186366 0.024781333
000320 66 37 91 bc 25 d1 29 bd 91 48 21 bc d1 1a d4 3c
       -0.017726611 -0.04145922 -0.009843961 0.025891693
000330 2d 09 7a bc b6 1e 4c 3d 41 f5 b8 3d 1c c1 94 3c
       -0.015260977 0.049833976 0.090311535 0.018158488
000340 33 7b 81 3c b2 93 6a bb da 00 09 3c b3 3f a3 bc
       0.015805816 -0.00357936 0.008362019 -0.019927835
000350 43 fa 29 bc 81 f9 ab 3a 3d 48 0a 3d 0b 24 b7 bb
       -0.010374608 0.0013120623 0.033760298 -0.0055890135
000360 93 e2 c7 bc ad 57 ff 3b a5 02 9d 3c 7c ab 8e 3c
       -0.024400031 0.007792434 0.0191663 0.017415754
000370 67 09 df 3c 3f ef 6c bd 32 86 20 bd 41 a7 14 3d
       0.027226163 -0.05784535 -0.03919048 0.03629232
000380 7e 38 27 bc 90 8e 68 bd 09 24 50 3b b2 1b 15 bc
       -0.01020634 -0.056776583 0.003175976 -0.009100841
000390 b0 e6 09 38 70 30 ca 3b 6a b3 16 3d 7f be 62 bc
       3.287819e-05 0.006170325 0.036792196 -0.013839363
0003a0 e3 01 7b bc bc d6 bc 3d 29 28 5a bc 40 f7 24 3c
       -0.015320274 0.09220645 -0.013315239 0.010068715
0003b0 d7 8d 6a bc 7e 0e 95 bc 95 c5 80 3c 57 be a4 3a
       -0.014316044 -0.018195387 0.015719214 0.0012568933
0003c0 06 91 98 bc ed 20 0c 3d 6f 9d 87 bc 11 3c 36 bd
       -0.01862384 0.034211088 -0.016554562 -0.044490878
0003d0 ac a7 a6 3d 6c 33 28 3c 21 3d e8 3c fa 2a e5 bb
       0.081374496 0.010266166 0.028349461 -0.0069936486
0003e0 91 ec ae 3d 35 3e 3b 3c c8 ac 68 3b 39 26 bd bc
       0.08541215 0.0114284055 0.0035503376 -0.023089515
0003f0 cf 1b 2b 3b 6a 44 a9 bd f5 22 1f 3c 00 23 0f bd
       0.0026109105 -0.08265002 0.009712924 -0.034945488

action_model._continuous_distribution.mu.bias f4 [2]
000000 bc d5 65 3b 9b 82 b5 ba
       0.0035070023 -0.0013848128
