results/test_6/Boss/Boss-92160.pt (torch, 445282 bytes, 36 tensors)

network_body._body_endoder.seq_layers.0.weight f4 [128, 7]
000000 87 a8 34 3e 28 a7 79 3e 46 ed 49 bf cd 32 6d 3e
       0.17642413 0.24380171 -0.78877676 0.2316391
000010 db f7 2d be 7b b8 2f be f5 75 8f bf 2d 8d 22 3e
       -0.1698908 -0.17160217 -1.1207873 0.15874167
000020 8b dd ec bd 18 c4 f1 be d4 85 4c be d5 b7 ec be
       -0.115656935 -0.4721992 -0.19972926 -0.46234003
000030 b6 40 23 bc ac 2b aa 3c ad 82 97 3e 79 90 76 3e
       -0.009964159 0.020772777 0.29591885 0.2407855
000040 c2 b1 5b 3e 20 85 2b 3c a1 cc 05 3e c4 02 e1 3d
       0.21454528 0.010468751 0.13066341 0.109868556
000050 1c 47 52 3e e0 43 0f 3f 80 6d 04 bc a2 58 4d 3d
       0.20534939 0.55962944 -0.008082747 0.050133355
000060 32 1c bd be 82 c4 b6 3e 7c bf a4 bd 99 ac f0 bd
       -0.36935574 0.356968 -0.08044335 -0.117516704
000070 3c 00 a0 3e ea 50 83 bd 47 5d 2a 3e a4 f5 8f 3f
       0.3125018 -0.064119175 0.16637145 1.1246839
000080 86 a3 68 bf f0 e9 b7 3e 1c 61 22 be 4c a3 89 3d
       -0.90874517 0.35920668 -0.15857357 0.067205995
000090 52 e8 1a 3d 04 b9 28 3e be bd 0a 3f a5 b9 a4 3c
       0.037819214 0.16476828 0.54195774 0.020108053
0000a0 26 55 e7 3d d3 30 b6 3e c9 6e b5 3e b0 23 c0 3c
       0.11295538 0.35584125 0.35436085 0.023454517
0000b0 b7 8f 17 bf 47 aa 43 bd 34 e1 2f 3e 91 e6 26 bf
       -0.59203666 -0.04776981 0.17175752 -0.65195566
0000c0 8a e8 ad be f2 87 52 3e 2e 33 b7 be 5b fe 6c be
       -0.33966476 0.20559672 -0.35781235 -0.23143904
0000d0 58 2b 6e 3b 1d 91 a4 3e 6d 23 0a be b9 99 bf 3e
       0.0036341753 0.32141963 -0.13490076 0.3742197
0000e0 a3 26 a9 be f9 0c a7 3e 5e 78 ed 3d c7 d1 7b 3d
       -0.3303729 0.32627085 0.11595224 0.061479356
0000f0 57 ad 89 3e 1d df 84 bf 84 42 1c 3e 04 0d 01 3e
       0.2689006 -1.0380589 0.15259749 0.12602621
000100 26 d8 2d bf 45 d8 a8 3d 57 7f 7b be 50 50 bb bd
       -0.6790794 0.08244375 -0.24560295 -0.09146178
000110 51 50 82 3d 73 f0 80 be 16 bb 24 3d b8 43 e1 bd
       0.063629754 -0.25183448 0.04021748 -0.109992445
000120 83 ce 70 3e c9 56 ea bd 31 3d e2 bd b3 22 2b 3e
       0.23516278 -0.11442334 -0.110468276 0.16712455
000130 7f b7 d4 be 8b 86 c0 be 9c 18 1d 3e b2 90 e7 be
       -0.41546246 -0.37602648 0.15341419 -0.4522758
000140 dc 0f d0 3c 30 d7 8f 3e 31 2f 24 be c6 1e 76 be
       0.025398187 0.28093863 -0.16033627 -0.24035177
000150 0c 91 3a be 0e 4f 21 be 89 79 e0 3e 3c 65 b2 3e
       -0.18219393 -0.15752813 0.43842724 0.3484286
000160 2e 29 c0 3e 53 a5 ba 3e 0b 1a a8 bf ba 0f cd 3e
       0.37531418 0.36454257 -1.3132948 0.4005106
000170 8b 81 a5 be ab a5 45 3f 22 48 ab bd 2d 2d 15 3c
       -0.32325396 0.77205914 -0.083633676 0.009105009
000180 04 88 07 3f 7d 11 70 be 8a a8 02 3f 0a a1 2a bf
       0.5294192 -0.23444171 0.5103842 -0.66651976
000190 de d5 2d bf 87 58 c0 be 3f e9 a2 be d4 cf a3 bd
       -0.6790446 -0.3756754 -0.31818578 -0.079986244
0001a0 66 68 dc bd 7c 3b c2 3e c9 ab 8f bd dc 54 bd be
       -0.107621 0.37936008 -0.07015187 -0.36978805
0001b0 d6 c6 12 3e 5b e5 26 be 80 1b b9 3e 69 52 33 3e
       0.14333662 -0.1629843 0.36153793 0.17511906
0001c0 a7 cc 86 3e 35 10 1e bf 6f be 14 3e 92 e8 55 3e
       0.26328012 -0.6174348 0.1452577 0.208895
0001d0 14 0b b2 3d 69 84 c2 be 80 8f b2 be 34 86 3d 3e
       0.08693519 -0.37991646 -0.34875107 0.18508226
0001e0 c6 04 ab be 8c 45 8b 3e 49 6b e4 3e 87 fd 3a bd
       -0.3340208 0.27201498 0.44613102 -0.04565194
0001f0 09 ab 22 3f 9f d8 a2 3e d9 2e 1f 3e b3 10 24 3f
       0.6354223 0.31805894 0.15545215 0.6408798
000200 38 95 65 bc e7 df d8 3c 3e 3e 83 be 59 af 82 be
       -0.014012627 0.026473952 -0.25633425 -0.25524405
000210 da ec 54 be 29 d2 0c 3c 0c 02 f0 bd c3 31 98 be
       -0.20793477 0.008595028 -0.117191404 -0.29725465
000220 6a 92 f0 bc a1 6d 2f 3e 08 73 33 bd ac 0f 89 3d
       -0.02936669 0.17131664 -0.043810874 0.06692442
000230 ba 20 ba 3e a2 4e 27 3e fa 0c 38 3f e3 8c 88 be
       0.36353093 0.1633859 0.718948 -0.26669988
000240 b9 b6 02 3f 23 6f 02 be e0 f9 a6 be 98 13 cd bd
       0.5106006 -0.12737708 -0.32612514 -0.10013503
000250 f6 d6 b0 3d 67 82 cd 3e 20 bb c0 3d b9 94 6d be
       0.086347505 0.40138552 0.09410691 -0.23201264
000260 b6 52 cb be 99 54 2b 3e b7 fa 75 be 01 e3 3a 3f
       -0.3971154 0.1673149 -0.24021421 0.7300263
000270 e1 46 99 bd f3 9c ea be e1 02 da be 4a 0b 6d 3e
       -0.07484222 -0.45822868 -0.4258032 0.23148838
000280 d9 00 46 be b6 6d 09 3f 8b e7 45 be d5 5a 24 be
       -0.19336261 0.5368303 -0.19326608 -0.16050275
000290 3b 24 a4 be 6d 33 42 be cf d7 b1 be 19 08 8a be
       -0.32058892 -0.1896493 -0.3473496 -0.26959303
0002a0 9f b6 e3 3e 6e 09 be bd b2 4b 8c be 90 f6 a2 3d
       0.44475266 -0.09279142 -0.274015 0.07957184
0002b0 d7 b2 ee be 5f e6 56 bd 60 8b 5e 3e d5 48 a0 3e
       -0.4662082 -0.052465793 0.21732855 0.31305566
0002c0 41 f8 26 3f 49 8b 0d 3e 8d 7a bb be e8 2b 86 be
       0.65222555 0.13822664 -0.36616936 -0.26205373
0002d0 9f 50 12 3f 04 9b 6c 3e 26 78 f3 bd ef e0 9e 3e
       0.5715427 0.23106009 -0.11888151 0.31030986
0002e0 69 3a f3 be f0 a4 46 3f 89 7b 17 3f 79 bf 07 be
       -0.475055 0.77595425 0.59172875 -0.13256635
0002f0 cf a2 12 bf 1b 6b c4 3e f4 54 8d 3b e7 08 f3 be
       -0.57279676 0.38362965 0.0043131057 -0.4746773
000300 f8 1c 11 bf d1 5e a0 3e 5d fc f2 be 71 17 94 3e
       -0.5668483 0.3132234 -0.47458163 0.28924134
000310 27 3b 1e 3e 19 e2 16 3f ad 91 80 3e c2 f4 8d be
       0.15452252 0.5893875 0.25111142 -0.27725798
000320 63 b1 94 3e 0c 89 a4 3e aa d6 a8 be 50 1e df 3c
       0.29041585 0.32135808 -0.32976276 0.027236134
000330 78 ad 38 bf 29 e4 4e 3e 78 8a 19 bf b0 f7 bd 3e
       -0.7213969 0.20204224 -0.5997691 0.37103033
000340 87 ee 03 bb 84 d9 32 3f 59 44 69 3e b7 f5 b3 3d
       -0.0020131187 0.6986315 0.22779979 0.08787101
000350 32 71 0c 3f 0f b9 01 bf cd 83 28 be 2d 3d 91 be
       0.5486022 -0.50673 -0.16456528 -0.28366986
000360 7c 85 9f be 12 2d 4a be 13 e0 b4 3f c9 86 c3 3e
       -0.31156528 -0.19743755 1.4130882 0.3818877
000370 8e aa 1f be 3a b5 eb 3e e3 a2 c9 3e b5 8d 12 3f
       -0.15592405 0.46036702 0.39382085 0.5724748
000380 63 aa b2 be 21 cd 8b 3e 84 26 2a 3f c0 1e 11 3e
       -0.3489562 0.27304938 0.6646502 0.14171886
000390 74 f8 b3 be 48 1c 9f 3e 80 0b f2 be 7e a7 ac be
       -0.35150492 0.31076264 -0.472744 -0.33721536
0003a0 25 c7 06 bd 00 04 fc bd 47 f6 8c 3e e5 c8 45 bf
       -0.032904763 -0.123054504 0.27531645 -0.77259666
0003b0 fc a8 99 3e 66 98 13 bd c6 ad f1 3d 82 d2 97 be
       0.30011737 -0.03603401 0.11800723 -0.29652792
0003c0 0f 0a 40 bf b5 b4 31 3f 95 9a b3 be 7d 96 11 3f
       -0.7501535 0.6941636 -0.35078874 0.5687025
0003d0 51 ca 48 3e 76 fa 52 bf 01 f4 5a 3c 45 2e 02 bf
       0.19608428 -0.82413423 0.013363839 -0.5085185
0003e0 13 e0 f2 be ff e3 04 bd 41 1f c0 3e 15 b2 00 be
       -0.4743658 -0.032443997 0.37523845 -0.12567933
0003f0 d3 71 2f bf 39 a8 a0 3e 3b 97 fe 3e 4c ff b3 3d
       -0.68533057 0.31378344 0.49724755 0.087889284

network_body._body_endoder.seq_layers.0.bias f4 [128]
000000 1c d3 8f bb bf 7a 4c bb 0c f1 b5 39 b8 cf 14 bb
       -0.00438918 -0.0031201092 0.00034702604 -0.0022706818
000010 1b 0b 97 39 20 b2 77 3a cb 96 a1 b7 b3 e3 dd ba
       0.0002880924 0.0009448845 -1.9262914e-05 -0.0016928822
000020 f2 00 fc b9 af c4 9f 3a 32 9d 0a 3b 1e c8 b2 ba
       -0.0004806589 0.0012189354 0.0021150825 -0.0013639962
000030 23 1c 44 3a c7 0a 3c b8 41 c5 8f b9 75 9b 93 ba
       0.00074809993 -4.483273e-05 -0.0002742205 -0.001126154
000040 a4 dd b6 ba 4b b7 52 bb c7 c5 5f ba ec 4c 42 ba
       -0.0013951552 -0.0032152708 -0.0008536246 -0.0007411975
000050 74 35 d2 ba ae b7 69 3b c8 22 0e bb ab 13 3a 3a
       -0.0016037659 0.003566246 -0.0021688212 0.00070982677
000060 3f 60 c1 39 7c ae 2e bb 03 e6 2c 3a f5 d3 65 ba
       0.00036883538 -0.0026654294 0.0006595554 -0.0008767241
000070 d4 5c da ba fb 91 4c ba 60 5b 0c ba c3 a5 68 bb
       -0.0016659745 -0.0007803735 -0.0005354192 -0.0035499192
000080 ff 5f d0 bb ad 26 bd ba 4c ba a4 ba a0 94 26 ba
       -0.0063591 -0.0014431082 -0.0012567728 -0.00063545443
000090 1b de 77 39 6e 6c ec b9 7d 81 64 bb 6a 2e e9 b9
       0.00023638496 -0.00045094214 -0.003486722 -0.00044475804
0000a0 ac f1 31 bb f8 94 18 ba 5a 01 67 ba 15 f8 9c ba
       -0.0027152104 -0.0005820538 -0.0008812152 -0.001197579
0000b0 48 a6 de 38 92 5a 94 3a 0a f5 33 37 1f 09 67 ba
       0.00010616757 0.0011318496 1.0726284e-05 -0.000881331
0000c0 3c 07 01 39 8f 08 7f ba 8a ef de b9 b5 2e cd ba
       0.00012305094 -0.00097287534 -0.0004252161 -0.0015654179
0000d0 ef 13 82 ba fe 91 20 ba 85 56 c0 ba 7e 62 79 ba
       -0.0009924154 -0.000612527 -0.0014674222 -0.00095132727
0000e0 16 8d 06 ba 82 ac 31 ba 61 37 da bb 85 92 d5 ba
       -0.0005132718 -0.000677772 -0.0066594337 -0.0016294277
0000f0 27 46 cb ba 3d 17 82 ba 80 ba 8b ba 1f 6b b7 ba
       -0.0015508578 -0.0009925138 -0.001066044 -0.0013993717
000100 e4 04 c2 39 b8 0d fd ba 6e ff 1e bb b2 40 29 ba
       0.00037006207 -0.0019306457 -0.0024261135 -0.0006456479
000110 96 16 e2 b9 7b 4a df 39 0a d6 57 bb 1a 5c a8 ba
       -0.00043122907 0.00042589367 -0.0032933974 -0.0012844831
000120 9a b9 d9 39 d6 92 22 bb ee 24 aa ba bc 28 20 bb
       0.0004152775 -0.002480676 -0.0012980977 -0.0024438342
000130 ce 50 1d bb a4 67 dc b9 6a 98 25 ba 16 23 d8 b9
       -0.0024004462 -0.00042038888 -0.0006316962 -0.00041224872
000140 17 78 21 ba 54 05 1b bb d4 98 25 ba b4 56 a0 ba
       -0.00061595574 -0.00236543 -0.00063170237 -0.0012232871
000150 53 81 e1 ba 6f 90 d2 bb 74 a5 02 3c 28 f7 86 ba
       -0.0017204679 -0.006425909 0.007974017 -0.0010297047
000160 a1 0e 65 ba 06 ea 4f ba c9 46 89 b9 d1 f7 d2 ba
       -0.00087378366 -0.00079312955 -0.00026183415 -0.0016095584
000170 8a b3 8b ba c0 b4 a1 ba 45 06 c8 bb ea f0 b3 ba
       -0.0010658365 -0.0012337193 -0.006104263 -0.0013728414
000180 99 57 19 3a 12 00 ab 3b 18 39 8d bb f9 7d 63 bb
       0.000584954 0.0052185142 -0.0043097846 -0.0034712537
000190 92 79 7c b8 78 8d ef b9 9c 01 8a bb da cb ef ba
       -6.0194703e-05 -0.00045691035 -0.0042116176 -0.0018295005
0001a0 3c 67 f7 ba 7a ff ab bb c6 5f f1 3a 18 2c 17 38
       -0.0018875371 -0.005248961 0.0018415384 3.604227e-05
0001b0 4c c0 b0 ba ff 00 1c bc ca b6 71 ba ba cc 50 b7
       -0.0013485043 -0.009521722 -0.0009220658 -1.2445433e-05
0001c0 54 e4 95 36 68 c1 4c 39 1d 2a 5a ba 76 18 05 b9
       4.467127e-06 0.00019527005 -0.00083223154 -0.00012692981
0001d0 ce 93 69 bb 2e 2f 9e 3a a2 7c 43 3a 1e 2c 20 bb
       -0.0035641077 0.0012068504 0.00074572314 -0.0024440358
0001e0 62 01 cc ba 61 a6 b7 ba b3 74 8a ba be 31 a5 ba
       -0.0015564377 -0.0014011377 -0.0010563344 -0.0012603325
0001f0 45 39 8d 3a e5 58 5f bb a6 3b a5 ba b3 ff 35 b9
       0.0010774514 -0.0034080085 -0.0012606278 -0.0001735676

network_body._body_endoder.seq_layers.2.weight f4 [128, 128]
000000 76 15 18 bc 9c 93 50 bc fa ba 1d bd 67 73 90 3c
       -0.00928246 -0.012730505 -0.038508393 0.017633153
000010 09 fd 9b bd 69 7f 0c 3e 73 15 e6 bc 81 f4 19 3d
       -0.07616622 0.13720478 -0.0280864 0.037586693
000020 ae 6e 85 bd c3 0c 81 3c 33 9a 7e 3d 42 05 10 be
       -0.06515251 0.015753156 0.062158775 -0.14064506
000030 4d c6 ac bc 3a d9 7e bd c0 1a 38 3e 38 d6 36 be
       -0.02109065 -0.062218882 0.17978954 -0.17855155
000040 3e b2 95 bd da 43 c6 3c cd 75 01 be c5 0d e7 3c
       -0.073093876 0.024202276 -0.12642594 0.028204808
000050 63 39 c3 3c 47 b4 b1 3c 79 cf 92 3d 5a 3b 70 3d
       0.023831075 0.021692408 0.071684785 0.058650352
000060 3c b8 b0 3c 5a 2a 1a 3d d1 89 24 be 76 ae a1 3d
       0.021572225 0.037638046 -0.16068198 0.07894604
000070 21 bd 86 bc 05 ac 61 3d 4c a1 3f bd 55 46 d7 bd
       -0.016447606 0.05509569 -0.046784684 -0.10511462
000080 1d 81 8b 3b 09 d0 17 bc 93 84 a4 bd b4 d6 aa 3d
       0.004257335 -0.009265908 -0.08033099 0.083417326
000090 4e a1 37 be cf fc 28 3c 13 2a 7e bd fa 5d b0 bd
       -0.17932627 0.0103141805 -0.062051844 -0.086116746
0000a0 8f 6b 6b 3c 2d 92 e5 bd 49 fd 33 3d d4 69 ae 3d
       0.014368906 -0.112095214 0.043942723 0.08516279
0000b0 21 f9 66 3d d2 45 b2 bd d8 55 f0 bd 1c 60 08 3e
       0.05638993 -0.087047234 -0.117351234 0.13317913
0000c0 15 84 9a bd 85 e4 42 bd 15 7f a2 3d 11 2e c8 3d
       -0.07544724 -0.047581214 0.07934395 0.097744115
0000d0 b9 3c 87 bd cb 6b a9 bc 97 bd 8c bd d1 f5 02 be
       -0.06603379 -0.020681283 -0.06872099 -0.12789084
0000e0 67 57 ff 3d 0a c3 88 3d 33 27 82 bd 09 5d e2 3c
       0.124678425 0.06677826 -0.06355133 0.027632253
0000f0 eb 89 1c bd 31 8f da ba 2c d4 6a 3d f5 ac cd 3d
       -0.038217466 -0.0016674754 0.05733125 0.100427546
000100 99 87 8b 3d 5e 81 ca 3c 03 b6 52 3e 97 c6 a4 bd
       0.068129726 0.02471989 0.20577244 -0.080456905
000110 3c 95 1f bc 9e 07 13 be 89 c6 55 3d 53 c0 80 bd
       -0.00974017 -0.14358374 0.05219129 -0.06286683
000120 ad b6 75 3d cd 72 04 bd 07 b7 b1 bb e4 83 42 3e
       0.059988666 -0.032336045 -0.00542343 0.18995625
000130 e0 d7 29 3e bb 42 99 3d 51 39 cc 3d 39 16 33 bd
       0.16586256 0.07483431 0.0997187 -0.043722365
000140 ff e2 c6 bd 9a 68 8f 3d 77 49 4e bd e2 48 1e 3b
       -0.09711265 0.07002373 -0.05036303 0.0024152328
000150 81 7c 39 3d 81 bc b7 bb 2d d3 21 bd bd 79 ec 3c
       0.04528475 -0.005607188 -0.039508034 0.028866643
000160 d3 a8 75 3e 31 02 95 3d 30 a3 cc bb 2d 9e 42 bc
       0.23990183 0.072758086 -0.0062450394 -0.011878532
000170 75 aa e9 bd 5f 6e 54 bd 41 4e 38 bd 71 8b a8 3d
       -0.11409465 -0.05186307 -0.044996504 0.08229721
000180 f2 b4 0e bc 3b 5b ae 3d c3 ac b9 3c 64 bf 42 3d
       -0.008710133 0.085134946 0.022665387 0.047545806
000190 e9 fc c3 bd 6c 51 59 bc c0 f2 88 bd b4 0b 4b bc
       -0.09569723 -0.013264041 -0.06686926 -0.012392927
0001a0 85 c3 47 3d 2f 2d c0 3c 59 d3 35 3e cd f8 37 bd
       0.048770446 0.023459045 0.17756404 -0.04491501
0001b0 ed 53 16 3c 1c 48 64 bd 1a 72 cd bd 9f 36 61 bd
       0.009175283 -0.05573283 -0.10031529 -0.05498373
0001c0 26 59 35 3e 08 23 b2 3d b6 e8 d8 3c a4 f9 67 bc
       0.17709789 0.08698088 0.026478153 -0.01415864
0001d0 9f 2c 2f bb e3 12 5c 3e f3 97 84 3d a3 e6 08 3d
       -0.0026729477 0.2149158 0.064742945 0.033423077
0001e0 73 d7 64 bc 8d cb 84 3c 58 c5 88 3d 09 90 14 3e
       -0.013967383 0.016210342 0.06678265 0.1450807
0001f0 86 f7 9c 3b 21 2a dd 3b 59 02 15 3d eb 1f cc 3d
       0.0047902493 0.006749407 0.036379192 0.09967025
000200 57 1a 13 bd 2e 18 91 bd e9 a5 b7 3b fc a6 49 bd
       -0.03591379 -0.0708469 0.005604495 -0.049231514
000210 21 86 9f 3c fe ab bd bd 67 7c c6 3d 6f b1 db bd
       0.019473137 -0.092613205 0.096916966 -0.10727202
000220 c5 d1 cd bd de df c7 3d 32 f5 29 be 0e 69 d3 bb
       -0.10049776 0.09759496 -0.16597441 -0.0064517325
000230 0b ba a9 3c 17 df cf 3c c9 fb 94 3d 1e f8 ac 3c
       0.020718595 0.025374932 0.07274587 0.021114405
000240 30 6f f4 3d b2 03 bd bc a9 97 c8 3d 58 74 e5 3d
       0.1193527 -0.023073051 0.09794552 0.112038314
000250 cd c0 8b be b8 55 e0 3d ad f7 c1 3d 3a 33 de bc
       -0.27295533 0.109538496 0.094710685 -0.027124036
000260 2f b9 92 3d 71 12 19 3e 24 b0 2c bc 27 63 2e bd
       0.07164227 0.14948441 -0.010540042 -0.042575028
000270 f1 a0 a2 3d a0 2f b9 bc 05 e6 60 bd 96 e0 e6 bd
       0.079408534 -0.022605717 -0.054906864 -0.11273305
000280 d9 1a 64 bd 97 28 ba 3d 08 5f 06 bc 4c 1f 34 bd
       -0.055689666 0.09089773 -0.008201368 -0.04397516
000290 12 71 07 bb 69 7e fe bd f4 67 25 3d ff 8c b8 bd
       -0.002066676 -0.124264546 0.04038234 -0.09011268
0002a0 6f f3 21 be 04 b2 9e bd 84 e0 31 bb 1b 9f 3a 3d
       -0.15815519 -0.077487975 -0.0027141878 0.04556189
0002b0 59 89 0d be a5 be 86 3d 9f ee e7 bd be fe 83 bd
       -0.13821925 0.06579331 -0.1132481 -0.064450726
0002c0 fe ca 43 3e 7a 3b 80 bc f0 1e c3 3c 14 32 38 3e
       0.19120404 -0.01565336 0.023818463 0.17987853
0002d0 eb 5f 03 be d1 be a4 3c 7f 8a 9a 3c 1e 67 5b 3e
       -0.12829559 0.02011052 0.018864868 0.21426055
0002e0 12 95 be bd 0d 71 1e bd 32 a4 95 3d b1 0b e8 3c
       -0.09305777 -0.038682032 0.073067084 0.028325887
0002f0 54 08 53 3d a4 23 55 3e 14 75 b7 3d 39 d5 0f 3e
       0.051521614 0.20814377 0.08957878 0.14046182
000300 5b 23 b8 bd 71 a5 56 bd c6 9b 1c 3e 62 9d 57 bc
       -0.089911185 -0.05240387 0.15293798 -0.013160082
000310 90 d5 03 3c e0 ae 09 3e 14 74 3c 3c 1e cf cf bd
       0.008046523 0.13445616 0.011502285 -0.10146926
000320 38 78 55 3d d4 92 11 3e c3 bb a8 3d d9 6b 1b bd
       0.052116603 0.14216167 0.08238938 -0.03794465
000330 f8 66 00 be 02 ff f6 3d 29 c7 47 3d eb f9 dd 3d
       -0.1253928 0.12060358 0.04877392 0.10838684
000340 06 3d 98 3c 05 c6 45 bd ea 55 36 3d 7c d5 09 bc
       0.018583786 -0.04828455 0.044515528 -0.008412715
000350 3b 44 5a 3d d4 98 3e 3e 02 a7 af 3d 6f b3 31 3d
       0.053287726 0.18612987 0.08576776 0.04338401
000360 d7 f6 35 bd 2c b1 8f 3d 9f 58 51 bd 97 e5 08 be
       -0.044424858 0.07016215 -0.051109906 -0.13368832
000370 04 a1 ba 3c 85 45 5a bd de 79 88 3d d5 81 2f be
       0.022781856 -0.053288955 0.06663869 -0.1713937
000380 42 64 c7 bd 13 9c 4a 3d 22 a1 b3 bd 4d c8 3a 3d
       -0.097359195 0.04946525 -0.08770968 0.045601178
000390 89 02 4e 3d 88 71 26 3e ef df d9 bd 2f 41 31 bb
       0.050295386 0.16254246 -0.10638415 -0.002704691
0003a0 57 e2 1b 3e 01 6a 0b bc 71 aa ef bd 25 07 8b bd
       0.1522306 -0.00850916 -0.11702431 -0.06788472
0003b0 df fa b2 bc 17 00 30 3d 86 21 3b 3d 59 43 f7 bc
       -0.02184814 0.042968836 0.045686267 -0.030183481
0003c0 aa e5 55 3d a9 8b 7a 3d 38 4b 09 bd 11 7d 1c 3e
       0.052220978 0.061168347 -0.033519 0.15282084
0003d0 2a 02 6a 3d 93 e7 13 bd b2 84 89 bd 92 bd 7b 3c
       0.05713097 -0.03610952 -0.06714763 0.015365021
0003e0 8f 10 0a bd d0 24 8c bc cf 5c 46 bd 53 6e 1b be
       -0.033707198 -0.017107397 -0.048428353 -0.15178804
0003f0 6c 98 8e 3c 11 b0 c9 3d 8c c2 aa bc af c5 85 3d
       0.017406665 0.09848035 -0.02084472 0.06531846

network_body._body_endoder.seq_layers.2.bias f4 [128]
000000 59 8e 9a ba 74 4d b6 ba 50 d3 5c ba f3 82 cb ba
       -0.001179169 -0.0013908581 -0.0008423822 -0.0015526697
000010 00 04 e0 ba 70 fa d5 b9 10 4e a1 ba ea 86 d7 ba
       -0.0017091036 -0.00040813116 -0.001230659 -0.0016443406
000020 2a 4c 95 ba 3e d6 ce b9 c7 88 ce 3a 7d 05 83 ba
       -0.0011390497 -0.00039451005 0.0015757316 -0.0009996142
000030 dd ca 0a bb 7b b6 7b ba ab 01 af ba 9a 34 dd b9
       -0.0021178045 -0.0009602082 -0.0013351938 -0.00042191596
000040 7b 8d 51 b9 0f b6 6a ba 3b 47 93 ba ec d8 4a 38
       -0.00019984499 -0.00089535204 -0.0011236438 4.8362577e-05
000050 1d 1b 64 b9 2b b9 8a b9 f5 7c c2 ba 1d 31 d5 3a
       -0.00021753875 -0.00026459372 -0.0014838265 0.0016265247
000060 bf 09 45 bb d4 c3 64 ba 4c f6 94 ba 88 7b 1a bb
       -0.0030065624 -0.00087266904 -0.0011364906 -0.0023572166
000070 79 4f bd ba b9 d5 2b ba 09 50 a3 3a ca 00 cb ba
       -0.001444324 -0.00065549795 0.0012459765 -0.0015487906
000080 b0 a4 c7 b9 35 f0 ef 38 26 72 9f 38 1c 12 43 ba
       -0.0003807894 0.0001144115 7.6029726e-05 -0.0007441358
000090 07 7d e4 39 b6 86 bb ba 30 de 8b ba a8 48 15 ba
       0.00043580701 -0.0014307115 -0.0010671075 -0.00056947256
0000a0 e0 1b 93 ba 6d d4 8b ba ba 4f bb ba b5 07 d9 ba
       -0.0011223517 -0.0010668166 -0.0014290728 -0.0016558083
0000b0 e9 76 a8 3a 29 67 c4 ba 36 57 f5 39 27 4f e2 39
       0.0012852821 -0.0014984357 0.0004679502 0.00043165052
0000c0 94 00 f1 ba 98 84 82 39 84 44 aa ba 1a 07 9b ba
       -0.0018387013 0.00024894322 -0.001299039 -0.0011827678
0000d0 6c b7 46 ba 8e 08 b3 ba 95 6c 8a ba ca a2 e2 ba
       -0.00075804326 -0.0013659166 -0.0010560924 -0.0017290947
0000e0 9a 69 b1 39 ab 36 07 bb d2 db 89 ba 60 2c 1c bb
       0.0003383875 -0.002063195 -0.0010517782 -0.002383016
0000f0 71 ca 4e b8 f6 48 fe ba 83 a4 3e ba 6c c7 bf ba
       -4.9302766e-05 -0.0019400406 -0.0007272439 -0.0014631576
000100 c0 83 67 38 5e 0f d7 ba 12 94 01 ba b6 f7 96 ba
       5.5197394e-05 -0.0016407778 -0.00049430237 -0.0011517915
000110 00 13 32 39 19 00 86 ba 83 4a ce ba e0 af 9f ba
       0.00016982481 -0.0010223418 -0.0015738759 -0.0012183152
000120 a0 b3 f1 b9 20 1c a3 b8 f1 f4 27 b9 74 43 a2 ba
       -0.00046100933 -7.7776844e-05 -0.00016017609 -0.0012379722
000130 ee d7 d2 b9 e3 41 a9 39 ab 16 bb ba 66 6a 80 ba
       -0.000402152 0.0003228328 -0.0014273723 -0.0009797334
000140 9e 83 bd ba 98 e8 d0 ba d8 37 7f b9 ca 30 9d ba
       -0.0014458781 -0.0015938459 -0.00024339498 -0.001199269
000150 97 1e 36 ba ec 7f 7e 3a 5e cb ca 3b 7b 67 e5 bb
       -0.0006947307 0.0009708393 0.006188794 -0.007000861
000160 e8 87 55 ba 03 c7 77 b8 42 fc 7e ba cd eb 5e b9
       -0.0008145557 -5.9074733e-05 -0.00097269204 -0.00021259412
000170 6b 7a 8b ba 3b e4 85 ba 00 14 52 ba 62 2b 80 3a
       -0.0010641342 -0.0010215113 -0.00080138445 0.0009778554
000180 5b 5a 66 ba 54 ac 6f ba ec 78 e6 ba af 3a fe b9
       -0.0008787268 -0.00091428054 -0.0017583645 -0.00048490378
000190 28 5c 7f bb 0f 11 b8 ba e4 ed aa b9 d6 50 81 ba
       -0.0038964842 -0.001404317 -0.0003260217 -0.000986601
0001a0 44 24 b9 3a 72 88 18 bb fc 1c dc b8 6d b1 87 ba
       0.0014125188 -0.0023274687 -0.00010495816 -0.001035256
0001b0 db 57 fa b8 e3 65 d0 ba 3b c3 d1 b8 a8 57 ea b9
       -0.00011937293 -0.0015899505 -0.00010002261 -0.00044697267
0001c0 27 d3 49 bb 7f cb b2 ba a9 cd 37 38 49 f5 72 39
       -0.0030796023 -0.0013640969 4.3822136e-05 0.00023170294
0001d0 62 55 d8 ba ef f8 aa ba 9b 41 64 ba 55 4a 1b ba
       -0.0016504938 -0.0013044159 -0.0008707286 -0.0005923857
0001e0 ac 63 43 3b 80 33 1e ba be bf 0c bb ae 3c 54 ba
       0.0029814048 -0.0006034896 -0.0021476592 -0.00080962
0001f0 a6 2c 9f 39 cd 90 93 ba 3f c2 86 ba 59 62 df 38
       0.0003036011 -0.0011258364 -0.0010281279 0.00010651787

action_model._continuous_distribution.log_sigma f4 [1, 2]
000000 37 57 91 b8 c4 45 d8 bb
       -6.930384e-05 -0.0066001136

action_model._continuous_distribution.mu.weight f4 [2, 128]
000000 bd 1f 97 3c d2 59 8f 3c b4 78 91 3c 24 d7 b0 3b
       0.018447751 0.017498884 0.017757751 0.0053967405
000010 ca dd 5c 3b 38 32 2e bd 61 4a 88 bb 4d a3 da bb
       0.0033701533 -0.04252836 -0.0041592573 -0.006672299
000020 d5 94 b6 3b 5c 94 21 bc 22 cc 28 3c a6 10 40 3c
       0.0055719414 -0.009862032 0.010302575 0.011722719
000030 43 43 17 bd 0e 08 1c 3c 8a 67 e5 3b f6 9e 14 3b
       -0.03692938 0.009523405 0.007000868 0.0022677756
000040 cc 31 a6 3c 80 9a d5 bc 78 29 5c bc 9d c6 59 3c
       0.020287417 -0.026074648 -0.013437621 0.013291982
000050 02 e9 ef bc 8e 8e 5c 3c 7f 42 80 bc 0d 4c 15 3c
       -0.029285911 0.013461722 -0.015656708 0.00911237
000060 a0 d2 db bb c1 e2 c3 bc 0c e2 83 bc 2c 1d e8 3b
       -0.006708458 -0.023911836 -0.016098998 0.0070835557
000070 5d 7d 09 bc 66 ae 9e 3c 87 03 c8 bc ad f2 13 bd
       -0.008391705 0.019370269 -0.024415744 -0.036120106
000080 54 07 c2 3c ae f0 24 bc 76 c4 88 bb 32 cf ab 3c
       0.023685135 -0.010067148 -0.0041738106 0.020972822
000090 e8 40 5f bb 98 22 3e bc d3 d3 18 3c 9a 6b 0d 3c
       -0.0034065787 -0.0116049275 0.009327847 0.008631611
0000a0 1c ba 25 3c 98 f0 26 3c 5b e1 47 bc 1b a7 a0 bb
       0.010115173 0.010189198 -0.012199725 -0.004902733
0000b0 d2 ce 5c bc df 41 dc bb 5c de ae 3a 70 17 d8 bb
       -0.013477044 -0.0067217196 0.0013341415 -0.006594591
0000c0 30 d9 1d 3a e7 79 bf bb 94 0c 5a 3b a1 8c 35 bb
       0.0006021438 -0.0058433893 0.0033271657 -0.002770223
0000d0 d1 88 53 bc a9 e7 b9 bb 43 d7 36 3c 2d 83 18 bc
       -0.012911038 -0.005673368 0.011159721 -0.0093086185
0000e0 6b d9 df bb bf 5f 89 3b 28 ac 96 3b b9 97 39 bb
       -0.006831338 0.004192322 0.0045981593 -0.0028319194
0000f0 64 5d 1c 3c b1 eb 80 3c e0 9d e1 3b 6e 92 1d 3c
       0.00954375 0.015737386 0.0068852752 0.009617431
000100 7f b0 05 3d 7e 45 aa 3c c4 a3 84 bc 27 22 18 3c
       0.032639023 0.02078509 -0.01619137 0.009285486
000110 7d 04 d1 3c 2c d0 2b 3d 5d c9 e6 3b 8f b6 61 bc
       0.025514835 0.041946575 0.0070430473 -0.0137764355
000120 e1 fe 2b bd 8c 9e 81 bb 9e c0 b5 3c ac 38 c3 bb
       -0.04199112 -0.003955668 0.022186574 -0.0059576835
000130 f0 be b8 3c 5c 43 2f bc 1b cd a9 bc d8 97 23 3c
       0.022551984 -0.010697212 -0.020727685 0.009984933
000140 e2 1d 01 3b b8 3b 0a bc 38 da b5 3c 62 db be bc
       0.001970165 -0.00843709 0.022198781 -0.02329797
000150 38 1c 80 bc 59 0b 3d 3c bb 24 7b b9 79 18 a2 3a
       -0.015638456 0.01153835 -0.00023950909 0.0012366913
000160 e5 16 1e 3b 7b 27 05 3c eb bf 46 3c 71 e3 d1 bc
       0.0024122533 0.008127089 0.012130718 -0.025621148
000170 a8 88 25 bc d6 18 23 bc dc c0 d4 bc 71 c2 83 3c
       -0.010103382 -0.009954652 -0.025970869 0.016083928
000180 a8 30 e6 3c 34 0a e5 3b 33 c6 7e bb 27 b0 15 3d
       0.028099373 0.0069897417 -0.003887546 0.036544945
000190 31 d2 5b bb db d9 81 3c cc 2d ba ba 17 43 27 bc
       -0.0033542032 0.015850952 -0.0014204322 -0.010208867
0001a0 10 06 97 bc b4 f6 01 bb cb 56 89 bc 4a 93 25 3c
       -0.018435508 -0.0019830884 -0.016765019 0.010105917
0001b0 29 2d e0 bb ec a7 14 3c 28 7f 13 3c ef 09 11 bd
       -0.006841321 0.009073239 0.009002484 -0.035409864
0001c0 fa d3 39 bc b8 32 cf 3c 01 81 0c bd ad 7e 89 3c
       -0.011342043 0.02529274 -0.034302715 0.016784037
0001d0 15 6c 1b bc de 76 e7 bb fa 65 0a bd 01 8d d1 3c
       -0.009486218 -0.0070637306 -0.03378866 0.025579931
0001e0 31 87 de 3b 12 b6 26 bc 9e cf d7 3b 98 65 bc 3b
       0.0067910184 -0.010175245 0.006586029 0.0057494156
0001f0 11 8e 40 bc 74 8b 1d bd 4c c6 9e 3c b9 97 ca bc
       -0.011752621 -0.03846307 0.019381665 -0.02473055
000200 04 c0 89 3c 02 f7 1c bd cf e8 9d b9 d7 bb 15 3a
       0.016815193 -0.038321503 -0.0003011883 0.0005711889
000210 d7 74 46 3c 2a 56 2e bb 7d d1 95 3c b7 d7 46 ba
       0.012112818 -0.002660165 0.018288368 -0.00075852446
000220 68 c3 8c 3c 50 3b a6 bc 93 c1 0f 3c 45 69 7e 3c
       0.01718302 -0.020291954 0.008774179 0.015528028
000230 3d 66 21 bd 38 5d 2b 3c 11 23 84 3c b9 da 18 bc
       -0.039404143 0.010459237 0.016130002 -0.009329491
000240 22 31 a3 3b e6 f5 c6 3b 71 44 9b 3b 9b 24 4b bc
       0.0049802223 0.006071794 0.0047383835 -0.012398864
000250 ec c1 0c 3c f3 ee 0b bc 4e e9 9a 3b ef 49 27 3c
       0.008591156 -0.008540857 0.004727519 0.010210498
000260 81 44 aa ba 0d 38 60 3c 40 f9 bd 3b e2 20 ab bb
       -0.0012990386 0.013685239 0.005797535 -0.005222426
000270 7d bc 0d 3c f5 74 bc 3a 3f 13 5b 3c 86 5e ef 3a
       0.008650896 0.0014378118 0.013371288 0.0018262423
000280 68 a5 2f 3c a3 ba b4 bc 06 47 d2 3c f1 1b 0f bb
       0.010720588 -0.022061652 0.025668632 -0.0021836723
000290 bf 6b 40 bd b2 36 bb bc 65 e8 cc bb dc b2 c1 bb
       -0.046977755 -0.02285323 -0.0062532895 -0.0059112143
0002a0 ef 36 7c 3c 9c 5c 90 3c 67 b4 9a 3b 40 9c a4 3b
       0.015393957 0.017622285 0.0047212127 0.0050235093
0002b0 01 aa e9 3b ab a6 c0 3b 69 41 2a bd 93 00 25 bd
       0.0071308617 0.0058792434 -0.041566286 -0.04028375
0002c0 b3 3b aa 3c d2 0e e1 bc 66 86 6d 3c 93 a4 c7 bb
       0.02078042 -0.027472887 0.014497375 -0.006092617
0002d0 38 a2 81 bc 5b bb e6 3c 01 f1 30 3c 35 50 94 3c
       -0.015824422 0.02816551 0.010799647 0.018104652
0002e0 f6 d6 fd bc bc 47 d2 3c 75 9b cd 3c fd b3 b9 3a
       -0.03098629 0.025668971 0.025098542 0.001416802
0002f0 e4 76 71 bc 54 d5 a1 3c e2 46 20 bb 93 98 54 3c
       -0.014737818 0.019755043 -0.0024456312 0.01297583
000300 9b 31 cf bc bb 9d 89 bc 0d bb f7 bc 69 7e 31 3c
       -0.025292208 -0.016798845 -0.03024056 0.010833361
000310 1e cf a0 bb c0 b8 9c ba 56 0e 74 3c a7 19 7e 3c
       -0.004907503 -0.0011956915 0.014895996 0.015509046
000320 c5 37 85 3b a5 8b b7 bc b8 61 81 bc ba 18 a2 3c
       0.004065486 -0.022405455 -0.015793666 0.019787181
000330 8a 4c 08 bb 02 a6 99 3c 7b f9 83 3c 84 07 84 3b
       -0.0020797574 0.018755917 0.016110172 0.0040292162
000340 a3 93 51 3c ee ce 8b 39 99 3d c4 3b 7d ae 59 bb
       0.012791547 0.0002666632 0.0059887883 -0.0033215575
000350 60 55 5b bc 3c 66 b0 3c c0 64 a3 b9 b1 ce 7a 3a
       -0.013387054 0.021533124 -0.00031164847 0.00095675426
000360 e4 c2 19 bc ee 8c c4 3b 28 89 9b 3c 27 88 97 3c
       -0.009384844 0.0059982454 0.0189863 0.01849754
000370 03 6e 51 3c 32 f6 93 bc 01 35 82 bc 57 1f be 3c
       0.0127825765 -0.018061731 -0.015894415 0.023208303
000380 da 1c 55 bc e5 89 0a bc ab d2 86 bb fa 2c 8b ba
       -0.013007367 -0.008455728 -0.004114469 -0.0010618262
000390 ad 0b 22 ba 4d ba 2a bc ab 28 a3 3c df 78 6c bc
       -0.00061815494 -0.010420394 0.019916853 -0.014433115
0003a0 33 01 90 bc e9 ec b8 3b ca 38 cf bb 11 57 a9 3b
       -0.017578697 0.0056434763 -0.0063239085 0.00516785
0003b0 4c b4 77 bc 24 2a 45 bc 5a 12 8d 3c dd 38 03 bb
       -0.01511867 -0.012033973 0.017220665 -0.0020022907
0003c0 f8 1d fc b9 d6 a3 9f 36 d9 8a 8e bc 96 93 c5 bc
       -0.00048087514 4.7576423e-06 -0.017400192 -0.024118226
0003d0 fd 64 00 3c 77 93 85 3c 1f d2 a7 3c 9c 88 9d bb
       0.0078365775 0.016305668 0.020485936 -0.004807545
0003e0 b0 9a 91 3b ac 44 7b 3c 01 a3 91 bb f8 45 f1 bb
       0.004443489 0.015336197 -0.0044444804 -0.0073630773
0003f0 81 b1 8e ba ce 74 19 bd ac dc 86 3c 28 8b ee bc
       -0.001088664 -0.03746491 0.016462646 -0.02911909

action_model._continuous_distribution.mu.bias f4 [2]
000000 f5 cf 03 39 b9 23 38 ba
       0.00012570604 -0.0007024366

exp_avg f4 [128, 7]
000000 63 8e ba b3 30 af 3d b6 00 00 00 00 c5 f3 4f 36
       -8.6872e-08 -2.8265167e-06 0.0 3.0987296e-06
000010 30 af 3d b6 00 00 00 00 c2 7e 7b 36 be b5 56 b3
       -2.8265167e-06 0.0 3.7475697e-06 -4.999105e-08
000020 07 4c da b5 00 00 00 00 41 52 ef 35 07 4c da b5
       -1.6264393e-06 0.0 1.7830827e-06 -1.6264393e-06
000030 00 00 00 00 c1 73 33 b4 2b 2d 81 b5 5d 57 03 b8
       0.0 -1.6712785e-07 -9.624395e-07 -3.1314197e-05
000040 00 00 00 00 d0 fd 0f 38 59 57 03 b8 00 00 00 00
       0.0 3.4330238e-05 -3.1314183e-05 0.0
000050 85 18 a2 b6 f7 ab c3 b6 b7 ee 46 b9 00 00 00 00
       -4.8308307e-06 -5.831472e-06 -0.0001897168 0.0
000060 86 17 5a 39 b7 ee 46 b9 00 00 00 00 06 0c b6 b7
       0.00020798863 -0.0001897168 0.0 -2.170169e-05
000070 d3 6e 17 b1 bd f4 99 b3 00 00 00 00 9f c8 a8 33
       -2.2036388e-09 -7.169135e-08 0.0 7.8596024e-08
000080 bd f4 99 b3 00 00 00 00 5b 9c f6 b1 84 7e 47 b5
       -7.169135e-08 0.0 -7.177318e-09 -7.431738e-07
000090 17 d1 ca b7 00 00 00 00 9f 59 de 37 18 d1 ca b7
       -2.4177642e-05 0.0 2.6506195e-05 -2.4177643e-05
0000a0 00 00 00 00 01 05 27 b6 e4 34 dd b5 36 e4 60 b8
       0.0 -2.4887852e-06 -1.6481176e-06 -5.36183e-05
0000b0 00 00 00 00 0f 8d 76 38 36 e4 60 b8 00 00 00 00
       0.0 5.878234e-05 -5.36183e-05 0.0
0000c0 04 5f c1 b6 c0 21 6f b4 d2 1a f3 b6 00 00 00 00
       -5.7629095e-06 -2.2270888e-07 -7.2450866e-06 0.0
0000d0 59 42 05 37 cf 1a f3 b6 00 00 00 00 ab 30 7d b5
       7.9428655e-06 -7.2450853e-06 0.0 -9.4320666e-07
0000e0 44 7e f4 34 2c 78 78 37 00 00 00 00 43 33 88 b7
       4.5540412e-07 1.4809932e-05 0.0 -1.6236334e-05
0000f0 2c 78 78 37 00 00 00 00 aa aa c1 b5 08 e4 07 b5
       1.4809932e-05 0.0 -1.442929e-06 -5.062325e-07
000100 34 27 8a b7 00 00 00 00 77 75 97 37 34 27 8a b7
       -1.6469137e-05 0.0 1.8055302e-05 -1.6469137e-05
000110 00 00 00 00 da b6 e0 b5 3a 45 c8 b4 74 99 4b b7
       0.0 -1.6742517e-06 -3.7303272e-07 -1.21354715e-05
000120 00 00 00 00 57 35 5f 37 76 99 4b b7 00 00 00 00
       0.0 1.3304255e-05 -1.2135473e-05 0.0
000130 7e 17 f1 b4 2b 27 0c 37 fe 7c 8e 39 00 00 00 00
       -4.490684e-07 8.35377e-06 0.00027177477 0.0
000140 1e 36 9c b9 fe 7c 8e 39 00 00 00 00 0a 71 ec 37
       -0.0002979496 0.00027177477 0.0 2.818603e-05
000150 71 7f ad b3 85 60 30 b6 00 00 00 00 5c 5d 41 36
       -8.079122e-08 -2.6282225e-06 0.0 2.8813583e-06
000160 85 60 30 b6 00 00 00 00 ac 5d d6 35 f9 ad 9d b4
       -2.6282225e-06 0.0 1.5971505e-06 -2.937011e-07
000170 00 4e 20 b7 00 00 00 00 60 be 2f 37 00 4e 20 b7
       -9.554904e-06 0.0 1.0475138e-05 -9.554904e-06
000180 00 00 00 00 57 74 f4 b3 bf 45 04 35 90 79 86 37
       0.0 -1.13832975e-07 4.9275326e-07 1.6030652e-05
000190 00 00 00 00 27 6d 93 b7 90 79 86 37 00 00 00 00
       0.0 -1.7574594e-05 1.6030652e-05 0.0
0001a0 e7 7e cc 35 9a e8 1f 34 29 91 a2 36 00 00 00 00
       1.5236118e-06 1.4892649e-07 4.844875e-06 0.0
0001b0 68 39 b2 b6 29 91 a2 36 00 00 00 00 cd a0 d3 34
       -5.3114964e-06 4.844875e-06 0.0 3.941881e-07
0001c0 6a 00 68 34 66 dd eb 36 00 00 00 00 6c 4a 01 b7
       2.1606834e-07 7.02932e-06 0.0 -7.706327e-06
0001d0 65 dd eb 36 00 00 00 00 a4 0c 14 35 2c b0 e4 33
       7.0293195e-06 0.0 5.515269e-07 1.0649123e-07
0001e0 1a 7e 68 36 00 00 00 00 64 e2 7e b6 1c 7e 68 36
       3.4644095e-06 0.0 -3.7980726e-06 3.46441e-06
0001f0 00 00 00 00 f8 6b a0 34 5e 7d e2 b6 b7 42 66 b9
       0.0 2.988088e-07 -6.7499195e-06 -0.00021959362
000200 00 00 00 00 ec 6f 7c 39 b7 42 66 b9 00 00 00 00
       0.0 0.00024074287 -0.00021959362 0.0
000210 2a 01 cc b7 c5 3c 69 36 98 20 ed 38 00 00 00 00
       -2.4319237e-05 3.4755078e-06 0.00011307112 0.0
000220 8a fb 01 b9 98 20 ed 38 00 00 00 00 fe 5b 5a 37
       -0.00012396104 0.00011307112 0.0 1.3015231e-05
000230 4c 4b b0 b6 dc 3a 33 b9 00 00 00 00 e5 7d 44 39
       -5.2539745e-06 -0.00017092697 0.0 0.00018738916
000240 dc 3a 33 b9 00 00 00 00 95 85 9a b7 c4 c6 4f 33
       -0.00017092697 0.0 -1.8420435e-05 4.837672e-08
000250 00 3b d3 35 00 00 00 00 01 93 e7 b5 00 3b d3 35
       1.5737896e-06 0.0 -1.7253625e-06 1.5737896e-06
000260 00 00 00 00 8a 8e 96 34 dd 2e de 36 00 e2 61 39
       0.0 2.8043388e-07 6.621571e-06 0.00021541864
000270 00 00 00 00 51 a3 77 b9 00 e2 61 39 00 00 00 00
       0.0 -0.00023616596 0.00021541864 0.0
000280 50 5e b4 37 1e 09 2a 35 2b e2 ac 37 00 00 00 00
       2.150159e-05 6.33432e-07 2.0609315e-05 0.0
000290 91 88 bd b7 2b e2 ac 37 00 00 00 00 29 7a d2 35
       -2.259415e-05 2.0609315e-05 0.0 1.5681773e-06
0002a0 10 d0 20 32 20 5d a3 34 00 00 00 00 ea 16 b3 b4
       9.360534e-09 3.0428873e-07 0.0 -3.335802e-07
0002b0 20 5d a3 34 00 00 00 00 fa 5a 9c b3 12 24 83 b6
       3.0428873e-07 0.0 -7.2808646e-08 -3.9083034e-06
0002c0 d4 53 05 b9 00 00 00 00 18 2b 12 39 d4 53 05 b9
       -0.00012715097 0.0 0.00013939699 -0.00012715097
0002d0 00 00 00 00 df 7e 5d b7 51 e2 b5 35 bd eb 38 38
       0.0 -1.3202166e-05 1.3551418e-06 4.4088567e-05
0002e0 00 00 00 00 2a bb 4a b8 bd eb 38 38 00 00 00 00
       0.0 -4.8334863e-05 4.4088567e-05 0.0
0002f0 a1 96 87 36 94 7e 64 37 7a 4c e8 39 00 00 00 00
       4.040849e-06 1.361933e-05 0.00044307468 0.0
000300 f3 ab fe b9 7b 4c e8 39 00 00 00 00 ad ab 40 38
       -0.00048574767 0.0004430747 0.0 4.5936253e-05
000310 11 55 ef 36 12 52 73 39 00 00 00 00 a3 60 85 b9
       7.132658e-06 0.0002320486 0.0 -0.00025439737
000320 12 52 73 39 00 00 00 00 54 cd cd 37 c6 02 92 b6
       0.0002320486 0.0 2.4533518e-05 -4.351462e-06
000330 a4 71 14 b9 00 00 00 00 9e bd 22 39 a5 71 14 b9
       -0.00014156714 0.0 0.00015520162 -0.00014156716
000340 00 00 00 00 c1 db 80 b7 4a c1 fc b6 64 7b 80 b9
       0.0 -1.536112e-05 -7.532687e-06 -0.00024505996
000350 00 00 00 00 37 db 8c 39 64 7b 80 b9 00 00 00 00
       0.0 0.0002686621 -0.00024505996 0.0
000360 e9 da d7 b7 85 4f 55 b4 1a d8 d8 b6 00 00 00 00
       -2.5731935e-05 -1.98661e-07 -6.462459e-06 0.0
000370 96 ba ed 36 1a d8 d8 b6 00 00 00 00 39 74 f2 b5
       7.084872e-06 -6.462459e-06 0.0 -1.806423e-06
000380 0f b9 1c 34 73 55 9f 36 00 00 00 00 ec ad ae b6
       1.4595956e-07 4.748517e-06 0.0 -5.2058513e-06
000390 74 55 9f 36 00 00 00 00 4b 0c ac 35 80 61 45 33
       4.7485173e-06 0.0 1.2818576e-06 4.5956313e-08
0003a0 ec ac c8 35 00 00 00 00 bd 00 dc b5 e8 ac c8 35
       1.4951488e-06 0.0 -1.6391492e-06 1.4951484e-06
0003b0 00 00 00 00 01 a3 16 34 ed 08 2b 33 e8 e2 ad 35
       0.0 1.4029139e-07 3.9822158e-08 1.2955543e-06
0003c0 00 00 00 00 31 a2 be b5 e9 e2 ad 35 00 00 00 00
       0.0 -1.4203307e-06 1.2955544e-06 0.0
0003d0 76 56 26 34 dc f9 82 b5 83 27 05 b8 00 00 00 00
       1.5491409e-07 -9.758473e-07 -3.174647e-05 0.0
0003e0 8c fa 11 38 83 27 05 b8 00 00 00 00 5a 96 01 b6
       3.4804034e-05 -3.174647e-05 0.0 -1.9310014e-06
0003f0 e6 a9 ae b6 73 92 31 b9 00 00 00 00 9c ac 42 39
       -5.205383e-06 -0.00016934592 0.0 0.00018565584

exp_avg_sq f4 [128, 7]
000000 86 91 2d 2d 9b 66 33 32 00 00 00 00 1e 9f 57 32
       9.866224e-12 1.0442501e-08 0.0 1.2550826e-08
000010 9b 66 33 32 00 00 00 00 58 c1 5c 2e 9b cf 7f 2a
       1.0442501e-08 0.0 5.0193932e-11 2.2720577e-13
000020 16 34 84 2f 00 00 00 00 2d e5 9e 2f 16 34 84 2f
       2.404767e-10 0.0 2.8902872e-10 2.404767e-10
000030 00 00 00 00 df 1e d8 2b 0e 39 1b 30 5b 70 20 35
       0.0 1.5356292e-12 5.646975e-10 5.9768144e-07
000040 00 00 00 00 c4 d4 40 35 5b 70 20 35 00 00 00 00
       0.0 7.183519e-07 5.9768144e-07 0.0
000050 dd 17 3c 31 2f 61 3a 2f 72 a4 40 34 00 00 00 00
       2.7371165e-09 1.6951128e-10 1.7941218e-07 0.0
000060 60 89 67 34 72 a4 40 34 00 00 00 00 cb cf 84 30
       2.1563528e-07 1.7941218e-07 0.0 9.663322e-10
000070 30 c6 11 24 2b ac 16 29 00 00 00 00 d3 17 35 29
       3.1609734e-17 3.3456023e-14 0.0 4.0210738e-14
000080 2b ac 16 29 00 00 00 00 36 c7 05 25 fb 73 f3 2c
       3.3456023e-14 0.0 1.1603406e-16 6.919352e-12
000090 50 a2 fb 31 00 00 00 00 1e 38 17 32 50 a2 fb 31
       7.3235142e-09 0.0 8.802116e-09 7.3235142e-09
0000a0 00 00 00 00 08 5d 07 2e 46 0c 03 2e 93 73 07 33
       0.0 3.0778075e-11 2.9796852e-11 3.153725e-08
0000b0 00 00 00 00 8d cc 22 33 93 73 07 33 00 00 00 00
       0.0 3.7904602e-08 3.153725e-08 0.0
0000c0 06 e1 04 2f d2 1e 39 2d 47 57 3f 32 00 00 00 00
       1.2085274e-10 1.0522876e-11 1.1137508e-08 0.0
0000d0 f4 f8 65 32 47 57 3f 32 00 00 00 00 70 00 d5 2e
       1.338616e-08 1.1137508e-08 0.0 9.686196e-11
0000e0 06 e7 ff 30 35 40 04 36 00 00 00 00 b4 f3 1e 36
       1.8619353e-09 1.9706906e-06 0.0 2.3685689e-06
0000f0 35 40 04 36 00 00 00 00 f4 86 1b 32 4f 34 bd 2c
       1.9706906e-06 0.0 9.052872e-09 5.3775105e-12
000100 f7 8f c3 31 00 00 00 00 c4 0b eb 31 f7 8f c3 31
       5.691614e-09 0.0 6.8407378e-09 5.691614e-09
000110 00 00 00 00 bf 24 ad 2d dd 7f 97 2d 1c 97 9c 32
       0.0 1.9684141e-11 1.7223495e-11 1.8229507e-08
000120 00 00 00 00 ab 34 bc 32 1c 97 9c 32 00 00 00 00
       0.0 2.1910031e-08 1.8229507e-08 0.0
000130 67 dc 66 2d b4 92 f6 2f d3 db fe 34 00 00 00 00
       1.31229255e-11 4.4851378e-10 4.747113e-07 0.0
000140 3d 28 19 35 d3 db fe 34 00 00 00 00 09 15 15 31
       5.7055496e-07 4.747113e-07 0.0 2.169431e-09
000150 5b a1 0a 2d e2 49 0f 32 00 00 00 00 e5 37 2c 32
       7.88022e-12 8.3404945e-09 0.0 1.0024427e-08
000160 e2 49 0f 32 00 00 00 00 5a 90 05 2e 60 cc 87 2c
       8.3404945e-09 0.0 3.036891e-11 3.859621e-12
000170 97 5c 8c 31 00 00 00 00 4b b3 a8 31 97 5c 8c 31
       4.0850625e-09 0.0 4.9098268e-09 4.0850625e-09
000180 00 00 00 00 ac 9a 67 29 e3 cd c2 2c b5 59 c9 31
       0.0 5.142646e-14 5.5366696e-12 5.8600684e-09
000190 00 00 00 00 b1 00 f2 31 b5 59 c9 31 00 00 00 00
       0.0 7.0432056e-09 5.8600684e-09 0.0
0001a0 8a 62 9d 2d c9 70 2b 2c a3 33 31 31 00 00 00 00
       1.7892594e-11 2.436317e-12 2.5786242e-09 0.0
0001b0 77 fa 54 31 a3 33 31 31 00 00 00 00 ad aa e7 2c
       3.0992433e-09 2.5786242e-09 0.0 6.5843637e-12
0001c0 a3 6d 80 2b 6e be 84 30 00 00 00 00 72 8b 9f 30
       9.125377e-13 9.658387e-10 0.0 1.1608405e-09
0001d0 6e be 84 30 00 00 00 00 24 32 26 2c 78 aa 35 2b
       9.658387e-10 0.0 2.3617852e-12 6.454069e-13
0001e0 42 c5 3b 30 00 00 00 00 5b ae 61 30 42 c5 3b 30
       6.8310524e-10 0.0 8.2102297e-10 6.8310524e-10
0001f0 00 00 00 00 65 8a 81 2c ad 1e 83 30 a2 86 87 35
       0.0 3.6817654e-12 9.540223e-10 1.0097467e-06
000200 00 00 00 00 6d e3 a2 35 a2 86 87 35 00 00 00 00
       0.0 1.213613e-06 1.0097467e-06 0.0
000210 e7 f4 89 31 85 c3 54 2f be e9 5b 34 00 00 00 00
       4.015067e-09 1.935075e-10 2.0481e-07 0.0
000220 15 28 84 34 be e9 5b 34 00 00 00 00 8a 04 a0 30
       2.461608e-07 2.0481e-07 0.0 1.1642822e-09
000230 32 ed ce 2f 4d e1 d5 34 00 00 00 00 f4 87 00 35
       3.763972e-10 3.983827e-07 0.0 4.7881554e-07
000240 4d e1 d5 34 00 00 00 00 67 c0 cc 30 e6 d4 6d 2a
       3.983827e-07 0.0 1.4897638e-09 2.1123693e-13
000250 e3 d2 75 2f 00 00 00 00 45 ba 93 2f e3 d2 75 2f
       2.2357542e-10 0.0 2.6871497e-10 2.2357542e-10
000260 00 00 00 00 6d e3 c7 2c 3b 45 2f 30 07 29 35 35
       0.0 5.6811695e-12 6.376301e-10 6.7487457e-07
000270 00 00 00 00 71 bc 59 35 07 29 35 35 00 00 00 00
       0.0 8.111302e-07 6.7487457e-07 0.0
000280 08 df 44 31 e5 66 32 2f 92 65 38 34 00 00 00 00
       2.8648532e-09 1.6225561e-10 1.7173286e-07 0.0
000290 4a a0 5d 34 92 65 38 34 00 00 00 00 2d 44 e7 2f
       2.0640542e-07 1.7173286e-07 0.0 4.2067097e-10
0002a0 dc 58 8e 2c 63 21 93 31 00 00 00 00 fc d5 b0 31
       4.045748e-12 4.2820587e-09 0.0 5.1466014e-09
0002b0 63 21 93 31 00 00 00 00 50 19 a8 2d 75 35 48 2f
       4.2820587e-09 0.0 1.911063e-11 1.8208886e-10
0002c0 ab ef 4e 34 00 00 00 00 62 b7 78 34 ab ef 4e 34
       1.9272436e-07 0.0 2.3163514e-07 1.9272436e-07
0002d0 00 00 00 00 76 70 95 30 96 da 28 2f 20 87 2e 34
       0.0 1.087314e-09 1.5357168e-10 1.6254171e-07
0002e0 00 00 00 00 c1 c3 51 34 20 87 2e 34 00 00 00 00
       0.0 1.9535857e-07 1.6254171e-07 0.0
0002f0 70 72 9d 2f e8 7a 7f 31 59 08 84 36 00 00 00 00
       2.8639446e-10 3.7177248e-09 3.9348784e-06 0.0
000300 94 b0 9e 36 59 08 84 36 00 00 00 00 f9 43 7f 32
       4.7293233e-06 3.9348784e-06 0.0 1.4858409e-08
000310 ff 5a ad 2f 41 2e b3 34 00 00 00 00 67 5b d7 34
       3.1533173e-10 3.3375002e-07 0.0 4.0113375e-07
000320 41 2e b3 34 00 00 00 00 a9 0b fa 30 b0 4f 09 2f
       3.3375002e-07 0.0 1.8193208e-09 1.2488388e-10
000330 e4 ec 0d 34 00 00 00 00 6d 94 2a 34 e4 ec 0d 34
       1.3217829e-07 0.0 1.5886481e-07 1.3217829e-07
000340 00 00 00 00 0f 4f 37 30 ae fb 40 30 d0 77 47 35
       0.0 6.668736e-10 7.020685e-10 7.4307627e-07
000350 00 00 00 00 83 bd 6f 35 d0 77 47 35 00 00 00 00
       0.0 8.9310214e-07 7.4307627e-07 0.0
000360 4f 1c 5b 31 29 04 c0 2d f8 77 c6 32 00 00 00 00
       3.1884786e-09 2.182972e-11 2.310479e-08 0.0
000370 01 8a ee 32 f8 77 c6 32 00 00 00 00 66 22 a8 2e
       2.7769604e-08 2.310479e-08 0.0 7.645866e-11
000380 0e b0 59 2a a3 00 61 2f 00 00 00 00 0c 37 87 2f
       1.9334553e-13 2.0463857e-10 0.0 2.459547e-10
000390 a3 00 61 2f 00 00 00 00 c1 ae f9 2c 49 6b e4 29
       2.0463857e-10 0.0 7.0964072e-12 1.0143845e-13
0003a0 29 18 ec 2e 00 00 00 00 77 e1 0d 2f 29 18 ec 2e
       1.0736329e-10 0.0 1.2903976e-10 1.0736329e-10
0003b0 00 00 00 00 e5 f1 22 2b 5b 49 64 28 19 f5 6b 2d
       0.0 5.788966e-13 1.2672449e-14 1.3412626e-11
0003c0 00 00 00 00 5e cc 8d 2d 19 f5 6b 2d 00 00 00 00
       0.0 1.6120601e-11 1.3412626e-11 0.0
0003d0 ca 16 e5 29 b2 58 c3 2e 2c e9 c9 33 00 00 00 00
       1.0173596e-13 8.883329e-11 9.4022056e-08 0.0
0003e0 17 ad f2 33 2c e9 c9 33 00 00 00 00 68 4d 7e 2f
       1.1300488e-07 9.4022056e-08 0.0 2.3128666e-10
0003f0 08 85 f1 2f b2 a2 f9 34 00 00 00 00 ad 04 16 35
       4.393217e-10 4.649824e-07 0.0 5.588616e-07

exp_avg f4 [128]
000000 4c 7a 1b b5 85 ee b2 b4 6b 50 d7 b6 2f 0f 23 b8
       -5.7919965e-07 -3.332863e-07 -6.416861e-06 -3.887637e-05
000010 07 63 7c b2 43 3e a6 b6 58 56 38 b7 24 44 c7 b5
       -1.4690847e-08 -4.9544337e-06 -1.0987358e-05 -1.4846487e-06
000020 bf aa 4b 36 04 7b 62 b6 91 e2 26 b6 55 96 69 38
       3.0348745e-06 -3.3748229e-06 -2.4867807e-06 5.5691537e-05
000030 58 92 10 b5 b7 65 03 b6 64 73 5c 36 76 40 85 35
       -5.385714e-07 -1.9579727e-06 3.284972e-06 9.928033e-07
000040 f7 54 c1 35 59 91 3e 35 f4 bc 3c b8 d3 5d c2 37
       1.4404349e-06 7.0992024e-07 -4.499867e-05 2.3170292e-05
000050 eb e8 12 b8 ce 23 ad 34 59 26 39 38 0d b5 8d 36
       -3.5026034e-05 3.2249812e-07 4.414315e-05 4.2232045e-06
000060 f6 e7 85 33 cb 91 da b7 0e 93 17 37 a9 68 be 38
       6.2354886e-08 -2.6055515e-05 9.03454e-06 9.0794005e-05
000070 6a 71 47 38 c2 59 f3 b7 56 a0 52 b8 cf bd b1 b5
       4.7550922e-05 -2.9009654e-05 -5.0217226e-05 -1.3242769e-06
000080 fa 99 82 35 df 7c a4 34 9e 87 8e 34 3d 49 da b6
       9.730568e-07 3.0638236e-07 2.6548236e-07 -6.5054323e-06
000090 05 8d 11 b8 f4 b2 cb b6 d7 cc 86 35 06 46 f0 b6
       -3.470203e-05 -6.0707043e-06 1.0043394e-06 -7.160709e-06
0000a0 31 e5 f8 35 64 05 19 37 02 3a c5 b5 64 62 98 b7
       1.8544143e-06 9.120766e-06 -1.4694526e-06 -1.8165629e-05
0000b0 d2 10 14 b8 28 57 49 34 e0 fc a0 b6 7a 07 aa 38
       -3.5301615e-05 1.8751291e-07 -4.79781e-06 8.107624e-05
0000c0 4c d8 9c 36 ec 25 26 36 9e c8 1f 37 e0 d5 8d 37
       4.6743426e-06 2.4758e-06 9.523848e-06 1.6908103e-05
0000d0 bd 59 49 38 be d2 45 b8 21 5b 4c 37 46 3c 65 b8
       4.800571e-05 -4.716473e-05 1.2180565e-05 -5.465399e-05
0000e0 f9 40 f7 b7 8a 60 3a 38 08 28 84 b5 d9 bf 1c 38
       -2.947495e-05 4.4435765e-05 -9.846417e-07 3.737197e-05
0000f0 74 45 9e 37 f7 58 36 36 b8 83 7e 35 3b bc 86 38
       1.886741e-05 2.7171898e-06 9.481405e-07 6.4246786e-05
000100 c8 1d 34 b8 8d bc cd 37 23 c2 2d 38 d3 e1 de b5
       -4.294308e-05 2.4525705e-05 4.1427218e-05 -1.6606012e-06
000110 78 a3 03 b8 2d 0b 34 38 f0 5c 96 b7 4f ab 4a 38
       -3.1385076e-05 4.2925752e-05 -1.792467e-05 4.8320097e-05
000120 1e bf 5c 35 65 d1 cc 37 ab 8b 73 b2 9a 72 67 36
       8.22345e-07 2.4416202e-05 -1.4176218e-08 3.448839e-06
000130 b4 82 e4 35 25 4f 00 b5 a5 8e b3 36 78 27 ad b7
       1.7025363e-06 -4.7798886e-07 5.3512217e-06 -2.0641586e-05
000140 ee a2 a2 36 f6 80 1a 37 f6 6b 6e 35 37 4e 32 36
       4.8469437e-06 9.209141e-06 8.8819013e-07 2.6569594e-06
000150 69 bb de b7 7e a4 25 34 20 9e 35 b5 ed fe ac 35
       -2.6551732e-05 1.5426664e-07 -6.7657857e-07 1.2889192e-06
000160 94 d7 70 b6 a7 82 83 37 96 99 e5 b7 4a a5 cd 38
       -3.588827e-06 1.5677257e-05 -2.7370446e-05 9.805949e-05
000170 ba a8 24 b8 81 98 7b 38 e9 6c c6 37 37 48 13 37
       -3.9257786e-05 5.9985094e-05 2.3654155e-05 8.778697e-06
000180 7b 5d e6 b5 f1 aa 2e b6 90 57 34 36 21 c3 52 33
       -1.7163542e-06 -2.6027521e-06 2.6873058e-06 4.9071904e-08
000190 51 d5 03 b7 f9 bc 49 36 31 1a 07 b5 78 73 84 b5
       -7.857875e-06 3.006133e-06 -5.032953e-07 -9.868372e-07
0001a0 29 66 9d 38 d6 b1 34 b7 b0 db 52 37 3f c4 23 b8
       7.505372e-05 -1.0770242e-05 1.2568125e-05 -3.9044997e-05
0001b0 76 a9 3c 38 25 6f 9f b6 0d bb 05 b8 8b db 52 b4
       4.4980516e-05 -4.751508e-06 -3.1883876e-05 -1.9637643e-07
0001c0 66 0e b5 35 54 bf 8f b8 89 86 d5 35 ad e0 9f b8
       1.3489741e-06 -6.854409e-05 1.5908892e-06 -7.62356e-05
0001d0 94 98 b1 37 50 09 43 b8 73 98 a7 b7 da 14 32 38
       2.1171094e-05 -4.6500296e-05 -1.9978941e-05 4.2457927e-05
0001e0 b5 54 2b 37 2f 8b 8a b8 3b 1b 04 b8 40 f7 a1 33
       1.0212117e-05 -6.606278e-05 -3.1496613e-05 7.542121e-08
0001f0 f2 8a e1 b6 9c a5 1f 38 9e 80 2c b8 ca 01 2e b8
       -6.721698e-06 3.806279e-05 -4.112778e-05 -4.14865e-05

exp_avg_sq f4 [128]
000000 b6 10 f1 2f 20 a5 31 2d e3 95 d7 32 de 6d 01 32
       4.3849518e-10 1.009795e-11 2.5097455e-08 7.533769e-09
000010 66 76 ca 26 3b 10 a9 2f 6f 02 b6 30 0d 8e 00 30
       1.4048658e-15 3.0752453e-10 1.3242935e-09 4.6767995e-10
000020 61 b5 b1 33 15 64 83 2f 14 6a 52 30 e1 3a ab 32
       8.2751974e-08 2.3899874e-10 7.65483e-10 1.9933795e-08
000030 4e 8a c0 2f 75 9b 3c 2f a2 47 87 2f 29 1c ee 2e
       3.5022868e-10 1.715373e-10 2.4607255e-10 1.0827989e-10
000040 0f 5f 32 2e d0 4f fc 2d 08 1c 36 33 56 c0 13 32
       4.0556943e-11 2.8684527e-11 4.240067e-08 8.600258e-09
000050 af b2 8f 32 e3 28 25 2d e0 6d f3 32 46 c7 f7 31
       1.6728647e-08 9.388243e-12 2.8338889e-08 7.211301e-09
000060 ef b3 45 2f 5c 08 0b 32 6f 84 ea 31 5c 6a 31 34
       1.7980971e-10 8.092766e-09 6.8253523e-09 1.6523103e-07
000070 0c c5 70 32 65 b5 be 31 d6 03 06 33 ef 57 85 30
       1.4014642e-08 5.55035e-09 3.1202795e-08 9.702016e-10
000080 b4 2b 17 2d 7c 9f 9e 2c e8 87 1e 2b 00 a8 87 31
       8.59306e-12 4.5083364e-12 5.6321484e-13 3.9481165e-09
000090 80 b8 a7 32 74 62 24 33 d6 b9 b3 2d 32 06 be 2f
       1.952526e-08 3.8273768e-08 2.0432472e-11 3.45652e-10
0000a0 23 bc 73 2d 46 3f 02 33 7c 86 cd 2d 3d 56 8a 31
       1.38547255e-11 3.032553e-08 2.3365525e-11 4.0261328e-09
0000b0 e2 d0 e8 32 fe 1c 9d 2b 02 c6 00 30 86 ac 02 34
       2.7103344e-08 1.1163568e-12 4.6847515e-10 1.2169957e-07
0000c0 e5 f2 1b 2f 26 91 20 2e 24 7c 0e 31 4c f4 06 33
       1.4183461e-10 3.6508706e-11 2.0734285e-09 3.1421493e-08
0000d0 93 a5 4b 32 6c 1e 18 33 c7 8c 1c 31 6a 05 b0 32
       1.1853802e-08 3.5417926e-08 2.278101e-09 2.0491559e-08
0000e0 3d 82 11 33 a6 9c c0 32 4d 1c 55 2d 0e 2d 1a 33
       3.3878894e-08 2.2422977e-08 1.2113932e-11 3.5896896e-08
0000f0 20 b1 c2 32 4c 7f 1d 2e 49 36 a9 2d 89 80 a0 33
       2.266512e-08 3.581073e-11 1.9237183e-11 7.473961e-08
000100 9e bb a3 32 1d 4c bf 31 21 b4 00 33 d3 75 85 2e
       1.9061016e-08 5.5674847e-09 2.996615e-08 6.0690696e-11
000110 99 ce f2 32 3e 5a da 32 c4 9d 6f 31 3d 35 2c 32
       2.8266458e-08 2.5419578e-08 3.4868757e-09 1.0023823e-08
000120 9d b7 dc 30 ff c5 b9 32 bd 4c d5 2c f4 a4 1e 2e
       1.6059293e-09 2.1626873e-08 6.0623438e-12 3.607155e-11
000130 a9 04 ea 2d 4a 67 a9 2d ac 18 55 2f f9 21 c4 32
       2.660479e-11 1.9258945e-11 1.9381002e-10 2.2832852e-08
000140 62 20 89 30 41 58 ba 2f c6 50 a1 2f a2 71 d6 2e
       9.977266e-10 3.389591e-10 2.9343122e-10 9.7517786e-11
000150 75 ba 77 32 52 57 7e 2b 69 88 b8 2e 65 dd 34 2f
       1.4419688e-08 9.036011e-13 8.3915826e-11 1.644956e-10
000160 1d af 26 32 00 91 b5 31 e6 09 66 33 bf 34 76 33
       9.702288e-09 5.284278e-09 5.356005e-08 5.732431e-08
000170 d3 ae e9 31 37 a4 8e 32 8a f6 75 31 87 1a 6a 31
       6.8010677e-09 1.6605652e-08 3.5792334e-09 3.406656e-09
000180 22 8f b3 2d d5 8a 43 2e 7c 0d 0d 2f 61 6d 89 2a
       2.0413508e-11 4.4461174e-11 1.2828666e-10 2.4411986e-13
000190 ba 17 d5 2f 08 a8 06 2f a0 07 3b 2d e0 d0 22 2d
       3.8761333e-10 1.2246926e-10 1.0631412e-11 9.255013e-12
0001a0 d9 5a d8 32 e1 87 58 30 98 57 45 31 64 d7 6f 33
       2.5187022e-08 7.877344e-10 2.8717064e-09 5.584242e-08
0001b0 12 b3 34 33 eb 45 5f 30 0c 66 7b 32 bc e5 a2 2c
       4.207238e-08 8.1226287e-10 1.4633326e-08 4.6298226e-12
0001c0 af 9a 95 2e 70 a8 ef 32 0c 19 7e 2d 24 87 5e 33
       6.803213e-11 2.7899858e-08 1.444379e-11 5.1811313e-08
0001d0 93 a9 18 32 f9 7b 93 32 d0 77 bb 32 69 b8 5a 32
       8.886121e-09 1.7169429e-08 2.182415e-08 1.27312e-08
0001e0 1e 8a 39 31 56 41 14 33 ee 6a be 31 d9 f6 a3 2c
       2.6999554e-09 3.4518358e-08 5.5418843e-09 4.6601442e-12
0001f0 69 6c 29 30 d0 64 07 32 f8 1d 08 32 8e 1d 3c 32
       6.16359e-10 7.880956e-09 7.923056e-09 1.094976e-08
