results/test_6/Boss/Boss-15360.onnx (onnx, 75574 bytes, 7 tensors)

network_body._body_endoder.seq_layers.0.weight f4 [128, 7]
0	0x3e3a2dba	0.18181506
1	0x3e7f2f02	0.24920276
2	0xbf49ed46	-0.78877676
3	0x3e67aaf3	0.22623806
4	0xbe287001	-0.16448976
5	0xbe2fb87b	-0.17160217
6	0xbf8e8cbb	-1.1136698
7	0x3e24a643	0.16079049
8	0xbde8a03d	-0.11358688
9	0xbef1c418	-0.4721992
10	0xbe4ea484	-0.20179945
11	0xbeeba87f	-0.4602699
12	0xbc2340b6	-0.009964159
13	0x3c915325	0.017739842
14	0x3e975d9f	0.29563615
15	0x3e764664	0.2405029
16	0x3e5bb1c2	0.21454528
17	0x3c302652	0.010751324
18	0x3e05828c	0.13038081
19	0x3de102c4	0.109868556
20	0x3e4d6c07	0.2006074
21	0x3f0fb20a	0.5613104
22	0xbbd1bf46	-0.0064009754
23	0x3d4d58a2	0.050133355
24	0xbebdf8a3	-0.37103757
25	0x3eb7a0f3	0.35864982
26	0xbda4bf7c	-0.08044335
27	0xbdf9dc38	-0.122002065
28	0x3e9ff45d	0.31241122
29	0xbd83a1c3	-0.06427338
30	0x3e2a5d47	0.16637145
31	0x3f8ffaba	1.1248391
32	0xbf68ada0	-0.9088993
33	0x3eb7e9f0	0.35920668
34	0xbe260633	-0.16213302
35	0x3d8858c1	0.066575535
36	0x3d185228	0.037187725
37	0x3e28b904	0.16476828
38	0x3f0ae72a	0.5425898
39	0x3c9f8d54	0.01947657
40	0x3de75526	0.11295538
41	0x3eb4e040	0.3532734
42	0x3eb5621b	0.3542641
43	0x3cbf5876	0.023357611
44	0xbf178fb7	-0.59203666
45	0xbd4344ad	-0.047672916
46	0x3e2fc7d1	0.17166068
47	0xbf26e691	-0.65195566
48	0xbeb0b0fd	-0.3451003
49	0x3e542b38	0.20719612
50	0xbeb66bc5	-0.35629097
51	0xbe6cfe5b	-0.23143904
52	0x3b0a7b8d	0.002113077
53	0x3ea55886	0.322941
54	0xbe0a236d	-0.13490076
55	0x3ec3d20c	0.3824619
56	0xbea901e3	-0.33009252
57	0x3ea731ba	0.32655126
58	0x3ded785e	0.11595224
59	0x3d7aabd1	0.061199013
60	0x3e89d218	0.269181
61	0xbf84df1d	-1.0380589
62	0x3e180eb7	0.14849363
63	0x3e0030be	0.12518594
64	0xbf2e0f54	-0.6799214
65	0x3da8d845	0.08244375
66	0xbe7aa2a0	-0.24476099
67	0xbdbd09bd	-0.09230373
68	0x3d825051	0.063629754
69	0xbe811340	-0.2521
70	0x3d1d167a	0.038351513
71	0xbde516ec	-0.111860126
72	0x3e70ce83	0.23516278
73	0xbde68393	-0.112555645
74	0xbde61065	-0.11233596
75	0x3e2b22b3	0.16712455
76	0xbed2ba12	-0.41157585
77	0xbebffa7c	-0.37495792
78	0x3e1e30c0	0.15448284
79	0xbee790b2	-0.4522758
80	0x3cc74e8d	0.024329448
81	0x3e906349	0.2820075
82	0xbe242f31	-0.16033627
83	0xbe713301	-0.23554613
84	0xbe3ab13f	-0.18231677
85	0xbe216e25	-0.15764673
86	0x3ee07989	0.43842724
87	0x3eb274cb	0.3485473
88	0x3ec0199d	0.3751954
89	0x3ebaa553	0.36454257
90	0xbfa821ea	-1.313535
91	0x3ecd37d9	0.4008167
92	0xbea55944	-0.32294667
93	0x3f45a5ab	0.77205914
94	0xbdabe945	-0.08394102
95	0x3c1a3649	0.009412357
96	0x3f078804	0.5294192
97	0xbe6f4ead	-0.23369856
98	0x3f02aeb2	0.51047814
99	0xbf2a9ae2	-0.6664258
100	0xbf2dd5de	-0.6790446
101	0xbec064da	-0.37576944
102	0xbea2dcec	-0.31809175
103	0xbda3cfd4	-0.079986244
104	0xbdd9b3f2	-0.10630025
105	0x3ec2a90f	0.38019606
106	0xbd8df485	-0.06931404
107	0xbebd54dc	-0.36978805
108	0x3e11eb3b	0.1424989
109	0xbe2609c1	-0.16214658
110	0x3eb91b80	0.36153793
111	0x3e319acf	0.17344211
112	0x3e87455b	0.26420102
113	0xbf1dd3a4	-0.6165106
114	0x3e14be6f	0.1452577
115	0x3e54f62b	0.2079703
116	0x3db3efea	0.08785994
117	0xbec28469	-0.37991646
118	0xbeb2e1f7	-0.34938022
119	0x3e3fe5c3	0.18739991
120	0xbea9d349	-0.3316901
121	0x3e8b458c	0.27201498
122	0x3ee339cb	0.4438003
123	0xbd3171a7	-0.043321278
124	0x3f22ab09	0.6354223
125	0x3ea34e72	0.31895787
126	0x3e1ffe46	0.15624341
127	0x3f24448c	0.64167094
128	0xbc659538	-0.014012627
129	0x3cd26491	0.02568272
130	0xbe82d686	-0.25554293
131	0xbe82af59	-0.25524405
132	0xbe548ca5	-0.20756777
133	0x3c1ab18b	0.009441744
134	0xbdee463f	-0.11634492
135	0xbe9831c3	-0.29725465
136	0xbcf781a6	-0.030213188
137	0x3e304b8c	0.17216319
138	0xbd337308	-0.043810874
139	0x3d975844	0.07389882
140	0x3ebacdec	0.3648523
141	0x3e28a919	0.16470756
142	0x3f380cfa	0.718948
143	0xbe893a1d	-0.2680215
144	0x3f030d5e	0.5119227
145	0xbe026f23	-0.12737708
146	0xbea7120e	-0.32630962
147	0xbdd3726d	-0.10324559
148	0x3daa6564	0.0832012
149	0x3ecd8267	0.40138552
150	0x3dc72cc8	0.09725338
151	0xbe70cd83	-0.23515896
152	0xbecb52b6	-0.3971154
153	0x3e2718a4	0.16317993
154	0xbe744e91	-0.23858096
155	0x3f3b4e05	0.73165923
156	0xbd9946e1	-0.07484222
157	0xbeeb7315	-0.45986238
158	0xbed92cbf	-0.4241695
159	0x3e6d0b4a	0.23148838
160	0xbe45b57b	-0.1930751
161	0x3f09473d	0.53624326
162	0xbe468175	-0.19385321
163	0xbe245ad5	-0.16050275
164	0xbea3d73f	-0.32000157
165	0xbe42cd57	-0.19023643
166	0xbeb1d7cf	-0.3473496
167	0xbe87d65c	-0.2653073
168	0x3ee37f98	0.44433284
169	0xbdbee61f	-0.09321236
170	0xbe8c4bb2	-0.274015
171	0x3da3d344	0.0799928
172	0xbeeee9f6	-0.46662873
173	0xbd56e65f	-0.052465793
174	0x3e5a1721	0.21297885
175	0x3ea0c3c0	0.31399345
176	0x3f2736e3	0.65318125
177	0x3e0d8b49	0.13822664
178	0xbebbf7bf	-0.36712453
179	0xbe85aeb7	-0.2610986
180	0x3f12509f	0.5715427
181	0x3e6643b8	0.2248677
182	0xbdf46c8c	-0.11934766
183	0x3e9ea3d1	0.30984357
184	0xbef33a69	-0.475055
185	0x3f46c37e	0.7764205
186	0x3f175cfb	0.5912625
187	0xbe07bf79	-0.13256635
188	0xbf1177b5	-0.56823283
189	0x3ec4b74a	0.38421088
190	0x3ba061a5	0.0048944526
191	0xbef308e7	-0.4746773
192	0xbf11430f	-0.5674295
193	0x3ea0ab00	0.31380463
194	0xbef2fc5d	-0.47458163
195	0x3e94329c	0.28944862
196	0x3e1faf4b	0.15594213
197	0x3f173f27	0.5908074
198	0x3e8091ad	0.25111142
199	0xbe8eaeeb	-0.27867827
200	0x3e956b8d	0.29183617
201	0x3ea4890c	0.32135808
202	0xbea5e068	-0.3239777
203	0x3ce31dbc	0.02772414
204	0xbf388d7e	-0.720909
205	0x3e4ee429	0.20204224
206	0xbf19aa73	-0.6002571
207	0x3ebe37ac	0.3715185
208	0xbb03ee87	-0.0020131187
209	0x3f3169ea	0.6930224
210	0x3e69cd38	0.22832191
211	0x3db50795	0.08839337
212	0x3f0c7132	0.5486022
213	0xbf01db46	-0.5072521
214	0xbe27fade	-0.16404292
215	0xbe913d2d	-0.28366986
216	0xbe9ffcb4	-0.31247485
217	0xbe474f72	-0.194639
218	0x3fb53be2	1.41589
219	0x3ec386c9	0.3818877
220	0xbe22891b	-0.15872614
221	0x3eed2486	0.46316928
222	0x3ec9a2e3	0.39382085
223	0x3f13fe1a	0.57809603
224	0xbeaf28d7	-0.34210846
225	0x3e8f5451	0.27994016
226	0x3f2a2684	0.6646502
227	0x3e0a1054	0.13482791
228	0xbeb07144	-0.34461415
229	0x3e9f1c48	0.31076264
230	0xbeee4fb5	-0.46545187
231	0xbeabe8ac	-0.33575952
232	0xbd007afe	-0.031367294
233	0xbdfc0400	-0.123054504
234	0x3e8c2cb6	0.27377862
235	0xbf456427	-0.77105945
236	0x3e99a8fc	0.30011737
237	0xbcee42ba	-0.029084552
238	0x3df44aed	0.119283535
239	0xbe9724aa	-0.2952016
240	0xbf400a0f	-0.7501535
241	0x3f315dc5	0.69283706
242	0xbeb2ecbd	-0.34946242
243	0x3f11967d	0.5687025
244	0x3e4fd000	0.2029419
245	0xbf52d210	-0.8235178
246	0x3c650e51	0.013980464
247	0xbf022e45	-0.5085185
248	0xbef330e4	-0.47498238
249	0xbd025d71	-0.031827394
250	0x3ec01f41	0.37523845
251	0xbdf8590c	-0.12126359
252	0xbf2f770a	-0.68541014
253	0x3ea09dc8	0.31370378
254	0x3efe973b	0.49724755
255	0x3db42910	0.087968946

network_body._body_endoder.seq_layers.0.bias f4 [128]
0	0x3a847449	0.0010105456
1	0xba89f89e	-0.0010526364
2	0x388728a3	6.444871e-05
3	0xba1a668a	-0.00058899133
4	0x3919bf6c	0.00014662527
5	0x39a460c4	0.00031352614
6	0xb8f39acd	-0.00011615977
7	0xb92685e4	-0.00015880872
8	0xb9520c1d	-0.00020031673
9	0x39c5be4a	0.00037716544
10	0x3981c703	0.00024753073
11	0xb99ad1bd	-0.00029529436
12	0x3a24e2bf	0.00062898913
13	0x39898d68	0.00026236032
14	0xb93cf27d	-0.00018019411
15	0xb99747e4	-0.00028854527
16	0xb9f6e042	-0.00047087861
17	0xba6851e3	-0.00088623
18	0xb882de42	-6.240282e-05
19	0x38dcdcc9	0.00010531542
20	0xb993efe2	-0.00028216752
21	0x39de79bd	0.00042433842
22	0xba0c5800	-0.0005353689
23	0x39009da4	0.00012265757
24	0xb859cb26	-5.192603e-05
25	0xbae06f05	-0.001712293
26	0x394ab308	0.00019330916
27	0xb99add62	-0.00029538112
28	0xb980ecf8	-0.00024590618
29	0xb9992d78	-0.0002921631
30	0xb75c6ded	-1.3138616e-05
31	0xba4428f6	-0.00074829103
32	0x3a09fab3	0.00052634923
33	0x38aea461	8.3275845e-05
34	0x38849073	6.321156e-05
35	0xb79e608c	-1.8880026e-05
36	0x39245486	0.00015671746
37	0xb73545bb	-1.0804676e-05
38	0xba44136a	-0.00074796996
39	0xb866ab0f	-5.4995584e-05
40	0xb9a340f2	-0.0003113817
41	0xb97de6e4	-0.00024213974
42	0xb7895fae	-1.6376227e-05
43	0xb94f9eda	-0.00019800235
44	0x38a1b767	7.7112396e-05
45	0x397a00b3	0.00023842118
46	0xb9c711fe	-0.00037969643
47	0xb9a7d7b4	-0.00032013434
48	0x380fc58e	3.4277844e-05
49	0xb944b507	-0.00018759455
50	0xb9584934	-0.00020626636
51	0xb9cd3092	-0.00039136835
52	0xb8c4cfc5	-9.3847084e-05
53	0xb8026e54	-3.1097166e-05
54	0x3936670b	0.00017395259
55	0xb8f8882d	-0.00011850926
56	0xb84c29ac	-4.86762e-05
57	0xb9613ff6	-0.000214815
58	0xbadf1d0d	-0.0017022208
59	0x3980ac73	0.00024542547
60	0xb9edbe77	-0.0004534607
61	0xb8e3f9aa	-0.00010870707
62	0x3989a26e	0.00026251696
63	0xb9e147cd	-0.0004296884
64	0xba24caea	-0.000628634
65	0x38a36a76	7.7922756e-05
66	0xba290456	-0.00064474845
67	0xba64decc	-0.0008730709
68	0x38ccc98c	9.765019e-05
69	0x39404e00	0.00018339604
70	0xba209473	-0.0006125636
71	0xb90ee7c3	-0.00013628513
72	0xb9ac3a0b	-0.00032849642
73	0xba38d76d	-0.0007051144
74	0xb9bcbdfb	-0.000359997
75	0x388902d0	6.533193e-05
76	0xb99b0930	-0.0002957075
77	0xb88e34b8	-6.780907e-05
78	0x38ddd586	0.00010577873
79	0x38ab5e08	8.17143e-05
80	0xb8978b69	-7.226208e-05
81	0xb847a211	-4.7596233e-05
82	0xb99f09d1	-0.00030334157
83	0xb9f030ff	-0.00045812872
84	0xba917c20	-0.0011099614
85	0xba9d2fb2	-0.0011992364
86	0xb9d1e5ff	-0.00040034947
87	0xb9d178ff	-0.00039953736
88	0xb84b5943	-4.8482103e-05
89	0xb96918c7	-0.00022229842
90	0x380a8d72	3.3033495e-05
91	0xb9b00abb	-0.0003357733
92	0xb91537de	-0.0001423056
93	0xb8759d33	-5.8558955e-05
94	0xbaa399cd	-0.0012481749
95	0xba169c61	-0.0005745348
96	0xb9bc391e	-0.0003590071
97	0xb990d8e2	-0.0002762741
98	0x37ef7183	2.8543878e-05
99	0xba8d0869	-0.0010759953
100	0xb8307327	-4.2068914e-05
101	0xb9920256	-0.0002784903
102	0xb9c97b05	-0.00038429364
103	0xb9c01326	-0.0003663536
104	0xb95ed7b0	-0.0002125192
105	0xbac9573a	-0.0015361079
106	0xb9d36192	-0.00040317752
107	0x38d5898b	0.00010182251
108	0x396f462b	0.00022818956
109	0xbb04044a	-0.0020144158
110	0xb8c308ad	-9.2999406e-05
111	0xb900c052	-0.00012278676
112	0x3a6349b7	0.0008670347
113	0xb919735b	-0.0001463419
114	0xb995fc4a	-0.00028607465
115	0xb9d8f02b	-0.0004137767
116	0xba9064b8	-0.0011016345
117	0xba15b8a9	-0.00057114154
118	0x39b58291	0.0003462029
119	0xb98f42c0	-0.00027324818
120	0xba270089	-0.0006370624
121	0xb98a63ac	-0.00026395672
122	0xb9a73396	-0.00031891157
123	0x369cbe5e	4.671324e-06
124	0x393b0958	0.0001783719
125	0xba1e98c6	-0.00060499867
126	0xb9d20fe4	-0.0004006616
127	0x37d1957e	2.4984354e-05

network_body._body_endoder.seq_layers.2.weight f4 [128, 128]
0	0xbc247964	-0.010038707
1	0xbc5d3605	-0.013501649
2	0xbd1acd29	-0.037793312
3	0x3c96d2a7	0.018410994
4	0xbd9d7ef0	-0.07690227
5	0x3e0bdf4b	0.13659398
6	0xbcde4f12	-0.027137313
7	0x3d095613	0.033529352
8	0xbd83e7e5	-0.06440715
9	0x3c74b2b2	0.014935182
10	0x3d7c2a41	0.061563734
11	0xbe0f1e64	-0.13976437
12	0xbcb3e199	-0.02195816
13	0xbd80f995	-0.06297604
14	0x3e3740aa	0.17895761
15	0xbe379a84	-0.17930037
16	0xbd97a33d	-0.07404182
17	0x3cc1150b	0.023569604
18	0xbe009fd9	-0.12560977
19	0x3ceb39a1	0.028714003
20	0x3cc9be96	0.024627011
21	0x3cab734c	0.020929001
22	0x3d9478a6	0.07249574
23	0x3d70886a	0.058723845
24	0x3caae35d	0.020860368
25	0x3d1d2788	0.038367778
26	0xbe21795a	-0.15768948
27	0x3da32ef0	0.07967937
28	0xbc802938	-0.015644655
29	0x3d633a86	0.055475734
30	0xbd3c33b9	-0.045947764
31	0xbdd5ce1a	-0.104397014
32	0x3b64c42a	0.0034906962
33	0xbc23d1ef	-0.009998783
34	0xbda5c5a8	-0.080943406
35	0x3dac6a63	0.08418729
36	0xbe36f344	-0.17866236
37	0x3c41660e	0.011804117
38	0xbd80ad52	-0.06283058
39	0xbdb1dcfc	-0.086847275
40	0x3c61ce3b	0.013782079
41	0xbde40521	-0.11133791
42	0x3d306717	0.043067064
43	0x3daaf933	0.08348312
44	0x3d69eb14	0.057108954
45	0xbdb42ea4	-0.087979585
46	0xbdf1890e	-0.11793719
47	0x3e09121d	0.13385816
48	0xbd9b8b7b	-0.07594963
49	0xbd4633f7	-0.0483894
50	0x3da1ce53	0.07900681
51	0x3dc9fab4	0.09862271
52	0xbd85b2fd	-0.0652828
53	0xbca3351e	-0.01992279
54	0xbd8c4b30	-0.068502784
55	0xbe020013	-0.12695341
56	0x3e005a53	0.12534456
57	0x3d8abcdb	0.067743026
58	0xbd83684e	-0.06416379
59	0x3ce221dc	0.027604036
60	0xbd197d3f	-0.03747296
61	0xbb1f09bd	-0.002426728
62	0x3d68707d	0.056747902
63	0x3dcf2335	0.10114137
64	0x3d8ac918	0.06776637
65	0x3cb8afbd	0.022544736
66	0x3e539aec	0.20664567
67	0xbda66dae	-0.081263885
68	0xbc123d24	-0.00892571
69	0xbe11c957	-0.14236961
70	0x3d5894c8	0.052876264
71	0xbd7e5f74	-0.06210275
72	0x3d6c7c20	0.057735562
73	0xbd016f4b	-0.031600278
74	0xbbcd805b	-0.0062714047
75	0x3e419c7a	0.18907347
76	0x3e292829	0.16519226
77	0x3d980ae9	0.07423956
78	0x3dcacd83	0.099024795
79	0xbd2fac64	-0.042889014
80	0xbdc996a2	-0.09843184
81	0x3d8da001	0.06915284
82	0xbd51ace2	-0.051190265
83	0x3abe58b4	0.0014522285
84	0x3d3ca799	0.04605827
85	0xbbd21fc5	-0.0064124786
86	0xbd254c02	-0.04035569
87	0x3ce51dae	0.027968254
88	0x3e765c68	0.24058688
89	0x3d8dba1a	0.06920262
90	0xbbb69a55	-0.005572597
91	0xbc360737	-0.011110119
92	0xbde822fc	-0.11334798
93	0xbd52fcac	-0.051510498
94	0xbd3504bb	-0.044193964
95	0x3dab839f	0.08374714
96	0xbc17c60b	-0.009263526
97	0x3dacc66b	0.08436283
98	0x3cb291d4	0.021798052
99	0x3d3ed43e	0.04658913
100	0xbdc4f8bf	-0.09617757
101	0xbc68a945	-0.014200513
102	0xbd8a8a14	-0.067646176
103	0xbc599da6	-0.013282215
104	0x3d493669	0.049124155
105	0x3cc79f9c	0.0243681
106	0x3e354fe2	0.17706254
107	0xbd34eaea	-0.044169344
108	0x3c1dc087	0.009628422
109	0xbd6136d7	-0.05498394
110	0xbdcbb650	-0.09946883
111	0xbd645b5c	-0.05575119
112	0x3e34af3d	0.17644973
113	0x3db38e0e	0.08767329
114	0x3cd15ca9	0.02555688
115	0xbc655126	-0.013996398
116	0xbaf0bccf	-0.0018366816
117	0x3e58d491	0.21174838
118	0x3d863189	0.06552417
119	0x3d0c3046	0.034225725
120	0xbc5a05dc	-0.013307061
121	0x3c8aaf77	0.016929371
122	0x3d8a1ae7	0.067434125
123	0x3e139a10	0.14414239
124	0x3bb3d250	0.0054877177
125	0x3bf5ccef	0.0075012366
126	0x3d1898e6	0.03725519
127	0x3dcec81b	0.10096761
128	0xbd183c91	-0.037167136
129	0xbd939a84	-0.07207206
130	0x3bd83d59	0.00659911
131	0xbd444921	-0.047921304
132	0x3c94d8a9	0.018169718
133	0xbdbfa223	-0.09357097
134	0x3dca50c5	0.09878687
135	0xbde8d94a	-0.113695696
136	0xbdcb8c7f	-0.09938907
137	0x3dc4dc34	0.09612313
138	0xbe2a88f6	-0.16653809
139	0xbba482f7	-0.005020495
140	0x3c9e5c09	0.019330995
141	0x3cc64529	0.0242029
142	0x3d925434	0.07144967
143	0x3ca3a533	0.019976234
144	0x3df13d43	0.11779263
145	0xbcc37857	-0.023861093
146	0x3dcbb0f6	0.09945862
147	0x3de73b5f	0.11290621
148	0xbe8b0e30	-0.27159262
149	0x3dddc20c	0.10828027
150	0x3dc4a172	0.09601106
151	0xbcd140f4	-0.025543667
152	0x3d90b240	0.070652485
153	0x3e1a3d56	0.1506246
154	0xbb92ecd2	-0.0044837976
155	0xbd29d19e	-0.041459672
156	0x3da55074	0.08071986
157	0xbcb5c9a5	-0.022190878
158	0xbd5aa595	-0.053380568
159	0xbde48930	-0.11158979
160	0xbd6951bd	-0.056962717
161	0x3db790d3	0.0896317
162	0xbc151335	-0.009098818
163	0xbd2e9239	-0.042619918
164	0xba7d959e	-0.0009673479
165	0xbdf9104c	-0.121613115
166	0x3d1ffce2	0.039059527
167	0xbdbb10b7	-0.091340475
168	0xbe22add9	-0.1588663
169	0xbd9c49a3	-0.076312326
170	0xbb8f9bad	-0.0043825717
171	0x3d4d32a2	0.050097115
172	0xbe0c55ed	-0.13704653
173	0x3d833ca7	0.06408053
174	0xbde975b5	-0.11399404
175	0xbd8230c5	-0.06356958
176	0x3e434859	0.19070567
177	0xbc8a47cc	-0.016879939
178	0x3cbbcccb	0.022924801
179	0x3e39ceae	0.18145248
180	0xbe02391a	-0.12717095
181	0x3caeee81	0.021353962
182	0x3c9e1e0c	0.019301437
183	0x3e5d422f	0.21607278
184	0xbdbc6760	-0.09199405
185	0xbd18bf5b	-0.037291866
186	0x3d93b106	0.07211499
187	0x3ce5a7ca	0.02803411
188	0x3d57a6e8	0.05264941
189	0x3e53f19e	0.20697638
190	0x3db5af73	0.08871355
191	0x3e10de10	0.1414721
192	0xbdbac908	-0.09120375
193	0xbd67d473	-0.05659909
194	0x3e1e186f	0.15439008
195	0xbc6c48fd	-0.014421699
196	0x3c1b9cee	0.009497864
197	0x3e0c1a91	0.1368201
198	0x3c512da3	0.012767228
199	0xbdcd5477	-0.10025876
200	0x3d3cc558	0.04608664
201	0x3e12b976	0.1432856
202	0x3da5eda6	0.081019685
203	0xbd21b0f9	-0.039475415
204	0xbe0178ea	-0.12643781
205	0x3df50847	0.119644694
206	0x3d438885	0.047737617
207	0x3de10a48	0.10988289
208	0x3c835709	0.016032713
209	0xbd4bfba1	-0.04980052
210	0x3d30eeee	0.04319661
211	0xbc2439f5	-0.010023584
212	0x3d5f4a5d	0.054514278
213	0x3e3d3974	0.18478948
214	0x3daccba9	0.084372826
215	0x3d2bc83d	0.04193901
216	0xbd31800c	-0.043335006
217	0x3d7ea234	0.062166408
218	0xbd4cff07	-0.0500479
219	0xbe07a755	-0.13247426
220	0x3cc4b5ac	0.02401241
221	0xbd59a7ec	-0.05313866
222	0x3d8b2cf9	0.06795687
223	0xbe2cde3b	-0.16881649
224	0xbdc8e3eb	-0.09809097
225	0x3d455063	0.048172366
226	0xbdb6c704	-0.08924678
227	0x3d344f37	0.044020858
228	0x3d4b5464	0.049641028
229	0x3e24dffd	0.1610107
230	0xbddc8691	-0.10767854
231	0xbb8fa334	-0.004383469
232	0x3e1c0bc4	0.15238863
233	0xbbd70a77	-0.006562527
234	0xbdf136d4	-0.11778036
235	0xbd887e7e	-0.066647515
236	0xbcadd4c7	-0.021219624
237	0x3d34ebdb	0.04417024
238	0x3d414e6b	0.047193926
239	0xbd00a508	-0.031407386
240	0x3d51b295	0.0511957
241	0x3d7ef806	0.062248252
242	0xbd0f87e1	-0.035041694
243	0x3e1c53e9	0.15266384
244	0x3d7002d7	0.05859646
245	0xbd31a95c	-0.043374404
246	0xbd86c8da	-0.06581278
247	0x3c88d86f	0.016704766
248	0xbd05fa0b	-0.032709163
249	0xbc81e089	-0.015854137
250	0xbd423a6c	-0.047418997
251	0xbe1d46d7	-0.15359055
252	0x3c99f1c8	0.018792048
253	0x3dcc1fd1	0.09967006
254	0xbc9e2f9d	-0.019309813
255	0x3d8ba41a	0.06818409

network_body._body_endoder.seq_layers.2.bias f4 [128]
0	0xb9da5e5f	-0.00041650512
1	0xb9267a1e	-0.00015876486
2	0xba055070	-0.00050855335
3	0xba5e5b1d	-0.0008482205
4	0xb9ff7d13	-0.00048730578
5	0x3908e552	0.00013055399
6	0xb991c033	-0.00027799755
7	0xbaa2bf18	-0.001241657
8	0xb9b061ad	-0.0003364211
9	0x3805d063	3.1903746e-05
10	0x39bd2380	0.0003607534
11	0xb9abcef8	-0.00032769865
12	0xb9ade8b3	-0.00033170506
13	0xb8ac649d	-8.22034e-05
14	0xb9c9ab85	-0.000384655
15	0xb81f51fe	-3.7984915e-05
16	0xba505647	-0.00079474266
17	0x38aad127	8.145189e-05
18	0xb9f68f97	-0.0004702776
19	0xb90d3932	-0.00013468115
20	0xb9b98e9b	-0.000353922
21	0xb97d5500	-0.00024159625
22	0xba02f8fc	-0.0004996208
23	0x39cea0ef	0.00039411287
24	0x3a7afc75	0.0009574362
25	0xb9b1099b	-0.00033767227
26	0xba1498c3	-0.0005668515
27	0xb98c2d71	-0.00026736737
28	0xb9a64ce2	-0.0003171927
29	0x392c6159	0.00016439463
30	0x3ab4e1ec	0.001380024
31	0x382214b0	3.8643077e-05
32	0xb92d442b	-0.0001652396
33	0x391146fc	0.00013854721
34	0x3867bfe0	5.525339e-05
35	0xb9f64ee7	-0.00046979563
36	0x3931ae5a	0.00016944986
37	0xb9d2f25a	-0.00040234887
38	0xb9be644e	-0.00036314357
39	0xb9caf45d	-0.00038710507
40	0xb9ff09de	-0.00048644742
41	0xb9b11584	-0.000337761
42	0xb80bda3e	-3.3343436e-05
43	0x39a043fe	0.00030568236
44	0x3a99bdbe	0.0011729521
45	0xb9b65732	-0.0003477871
46	0x3922f910	0.00015542307
47	0x393cb104	0.0001799502
48	0xb9de940e	-0.0004245345
49	0x391e10e3	0.00015074345
50	0xb9bcad73	-0.00035987384
51	0xb906855a	-0.00012828913
52	0xb8663e30	-5.489419e-05
53	0xba060913	-0.00051130465
54	0xb9b42230	-0.00034357747
55	0xb9bb4006	-0.0003571512
56	0x3930f174	0.00016874616
57	0xba3c19de	-0.00071754854
58	0xb99fbfdd	-0.00030469793
59	0xba747f65	-0.00093268446
60	0xb86513c4	-5.4616263e-05
61	0xba847fc9	-0.0010108884
62	0xb9ebda2b	-0.0004498524
63	0xb9e88d21	-0.00044355638
64	0xb94f1dc2	-0.00019752144
65	0xb9027d5d	-0.00012444468
66	0x3764c751	1.3636266e-05
67	0xb9c8c4c9	-0.0003829359
68	0xba0e0edd	-0.0005419085
69	0x38a2eac5	7.768491e-05
70	0xb9f352d2	-0.00046410278
71	0xb913a02a	-0.00014078678
72	0x390a9d9c	0.0001321942
73	0x38ab4f24	8.1686565e-05
74	0xb9574758	-0.00020530575
75	0xb988fed1	-0.00026129794
76	0x39d8ca93	0.0004134966
77	0x389f34a4	7.591516e-05
78	0xb8c789f8	-9.514758e-05
79	0x381f9297	3.8045077e-05
80	0xb9c85d32	-0.0003821641
81	0xba45b243	-0.00075415167
82	0xb942f7f6	-0.00018593654
83	0x38cb944c	9.707417e-05
84	0xb86460a1	-5.444943e-05
85	0x39795acc	0.00023780315
86	0xbacf07be	-0.0015795154
87	0xbaf0d422	-0.0018373767
88	0xb922d3ff	-0.00015528499
89	0x38301836	4.1984218e-05
90	0xb9a6be1b	-0.00031803627
91	0xb981367b	-0.00024645388
92	0xb97633f0	-0.00023479736
93	0xb9baa30a	-0.00035598158
94	0xb993cf38	-0.00028192415
95	0x3a75c7c4	0.00093757757
96	0xb9ad5d69	-0.00033066727
97	0xb93f2a56	-0.00018230951
98	0xb99333a9	-0.00028076515
99	0x396ac347	0.00022388725
100	0xba26855a	-0.00063522684
101	0xb9a4bdea	-0.00031422015
102	0xb61fbfe7	-2.3804548e-06
103	0xb90cb2c4	-0.00013418036
104	0x39d58c42	0.00040731026
105	0xb9b3b6d2	-0.00034277752
106	0xb93977dc	-0.00017687626
107	0xb9ae5fe8	-0.00033259322
108	0x38bc074e	8.965899e-05
109	0xb99d8edc	-0.00030051812
110	0x38f8d7f9	0.000118657896
111	0x3967e618	0.00022115593
112	0x38b60c76	8.680757e-05
113	0x3685c90c	3.987114e-06
114	0x395b996b	0.0002094262
115	0xb74e500a	-1.2297192e-05
116	0xb95bdee5	-0.00020968502
117	0xb981199b	-0.00024623875
118	0x38005ebe	3.0605814e-05
119	0x39550cac	0.00020317984
120	0x386c448f	5.6330635e-05
121	0xb95fa57a	-0.00021328582
122	0xb94f721e	-0.0001978357
123	0xb957741e	-0.00020547255
124	0x397c7825	0.0002407735
125	0xb9b5c832	-0.00034672167
126	0xb9a9871e	-0.00032334862
127	0x390fec6e	0.0001372562

action_model._continuous_distribution.log_sigma f4 [1, 2]
0	0xbaef44b7	-0.0018254732
1	0x3a57cb8a	0.0008231929

action_model._continuous_distribution.mu.weight f4 [2, 128]
0	0x3c8979d8	0.016781732
1	0x3ca435ce	0.020045187
2	0x3c9b696c	0.018971168
3	0x3c1007b7	0.008790902
4	0x3b80e682	0.0039337287
5	0xbd2ea076	-0.042633496
6	0xbba40a79	-0.0050061313
7	0xbbd8c29d	-0.0066149966
8	0x3bae17d4	0.005312899
9	0xbbbb7c85	-0.005721631
10	0x3c30ae3b	0.010783727
11	0x3c44c921	0.0120108435
12	0xbd16d24e	-0.036821656
13	0x3c2bc583	0.010484102
14	0x3bdb3b82	0.0066904435
15	0x3ac74375	0.0015202599
16	0x3ca26cdb	0.019827297
17	0xbcd9e594	-0.02659873
18	0xbc625bbc	-0.0138158165
19	0x3c646435	0.013939907
20	0xbcee8e54	-0.029120602
21	0x3c52c81c	0.012865093
22	0xbc8597fb	-0.016307821
23	0x3c1b3322	0.00947264
24	0xbbd1a534	-0.0063978676
25	0xbcc6f239	-0.024285423
26	0xbc8483f6	-0.016176205
27	0x3c04ecdd	0.008113113
28	0xbc10e7cf	-0.00884433
29	0x3ca918e4	0.020641752
30	0xbcc5bb1b	-0.02413707
31	0xbd3c5fbd	-0.04598974
32	0x3cbc08eb	0.022953471
33	0xbc33e7ca	-0.010980556
34	0xbb51732c	-0.0031959517
35	0x3cb452ed	0.022012198
36	0xbb620cda	-0.0034492523
37	0xbc336b20	-0.010950834
38	0x3c2cf796	0.010557076
39	0x3bd2088c	0.0064097103
40	0x3c53557f	0.012898802
41	0x3c27b82b	0.01023678
42	0xbc50e5c3	-0.012750092
43	0xbb903636	-0.0044009937
44	0xbc5b9c61	-0.013403983
45	0xbbf23c3e	-0.0073924353
46	0x3aebf9d1	0.0018003528
47	0xbbda535e	-0.00666277
48	0x394a6f74	0.0001930574
49	0xbbcf2253	-0.0063212304
50	0x3b3ae29d	0.002851642
51	0xbb509345	-0.003182606
52	0xbc731730	-0.014837071
53	0xba8024a3	-0.0009776544
54	0x3c2fd306	0.010731464
55	0xbc21dccc	-0.009879302
56	0xbbec7fb1	-0.0072173704
57	0x3b93cc62	0.0045104483
58	0x3b82de2e	0.003993771
59	0xbb410314	-0.0029451298
60	0x3c18b6c0	0.009320915
61	0x3c8594c9	0.016306298
62	0x3bc49348	0.0059990026
63	0x3c3073d9	0.010769808
64	0x3d005152	0.031327553
65	0x3cb35970	0.021893233
66	0xbc922758	-0.017841026
67	0x3c1e7ad9	0.009672844
68	0x3cdbbbb5	0.026822904
69	0x3d2f9800	0.042869568
70	0x3bbf7d49	0.0058437926
71	0xbc704015	-0.014663716
72	0xbd2b53db	-0.041828018
73	0xbb8c7f8d	-0.004287666
74	0x3cb6fd45	0.022337565
75	0xbbc406ad	-0.005982241
76	0x3cbd4161	0.023102464
77	0xbc25cd13	-0.010119694
78	0xbcb67343	-0.022271758
79	0x3c4373e2	0.011929484
80	0x3ae43b4a	0.0017412689
81	0xbc0ff540	-0.0087864995
82	0x3cb232c5	0.021752724
83	0xbcbe494a	-0.023228306
84	0xbc881b5f	-0.016614614
85	0x3c41f81a	0.011838937
86	0xbaf0bb55	-0.0018366376
87	0x3aedd05b	0.001814376
88	0x3b12e6fc	0.002241551
89	0x3c0fe493	0.008782524
90	0x3c440c2f	0.011965795
91	0xbccf4ed7	-0.025306148
92	0xbc2a218f	-0.010383978
93	0xbc29ffe8	-0.010375954
94	0xbcd352fe	-0.02579641
95	0x3c882b83	0.01662231
96	0x3cf907df	0.030399261
97	0x3c075db5	0.008262088
98	0xbb94c26c	-0.0045397785
99	0x3d16b535	0.036793906
100	0xbb73de89	-0.0037211499
101	0x3c827ed2	0.015929613
102	0xba5a2cdd	-0.0008322725
103	0xbc2285c7	-0.00991959
104	0xbc938891	-0.018009456
105	0xbba1f979	-0.0049430695
106	0xbc8f647c	-0.01750397
107	0x3c2911b1	0.010319159
108	0xbbee824b	-0.0072787157
109	0x3c21d06a	0.00987635
110	0x3c23d5d2	0.009999709
111	0xbd13dca6	-0.0360991
112	0xbc36790f	-0.011137261
113	0x3cd79e30	0.026320547
114	0xbd0ac7f7	-0.033882108
115	0x3c88afa3	0.016685313
116	0xbc93225f	-0.017960725
117	0xbbf8d32c	-0.007593533
118	0xbd0c4d50	-0.03425342
119	0x3cd80d32	0.02637348
120	0x3be03c1e	0.006843104
121	0xbc1f8954	-0.009737331
122	0x3bfcbbcd	0.0077128173
123	0x3be76922	0.0070620934
124	0xbc39e7fe	-0.011346815
125	0xbd1ecaef	-0.03876775
126	0x3ca87e96	0.020568173
127	0xbcd2c8cd	-0.025730515
128	0x3ca46c6a	0.020071227
129	0xbd2522cf	-0.0403164
130	0xb8cf991a	-9.8990466e-05
131	0x3a4fa10c	0.0007920421
132	0x3c5f1d45	0.013617818
133	0xbb324582	-0.0027202074
134	0x3c9d3c23	0.019193714
135	0xbabee7db	-0.0014564948
136	0x3c92c74c	0.017917298
137	0xbce1c8de	-0.027561601
138	0x3c08e902	0.008356335
139	0x3c853d77	0.01626466
140	0xbd231cfe	-0.03982257
141	0x3c29d8b9	0.010366612
142	0x3c8f5aa9	0.017499285
143	0xbc16a1ef	-0.009193881
144	0x3bb72628	0.0055892654
145	0x3bd7e380	0.0065883994
146	0x3b96cd81	0.0046021347
147	0xbc4c7acc	-0.012480449
148	0x3c06605e	0.008201687
149	0xbc04b337	-0.008099369
150	0x3b986c51	0.004651584
151	0x3c211d0b	0.009833585
152	0xbafd00af	-0.0019302572
153	0x3c613534	0.013745595
154	0x3bb955fb	0.0056560016
155	0xbbca3f21	-0.0061720763
156	0x3c12a63b	0.008950765
157	0x3a4e288a	0.0007864317
158	0x3c538f82	0.012912633
159	0x3bc60da1	0.006044105
160	0x3c3ec61c	0.011643913
161	0xbcb2f931	-0.02184734
162	0x3cd1185a	0.025524307
163	0xbb07f088	-0.0020742733
164	0xbd4162d3	-0.047213387
165	0xbcc4e86b	-0.024036607
166	0xbbe1ab8c	-0.006886905
167	0xbbbb10a8	-0.0057087727
168	0x3cb7b273	0.022423958
169	0x3c97dd2a	0.018538076
170	0x3bad4541	0.0052877967
171	0x3b9e750f	0.004835732
172	0x3be29dae	0.0069157695
173	0x3bc7886f	0.006089262
174	0xbd2b56f7	-0.041830983
175	0xbd248073	-0.04016156
176	0x3ca7f561	0.020502748
177	0xbce17dd2	-0.027525816
178	0x3c7d9349	0.01547701
179	0xbbd8735b	-0.0066055483
180	0xbc9088d7	-0.017643375
181	0x3cea86cc	0.02862873
182	0x3c3a8606	0.011384493
183	0x3ca4ac75	0.020101765
184	0xbcfd7318	-0.03093867
185	0x3cceaac8	0.02522792
186	0x3cd636e4	0.02614922
187	0x3a9e2f99	0.0012068629
188	0xbc73cfaa	-0.014881054
189	0x3c9eacf6	0.019369584
190	0xbbb29b3b	-0.005450634
191	0x3c696b85	0.014246826
192	0xbcd0349f	-0.025415717
193	0xbc920fff	-0.017829893
194	0xbd02af13	-0.031905245
195	0x3c2bf53f	0.010495483
196	0xbbaf6e55	-0.005353729
197	0xbaddc652	-0.0016920066
198	0x3c94b99d	0.018154914
199	0x3c856d13	0.016287362
200	0x3b8aa554	0.0042311344
201	0xbcbc8a97	-0.023015304
202	0xbc839121	-0.016060414
203	0x3ca747de	0.020420011
204	0xbb2678dc	-0.0025401628
205	0x3c985927	0.018597199
206	0x3c8f9838	0.017528638
207	0x3b67e8c9	0.0035386553
208	0x3c5a8378	0.013337009
209	0xb850fe11	-4.9827682e-05
210	0x3be3dd9d	0.0069539086
211	0xbb7575db	-0.003745428
212	0xbc6403fc	-0.013916966
213	0x3caf4e98	0.021399781
214	0x37ffaa86	3.0477775e-05
215	0x3a4a8a9b	0.00077263423
216	0xbc56f44a	-0.0131197665
217	0x3bb93db3	0.005653107
218	0x3ca32c3a	0.01991855
219	0x3c96ed5f	0.018423734
220	0x3c56d354	0.013111908
221	0xbc99a791	-0.01875666
222	0xbc893b4c	-0.016751908
223	0x3cbb19fe	0.022839542
224	0xbc641eaf	-0.013923331
225	0xbc22c974	-0.0099357255
226	0xbb7e60e8	-0.0038815085
227	0xbab702fc	-0.0013962681
228	0xb95493e3	-0.00020272988
229	0xbc357811	-0.011075989
230	0x3ca3a293	0.019974982
231	0xbc7f75ee	-0.0155920815
232	0xbc941060	-0.018074214
233	0x3bf411a0	0.00744839
234	0xbbda8698	-0.006668877
235	0x3bbdbdae	0.005790434
236	0xbc72466e	-0.0147873
237	0xbc5451a8	-0.0129589215
238	0x3c8b51cd	0.01700678
239	0xbacf2fc0	-0.0015807077
240	0xba802040	-0.0009775236
241	0xba06abb4	-0.000513728
242	0xbc94c339	-0.018159496
243	0xbcc73ac2	-0.02432001
244	0x3c63f8d3	0.013914305
245	0x3c8bdf84	0.017074354
246	0x3cacda68	0.021100238
247	0xbbb10a4b	-0.0054028383
248	0x3baace7f	0.0052126045
249	0x3c7c60a5	0.015403901
250	0xbbb2f042	-0.00546077
251	0xbc015e1f	-0.007895975
252	0xbad7958e	-0.0016447769
253	0xbd1caf3c	-0.038253054
254	0x3c8da4ab	0.017290434
255	0xbcec41a2	-0.02883989

action_model._continuous_distribution.mu.bias f4 [2]
0	0xb9a0d1a4	-0.00030673773
1	0xb960ff3d	-0.00021457388
