results/AI_Candidate/Boss/Boss-8499968.onnx (onnx, 75574 bytes, 7 tensors)

network_body._body_endoder.seq_layers.0.weight f4 [128, 7]
0.31824836 0.38566357 -0.78877676 0.13606553 -0.0122897215 -0.17160217 -1.651536 0.12573478
-0.14855736 -0.4721992 -0.14878255 -0.5176195 -0.009964159 0.3446328 0.26640067 0.21126993
0.21454528 0.02861588 0.12657805 0.109868556 0.036072504 0.50664043 -0.061075076 0.050133355
-0.29887807 0.30140388 -0.08044335 0.2719437 0.30260244 -0.074151166 0.16637145 1.1343032
-0.89963 0.35920668 -0.37998956 0.05596634 0.026580548 0.16476828 0.53838307 0.028056404
0.11295538 0.6500639 0.35534507 0.02443447 -0.59203666 -0.041256998 0.20990027 -0.65195566
-0.68608594 0.24536712 -0.31811592 -0.23143904 -0.029812314 0.3850979 -0.13490076 0.7230754
-0.40472382 0.25191298 0.11595224 0.076580316 0.2013857 -1.0380589 -0.17676958 0.1259012
-0.67923135 0.08244375 -0.2506168 -0.0793574 0.063629754 -0.55927235 0.0809932 -0.06918493
0.23516278 -0.16808546 -0.05393365 0.16712455 -0.66775465 -0.39815575 0.13128178 -0.4522758
0.036843196 0.30368116 -0.16033627 -0.29019353 -0.19198161 -0.16732173 0.43842724 0.40133324
0.38790074 0.36454257 -1.8792528 0.46140718 -0.2623562 0.77205914 -0.16110551 0.10207408
0.5294192 -0.17432004 0.506946 -0.6699921 -0.6790446 -0.38473052 -0.29746053 -0.079986244
-0.42278844 0.47956002 0.030124987 -0.36978805 0.13030872 -0.10750703 0.36153793 0.61651975
0.26608297 -0.61458284 0.1452577 0.20098045 0.12108349 -0.37991646 -0.66914696 0.2715474
-0.24746774 0.27201498 0.4874591 0.046469428 0.6354223 0.6164393 0.1616672 0.64709586
-0.014012627 0.030490763 -0.29670733 -0.25524405 -0.13703075 0.0031832869 -0.12260461 -0.29725465
-0.025307728 0.192913 -0.043810874 0.36169744 0.31168434 0.111538105 0.718948 -0.25926012
0.48334613 -0.12737708 -0.16991124 -0.03889272 0.14755024 0.40138552 0.16585775 -0.21390879
-0.3971154 0.5206902 -0.20101893 0.76922464 -0.07484222 -0.46289724 -0.436562 0.23148838
-0.28088158 0.5810396 -0.14905053 -0.16050275 -0.36708242 -0.12947032 -0.3473496 -0.46969783
0.42242682 -0.11520055 -0.274015 0.071676396 -0.5001581 -0.052465793 0.097284496 0.31178305
0.650975 0.13822664 -0.31685677 -0.325065 0.5715427 0.47517532 -0.20487314 0.22430924
-0.475055 0.8041307 0.5730049 -0.13256635 -0.7441261 0.36105466 -0.018260377 -0.4746773
-0.5467759 0.33029017 -0.47458163 0.37864444 0.104274265 0.5391413 0.25111142 -0.26217017
0.2570819 0.32135808 -0.47094443 0.07095768 -0.6776645 0.20204224 -0.6126567 0.4223074
-0.0020131187 1.0170155 0.17239538 0.032468323 0.5486022 -0.4576343 -0.21032494 -0.28366986
-0.5092041 -0.27249327 1.3380299 0.3818877 -0.1282965 0.35863158 0.39382085 0.7490713
-0.244473 0.37759686 0.6646502 0.10545014 -0.2622024 0.31076264 -0.39580518 -0.27467945
0.029786898 -0.123054504 0.2759713 -0.7520258 0.30011737 0.16904853 0.10665452 -0.307848
-0.7501535 0.6715085 -0.38717914 0.5687025 0.105399914 -0.83058846 0.006912114 -0.5085185
-0.44271228 -0.06921355 0.37523845 0.0527197 -0.7812634 0.21784353 0.49724755 0.092998676
00000000: 73f1 a23e b275 c53e 46ed 49bf c354 0b3e
00000010: d45a 49bc 7bb8 2fbe 8865 d3bf 9ec0 003e
00000020: 6c1f 18be 18c4 f1be 745a 18be b682 04bf
00000030: b640 23bc b673 b03e ab65 883e 2557 583e
00000040: c2b1 5b3e da6b ea3c ad9d 013e c402 e13d
00000050: c3c0 133d 30b3 013f dc29 7abd a258 4d3d
00000060: 8c06 99be 9c51 9a3e 7cbf a4bd 343c 8b3e
00000070: b5ee 9a3e 91dc 97bd 475d 2a3e d930 913f
00000080: 274e 66bf f0e9 b73e fe8d c2be f63c 653d
00000090: 73bf d93c 04b9 283e 79d3 093f 8bd6 e53c
000000a0: 2655 e73d 966a 263f caef b53e cc2a c83c
000000b0: b78f 17bf 19fd 28bd 19f0 563e 91e6 26bf
000000c0: 54a3 2fbf 8541 7b3e 17e0 a2be 5bfe 6cbe
000000d0: f438 f4bc 8d2b c53e 6d23 0abe 781b 393f
000000e0: f637 cfbe bdfa 803e 5e78 ed3d 24d6 9c3d
000000f0: 0e38 4e3e 1ddf 84bf 1603 35be 3fec 003e
00000100: 1be2 2dbf 45d8 a83d d850 80be 2286 a2bd
00000110: 5150 823d 792c 0fbf c3df a53d d4b0 8dbd
00000120: 83ce 703e 981e 2cbe 88e9 5cbd b322 2b3e
00000130: f8f1 2abf 12db cbbe bb6e 063e b290 e7be
00000140: e4e8 163d 197c 9b3e 312f 24be 3f94 94be
00000150: d496 44be 6356 2bbe 8979 e03e 8d7b cd3e
00000160: ed9a c63e 53a5 ba3e 5b8b f0bf 903d ec3e
00000170: 8d53 86be aba5 453f d8f8 24be 370c d13d
00000180: 0488 073f f480 32be 37c7 013f 9a84 2bbf
00000190: ded5 2dbf 66fb c4be bf4c 98be d4cf a3bd
000001a0: ba77 d8be e488 f53e adc8 f63c dc54 bdbe
000001b0: a66f 053e a52c dcbd 801b b93e 3dd4 1d3f
000001c0: 073c 883e 4d55 1dbf 6fbe 143e d2cd 4d3e
000001d0: 9ffa f73d 6984 c2be 374d 2bbf 4308 8b3e
000001e0: 2f68 7dbe 8c45 8b3e 3d94 f93e ba56 3e3d
000001f0: 09ab 223f f7ce 1d3f 168c 253e 13a8 253f
00000200: 3895 65bc c4c7 f93c 06ea 97be 59af 82be
00000210: ca51 0cbe b19e 503b 2018 fbbd c331 98be
00000220: 2752 cfbc fc8a 453e 0873 33bd 6830 b93e
00000230: 1795 9f3e 176e e43d fa0c 383f bebd 84be
00000240: 2579 f73e 236f 02be 36fd 2dbe f94d 1fbd
00000250: 6917 173e 6782 cd3e 9dd6 293e e80a 5bbe
00000260: b652 cbbe f44b 053f e8d7 4dbe e8eb 443f
00000270: e146 99bd de00 edbe 0e85 dfbe 4a0b 6d3e
00000280: b6cf 8fbe 03bf 143f b4a0 18be d55a 24be
00000290: 3af2 bbbe de93 04be cfd7 b1be 3c7c f0be
000002a0: 5448 d83e 44ee ebbd b24b 8cbe 13cb 923d
000002b0: 5c0a 00bf 5fe6 56bd 183d c73d 07a2 9f3e
000002c0: 4ca6 263f 498b 0d3e 0d3b a2be eb6e a6be
000002d0: 9f50 123f 2e4a f33e 44ca 51be 52b1 653e
000002e0: 693a f3be 82db 4d3f 73b0 123f 79bf 07be
000002f0: 0c7f 3ebf 28dc b83e c996 95bc e708 f3be
00000300: 81f9 0bbf cb1b a93e 5dfc f2be afdd c13e
00000310: bf8d d53d 2a05 0a3f ad91 803e 2b3b 86be
00000320: 3da0 833e 0c89 a43e a11f f1be 4352 913d
00000330: 6c7b 2dbf 29e4 4e3e 12d7 1cbf ad38 d83e
00000340: 87ee 03bb 902d 823f 6a88 303e 81fd 043d
00000350: 3271 0c3f 0b4f eabe 6c5f 57be 2d3d 91be
00000360: 335b 02bf 3d84 8bbe 9044 ab3f c986 c33e
00000370: 2860 03be 8f9e b73e e3a2 c93e 23c3 3f3f
00000380: 2157 7abe 6054 c13e 8426 2a3f 3ef6 d73d
00000390: 653f 86be 481c 9f3e faa6 cabe c9a2 8cbe
000003a0: a703 f43c 0004 fcbd 1c4c 8d3e c384 40bf
000003b0: fca8 993e 0f1b 2d3e af6d da3d 419e 9dbe
000003c0: 0f0a 40bf fbe7 2b3f 583c c6be 7d96 113f
000003d0: e9db d73d 72a1 54bf 047f e23b 452e 02bf
000003e0: 2fab e2be d5bf 8dbd 411f c03e 9df0 573d
000003f0: e100 48bf 6012 5f3e 3b97 fe3e 1776 be3d

network_body._body_endoder.seq_layers.0.bias f4 [128]
0.1374685 -0.03603357 -0.029168338 -0.05526314 -0.00971731 -0.010293714 0.0009611072 0.038016386
-0.07483803 0.0010747756 0.04291878 -0.023495134 -0.009044616 0.06085247 -0.0037424185 0.09914104
0.0014481271 0.08332759 0.0053619496 -0.0061538415 -0.0534525 0.06477305 0.037028566 0.044923436
-0.022029724 -0.0039201896 -0.085340805 -0.023450118 -0.051915005 0.042952273 -0.055938378 -0.078612454
0.098180905 0.061228227 -0.01257971 -0.0070873606 -0.09570284 0.014167766 0.03114119 -0.017474437
0.10504494 -0.025347697 0.08335755 0.079466894 0.0060086143 0.015218177 0.038635783 -0.01274408
0.003787613 0.046697926 0.030924894 -0.008340275 -0.002000891 -0.045701135 0.009960039 0.0053971536
-0.0025687285 -0.01662839 -0.05241854 0.016468588 -0.06157002 -0.016838538 0.024120834 -0.05876704
0.0037294927 -0.020834029 -0.016618194 -0.051893894 -0.02356842 0.041834995 0.061678465 -0.028089488
0.024722194 -0.035974048 0.009824785 0.1115461 -0.028596655 0.12889916 -0.04360686 -0.04867182
0.0002529313 0.021335602 0.030517714 0.03808497 -0.06878881 -0.0041652946 -0.043240357 0.005347232
-0.056565665 0.035641115 -0.06664881 -0.04545675 -0.011928604 -0.024280477 -0.06717025 0.042170156
0.031894706 -0.097530246 0.14820755 0.06728706 0.082128 -0.081869155 0.0458883 0.06248879
-0.016492398 -0.016774913 0.08228404 -0.054960225 0.045619816 -0.084588215 -0.003346796 0.006651622
0.06758699 -0.025334105 0.031343296 0.0010452577 0.022985194 0.0222559 0.0006418247 -0.01276757
-0.039184388 -0.032871816 -0.038999524 0.060288 0.01221951 -0.09456209 -0.021475328 0.023920774
00000000: 8bc4 0c3e f097 13bd 70f2 eebc 9a5b 62bd
00000010: 5a35 1fbc f7a6 28bc d0f2 7b3a 12b7 1b3d
00000020: ae44 99bd 7cdf 8c3a 9acb 2f3d de78 c0bc
00000030: de2f 14bc 7140 793d 5d43 75bb 750a cb3d
00000040: 15cf bd3a a8a7 aa3d 4bb3 af3b 2aa6 c9bb
00000050: 02f1 5abd bca7 843d 44ab 173d a301 383d
00000060: ae77 b4bc ef74 80bb 29c7 aebd 761a c0bc
00000070: d4a4 54bd b9ee 2f3d a41f 65bd 91ff a0bd
00000080: 1213 c93d 73ca 7a3d 211b 4ebc 173d e8bb
00000090: daff c3bd eb1f 683c cf1b ff3c 8d26 8fbc
000000a0: cd21 d73d f9a5 cfbc 5db7 aa3d 8abf a23d
000000b0: e9e3 c43b a955 793c 8e40 1e3d 8ccc 50bc
000000c0: 9a39 783b 5346 3f3d 3456 fd3c a6a5 08bc
000000d0: 6121 03bb 1d31 3bbd 6e2f 233c 9bda b03b
000000e0: 1d58 28bb 4338 88bc d3b4 56bd 22e9 863c
000000f0: d830 7cbd f9f0 89bc 0e99 c53c b5b5 70bd
00000100: 816a 743b 20ac aabc e122 88bc b18e 54bd
00000110: 8f12 c1bc 2c5b 2b3d 8fa2 7c3d ed1b e6bc
00000120: 3386 ca3c 8659 13bd 23f8 203c 4872 e43d
00000130: 8843 eabc 24fe 033e 1b9d 32bd 1a5c 47bd
00000140: dd9b 8439 00c8 ae3c 4900 fa3c fcfe 1b3d
00000150: 26e1 8cbd 067d 88bb cd1c 31bd d537 af3b
00000160: 66b1 67bd 6bfc 113d 2c7f 88bd db30 3abd
00000170: 3170 43bc dae7 c6bc 8e90 89bd 9dba 2c3d
00000180: 06a4 023d f0bd c7bd b8c3 173e cccd 893d
00000190: ba32 a83d 04ab a7bd 5ff5 3b3d 3ff4 7f3d
000001a0: 111b 87bc 8b6b 89bc 8984 a83d f91d 61bd
000001b0: d8db 3a3d 963c adbd eb55 5bbb d9f5 d93b
000001c0: 0c6b 8a3d 7889 cfbc d461 003d 0701 893a
000001d0: 724b bc3c 0152 b63c 2040 283a 122f 51bc
000001e0: cf7f 20bd 99a4 06bd f7bd 1fbd 8df0 763d
000001f0: 5734 483c c5a9 c1bd 07ed afbc 80f5 c33c

network_body._body_endoder.seq_layers.2.weight f4 [128, 128]
-0.12962468 0.058590136 -0.043428857 0.026562618 -0.067248695 0.13655053 -0.054785155 0.17871602
-0.06766321 0.06945099 0.08478308 -0.14227216 -0.13249844 -0.038993027 0.2527653 -0.17410046
-0.058027532 -0.0036791365 -0.1908317 0.09924449 0.022957668 -0.022464668 -0.02372969 0.0879542
0.093398504 -0.004429146 -0.15457092 0.08024173 -0.032111462 0.057808153 -0.10741309 -0.11515175
-0.08217557 0.10507692 -0.09153543 0.029591024 -0.18132941 0.0006479936 -0.09753671 -0.11411954
0.1609801 -0.09613787 0.17338948 -0.11419075 0.04836781 -0.01484752 -0.114305966 0.12727487
-0.08437513 -0.072637476 0.06068642 0.055708993 -0.101719625 -0.03338447 -0.049300738 -0.18389325
0.092275105 0.08772131 -0.062927425 0.098295465 -0.034391962 0.09789582 0.11082172 0.10336489
0.11528024 0.034600597 0.1865163 -0.048167244 -0.02690057 -0.22994468 -0.071612224 -0.06276201
0.06914386 -0.057793025 0.055856217 0.09298053 0.18585177 0.0005564883 0.109306104 -0.0692659
-0.023455495 0.08052467 0.056344967 0.10717327 0.0488456 0.041685 0.023785025 -0.045214966
0.24737643 0.16659383 -0.018952789 -0.017461635 -0.1782242 -0.022921301 -0.06751584 0.010648978
0.034503426 0.068424694 -0.08245668 0.12754662 -0.0058989045 0.055453114 -0.1336166 -0.076216415
0.05919067 0.034543034 0.24666643 -0.06141171 -0.12745288 -0.049278177 -0.14384854 -0.03265185
0.1499528 0.06083558 0.06333465 0.002834931 -0.053770658 0.109537646 0.04710304 -0.021368053
-0.03426633 0.045596182 0.07868946 0.20392059 -0.07527448 -0.0020529486 0.021375822 0.046958636
-0.048253506 -0.13719587 0.009302361 -0.07246832 -0.02084332 -0.07496786 0.078715324 -0.2654022
-0.103937015 0.06936231 -0.16387524 -0.021331392 -0.020205706 0.005057029 0.03668083 0.06318286
0.10735949 -0.016004918 0.15254885 0.03582822 -0.28872922 0.19116895 0.14543943 -0.047698632
0.006079859 0.19238883 -0.014166159 -0.061194234 0.08281532 -0.12215644 -0.041648902 -0.10187065
-0.015582133 -0.004793018 -0.05636716 -0.05169617 -0.00418168 -0.14510958 -0.031470604 -0.09936643
-0.29138538 -0.116242155 -0.11132078 0.18757169 -0.17328438 0.00815778 -0.052470908 -0.050344046
0.23458436 -0.008201617 0.03825445 0.19869384 -0.1512075 0.026844278 -0.015572345 0.24994026
-0.102913074 -0.046576824 0.084431976 -0.028209314 0.038069494 0.15913457 0.025709348 0.14230578
-0.09238029 -0.045866113 0.16260156 -0.04890996 0.029286101 0.1402114 0.06351954 -0.10939223
0.023022668 0.17057928 0.033287957 0.13940787 -0.14978747 0.21362509 0.028558085 0.108527526
0.08909495 0.0019181087 -0.014540319 -0.086183965 0.047730334 0.15324737 0.058318842 0.013440402
-0.05092289 0.042937413 -0.03288098 -0.13372043 0.056902878 -0.065476745 0.07908059 -0.13891406
-0.15961015 0.09273884 -0.09682101 -0.029533744 0.058294326 0.10234246 -0.11528251 0.01854229
0.16339268 -0.037921328 -0.10662862 -0.07513563 0.07679153 0.033199392 0.07488723 -0.06189742
0.053313885 0.09735606 -0.0946172 0.17739676 0.06271192 -0.13126796 -0.055441365 0.028244779
-0.04329151 -0.056543116 -0.053981926 -0.20280454 -0.0146934325 0.106474906 -0.017110584 0.05539776
00000000: 55bc 04be 36fc 6f3d 75e2 31bd d999 d93c
00000010: afb9 89bd e7d3 0b3e 6666 60bd 5501 373e
00000020: 0293 8abd 523c 8e3d c0a2 ad3d cbaf 11be
00000030: acad 07be 27b7 1fbd 746a 813e 6447 32be
00000040: 47ae 6dbd ab1d 71bb 6369 43be b240 cb3d
00000050: b811 bc3c d307 b8bc c464 c2bc 5521 b43d
00000060: b747 bf3d 5f22 91bb d747 1ebe c755 a43d
00000070: 4f87 03bd 3ec8 6c3d 65fb dbbd aed4 ebbd
00000080: aa4b a8bd 9132 d73d ed76 bbbd e068 f23c
00000090: 6bae 39be 1dde 293a 54c1 c7bd 81b7 e9bd
000000a0: f8d7 243e eee3 c4bd 038d 313e d7dc e9bd
000000b0: 531d 463d 0343 73bc 3f19 eabd 5854 023e
000000c0: decc acbd f5c2 94bd 5392 783d 1d2f 643d
000000d0: 6152 d0bd 27be 08bd 92ef 49bd 834e 3cbe
000000e0: bbfa bc3d 3ba7 b33d 18e0 80bd 224f c93d
000000f0: 96de 0cbd 9b7d c83d 7ff6 e23d f9b0 d33d
00000100: 0c18 ec3d 5bb9 0d3d 21fe 3e3e 044b 45bd
00000110: 965e dcbc 9e76 6bbe 6ea9 92bd 5e89 80bd
00000120: 4c9b 8d3d 61b8 6cbd 7dc9 643d 936c be3d
00000130: ed4f 3e3e 4ce1 113a e1db df3d 48db 8dbd
00000140: bd25 c0bc 1eea a43d fbc9 663d a97d db3d
00000150: 5312 483d e4bd 2a3d d0d8 c23c 5433 39bd
00000160: 3f50 7d3e 9397 2a3e e142 9bbc b40b 8fbc
00000170: 6880 36be 74c5 bbbc bf45 8abd 0d79 2e3c
00000180: 7753 0d3d 3f22 8c3d 0cdf a8bd 959b 023e
00000190: 994b c1bb ce22 633d cad2 08be 5a17 9cbd
000001a0: ea71 723d ff7c 0d3d 2096 7c3e d88a 7bbd
000001b0: 0283 02be ead7 49bd 084d 13be f2bd 05bd
000001c0: 3a8d 193e bb2e 793d 99b5 813d 40ca 393b
000001d0: 9f3e 5cbd 4655 e03d 1eef 403d 0e0c afbc
000001e0: da5a 0cbd 10c3 3a3d f127 a13d 8fd0 503e
000001f0: 8229 9abd c38a 06bb 591c af3c b357 403d
00000200: 78a5 45bd 137d 0cbe ee68 183c 456a 94bd
00000210: 9cbf aabc c088 99bd 8035 a13d cce2 87be
00000220: eedc d4bd d40d 8e3d e9ce 27be 2cbf aebc
00000230: 7086 a5bc 6fb5 a53b a33e 163d 0466 813d
00000240: 4bdf db3d bf1c 83bc c435 1c3e 9dc0 123d
00000250: 51d4 93be cbc1 433e 13ee 143e a45f 43bd
00000260: 8e39 c73b 9401 453e 2d19 68bc cea6 7abd
00000270: 149b a93d 282d fabd 0a98 2abd 8fa1 d0bd
00000280: 344c 7fbc c00e 9dbb 40e1 66bd 5dbf 53bd
00000290: 7906 89bb 9b97 14be 52e7 00bd a080 cbbd
000002a0: 7730 95be 5e10 eebd 26fc e3bd cb12 403e
000002b0: 7671 31be 36a8 053c bceb 56bd 8f35 4ebd
000002c0: e236 703e 1360 06bc b3b0 1c3d 6676 4b3e
000002d0: 24d6 1abe 88e8 db3c 2623 7fbc 57f0 7f3e
000002e0: 17c4 d2bd 57c7 3ebd acea ac3d 3817 e7bc
000002f0: c2ee 1b3d 2cf4 223e 699c d23c 9bb8 113e
00000300: e131 bdbd 1bde 3bbd 0681 263e cf55 48bd
00000310: 68e9 ef3c 9493 0f3e 8816 823d 0909 e0bd
00000320: 099a bc3c 56ac 2e3e f458 083d f0c0 0e3e
00000330: e361 19be 89c0 5a3e a5f2 e93c ae43 de3d
00000340: 6a77 b63d 0c69 fb3a 853a 6ebc 3881 b0bd
00000350: e280 433d e1ec 1c3e bddf 6e3d 2235 5c3c
00000360: 8594 50bd 24df 2f3d 35ae 06bd 02ee 08be
00000370: fe12 693d ac18 86bd 01f5 a13d 7d3f 0ebe
00000380: d870 23be dced bd3d 184a c6bd c0f0 f1bc
00000390: 08c6 6e3d ec98 d13d 3d19 ecbd 00e6 973c
000003a0: 6950 273e 6553 1bbd 1b60 dabd b6e0 99bd
000003b0: e144 9d3d 16fc 073d 7a5e 993d 2688 7dbd
000003c0: a95f 5a3d 9d62 c73d aac6 c1bd 7fa7 353e
000003d0: 1b6f 803d 1c6b 06be 7c16 63bd 9861 e73c
000003e0: 7052 31bd c199 67bd 271c 5dbd feab 4fbe
000003f0: b9bc 70bc 840f da3d 7f2b 8cbc c3e8 623d

network_body._body_endoder.seq_layers.2.bias f4 [128]
-0.024818381 0.020163124 -0.027875392 -0.00032731425 -0.0035740503 -0.010169204 -0.038604125 -0.014076236
-0.040875815 0.025739534 0.014828504 -0.016935423 0.01578781 0.00080484647 -0.052869346 0.013862457
-0.036569007 -0.020671288 -3.7704338e-06 -0.016612621 -0.026382776 -0.02276342 -0.017792832 -0.0040237242
0.029599315 0.0028012623 -0.004273413 0.003763225 -0.009936984 -0.03011332 -0.01697722 -0.009879734
-0.029692618 -0.0075060735 -0.002218308 -0.04051758 -0.0007880883 0.036139525 -0.042671002 0.011187621
-0.02049045 -0.008681599 -0.036032237 0.004829668 -0.04673037 -0.0076576304 -0.0041412683 -0.0019364537
0.0005738914 0.006567941 -0.029450735 -0.003478393 0.02372545 -0.028543867 -0.05335706 -0.014864874
0.008250791 -0.005306091 -0.032364745 -0.0059988047 -0.04798202 -0.009702339 -0.019719759 -0.03358952
-0.030480457 -0.03725694 0.0035115243 0.0023667214 -0.043666307 0.004038769 -0.017579114 -0.042755313
-0.01897758 -0.008758163 -0.042447828 -0.02756616 0.0008040297 -0.008694743 -0.01348526 -0.023510387
-0.0681506 -0.033144094 -0.0069783074 -0.010983869 -0.016198305 0.0027283547 -0.023710273 0.012612241
0.011920144 -0.029095007 -0.065568864 -0.05334726 -0.009298641 0.01843465 -0.017953612 -0.01742505
-0.003929752 0.03339942 0.005592245 -0.0055525745 -0.052864317 0.00036588774 -0.007640028 -0.015272995
-0.026786016 -0.016569575 -0.011064953 -0.008982787 -0.031013204 0.00015412737 -0.020857548 -0.024816504
0.0047120843 0.005691521 0.030015713 -0.0056860885 -0.010826099 -0.0378873 -0.031425178 0.025385788
0.014514544 0.022800345 -0.024366189 -0.012305342 -0.02687099 -0.05183829 -0.0076951776 -0.0029485463
00000000: eb4f cbbc 232d a53c ef5a e4bc 609b abb9
00000010: 9d3a 6abb bc9c 26bc 5c1f 1ebd 03a0 66bc
00000020: 666d 27bd b7db d23c 41f3 723c 28bc 8abc
00000030: 7055 813c 55fc 523a 878d 58bd 5c1f 633c
00000040: 62c9 15bd d556 a9bc 8f07 7db6 3117 88bc
00000050: b120 d8bc 5a7a babc 46c2 91bc 72d9 83bb
00000060: 437a f23c 6295 373b fd07 8cbb 70a0 763b
00000070: bbce 22bc 36b0 f6bc d013 8bbc 9cde 21bc
00000080: ef3d f3bc 82f5 f5bb 0861 11bb c3f5 25bd
00000090: b697 4eba 0a07 143d cac7 2ebd 494c 373c
000000a0: 97db a7bc 443d 0ebc 8a96 13bd 3142 9e3b
000000b0: 5868 3fbd dcec fabb 7ab3 87bb 9bd0 fdba
000000c0: 3371 163a e237 d73b ab42 f1bc c0f5 63bb
000000d0: e05b c23c d4d4 e9bc ef8c 5abd cd8b 73bc
000000e0: 532e 073c b8de adbb e590 04bd 9f91 c4bb
000000f0: cb88 44bd 8ff6 1ebc 558b a1bc 2a95 09bd
00000100: 27b2 f9bc bc9a 18bd 9a21 663b ff1a 1b3b
00000110: 71db 32bd a657 843b 1302 90bc 3220 2fbd
00000120: df76 9bbc 667e 0fbc c6dd 2dbd 6dd2 e1bc
00000130: 85c5 523a 6574 0ebc 48f1 5cbc db98 c0bc
00000140: 8b92 8bbd 1ac2 07bd 49aa e4bb b0f5 33bc
00000150: 4fb2 84bc 32ce 323b 0c3c c2bc 93a3 4e3c
00000160: b54c 433c a758 eebc f848 86bd a882 5abd
00000170: 5459 18bc 4304 973c 7413 93bc fabe 8ebc
00000180: 26c5 80bb d5cd 083d 273f b73b 5ff2 b5bb
00000190: 4188 58bd 9fd4 bf39 3359 fabb 963b 7abc
000001a0: 596e dbbc ebbc 87bc c749 35bc 8a2c 13bc
000001b0: 670f febc 409d 2139 73dd aabc fb4b cbbc
000001c0: d467 9a3b f07f ba3b 83e3 f53c 5e52 babb
000001d0: f35f 31bc b72f 1bbd b0b7 00bd dbf5 cf3c
000001e0: 69ce 6d3c cac7 ba3c 9a9b c7bc 589c 49bc
000001f0: 8d20 dcbc 6354 54bd d427 fcbb 663c 41bb

action_model._continuous_distribution.log_sigma f4 [1, 2]
-1.0397443 -2.2703614
00000000: 5716 85bf 9a4d 11c0

action_model._continuous_distribution.mu.weight f4 [2, 128]
0.05330458 0.053821225 -0.0010986436 0.07082991 0.008687876 -0.008379876 -0.016691867 -0.079084806
0.011328814 -0.034143765 0.113994844 -0.004435303 -0.15001486 0.049365684 0.009994001 -0.0653674
-0.0032902635 -0.007516396 -0.06965292 -0.009328572 -0.024840383 -0.0022633455 -0.022958415 0.035732068
0.06512464 -0.1141321 -0.033640433 0.041681375 -0.0255004 0.045183674 -0.047080945 -0.108621195
0.037657667 -0.012817475 0.014712441 0.025718434 -0.029752096 0.107201755 0.02031683 -0.10367948
0.16829595 0.00016638955 -0.029314667 -0.011806031 0.0023354483 -0.10577944 0.0141605325 -0.0111715775
-0.104243524 -0.05005962 -0.0057023373 -0.023365417 -0.13836777 0.061187033 -0.0020834676 0.028581657
-0.020318465 0.07308231 -0.02024846 -0.08350108 -0.0022128848 0.0104656685 -0.01730344 -0.004580878
0.014802787 0.045321193 -0.05804082 0.06645983 0.032370217 0.08586762 -0.009909994 -0.028871613
-0.043402072 -0.012641431 -0.0010248942 -0.0060009267 0.048834935 0.011719561 -0.09454765 0.041726187
-0.004997647 -0.040247295 0.0026226386 -0.0034443939 -0.0018024212 0.08466146 -0.007272114 0.0037597578
-0.079014726 0.014600783 0.0055857734 -0.02107195 -0.059387803 0.06592351 -0.076473124 0.12597348
0.0009187488 -0.051738363 -0.06535025 0.045826096 -0.003135155 0.00401282 -8.805613e-05 0.008389399
-0.003586492 -0.10688713 -0.10793469 0.0013907148 -0.007246296 0.053631328 0.011389502 -0.03039783
-0.13411061 0.099571146 -0.05278083 0.018825829 -0.11118393 -0.0071630245 -0.040594086 0.1397125
0.07381898 -0.08978391 0.04548726 0.018106041 -0.007172072 -0.048086576 0.034730587 -0.052791853
0.047973137 -0.10354636 -0.00052138895 -0.0019930387 -0.019233733 -0.000794417 0.013510246 0.0137170805
0.007747663 -0.060013182 -0.037567046 -0.0053069913 0.004150624 0.04931602 -0.00088015007 -0.030399714
0.0012611676 -0.0013893675 0.006098791 -0.008352936 0.036763504 -0.00058010244 0.011188937 0.022153983
-0.1089923 0.019304074 0.03509781 0.042581964 0.027889049 0.010868631 0.012741358 0.05595886
0.021462483 -0.0028141376 0.075649194 0.0019794041 -0.03882941 -0.087765686 -0.00068319653 -0.013253101
0.035382263 0.00035845506 -0.007823989 0.056305006 -0.0027480246 0.0012163873 -0.0148221105 -0.020843418
0.064009145 -0.019094665 0.016189022 -0.0019087109 -0.029033497 0.011630944 -0.00023237686 0.030817613
-0.028959524 0.06587299 0.0034984227 0.0037185478 0.0036869983 0.020994155 0.0026206395 -0.0043358495
-0.012331398 0.00714575 -0.020483559 -0.0009184037 0.01213787 0.06569223 0.088763766 0.0039816215
-0.0013038247 -0.0014344641 -0.003161918 0.009394031 0.0004382148 0.033691216 0.043913107 -0.0076406086
-0.0010437194 0.010527997 -0.0008250004 -0.0014794628 0.00063050713 -0.0043500275 0.023319716 -0.00047497705
-0.024925252 0.010412418 0.0027446721 0.010739382 0.011697734 -0.030709188 -0.00010718039 0.025542894
0.0003196525 -0.10941988 -0.01782791 -6.84085e-05 -0.0027897272 0.00095461536 0.06881826 -0.004336563
0.0020041296 0.066644356 -0.010004448 -6.7414025e-05 -0.004214132 -0.018600984 0.041557103 0.00034154888
0.016330302 0.052341457 -0.10740417 -0.005983436 0.04615978 -0.0016442247 0.008256338 -0.018058714
0.033542562 0.058931418 0.0060611404 -0.0010628698 0.028734272 0.008086613 0.00047128863 -0.012209519
00000000: e755 5a3d a573 5c3d 5d00 90ba 460f 913d
00000010: 9857 0e3c bf4b 09bc 62bd 88bc 37f7 a1bd
00000020: 7d9c 393c 55da 0bbd 2176 e93d 0556 91bb
00000030: 7f9d 19be ac33 4a3d e1bd 233c 58df 85bd
00000040: 76a1 57bb 1a4c f6bb 31a6 8ebd ded6 18bc
00000050: 0f7e cbbc a354 14bb 4913 bcbc ca5b 123d
00000060: 1160 853d 17be e9bd 8dca 09bd 17ba 2a3d
00000070: 37e6 d0bc 8412 393d f3d7 40bd ca74 debd
00000080: ed3e 1a3d 6300 52bc 730c 713c 77af d23c
00000090: abba f3bc 988c db3d 7b6f a63c e855 d4bd
000000a0: c655 2c3e db78 2e39 5025 f0bc 156e 41bc
000000b0: 520e 193b e4a2 d8bd 9401 683c fe08 37bc
000000c0: a17d d5bd 510b 4dbd acda babb d568 bfbc
000000d0: 48b0 0dbe 419f 7a3d c98a 08bb 1424 ea3c
000000e0: e972 a6bc 2eac 953d 19e0 a5bc 9d02 abbd
000000f0: 0c06 11bb 3278 2b3c f2bf 8dbc 311b 96bb
00000100: 6487 723c b7a2 393d 36bc 6dbd 171c 883d
00000110: a296 043d 5ddb af3d 875d 22bc 2984 ecbc
00000120: 5fc6 31bd 011e 4fbc be55 86ba 6ca3 c4bb
00000130: 2407 483d 6703 403c 33a2 c1bd 14e9 2a3d
00000140: 4dc3 a3bb 59da 24bd 93e0 2b3b 57bb 61bb
00000150: 383f ecba fd62 ad3d ea4a eebb 4566 763b
00000160: 79d2 a1bd 1f38 6f3c dd08 b73b 159f acbc
00000170: a040 73bd e802 873d f19d 9cbd 31ff 003e
00000180: 30d8 703a 9beb 53bd 5ad6 85bd 25b4 3b3d
00000190: 2c77 4dbb f97d 833b c6aa b8b8 b173 093c
000001a0: 5a0b 6bbb a4e7 dabd dd0c ddbd a548 b63a
000001b0: 5672 edbb 86ac 5b3d 099b 3a3c df04 f9bc
000001c0: 4b54 09be f5eb cb3d b630 58bd a038 9a3c
000001d0: 66b4 e3bd ceb7 eabb fc45 26bd cb10 0f3e
000001e0: 682e 973d a0e0 b7bd d950 3a3d 1f53 943c
000001f0: b303 ebbb 6ef6 44bd a941 0e3d 453c 58bd
00000200: 7b7f 443d 1d10 d4bd d2ad 08ba a49d 02bb
00000210: 1090 9dbc 6c40 50ba 145a 5d3c 9bbd 603c
00000220: 1ce0 fd3b 62d0 75bd e7df 19bd 45e6 adbb
00000230: f501 883b 98ff 493d dfb9 66ba d208 f9bc
00000240: c34d a53a 701b b6ba 5ed8 c73b c1da 08bc
00000250: 5495 163d 0412 18ba ce51 373c 457c b53c
00000260: 5b37 dfbd 9423 9e3c b9c2 0f3d 6d6a 2e3d
00000270: 9377 e43c 5812 323c 21c1 503c 1e35 653d
00000280: 17d2 af3c 656d 38bb f7ed 9a3d e4b8 013b
00000290: 960b 1fbd 7fbe b3bd 8b18 33ba 8923 59bc
000002a0: feec 103d 06ef bb39 3030 00bc 14a0 663d
000002b0: 3418 34bb 2f6f 9f3a 70d8 72bc d1bf aabc
000002c0: 3a17 833d 6a6c 9cbc d79e 843c b62d faba
000002d0: a8d7 edbc b78f 3e3c 30aa 73b9 3875 fc3c
000002e0: 863c edbc 6be8 863d cb45 653b e1b2 733b
000002f0: 91a1 713b effb ab3c 09bf 2b3b be13 8ebb
00000300: a209 4abc e526 ea3b 23cd a7bc 07c1 70ba
00000310: ebdd 463c a689 863d c7c9 b53d 4378 823b
00000320: 19e5 aaba a104 bcba 2e38 4fbb 6ce9 193c
00000330: 32c0 e539 cdff 093d 3bde 333d 125e fabb
00000340: 69cd 88ba 9f7d 2c3c d744 58ba 89ea c1ba
00000350: 9e48 253a ad8a 8ebb fd08 bf3c 5706 f9b9
00000360: 0b30 ccbc d998 2a3c f5df 333b 3cf4 2f3c
00000370: daa7 3f3c d691 fbbc 09c6 e0b8 553f d13c
00000380: 0897 a739 8817 e0bd d60b 92bc 8976 8fb8
00000390: dbd3 36bb 273f 7a3a 97f0 8c3d ba19 8ebb
000003a0: b757 033b d67c 883d b2e9 23bc a160 8db8
000003b0: b416 8abb 1761 98bc c837 2a3d ea11 b339
000003c0: 20c7 853c ff63 563d b8f6 dbbd b310 c4bb
000003d0: 0a12 3d3d 0783 d7ba 9745 073c deef 93bc
000003e0: ed63 093d 1262 713d 889c c63b fe4f 8bba
000003f0: 2364 eb3c b77d 043c 4a17 f739 6f0a 48bc

action_model._continuous_distribution.mu.bias f4 [2]
-0.008824085 -0.012913042
00000000: e592 10bc 3991 53bc
