results/AI_Candidate/Boss/Boss-56319.pt (torch, 445282 bytes, 36 tensors)

network_body._body_endoder.seq_layers.0.weight f4 [128, 7]
0.18478993 0.25217456 -0.78877676 0.22587968 -0.16141918 -0.17160217 -1.0983351 0.16614664
-0.10818016 -0.4721992 -0.20554617 -0.45717633 -0.009964159 0.053345155 0.2969084 0.24177524
0.21454528 0.018347193 0.13109416 0.109868556 0.22412282 0.5641172 -0.0035930194 0.050133355
-0.3672498 0.36099795 -0.08044335 -0.08807775 0.30589154 -0.070869625 0.16637145 1.1203544
-0.9181984 0.35920668 -0.17927277 0.06672068 0.037332553 0.16476828 0.53755504 0.024543077
0.11295538 0.38218614 0.35991898 0.02901705 -0.59203666 -0.040763836 0.17521144 -0.65195566
-0.35268086 0.21564065 -0.34784305 -0.23143904 -0.003781295 0.3368249 -0.13490076 0.41532663
-0.33591333 0.32072937 0.11595224 0.066046394 0.2638104 -1.0380589 0.14601101 0.12967542
-0.6754101 0.08244375 -0.2479609 -0.08888028 0.063629754 -0.24357979 0.04041876 -0.10978865
0.23516278 -0.11096625 -0.10999124 0.16712455 -0.3931482 -0.37670735 0.15273216 -0.4522758
0.020029172 0.28622216 -0.16033627 -0.22049291 -0.18534103 -0.16067645 0.43842724 0.3512573
0.37091577 0.36454257 -1.3555883 0.40232557 -0.32143492 0.77205914 -0.08622792 0.018648382
0.5294192 -0.22118127 0.5061564 -0.67076313 -0.6790446 -0.37230608 -0.32131216 -0.079986244
-0.11662208 0.38870552 -0.060795613 -0.36978805 0.14501227 -0.15779737 0.36153793 0.19662844
0.26775154 -0.6129457 0.1452577 0.21483381 0.100186154 -0.37991646 -0.32534015 0.18842895
-0.33065584 0.27201498 0.44344842 -0.041001096 0.6354223 0.3187854 0.16076411 0.6461928
-0.014012627 0.027743988 -0.2557174 -0.25524405 -0.21586943 0.012184126 -0.11360187 -0.29725465
-0.034581363 0.17632887 -0.043810874 0.07067144 0.3661731 0.16602877 0.718948 -0.27456278
0.51619 -0.12737708 -0.33045167 -0.10104287 0.085381895 0.40138552 0.10334399 -0.22955151
-0.3971154 0.18901001 -0.24241458 0.7278241 -0.07484222 -0.4553033 -0.4251945 0.23148838
-0.20185551 0.53834414 -0.19175074 -0.16050275 -0.32106262 -0.18744354 -0.3473496 -0.23186594
0.44405356 -0.09349016 -0.274015 0.080226876 -0.46627983 -0.052465793 0.22447182 0.32134414
0.6605347 0.13822664 -0.3557813 -0.25620425 0.5715427 0.24892221 -0.118184984 0.31100702
-0.475055 0.7753154 0.59118515 -0.13256635 -0.585892 0.38668862 0.0073725083 -0.4746773
-0.56287223 0.323332 -0.47458163 0.31154352 0.1557861 0.5906511 0.25111142 -0.28401294
0.29278398 0.32135808 -0.32732248 0.032246597 -0.7163811 0.20204224 -0.6072799 0.37459096
-0.0020131187 0.7002031 0.2334027 0.093476065 0.5486022 -0.5104141 -0.16121742 -0.28366986
-0.3051865 -0.20131247 1.4092126 0.3818877 -0.16467457 0.45420113 0.39382085 0.5450606
-0.33122683 0.29082206 0.6646502 0.13895176 -0.33226788 0.31076264 -0.4367277 -0.33519444
-0.030815857 -0.123054504 0.274458 -0.77166903 0.30011737 -0.049039014 0.11870623 -0.29578885
-0.7501535 0.6901683 -0.35291487 0.5687025 0.2120081 -0.8180457 0.019456886 -0.5085185
-0.47842073 -0.027037242 0.37523845 -0.100095205 -0.6853546 0.3137593 0.49724755 0.08458147
00000000: 9239 3d3e 061d 813e 46ed 49bf 014d 673e
00000010: 124b 25be 7bb8 2fbe 3f96 8cbf 5822 2a3e
00000020: 8f8d ddbd 18c4 f1be b27a 52be 0413 eabe
00000030: b640 23bc 7380 5a3d 6104 983e ee93 773e
00000040: c2b1 5b3e da4c 963c 8c3d 063e c402 e13d
00000050: 7480 653e fc69 103f dd78 6bbb a258 4d3d
00000060: 2a08 bcbe b9d4 b83e 7cbf a4bd 1b62 b4bd
00000070: d19d 9c3e 1824 91bd 475d 2a3e c667 8f3f
00000080: 0d0f 6bbf f0e9 b73e 4893 37be daa4 883d
00000090: 05ea 183d 04b9 283e 359d 093f 900e c93c
000000a0: 2655 e73d e7ad c33e 4d47 b83e 2ab5 ed3c
000000b0: b78f 17bf fbf7 26bd a16a 333e 91e6 26bf
000000c0: 9692 b4be e7d0 5c3e 7c18 b2be 5bfe 6cbe
000000d0: 9acf 77bb 5074 ac3e 6d23 0abe b1a5 d43e
000000e0: d5fc abbe a436 a43e 5e78 ed3d 5543 873d
000000f0: 2812 873e 1ddf 84bf e983 153e a2c9 043e
00000100: ade7 2cbf 45d8 a83d 76e9 7dbe dd06 b6bd
00000110: 5150 823d fb6c 79be 248e 253d dfd8 e0bd
00000120: 83ce 703e 4642 e3bd 1643 e1bd b322 2b3e
00000130: b94a c9be c9df c0be d265 1c3e b290 e7be
00000140: 3814 a43c b68b 923e 312f 24be e5c8 61be
00000150: 0aca 3dbe 5e88 24be 8979 e03e ffd7 b33e
00000160: ace8 bd3e 53a5 ba3e eb83 adbf 9efd cd3e
00000170: 1e93 a4be aba5 453f 4498 b0bd 7ec4 983c
00000180: 0488 073f 587d 62be 7793 013f 22b7 2bbf
00000190: ded5 2dbf e79e bebe 0783 a4be d4cf a3bd
000001a0: 8fd7 eebd 6904 c73e d204 79bd dc54 bdbe
000001b0: 197e 143e a295 21be 801b b93e f758 493e
000001c0: bb16 893e 02ea 1cbf 6fbe 143e 65fd 5b3e
000001d0: 662e cd3d 6984 c2be fc92 a6be 85f3 403e
000001e0: b94b a9be 8c45 8b3e ac0b e33e c4f0 27bd
000001f0: 09ab 223f d737 a33e 599f 243e e46c 253f
00000200: 3895 65bc 5c47 e33c 64ed 82be 59af 82be
00000210: e00c 5dbe ee9f 473c 19a8 e8bd c331 98be
00000220: 30a5 0dbd 8e8f 343e 0873 33bd 30bc 903d
00000230: 0a7b bb3e 7203 2a3e fa0c 383f 7e93 8cbe
00000240: 0725 043f 236f 02be f630 a9be 90ef cebd
00000250: b4dc ae3d 6782 cd3e 04a6 d33d 8d0f 6bbe
00000260: b652 cbbe d78b 413e 873b 78be ae52 3a3f
00000270: e146 99bd 841d e9be 18b3 d9be 4a0b 6d3e
00000280: 36b3 4ebe ecd0 093f 4e5a 44be d55a 24be
00000290: 5262 a4be 33f1 3fbe cfd7 b1be 446e 6dbe
000002a0: fd5a e33e c577 bfbd b24b 8cbe fd4d a43d
000002b0: 3bbc eebe 5fe6 56bd f1db 653e 3887 a43e
000002c0: cd18 293f 498b 0d3e f728 b6be 342d 83be
000002d0: 9f50 123f 77e5 7e3e f80a f2bd 503c 9f3e
000002e0: 693a f3be 127b 463f e957 173f 79bf 07be
000002f0: 05fd 15bf 0dfc c53e 1595 f13b e708 f3be
00000300: 6518 10bf c68b a53e 5dfc f2be a282 9f3e
00000310: 6486 1f3e e934 173f ad91 803e 256a 91be
00000320: c8e7 953e 0c89 a43e d096 a7be 0215 043d
00000330: c064 37bf 29e4 4e3e b276 1bbf 63ca bf3e
00000340: 87ee 03bb 8340 333f 1e01 6f3e 6170 bf3d
00000350: 3271 0c3f 80aa 02bf 2e16 25be 2d3d 91be
00000360: 6841 9cbe db24 4ebe 1461 b43f c986 c33e
00000370: 73a0 28be 0d8d e83e e3a2 c93e 1789 0b3f
00000380: 9096 a9be a1e6 943e 8426 2a3f 5f49 0e3e
00000390: 041f aabe 481c 9f3e c69a dfbe 9b9e abbe
000003a0: 8971 fcbc 0004 fcbd c285 8c3e 1a8c 45bf
000003b0: fca8 993e 22dd 48bd 401c f33d a371 97be
000003c0: 0f0a 40bf dfae 303f 42b1 b4be 7d96 113f
000003d0: a718 593e 716b 51bf 0c64 9f3c 452e 02bf
000003e0: 90f3 f4be 357d ddbc 411f c03e b7fe ccbd
000003f0: 6673 2fbf 0fa5 a03e 3b97 fe3e 0d39 ad3d

network_body._body_endoder.seq_layers.0.bias f4 [128]
0.003982736 0.0043478208 0.0013367293 0.0022188248 -0.006434835 0.00045839595 0.0055427244 0.008288603
-0.0060220473 0.004885728 0.0023185245 -0.002045846 -0.0024000716 0.0017739426 -0.0045156106 0.008228753
0.0030919071 0.00014751039 0.0044587622 0.0028483039 0.0010389779 0.0026078296 -0.00437048 0.0022249161
-0.0003299399 0.0056409556 0.0013564879 0.0021826338 -0.0004018613 0.004234988 0.0050693075 -0.007424471
0.011408111 0.00063645624 -0.0005227047 0.0054570297 0.00021214582 0.0016503582 -0.00615517 -0.005078204
-0.0076412586 0.00032925172 0.008461417 0.010038665 0.0075454023 0.0018505709 -0.009753806 -0.000863095
0.0032566309 -0.0016924534 -0.0032653378 0.00055187236 0.0063525303 0.000926841 0.0004518724 0.004217596
0.0010945984 -0.002880984 -0.005628846 -0.0015751533 -0.009277516 -0.0036236136 0.0015476512 -0.0013871101
-0.0010847192 -0.003261435 0.0022688357 0.0033943597 0.0002561858 0.004711091 0.0052245096 0.00082684105
-0.009134582 0.00090266595 -0.0013654232 0.0011011942 0.0054928777 0.012350484 0.0032726282 -0.00028027216
0.0028275142 -0.006819933 -0.0045212987 -0.0005652924 -0.002185071 -0.006161714 -0.0142207295 0.005793136
-0.0037929458 0.005870578 -0.0017146044 -0.0030332815 -0.0026685072 -0.0021228737 -0.005788067 -0.0096923
-0.0007849495 -0.0043068393 -0.0040580602 0.0072492003 -0.0008502326 -0.008630325 0.0062540793 -0.0029815459
0.00064406625 0.00036064663 -0.00052423304 0.0029281734 -0.00031543407 -0.005350454 0.003986023 -0.009320269
0.0026619232 0.0017097875 0.009313921 0.001926876 0.0076207807 -0.012162162 0.0017371913 0.007862017
-0.0001419746 -0.0007638432 -0.0019910394 0.009033346 -0.0011606211 0.0041943295 0.004372702 -0.0014285224
00000000: 9c81 823b 2a78 8e3b 3135 af3a b469 113b
00000010: 4fdb d2bb dd54 f039 be9f b53b eccc 073c
00000020: 9854 c5bb 7518 a03b 63f2 173b 9a13 06bb
00000030: 854a 1dbb a383 e83a b0f7 93bb e4d1 063c
00000040: 98a1 4a3b 05ad 1a39 cf1a 923b 9caa 3a3b
00000050: 502e 883a 1fe8 2a3b 3e36 8fbb e6cf 113b
00000060: c9fb acb9 c4d7 b83b 2ecc b13a 850a 0f3b
00000070: e9b0 d2b9 a7c5 8a3b 6f1c a63b fa48 f3bb
00000080: 16e9 3a3c dbd7 263a 1e06 09ba e2d0 b23b
00000090: 7673 5e39 d550 d83a 4fb1 c9bb 1067 a6bb
000000a0: 8663 fabb 6b9f ac39 c1a1 0a3c 3679 243c
000000b0: 6c3f f73b db8e f23a 6dce 1fbc 5341 62ba
000000c0: 336d 553b 50d5 ddba 47ff 55bb 87ab 103a
000000d0: e328 d03b 3ff7 723a 49e9 ec39 c233 8a3b
000000e0: a178 8f3a e4ce 3cbb 2f72 b8bb 6075 ceba
000000f0: b900 18bc 267a 6dbb 8fda ca3a b1cf b5ba
00000100: 232d 8eba cdbd 55bb bfb0 143b e873 5e3b
00000110: ad50 8639 7f5f 9a3b 5d32 ab3b 5dc0 583a
00000120: 37a9 15bc e3a0 6c3a 00f8 b2ba f255 903a
00000130: 99fd b33b af59 4a3c 9779 563b 7ef1 92b9
00000140: d14d 393b bf79 dfbb 6727 94bb 2130 14ba
00000150: 6833 0fbb 34e8 c9bb 10fe 68bc 59d4 bd3b
00000160: 1293 78bb fa5d c03b 94bc e0ba 05ca 46bb
00000170: 1fe2 2ebb e91f 0bbb d3a9 bdbb 74cc 1ebc
00000180: 12c5 4dba 6320 8dbb 7af9 84bb b38a ed3b
00000190: 25e2 5eba 3566 0dbc 05ef cc3b 0a66 43bb
000001a0: 8ed6 283a 2c15 bd39 af6c 09ba 99e6 3f3b
000001b0: d860 a5b9 dc52 afbb 2f9d 823b 0bb4 18bc
000001c0: a973 2e3b f31a e03a 6b99 183c 3b8f fc3a
000001d0: beb7 f93b ce43 47bc 78b2 e33a b0cf 003c
000001e0: 04df 14b9 a63c 48ba 197c 02bb 9900 143c
000001f0: fb1f 98ba 9670 893b e248 8f3b 423d bbba

network_body._body_endoder.seq_layers.2.weight f4 [128, 128]
-0.030464744 -0.009047404 -0.032443292 0.019393215 -0.07683247 0.14037517 -0.029642671 0.059682727
-0.05965227 0.01927314 0.062481467 -0.1369131 -0.03513754 -0.06298122 0.18521854 -0.18037798
-0.07609028 0.017763395 -0.13022587 0.04058728 0.026342595 0.01754183 0.06375986 0.06116865
0.02206865 0.034688495 -0.15386984 0.080041125 -0.015243223 0.047205046 -0.052432336 -0.10137237
-0.007283768 -0.0028659266 -0.08590567 0.077390105 -0.17341425 0.011571715 -0.071413465 -0.08698801
0.02160837 -0.10581878 0.051803317 0.06812853 0.051582325 -0.08132915 -0.11343239 0.13457637
-0.07139469 -0.05412645 0.07233786 0.09548375 -0.072251536 -0.018748004 -0.07172022 -0.13198276
0.11928284 0.06471349 -0.059963807 0.046376362 -0.034514397 0.005272564 0.05828557 0.10652022
0.083983354 0.028986285 0.2075013 -0.08208339 -0.006706684 -0.15828669 0.041399416 -0.059754815
0.05383284 -0.031426407 -0.0024530287 0.18721794 0.16344638 0.06963421 0.10295092 -0.04403637
-0.072250254 0.073127106 -0.042030923 0.0097239725 0.05099069 -0.001980983 -0.033573426 0.016826414
0.24622202 0.09266929 -0.0019945807 -0.008204232 -0.11852339 -0.04150656 -0.044413473 0.08018162
-0.011128592 0.091245376 0.022753736 0.05290383 -0.08960299 -0.008890941 -0.07751777 -0.022364065
0.056531925 0.027663672 0.18975902 -0.047824603 -0.0011894015 -0.04953906 -0.10230539 -0.051938593
0.16897863 0.088960476 0.028408593 -0.0029387213 -0.007921238 0.20055825 0.06749903 0.028002804
-0.018158678 0.024620518 0.0738086 0.14992012 -0.0022371795 0.008795663 0.03831969 0.095869906
-0.039317172 -0.08088288 0.010639341 -0.054505996 0.013893308 -0.08807185 0.09562332 -0.1309498
-0.096181355 0.09386992 -0.17268622 -0.004778312 0.01692174 0.019539222 0.069172345 0.020822236
0.11369803 -0.025656596 0.106947325 0.100150414 -0.2732199 0.11628827 0.09855241 -0.031420104
0.06135885 0.15522894 -0.0035728842 -0.047123536 0.082767576 -0.028000867 -0.054306608 -0.107276924
-0.05762068 0.07726171 -0.014694913 -0.044283215 0.0024285128 -0.12269394 0.031379748 -0.08862257
-0.17050622 -0.08442723 -0.00926672 0.057282407 -0.13904805 0.058893535 -0.10704482 -0.060939208
0.19891758 -0.02113331 0.01898645 0.18505119 -0.12974091 0.023894086 0.014975185 0.22145858
-0.093797624 -0.039200548 0.07729434 0.022633132 0.049270604 0.20384164 0.07790183 0.14525132
-0.084462285 -0.051773436 0.15793711 -0.02067131 0.014433292 0.1302806 0.013962268 -0.10216529
0.04437508 0.14844815 0.0738229 -0.019850498 -0.13219559 0.12708534 0.04948114 0.11116441
0.030461133 -0.04237275 0.036033254 -0.01790743 0.057148542 0.17972717 0.08298375 0.04343413
-0.04043721 0.067187384 -0.04472751 -0.1300475 0.02616061 -0.049889006 0.07133766 -0.17045447
-0.10799194 0.054048568 -0.0920436 0.037693545 0.046857234 0.15188372 -0.10532799 0.0020037992
0.15793303 -0.009027596 -0.121793754 -0.07035588 -0.012023347 0.046685565 0.052281257 -0.03188585
0.044481635 0.06915586 -0.045750026 0.16124685 0.056430306 -0.048585996 -0.0617491 0.015040587
-0.035004053 -0.016969495 -0.044336915 -0.16230133 0.015616455 0.101243675 -0.016717266 0.061266903
00000000: 3391 f9bc 903b 14bc 42e3 04bd 85de 9e3c
00000010: 585a 9dbd 82be 0f3e 30d5 f2bc e075 743d
00000020: f055 74bd b4e2 9d3c 91ec 7f3d f332 0cbe
00000030: 62ec 0fbd 4cfc 80bd eea9 3d3e 01b5 38be
00000040: 39d5 9bbd 8a84 913c ee59 05be d93e 263d
00000050: 6dcc d73c e2b3 8f3c 8894 823d fa8b 7a3d
00000060: 50c9 b43c 8615 0e3d 0e90 1dbe 9aec a33d
00000070: b6be 79bc 145a 413d 4ac3 56bd 519c cfbd
00000080: adac eebb 45d2 3bbb 50ef afbd b47e 9e3d
00000090: 8193 31be 4a97 3d3c 3941 92bd c526 b2bd
000000a0: 0904 b13c 84b7 d8bd b72f 543d f986 8b3d
000000b0: fd47 533d e68f a6bd 3e4f e8bd 63ce 093e
000000c0: 6137 92bd b2b3 5dbd df25 943d fc8c c33d
000000d0: 9df8 93bd 6a95 99bc 0de2 92bd 7d26 07be
000000e0: 904a f43d 8288 843d 9c9c 75bd 24f5 3d3d
000000f0: f85e 0dbd 79c5 ac3b dabc 6e3d 4627 da3d
00000100: 77ff ab3d a574 ed3c 397b 543e 561b a8bd
00000110: bec3 dbbb e815 22be 6f92 293d 77c1 74bd
00000120: d37f 5c3d fab8 00bd fec2 20bb 0fb6 3f3e
00000130: 7d5e 273e 619c 8e3d efd7 d23d 7b5f 34bd
00000140: f1f7 93bd aac3 953d 9e28 2cbd 4c51 1f3c
00000150: 9ddb 503d 61d3 01bb 4a84 09bd 8cd7 893c
00000160: a021 7c3e 66c9 bd3d 83b7 02bb 0b6b 06bc
00000170: 64bc f2bd c802 2abd e7ea 35bd 4336 a43d
00000180: b354 36bc dbde ba3d 0b66 ba3c b0b1 583d
00000190: c681 b7bd 4fab 11bc a3c1 9ebd d834 b7bc
000001a0: 058e 673d ed9e e23c 3050 423e bbe3 43bd
000001b0: b1e5 9bba 78e9 4abd 7d85 d1bd 90bd 54bd
000001c0: bc08 2d3e e930 b63d 23b9 e83c 9097 40bb
000001d0: 15c8 01bc 245f 4d3e ee3c 8a3d 2366 e53c
000001e0: 82c1 94bc f8b0 c93c f728 973d a984 193e
000001f0: a59d 12bb af1b 103c 1bf5 1c3d 7157 c43d
00000200: 0b0b 21bd eca5 a5bd a150 2e3c ae41 5fbd
00000210: c2a0 633c 045f b4bd 29d6 c33d b417 06be
00000220: bbfa c4bd df3e c03d a8d4 30be 6393 9cbb
00000230: 769f 8a3c b810 a03c 3baa 8d3d 6593 aa3c
00000240: 83da e83d c82d d2bc 3307 db3d a91b cd3d
00000250: 7be3 8bbe 8b28 ee3d d9d5 c93d 5eb2 00bd
00000260: 6b53 7b3d 56f4 1e3e 0d27 6abb 9c04 41bd
00000270: 0c82 a93d 1362 e5bc 9b70 5ebd 01b4 dbbd
00000280: aa03 6cbd 633b 9e3d efc2 70bc 5162 35bd
00000290: af27 1f3b f646 fbbd 0d88 003d c07f b5bd
000002a0: 2f99 2ebe 2fe8 acbd 71d3 17bc f5a0 6a3d
000002b0: 9d62 0ebe 593a 713d 513a dbbd 649b 79bd
000002c0: 0db1 4b3e c31f adbc 7989 9b3c 0f7e 3d3e
000002d0: cdda 04be 88bd c33c 7a5a 753c 0ac6 623e
000002e0: f818 c0bd c190 20bd 7f4c 9e3d 1e69 b93c
000002f0: f9cf 493d ddbb 503e ff8a 9f3d c3bc 143e
00000300: 90fa acbd 6210 54bd 44ba 213e e156 a9bc
00000310: 9d79 6c3c 4768 053e ffc1 643c 093c d1bd
00000320: a5c2 353d cb02 183e 7630 973d 839d a2bc
00000330: 485e 07be a922 023e bcac 4a3d 2baa e33d
00000340: a089 f93c 0c8f 2dbd 9b97 133d 9ab2 92bc
00000350: 9714 6a3d 660a 383e 62f3 a93d fce7 313d
00000360: 7da1 25bd 8a99 893d 3234 37bd 2c2b 05be
00000370: c74e d63c 6a58 4cbd 7b19 923d 9e8b 2ebe
00000380: e12a ddbd 0862 5d3d 5b81 bcbd 8c64 1a3d
00000390: 5fed 3f3d 6887 1b3e 34b6 d7bd 2c52 033b
000003a0: 32b9 213e 7be8 13bc 016f f9bd be16 90bd
000003b0: 93fd 44bc 5d39 3f3d df24 563d bd9a 02bd
000003c0: 6032 363d 96a1 8d3d 6164 3bbd e51d 253e
000003d0: 7723 673d 1c02 47bd a0ec 7cbd cb6c 763c
000003e0: 6960 0fbd 9c03 8bbc a09a 35bd 5232 26be
000003f0: 29dc 7f3c d858 cf3d a6f2 88bc 01f3 7a3d

network_body._body_endoder.seq_layers.2.bias f4 [128]
0.0007649054 0.005051985 0.0006004549 -0.0046715913 -0.0052435733 -0.000841702 -0.002711052 -0.0011826741
-0.0025513014 0.005104053 -0.0013180864 -0.002608959 -0.0030703323 0.0053333477 -0.001189883 -3.3614964e-05
-0.0006411803 -0.001095603 0.0016497241 0.0006109508 -0.00587925 0.00096380303 0.001658425 0.0034189206
0.00046401424 -0.000107974134 0.0031172251 0.013053489 0.0039632167 -0.003998153 -0.006160352 -0.001053837
-0.0013077183 0.0011042577 -0.0016540738 0.0002463933 0.0013941344 0.0021107642 0.00054539886 7.6281907e-07
0.0013993348 -0.00094550976 -0.0012273882 -0.0006890313 -0.00468967 0.0025802404 0.0006664495 0.001713692
0.0048326957 0.0030291968 -0.0024920888 0.0037846265 0.004399064 -0.002053223 -0.0017805408 -0.0018316301
0.0062292176 -0.0003894883 -0.0011041813 0.0005825453 0.0012797964 0.0083919 0.0027025095 -0.0010611529
0.0005519001 -0.002362717 0.00038178533 -0.0064817583 -0.0012398586 -0.002201474 0.0032557603 -0.0018270729
0.0038140381 0.0034723163 0.000962583 0.00022360926 -0.00026529317 0.00034758198 -0.0012968276 0.0020185784
-0.0024899247 -0.0049838023 -0.004522401 0.00078076933 0.0003683633 -0.003557795 0.00056450383 0.0016165974
0.0037831408 0.0027517423 -0.0026059195 -0.008707692 -0.004105909 0.0059498525 0.00015545114 0.0030453599
-0.00050924823 0.006124016 0.0025165624 0.00485375 -0.0017803548 -0.0029773104 0.0018661561 -0.0008403615
-0.0008689554 0.0006453693 0.0021833847 -0.0021299308 0.0011393469 0.0028201398 -0.0072152577 -0.0001579791
0.0037302936 0.0029469342 -0.010071827 0.0019367823 0.0013983093 -0.0017236003 -0.001114668 0.012756802
0.012569742 0.0030404124 -0.0026444206 -0.0014423082 -0.0021340454 0.0037478798 -0.005368803 0.00012983015
00000000: ef83 483a 1f8b a53b d967 1d3a 2614 99bb
00000010: 48d2 abbb aaa5 5cba e8ab 31bb f503 9bba
00000020: bc33 27bb e63f a73b a4c3 acba 12fb 2abb
00000030: a137 49bb 5dc3 ae3b d9f5 9bba cbfd 0cb8
00000040: e214 28ba 569a 8fba 8e3b d83a 3728 203a
00000050: b9a6 c0bb baa7 7c3a 825f d93a f80f 603b
00000060: f046 f339 2c70 e2b8 5c4a 4c3b 4dde 553c
00000070: dfdd 813b f002 83bb c7dc c9bb e720 8aba
00000080: bf67 abba bdbc 903a 82cd d8ba 592e 8139
00000090: 63bb b63a bf54 0a3b 19f9 0e3a 87c4 4c35
000000a0: e269 b73a 16dc 77ba 50e0 a0ba 1ca0 34ba
000000b0: ceab 99bb 4019 293b abb4 2e3a f69d e03a
000000c0: 975b 9e3b 7d85 463b 5052 23bb 7f07 783b
000000d0: 0626 903b 5e8f 06bb 0961 e9ba 4f13 f0ba
000000e0: 771e cc3b 3c34 ccb9 2dba 90ba f4b5 183a
000000f0: d7be a73a 2e7e 093c 961c 313b 6216 8bba
00000100: 64ad 103a d0d7 1abb 5c2a c839 ee64 d4bb
00000110: c082 a2ba 9b46 10bb 985e 553b 657a efba
00000120: f1f4 793b cd8f 633b da55 7c3a a778 6a39
00000130: 0c17 8bb9 aa3b b639 50fa a9ba 204a 043b
00000140: 012e 23bb 2a4f a3bb a630 94bb 8bac 4c3a
00000150: e320 c139 e529 69bb 36fb 133a 02e4 d33a
00000160: 92ee 773b 9356 343b 13c8 2abb b5aa 0ebc
00000170: dc8a 86bb fbf6 c23b 9900 2339 a994 473b
00000180: 127f 05ba f8ab c83b e9ec 243b 350c 9f3b
00000190: cb5a e9ba fb1e 43bb cf99 f43a b54b 5cba
000001a0: 9cca 63ba 002e 293a 1e17 0f3b 4f96 0bbb
000001b0: 2356 953a 18d2 383b f86d ecbb 31a7 25b9
000001c0: f177 743b 5a21 413b 4e04 25bc a1db fd3a
000001d0: 7947 b73a 6eea e1ba 0d1a 92ba e801 513c
000001e0: 52f1 4d3c a841 473b 044e 2dbb d50b bdba
000001f0: 57db 0bbb fd9e 753b c9ec afbb 0423 0839

action_model._continuous_distribution.log_sigma f4 [1, 2]
-0.0053753513 -0.016420843
00000000: b723 b0bb 0185 86bc

action_model._continuous_distribution.mu.weight f4 [2, 128]
0.023978336 0.025537055 0.017272973 0.010329037 -0.003028793 -0.041725647 -0.0039779604 -0.012067208
0.007729685 -0.010418177 0.010268639 0.00929483 -0.037970606 0.0122087 0.010566227 -0.002537842
0.020342551 -0.024525786 -0.016377997 0.010252232 -0.031325024 0.012924883 -0.020733047 0.009726799
0.005267189 -0.03112071 -0.01869903 0.005185792 -0.012084644 0.017857281 -0.023620842 -0.04010831
0.026947025 -0.012734542 -0.0065757427 0.023227679 -0.004732467 -0.0025087302 0.012044904 0.002732321
0.029279616 0.009352145 -0.013441481 -0.00094399747 -0.011532154 -0.020259634 -0.0022206116 -0.007572004
-0.0090654595 -0.011645466 0.0034143704 -0.0068641948 -0.024777267 0.0014879456 0.010593333 -0.0049589784
-0.013353032 0.013115095 0.0006081873 -0.0099313995 0.011230829 0.008574844 0.0027624657 0.012041089
0.033879578 0.019310439 -0.017398128 0.0068006236 0.025478309 0.04313847 0.0069487584 -0.013303072
-0.04536509 -0.010401082 0.023635032 -0.009564541 0.025009392 -0.011574335 -0.021669425 0.014247898
0.0005775132 -0.008458139 0.013519896 -0.02489648 -0.012034996 0.01438191 0.0016999827 0.0047655045
-0.014126968 0.011238633 0.011387164 -0.020725787 -0.017323289 -0.0031434484 -0.03137995 0.027076436
0.0266998 0.006478569 -0.011310634 0.03367668 -0.00426192 0.017843358 -0.0031429497 -0.006562221
-0.015046759 -0.0047920314 -0.024970587 0.004593228 -0.007371157 0.013608061 0.009254185 -0.03943273
-0.013189556 0.02942708 -0.019638099 0.015851283 -0.026583446 -0.012468904 -0.03611354 0.02960518
0.013766944 -0.015539778 0.0071022883 0.003814907 -0.0123167 -0.039135158 0.02016755 -0.026822355
0.027928345 -0.050745334 0.004250215 0.003076594 0.008201407 -0.0026818288 0.019679226 -0.0004926319
0.019713828 -0.028953351 0.003173521 0.014225518 -0.03848956 0.012861582 0.0206914 -0.010795924
0.0064082346 0.006298002 0.0046126028 -0.014725391 0.011032066 -0.006552673 0.009124868 0.009563737
-0.008020869 0.018320473 0.010639629 -0.006424733 0.013186906 0.004936865 0.015766405 0.024068266
0.016654115 -0.019127648 0.02895448 -0.00295632 -0.048074912 -0.025901886 -0.0019501782 -0.0062890113
0.03141692 0.019590499 0.0019951821 0.009665836 0.005236438 0.00019670524 -0.042920712 -0.040593147
0.02057762 -0.028716568 0.019281846 -0.010207802 -0.020708684 0.03323422 0.0127428025 0.021185473
-0.033814576 0.027047094 0.028138407 -0.0035149504 -0.014146004 0.03057302 -0.0108544715 0.017947044
-0.018700043 -0.013462509 -0.031736206 0.014809685 -0.0034667482 0.004834664 0.03672023 0.01759885
0.0013621821 -0.024633486 -0.0140290335 0.022756726 6.438739e-05 0.02129529 0.023846595 0.0058343974
0.013057584 -0.005274501 0.0065928116 -0.01254151 -0.01391401 0.013163279 0.004288541 0.0035520126
-0.01643978 0.008261569 0.018239565 0.01465378 0.016879983 -0.030113224 -0.025688328 0.02858381
-0.013273231 -0.01991372 -0.0031253921 -0.0045658145 -0.001134035 -0.00334811 0.02685292 -0.016022
-0.021305243 0.021754086 -0.011926766 0.008427019 -0.015455706 -0.016134493 0.018018538 0.0008518529
-2.1716636e-05 0.008136299 -0.020028464 -0.029456362 0.022968682 0.015250903 0.023645584 -0.0019746274
0.020301042 0.014025531 -0.0031814193 -0.009235119 0.0006191955 -0.039835293 0.017168958 -0.027418358
00000000: 376e c43c 1633 d13c 0d80 8d3c 1f3b 293c
00000010: b77e 46bb 83e8 2abd 8d59 82bb 8ab5 45bc
00000020: 4c49 fd3b 00b1 2abc cb3d 283c 5849 183c
00000030: 1187 1bbd 0007 483c f81d 2d3c ec51 26bb
00000040: 6ca5 a63c 4dea c8bc 262b 86bc faf8 273c
00000050: ab4e 00bd e3c2 533c 5ad8 a9bc 275d 1f3c
00000060: 6298 ac3b dcf0 febc b52e 99bc 94ed a93b
00000070: acfe 45bc 6f49 923c 7f80 c1bc 9c48 24bd
00000080: 02c0 dc3c 8aa4 50bc 5479 d7bb f947 be3c
00000090: cf12 9bbb 8269 24bb fd57 453c bd10 333b
000000a0: cedb ef3c bd39 193c a839 5cbc 9976 77ba
000000b0: 5cf1 3cbc 88f7 a5bc ae87 11bb 931e f8bb
000000c0: 4b87 14bc a0cc 3ebc a1c3 5f3b 0aed e0bb
000000d0: b2f9 cabc 2b07 c33a a98f 2d3c ed7e a2bb
000000e0: adc6 5abc b2e0 563c c26e 1f3a 4fb7 22bc
000000f0: 8301 383c 817d 0c3c 7c0a 353b fd47 453c
00000100: 50c5 0a3d ed30 9e3c 8586 8ebc c4d7 de3b
00000110: e3b7 d03c f7b1 303d 69b2 e33b 21f5 59bc
00000120: bfd0 39bd 4d69 2abc 419e c13c 98b4 1cbc
00000130: 7fe0 cc3c 48a2 3dbc 1484 b1bc 0470 693c
00000140: 4164 173a 0294 0abc 8e82 5d3c b4f3 cbbc
00000150: 6f2e 45bc 1aa2 6b3c f4d1 de3a f327 9c3b
00000160: cc74 67bc 3e22 383c 3a91 3a3c 20c9 a9bc
00000170: 92e9 8dbc 5002 4ebb 4388 00bd 67cf dd3c
00000180: 8ab9 da3c 2d4a d43b 3d50 39bc 8ff0 093d
00000190: 94a7 8bbb 3c2c 923c f2f9 4dbb e607 d7bb
000001a0: ae86 76bc 7906 9dbb 1e8f ccbc ca82 963b
000001b0: bf89 f1bb 58f4 5e3c dd9e 173c 3784 21bd
000001c0: 0219 58bc 0f11 f13c 14e0 a0bc 8dda 813c
000001d0: 87c5 d9bc 604a 4cbc cbeb 13bd 9086 f23c
000001e0: c08e 613c 8e9a 7ebc 50ba e83b 8503 7a3b
000001f0: fccb 49bc 304c 20bd 6b36 a53c 8eba dbbc
00000200: fcc9 e43c 57da 4fbd 6345 8b3b afa0 493b
00000210: 325f 063c 9fc1 2fbb 5436 a13c f823 01ba
00000220: e57e a13c 942f edbc d9fa 4f3b 2612 693c
00000230: 3ba7 1dbd 63b9 523c 0381 a93c 63e1 30bc
00000240: 2bfc d13b 785f ce3b 5125 973b c442 71bc
00000250: d7bf 343c ceb7 d6bb 7880 153c 38b1 1c3c
00000260: f769 03bc d114 963c d751 2e3c 9186 d2bb
00000270: e50d 583c 6dc5 a13b 8c28 813c d02a c53c
00000280: 366e 883c 96b1 9cbc f231 ed3c d2be 41bb
00000290: 33ea 44bd 3130 d4bc 1f9d ffba 0d14 cebb
000002a0: 07af 003d 417c a03c 9ac1 023b 745d 1e3c
000002b0: 6d96 ab3b a942 4e39 a1cd 2fbd 0045 26bd
000002c0: 6692 a83c 023f ebbc f6f4 9d3c a03e 27bc
000002d0: 42a5 a9bc 9b20 083d 30c7 503c 288d ad3c
000002e0: 2781 0abd de91 dd3c 8482 e63c 155b 66bb
000002f0: a4c4 67bc 4574 fa3c f4d6 31bc ae05 933c
00000300: d530 99bc db91 5cbc d3fd 01bd 52a4 723c
00000310: 6232 63bb 1a6c 9e3b f467 163d 772b 903c
00000320: 3f8b b23a 2acc c9bc 08da 65bc 506c ba3c
00000330: b707 8738 7673 ae3c ef59 c33c 792e bf3b
00000340: 7aef 553c b9d5 acbb 8308 d83b e87a 4dbc
00000350: 96f7 63bc cbaa 573c e486 8c3b e2c8 683b
00000360: b8ac 86bc 885b 073c 246b 953c 6816 703c
00000370: e447 8a3c 02b0 f6bc 5470 d2bc 9828 ea3c
00000380: f777 59bc 1922 a3bc 61d3 4cbb d49c 95bb
00000390: e6a3 94ba f76b 5bbb a8fa db3c 9240 83bc
000003a0: 5588 aebc a035 b23c 7b68 43bc 7b11 0a3c
000003b0: ee39 7dbc 7c2c 84bc 9d9b 933c e14e 5f3a
000003c0: 1f2c b6b7 1d4e 053c bc12 a4bc 784e f1bc
000003d0: d128 bc3c ecde 793c 62b4 c13c c068 01bb
000003e0: 5f4e a63c 57cb 653c 5c7f 50bb e64e 17bc
000003f0: 8251 223a 552a 23bd eaa5 8c3c 779c e0bc

action_model._continuous_distribution.mu.bias f4 [2]
0.00019292603 -0.0022573324
00000000: 304c 4a39 c1ef 13bb

exp_avg f4 [128, 7]
-9.519639e-06 -0.00030970358 0.0 -0.00023112456 -0.00037857573 0.0 3.364081e-05 1.9369881e-07
6.3014872e-06 0.0 7.361401e-06 -1.929624e-07 0.0 -5.333454e-06 -1.815147e-06 -5.905678e-05
0.0 0.00012962868 -0.00016117828 0.0 -0.00017111866 -3.3528622e-07 -1.0910065e-05 0.0
7.2198265e-05 -0.00011275311 0.0 -9.1717266e-05 4.4658728e-07 1.4530285e-05 0.0 1.7839662e-06
-3.0933286e-06 0.0 3.133236e-05 7.0790393e-06 0.00023030081 0.0 0.00032311035 0.00013488182
0.0 -0.00019558365 -2.8452546e-06 -9.256493e-05 0.0 -0.00016749634 -8.6742395e-05 0.0
4.9660946e-05 2.2126367e-08 7.2057594e-07 0.0 0.00023096148 -0.00013080795 0.0 -0.00019469026
7.1801246e-06 0.00023359021 0.0 0.00025564895 0.00020931632 0.0 -4.5409743e-05 1.2454409e-07
4.051797e-06 0.0 -1.6481246e-06 5.8596056e-06 0.0 -2.7784054e-08 1.8787979e-07 6.112299e-06
0.0 -8.667114e-06 8.973949e-06 0.0 3.153413e-06 5.987575e-06 0.00019479678 0.0
0.00031118075 0.00018815116 0.0 -6.884274e-05 -7.2768685e-06 -0.00023673712 0.0 -0.00037394906
-0.00020403546 0.0 0.00021610627 9.162874e-08 2.9809178e-06 0.0 -1.3014811e-06 -1.588108e-05
0.0 -7.592578e-06 3.3917613e-09 1.1035494e-07 0.0 2.2890918e-06 -7.4165933e-07 0.0
4.7243458e-07 -9.341899e-07 -3.0392339e-05 0.0 4.9943387e-06 8.820307e-06 0.0 -2.2380173e-05
-8.4524277e-07 -2.749869e-05 0.0 -3.9590283e-05 -5.262466e-05 0.0 -6.445407e-06 -1.8151466e-06
-5.9051832e-05 0.0 -9.763139e-05 -0.00012303455 0.0 1.5521107e-05 -1.1014558e-05 -0.00035833905
0.0 -0.00034186518 -0.00027278994 0.0 5.701598e-05 -6.221047e-08 -2.022167e-06 0.0
2.1006887e-05 -5.6300896e-06 0.0 5.256421e-06 1.6693044e-06 5.431156e-05 0.0 3.1803105e-05
9.8070675e-05 0.0 -2.4274244e-05 2.2699894e-06 7.384731e-05 0.0 6.8107416e-05 4.8830814e-05
0.0 -8.062779e-05 -8.6861024e-07 -2.825884e-05 0.0 -5.134563e-05 -3.5527035e-05 0.0
-4.2194747e-06 9.717196e-07 3.1612744e-05 0.0 1.7305205e-05 1.4254262e-05 0.0 -2.2437442e-05
2.5958616e-07 8.444922e-06 0.0 1.9871302e-05 -7.3522045e-07 0.0 -4.1383882e-06 -4.991048e-06
-0.00016237843 0.0 -0.00022994685 -0.00029243744 0.0 -9.6686425e-05 3.2399763e-07 1.0542178e-05
0.0 -8.470747e-05 2.46785e-05 0.0 4.2625223e-05 -2.5216373e-06 -8.203697e-05 0.0
0.00018678448 -0.0003203796 0.0 -0.00022163079 5.8634e-07 1.907688e-05 0.0 7.757095e-05
8.357967e-05 0.0 4.450043e-05 6.560344e-07 2.1342756e-05 0.0 -5.1998827e-06 3.255646e-05
0.0 -1.1537574e-05 7.408174e-07 2.4100744e-05 0.0 -2.1791426e-05 3.8470356e-05 0.0
-7.855394e-06 4.06534e-06 0.00013225895 0.0 6.4831525e-05 0.00020572546 0.0 4.6909954e-05
-6.4899114e-06 -0.00021113787 0.0 -6.959537e-05 -0.00025078972 0.0 -4.9782553e-05 -1.1695142e-06
-3.8047892e-05 0.0 -6.379467e-05 -2.985005e-05 0.0 6.4342266e-06 5.3061913e-06 0.00017262607
0.0 0.0002695014 0.00025054667 0.0 -2.646382e-05 3.3343431e-07 1.0847457e-05 0.0
-1.2347097e-05 1.7850183e-05 0.0 -9.808557e-06 -2.029174e-06 -6.6012835e-05 0.0 -0.0001462711
00000000: 8ab6 1fb7 b65f a2b9 0000 0000 075a 72b9
00000010: 937b c6b9 0000 0000 8b19 0d38 86fb 4f34
00000020: 5d71 d336 0000 0000 f401 f736 1a31 4fb4
00000030: 0000 0000 05f6 b2b6 fa9f f3b5 bcb3 77b8
00000040: 0000 0000 efec 0739 f701 29b9 0000 0000
00000050: 516e 33b9 6301 b4b4 5f0a 37b7 0000 0000
00000060: 2669 9738 dd75 ecb8 0000 0000 5558 c0b8
00000070: 7dc2 ef34 19c7 7337 0000 0000 9d70 ef35
00000080: fb96 4fb6 0000 0000 de6a 0338 7c88 ed36
00000090: e77c 7139 0000 0000 2367 a939 106f 0d39
000000a0: 0000 0000 9615 4db9 1af1 3eb6 6b1f c2b8
000000b0: 0000 0000 f5a1 2fb9 78e9 b5b8 0000 0000
000000c0: 094b 5038 6510 be32 9a6d 4135 0000 0000
000000d0: 402e 7239 7e29 09b9 0000 0000 c525 4cb9
000000e0: cdec f036 e5ef 7439 0000 0000 9f08 8639
000000f0: ec7b 5b39 0000 0000 5776 3eb8 6bba 0534
00000100: acf4 8736 0000 0000 2135 ddb5 a19d c436
00000110: 0000 0000 c8a9 eeb2 01bc 4934 4018 cd36
00000120: 0000 0000 f968 11b7 d18e 1637 0000 0000
00000130: 399f 5336 e1e8 c836 5d42 4c39 0000 0000
00000140: f925 a339 714a 4539 0000 0000 aa5f 90b8
00000150: d32b f4b6 a33c 78b9 0000 0000 980e c4b9
00000160: 5af2 55b9 0000 0000 969a 6239 6fc5 c433
00000170: c70b 4836 0000 0000 8dae aeb5 5c38 85b7
00000180: 0000 0000 c0c3 feb6 7f14 6931 45fc ec33
00000190: 0000 0000 4c9e 1936 7116 47b5 0000 0000
000001a0: eaa2 fd34 0bc5 7ab5 0df3 feb7 0000 0000
000001b0: 0b95 a736 eefa 1337 0000 0000 0ebd bbb7
000001c0: a4e4 62b5 fdac e6b7 0000 0000 be0d 26b8
000001d0: 4cb9 5cb8 0000 0000 a045 d8b6 f69f f3b5
000001e0: 6cae 77b8 0000 0000 74bf ccb8 d602 01b9
000001f0: 0000 0000 5333 8237 2bcb 38b7 74df bbb9
00000200: 0000 0000 5e3c b3b9 3f05 8fb9 0000 0000
00000210: 7124 6f38 9198 85b3 91b4 07b6 0000 0000
00000220: f237 b037 1aea bcb6 0000 0000 5060 b036
00000230: dd0c e035 98cc 6338 0000 0000 5364 0538
00000240: 4bab cd38 0000 0000 8ba0 cbb7 1f56 1836
00000250: 79de 9a38 0000 0000 e4d4 8e38 b0cf 4c38
00000260: 0000 0000 b716 a9b8 712a 69b5 660d edb7
00000270: 0000 0000 f35b 57b8 dd02 15b8 0000 0000
00000280: 0395 8db6 086c 8235 ed97 0438 0000 0000
00000290: a52a 9137 9725 6f37 0000 0000 0a38 bcb7
000002a0: 405d 8b34 aaae 0d37 0000 0000 4cb1 a637
000002b0: f75b 45b5 0000 0000 7cdc 8ab6 c778 a7b6
000002c0: 2144 2ab9 0000 0000 e31d 71b9 4a52 99b9
000002d0: 0000 0000 21c4 cab8 e5f1 ad34 4fde 3037
000002e0: 0000 0000 faa4 b1b8 ad04 cf37 0000 0000
000002f0: 7cc8 3238 6639 29b6 430b acb8 0000 0000
00000300: 94db 4339 9ff8 a7b9 0000 0000 9065 68b9
00000310: fa64 1d35 4a07 a037 0000 0000 96ad a238
00000320: 7e47 af38 0000 0000 f9a5 3a38 571a 3035
00000330: 3809 b337 0000 0000 a77a aeb6 3c8d 0838
00000340: 0000 0000 8191 41b7 96dc 4635 f42b ca37
00000350: 0000 0000 bbcc b6b7 3b5b 2138 0000 0000
00000360: a9ca 03b7 0169 8836 feae 0a39 0000 0000
00000370: 29f6 8738 02b8 5739 0000 0000 2ec1 4438
00000380: eac3 d9b6 e464 5db9 0000 0000 bbf3 91b8
00000390: 6d7c 83b9 0000 0000 9ccd 50b8 34f8 9cb5
000003a0: 9d95 1fb8 0000 0000 81c9 85b8 7f66 fab7
000003b0: 0000 0000 96e5 d736 d60b b236 f502 3539
000003c0: 0000 0000 de4b 8d39 ce5b 8339 0000 0000
000003d0: 9ffe ddb7 dd02 b334 79fd 3537 0000 0000
000003e0: 6126 4fb7 fabc 9537 0000 0000 6e8f 24b7
000003f0: f22c 08b6 5f70 8ab8 0000 0000 5960 19b9

exp_avg_sq f4 [128, 7]
4.6356256e-11 4.9063903e-08 0.0 3.1840106e-08 6.128253e-08 0.0 2.8894293e-10 2.7560053e-13
2.9169836e-10 0.0 2.6067848e-10 2.2186435e-10 0.0 3.7900464e-12 6.379395e-10 6.7520136e-07
0.0 4.3634728e-07 8.582025e-07 0.0 7.929568e-09 1.131982e-10 1.198101e-07 0.0
7.621686e-08 1.829176e-07 0.0 1.6781807e-09 5.4312624e-11 5.748512e-08 0.0 8.955178e-08
4.4438938e-08 0.0 5.021579e-10 3.011941e-10 3.1878722e-07 0.0 2.2882867e-07 4.4927242e-07
0.0 5.285288e-09 2.3313362e-11 2.467509e-08 0.0 2.2573706e-08 3.6950947e-08 0.0
2.5215618e-10 2.0898137e-10 2.2118797e-07 0.0 1.3573434e-07 4.4962684e-07 0.0 4.0517936e-09
3.3545014e-10 3.5504243e-07 0.0 3.1806536e-07 3.5884864e-07 0.0 2.624195e-09 5.222547e-13
5.527561e-10 0.0 6.2516287e-10 5.0214577e-10 0.0 3.0018867e-12 1.5072465e-12 1.5952758e-09
0.0 1.9881434e-09 1.2124972e-09 0.0 8.730056e-12 3.4279973e-10 3.6282285e-07 0.0
2.5257506e-07 4.4089273e-07 0.0 2.594241e-09 2.4207894e-10 2.5621878e-07 0.0 1.9444593e-07
4.0561332e-07 0.0 4.231241e-09 3.1958817e-12 3.3825556e-09 0.0 2.9210985e-09 4.446721e-09
0.0 3.0597948e-11 6.204462e-13 6.566829e-10 0.0 6.656141e-10 3.9237463e-10 0.0
2.9397873e-12 1.6000135e-11 1.6934743e-08 0.0 2.2576819e-08 1.2352698e-08 0.0 1.9262555e-10
1.0155484e-12 1.0748679e-09 0.0 8.369335e-10 1.2569705e-09 0.0 1.4906167e-11 2.7291268e-11
2.8885422e-08 0.0 5.2110384e-08 2.9444209e-08 0.0 2.5188998e-10 6.148628e-10 6.507779e-07
0.0 4.9146155e-07 6.61317e-07 0.0 4.3173864e-09 1.3473207e-10 1.4260155e-07 0.0
8.6495334e-08 2.313349e-07 0.0 1.0670778e-09 3.4933847e-10 3.6974325e-07 0.0 2.533005e-07
5.7314975e-07 0.0 2.7791196e-09 7.3956175e-11 7.827616e-08 0.0 7.682907e-08 5.2392075e-08
0.0 1.0497222e-09 3.0521956e-11 3.2304644e-08 0.0 2.8440205e-08 3.3155207e-08 0.0
2.6532576e-10 1.702793e-11 1.802243e-08 0.0 2.027823e-08 1.1748041e-08 0.0 1.8232117e-10
1.4002997e-12 1.4820871e-09 0.0 1.0491074e-09 1.7075764e-09 0.0 1.1854857e-11 2.7826397e-10
2.945177e-07 0.0 1.4706914e-07 2.464361e-07 0.0 3.281684e-09 7.142039e-11 7.559215e-08
0.0 7.0752016e-08 1.2148917e-07 0.0 6.35018e-10 9.8625e-10 1.043854e-06 0.0
7.0649025e-07 1.3311568e-06 0.0 1.1753912e-08 6.475684e-11 6.853915e-08 0.0 5.620472e-08
6.258215e-08 0.0 5.5452337e-10 4.7142667e-12 4.989593e-09 0.0 4.626688e-09 5.872382e-09
0.0 8.139736e-11 5.9468715e-11 6.294194e-08 0.0 6.413335e-08 7.000284e-08 0.0
3.6245504e-10 2.0538876e-11 2.1738485e-08 0.0 1.3609817e-08 2.5100997e-08 0.0 4.251985e-10
1.11436665e-10 1.1794591e-07 0.0 1.168812e-07 7.6707e-08 0.0 8.303979e-10 4.499556e-12
4.762375e-09 0.0 7.617967e-09 2.0094155e-09 0.0 3.8123525e-11 4.4839202e-11 4.7458403e-08
0.0 8.533962e-08 5.195305e-08 0.0 3.497821e-10 1.362678e-11 1.4422638e-08 0.0
1.4236671e-08 7.81671e-09 0.0 8.778319e-11 1.4434365e-10 1.527748e-07 0.0 1.2502844e-07
00000000: 81e0 4b2e 55ba 5233 0000 0000 91c0 0833
00000010: 6d9a 8333 0000 0000 1ad9 9e2f 3926 9b2a
00000020: e55c a02f 0000 0000 3c4f 8f2f 43f1 732f
00000030: 0000 0000 b459 852c 005b 2f30 7c3f 3535
00000040: 0000 0000 1d43 ea34 3a5f 6635 0000 0000
00000050: 9c3a 0832 ecec f82e 26a5 0034 0000 0000
00000060: a9ac a333 0268 4434 0000 0000 bca5 e630
00000070: 94de 6e2e 8fe5 7633 0000 0000 9d4f c033
00000080: 21dd 3e33 0000 0000 3908 0a30 4d95 a52f
00000090: c825 ab34 0000 0000 f2b3 7534 8833 f134
000000a0: 0000 0000 e399 b531 0611 cd2d 19f5 d332
000000b0: 0000 0000 1be8 c132 ffb3 1e33 0000 0000
000000c0: d49f 8a2f 07c7 652f b07f 6d34 0000 0000
000000d0: 5fbe 1134 3e64 f134 0000 0000 f437 8b31
000000e0: 696a b82f a99c be34 0000 0000 92c2 aa34
000000f0: c8a7 c034 0000 0000 5455 3431 6b00 132b
00000100: c1f0 1730 0000 0000 edd7 2b30 5e07 0a30
00000110: 0000 0000 2f3d 532c 4720 d42b c740 db30
00000120: 0000 0000 ca9f 0831 f4a4 a630 0000 0000
00000130: ad94 192d c674 bc2f fec9 c234 0000 0000
00000140: a799 8734 d6b3 ec34 0000 0000 5f46 3231
00000150: 9515 852f 718e 8934 0000 0000 e4c8 5034
00000160: 12c3 d934 0000 0000 6462 9131 e3e3 602c
00000170: 8c72 6831 0000 0000 82bc 4831 c6c9 9831
00000180: 0000 0000 3a92 062e dca3 2e2b f381 3430
00000190: 0000 0000 6ef6 3630 d2b5 d72f 0000 0000
000001a0: 80de 4e2c 1abd 8c2d e577 9132 0000 0000
000001b0: f3ee c132 be37 5432 0000 0000 46cb 532f
000001c0: fdec 8e2b 8dba 9330 0000 0000 f60d 6630
000001d0: b8c1 ac30 0000 0000 b41d 832d 790e f02d
000001e0: b71f f832 0000 0000 f9cf 5f33 80ec fc32
000001f0: 0000 0000 5d7a 8a2f 2003 2930 1eb1 2e35
00000200: 0000 0000 fbec 0335 5c85 3135 0000 0000
00000210: 2258 9431 b523 142f 041e 1934 0000 0000
00000220: 50bf b933 da64 7834 0000 0000 76a8 9230
00000230: 050d c02f 2081 c634 0000 0000 5bfd 8734
00000240: 8dda 1935 0000 0000 cafa 3e31 a0a1 a22e
00000250: c618 a833 0000 0000 3afd a433 b205 6133
00000260: 0000 0000 d145 9030 ab3c 062e 55bf 0a33
00000270: 0000 0000 ac4c f432 8966 0e33 0000 0000
00000280: 48dd 912f 7dc7 952d becf 9a32 0000 0000
00000290: 4d30 ae32 6ed4 4932 0000 0000 d976 482f
000002a0: 1d13 c52b 4eb2 cb30 0000 0000 2f30 9030
000002b0: 01b0 ea30 0000 0000 888d 502d 2cfa 982f
000002c0: 341e 9e34 0000 0000 0fea 1d34 eb4d 8434
000002d0: 0000 0000 ff83 6131 1b0e 9d2e 3955 a233
000002e0: 0000 0000 55f0 9733 b072 0234 0000 0000
000002f0: 6b8d 2e30 968c 8730 8d1a 8c35 0000 0000
00000300: a4a5 3d35 33aa b235 0000 0000 40ee 4932
00000310: dc66 8e2e cc2f 9333 0000 0000 be65 7133
00000320: e764 8633 0000 0000 1d6d 1830 57de a52c
00000330: ed70 ab31 0000 0000 c7f8 9e31 05c6 c931
00000340: 0000 0000 a4fe b22e e9c5 822e b32a 8733
00000350: 0000 0000 afb9 8933 7854 9633 0000 0000
00000360: 0343 c72f 70a9 b42d 6fbb ba32 0000 0000
00000370: 9cd0 6932 ad9d d732 0000 0000 5ec1 e92f
00000380: 440d f52e 7349 fd33 0000 0000 1f00 fb33
00000390: 1fba a433 0000 0000 0f42 6430 6650 9e2c
000003a0: 4ba2 a331 0000 0000 2ce0 0232 0316 0a31
000003b0: 0000 0000 46ab 272e 7434 452e 11d5 4b33
000003c0: 0000 0000 f443 b733 fc22 5f33 0000 0000
000003d0: 744b c02f 90b9 6f2d 6fc7 7732 0000 0000
000003e0: 8b95 7432 414a 0632 0000 0000 8b09 c12e
000003f0: 20b5 1e2f 6b0a 2434 0000 0000 8e3f 0634

exp_avg f4 [128]
-6.346384e-05 1.2912883e-06 -1.2101772e-05 -2.235655e-06 2.9775192e-06 4.7192792e-05 -1.8968221e-05 1.4771479e-07
4.786684e-05 8.3028635e-07 1.252521e-06 3.991737e-05 -4.8511676e-05 6.1084484e-07 2.2613541e-08 -6.22794e-06
-5.6349772e-06 -1.2100782e-05 -7.343012e-05 -4.1438537e-07 1.1129433e-05 1.5132635e-05 -5.7907428e-06 6.4780215e-06
1.7305175e-06 -3.327426e-05 2.160287e-06 -1.6810842e-05 3.9092024e-06 4.3735167e-06 4.9386827e-06 2.7102242e-05
-4.3265965e-05 -7.796701e-06 3.5374193e-05 2.2228382e-06 -1.3527227e-05 2.1772368e-05 6.185348e-06 4.441477e-05
2.6464426e-07 -1.6836924e-06 -2.4604894e-06 -1.1208246e-05 -5.642758e-07 -8.8731764e-07 -6.7917513e-06 1.0208895e-05
-6.0173996e-05 8.651091e-06 5.2724445e-06 -4.214893e-05 -2.4069457e-05 2.4052617e-05 5.342816e-06 -3.102737e-05
2.8476215e-05 -2.4733372e-06 2.022893e-06 3.167745e-05 1.9231997e-05 -7.8382334e-07 -6.4865553e-06 -5.956248e-06
7.43493e-05 1.14512195e-05 -2.3006929e-05 -3.400366e-07 -5.167291e-05 -8.179845e-05 -2.8858105e-07 6.662439e-05
2.6105129e-06 -3.53175e-05 -2.1260362e-06 3.2952348e-06 2.4390613e-07 -1.0045501e-05 -6.053024e-05 -2.0156816e-05
-2.6475542e-05 4.635836e-05 3.626183e-06 2.6384095e-07 1.0607868e-05 3.1024688e-06 2.9405933e-07 -8.636192e-05
1.5183552e-05 1.7712076e-05 1.3955025e-05 6.5186214e-05 -4.3667444e-07 4.615102e-05 -1.6823433e-05 2.807555e-06
3.7750656e-06 1.5187185e-05 5.0581766e-06 -1.9051837e-06 -6.612972e-06 7.975481e-06 -3.0015857e-05 -5.215232e-05
8.794901e-06 1.8803481e-05 7.693624e-07 1.6926573e-05 -3.4916254e-06 5.7200177e-06 -6.470072e-05 -1.0490972e-05
1.7002797e-06 -1.2650476e-07 -1.6791172e-06 -2.0674938e-06 -9.060474e-06 9.824459e-06 -3.2305493e-06 -1.0945119e-05
2.4591021e-05 1.058463e-05 1.5825495e-05 -9.049779e-06 8.9513424e-07 2.55321e-05 1.3919635e-05 -2.9103876e-06
00000000: e417 85b8 5450 ad35 b708 4bb7 4308 16b6
00000010: 64d1 4736 e0f0 4538 f21d 9fb7 889b 1e34
00000020: a1c4 4838 d8e0 5e35 4b1c a835 f36c 2738
00000030: 0479 4bb8 f0f8 2335 b43f c232 99f9 d0b6
00000040: 1614 bdb6 7704 4bb7 7ffe 99b8 b178 deb4
00000050: 8db8 3a37 2ce2 7d37 1a4e c2b6 c85d d936
00000060: 2144 e835 f78f 0bb8 73f9 1036 0205 8db7
00000070: cb2b 8336 39c0 9236 f6b6 a536 9f59 e337
00000080: 7a78 35b8 93ce 02b7 c05e 1438 122c 1536
00000090: fff2 62b7 cea3 b637 bc8b cf36 ff49 3a38
000000a0: 6e14 8e34 3bfb e1b5 e31e 25b6 0d0b 3cb7
000000b0: bd78 17b5 0130 6eb5 b3e4 e3b6 df46 2b37
000000c0: 5663 7cb8 2724 1137 f4e9 b036 12c9 30b8
000000d0: c4e8 c9b7 9ac4 c937 7146 b336 6323 02b8
000000e0: 35e0 ee37 9cfb 25b6 0ac1 0736 67dd 0438
000000f0: 6654 a137 ee67 52b5 16a7 d9b6 c8db c7b6
00000100: faeb 9b38 9d1e 4037 01ff c0b7 468e b6b4
00000110: 5dbb 58b8 358b abb8 47ee 9ab4 b2b8 8b38
00000120: 4530 2f36 e021 14b8 06ad 0eb6 b423 5d36
00000130: 34f2 8234 1989 28b7 dae1 7db8 6f16 a9b7
00000140: cb17 deb7 e970 4238 5959 7336 06a6 8d34
00000150: 72f8 3137 0234 5036 35df 9d34 341d b5b8
00000160: dcbc 7e37 6594 9437 6020 6a37 95b4 8838
00000170: 1470 eab4 4892 4138 0c20 8db7 6d69 3c36
00000180: 2257 7d36 77cc 7e37 68b9 a936 9db5 ffb5
00000190: ffe4 ddb6 6ece 0537 90ca fbb7 21be 5ab8
000001a0: d08d 1337 2bbc 9d37 2e86 4e35 8afd 8d37
000001b0: ab51 6ab6 94ee bf36 efaf 87b8 6202 30b7
000001c0: 2a35 e435 5dd5 07b4 075e e1b5 46bf 0ab6
000001d0: 7102 18b7 bbd3 2437 6acc 58b6 eea0 37b7
000001e0: d148 ce37 a494 3137 fec0 8437 81d4 17b7
000001f0: 2849 7035 c42d d637 6188 6937 1450 43b6

exp_avg_sq f4 [128]
2.0602613e-09 1.2248817e-11 2.8352648e-08 5.0309934e-09 2.4138804e-09 1.3386317e-08 1.0361412e-09 9.287985e-09
1.4908727e-08 2.3210999e-11 6.698784e-11 1.523543e-08 1.075898e-08 1.4203826e-10 2.7575022e-11 7.111136e-10
4.513519e-11 1.2129392e-09 2.7327069e-08 5.988037e-09 1.5526032e-08 3.2869238e-09 1.3565171e-09 7.5678686e-10
6.22349e-11 1.2367201e-08 3.1742189e-09 4.3832863e-08 2.8780542e-09 2.0951994e-10 2.6430211e-09 9.128293e-10
4.952712e-09 1.9997887e-10 1.992844e-09 6.056264e-10 6.4152266e-09 2.2602514e-08 1.0423085e-10 1.6355951e-08
1.0571862e-11 1.825142e-08 4.4694314e-11 3.3061336e-09 2.4297113e-09 2.4991328e-12 6.076959e-10 3.1722717e-08
3.5984094e-08 1.6115176e-10 7.7908074e-10 2.6941464e-08 3.2904235e-09 7.180307e-09 1.2624571e-09 3.2397157e-08
5.714876e-09 2.6447196e-09 4.140412e-09 2.4472232e-08 2.3498077e-09 1.7262998e-11 3.9426737e-10 1.3431139e-08
4.9356796e-08 2.737647e-08 1.2262487e-08 1.0888277e-10 1.7702025e-08 1.1828058e-08 1.4206445e-09 1.1188283e-08
1.881093e-10 1.7092525e-08 1.18964335e-11 7.774834e-10 2.4078139e-11 7.463237e-10 2.79695e-08 1.1379756e-08
1.0165943e-08 1.0713291e-08 7.2346344e-11 2.3016384e-11 1.4197386e-08 5.278759e-11 4.174031e-11 1.2834878e-08
2.6574851e-09 5.4777928e-08 1.7633164e-08 7.992976e-08 5.226123e-09 3.9375717e-08 5.350359e-09 6.175062e-10
1.0679204e-10 1.1520073e-09 1.258972e-10 9.194664e-12 3.1945364e-09 2.3554872e-10 9.2722374e-10 4.690004e-09
1.824784e-08 8.702779e-09 8.113733e-10 7.76201e-09 1.1610196e-08 3.5616003e-09 2.3814026e-08 2.5585694e-09
2.2261167e-10 2.2296167e-08 2.3150318e-11 6.882005e-08 3.803574e-09 1.4638891e-09 5.207712e-09 3.174823e-09
2.2037776e-09 3.8873225e-09 4.344176e-09 2.9371258e-10 1.7228687e-10 3.6153651e-09 1.4893919e-08 1.6948819e-09
00000000: 8094 0d31 c57b 572d 228c f332 16dd ac31
00000010: 6fe1 2531 a5f9 6532 fa67 8e30 fd90 1f32
00000020: a310 8032 862a cc2d cd4e 932e 11df 8232
00000030: 7fd6 3832 372c 1c2f 6e8d f22d 2c78 4330
00000040: b581 462e 81b4 a630 dcbc ea32 55bf cd31
00000050: 1b5e 8532 2de0 6131 3470 ba30 2406 5030
00000060: 22db 882e 8677 5432 7321 5a31 be42 3c33
00000070: 44c7 4531 9f5e 662f 85a0 3531 a7ea 7a30
00000080: 842c aa31 0ce1 5b2f 7bf2 0831 2b79 2630
00000090: ee6c dc31 7427 c232 c134 e52e 1e7f 8c32
000000a0: 6ffb 392d 4cc7 9c32 5391 442e 1e32 6331
000000b0: eff7 2631 60dc 2f2c cc0a 2730 7f3f 0833
000000c0: ee8c 1a33 3030 312f ef26 5630 e86c e732
000000d0: be1d 6231 a6b6 f631 c382 ad30 0d25 0b33
000000e0: 955c c431 66be 3531 7343 8e31 0237 d232
000000f0: 417a 2131 d1d8 972d 33c0 d82f c6be 6632
00000100: 5ffc 5333 7f29 eb32 fdaa 5232 8d6f ef2e
00000110: 2a0f 9832 5934 4b32 7c40 c330 9736 4032
00000120: 10d4 4e2f dcd2 9232 c648 512d 88b6 5530
00000130: 26cb d32d dd25 4d30 9541 f032 b280 4332
00000140: 4aa6 2e32 8d0d 3832 5f17 9f2e 4a74 ca2d
00000150: c4e8 7332 8b29 682e 6993 372e 6480 5c32
00000160: f99e 3631 f844 6b33 bd77 9732 daa5 ab33
00000170: 7791 b331 0f1e 2933 41d6 b731 23bd 2930
00000180: 93d6 ea2e a754 9e30 e96c 0a2f 16c1 212d
00000190: e186 5b31 897e 812f 92df 7e30 b625 a131
000001a0: 6dbf 9c32 3a83 1532 5207 5f30 ae59 0532
000001b0: 2f76 4732 56c0 7431 998f cc32 d4d2 2f31
000001c0: 9dc3 742f ca85 bf32 e2a1 cb2d 39ca 9333
000001d0: 97b0 8231 0532 c930 85ef b231 142c 5a31
000001e0: 4471 1731 4091 8531 c743 9531 5f78 a12f
000001f0: 716e 3d2f 2d72 7831 26e0 7f32 5bf1 e830
