results/AI_Candidate/Boss/Boss-841752.onnx (onnx, 75574 bytes, 7 tensors)

network_body._body_endoder.seq_layers.0.weight f4 [128, 7]
0	0x3e98c4ee	0.29837745
1	0x3ebb48b8	0.36578918
2	0xbf49ed46	-0.78877676
3	0x3e294267	0.16529237
4	0xbd3e136f	-0.046405252
5	0xbe2fb87b	-0.17160217
6	0xbfbc047b	-1.4688867
7	0x3e26252b	0.16225116
8	0xbde5a257	-0.112126045
9	0xbef1c418	-0.4721992
10	0xbe58ad25	-0.211598
11	0xbeec4db7	-0.46153042
12	0xbc2340b6	-0.009964159
13	0x3c92c9c5	0.017918477
14	0x3e96fe66	0.29490966
15	0x3e7587f5	0.23977645
16	0x3e5bb1c2	0.21454528
17	0x3cca9bd4	0.024732508
18	0x3e05bc65	0.13060148
19	0x3de102c4	0.109868556
20	0x3d902103	0.070375465
21	0x3f0d9baf	0.5531568
22	0xbc6e7692	-0.014554637
23	0x3d4d58a2	0.050133355
24	0xbebca23b	-0.36842522
25	0x3ec27c3a	0.37985402
26	0xbda4bf7c	-0.08044335
27	0x3de934bd	0.11387012
28	0x3ebf7c94	0.37399733
29	0xbb33ccac	-0.0027435226
30	0x3e2a5d47	0.16637145
31	0x3f95b0dd	1.1694599
32	0xbf5cd77b	-0.862663
33	0x3eb7e9f0	0.35920668
34	0xbe5f17a5	-0.21786363
35	0x3d98517d	0.07437418
36	0x3d3844bf	0.044987436
37	0x3e28b904	0.16476828
38	0x3f0fcca4	0.5617163
39	0x3d804dda	0.06264849
40	0x3de75526	0.11295538
41	0x3f0f5dff	0.560028
42	0x3ec2be59	0.3803585
43	0x3d4a91c3	0.049455415
44	0xbf178fb7	-0.59203666
45	0xbd8acea1	-0.067776926
46	0x3e5df428	0.2167517
47	0xbf26e691	-0.65195566
48	0xbf255974	-0.6458962
49	0x3e71689c	0.23575062
50	0xbea7cca4	-0.32773316
51	0xbe6cfe5b	-0.23143904
52	0xbcb089c4	-0.021550067
53	0x3ec12c8f	0.37729308
54	0xbe0a236d	-0.13490076
55	0x3f2d0c66	0.67597044
56	0xbeb61c9a	-0.35568696
57	0x3e9a168a	0.3009532
58	0x3ded785e	0.11595224
59	0x3d7d9520	0.061909795
60	0x3e7bc6d0	0.2458756
61	0xbf84df1d	-1.0380589
62	0xbdc9b61f	-0.0984919
63	0x3de77814	0.113022
64	0xbf312ff4	-0.69213796
65	0x3da8d845	0.08244375
66	0xbe78435c	-0.24244446
67	0xbda92f8f	-0.08261024
68	0x3d825051	0.063629754
69	0xbee6d52e	-0.45084518
70	0x3d6c98f6	0.057763062
71	0xbdbd4cd3	-0.09243169
72	0x3e70ce83	0.23516278
73	0xbe0567a0	-0.13027811
74	0xbe166fa5	-0.14691027
75	0x3e2b22b3	0.16712455
76	0xbf1fefcb	-0.6247527
77	0xbec31295	-0.38100114
78	0x3e18007e	0.14843938
79	0xbee790b2	-0.4522758
80	0x3c6c1da5	0.014411365
81	0x3e98b4f2	0.2982555
82	0xbe242f31	-0.16033627
83	0xbeab4047	-0.33447477
84	0xbe2aef45	-0.16692837
85	0xbe11ad4d	-0.14226265
86	0x3ee07989	0.43842724
87	0x3ec2323e	0.37928957
88	0x3ec6eaaf	0.38850924
89	0x3ebaa553	0.36454257
90	0xbfd34398	-1.6505003
91	0x3ed2c4d7	0.41165802
92	0xbe9fcaec	-0.31209505
93	0x3f45a5ab	0.77205914
94	0xbdcbd394	-0.09952465
95	0x3da5ef69	0.081023045
96	0x3f078804	0.5294192
97	0xbeaa8b53	-0.3330942
98	0x3f0380f1	0.51368624
99	0xbf29c8c1	-0.6632195
100	0xbf2dd5de	-0.6790446
101	0xbec5f5d8	-0.38664126
102	0xbe9de2e9	-0.3083718
103	0xbda3cfd4	-0.079986244
104	0xbeb5bffa	-0.3549803
105	0x3eeceee4	0.4627601
106	0x3c5a40ce	0.013321115
107	0xbebd54dc	-0.36978805
108	0x3e15f66f	0.14644788
109	0xbe00bffe	-0.12573239
110	0x3eb91b80	0.36153793
111	0x3eef21d9	0.4670551
112	0x3e92c537	0.28666088
113	0xbf1811bb	-0.59402055
114	0x3e14be6f	0.1452577
115	0x3e622f39	0.22088327
116	0x3df96598	0.121775806
117	0xbec28469	-0.37991646
118	0xbf0b67dd	-0.5445536
119	0x3e80b891	0.25140813
120	0xbe890879	-0.26764277
121	0x3e8b458c	0.27201498
122	0x3efd3713	0.4945608
123	0x3d03d802	0.032188423
124	0x3f22ab09	0.6354223
125	0x3eeb2bdf	0.45931908
126	0x3e2bee94	0.16790229
127	0x3f2740c3	0.65333194
128	0xbc659538	-0.014012627
129	0x3d019b1f	0.031642076
130	0xbe8a70d8	-0.27039218
131	0xbe82af59	-0.25524405
132	0xbd5d9442	-0.054096468
133	0x3c1af880	0.009458661
134	0xbdee3d9a	-0.11632843
135	0xbe9831c3	-0.29725465
136	0xbd1f38bc	-0.038872465
137	0x3e4fa9ad	0.2027957
138	0xbd337308	-0.043810874
139	0x3e8aeb85	0.27132812
140	0x3eb36027	0.35034296
141	0x3e19cd31	0.1501968
142	0x3f380cfa	0.718948
143	0xbe9fef30	-0.31237173
144	0x3f05df24	0.5229361
145	0xbe026f23	-0.12737708
146	0xbe7b795f	-0.24558018
147	0xbd340456	-0.043949448
148	0x3e11ea11	0.14249445
149	0x3ecd8267	0.40138552
150	0x3e218260	0.1577239
151	0xbe528f71	-0.20562531
152	0xbecb52b6	-0.3971154
153	0x3ed2f593	0.41202983
154	0xbe5ca87d	-0.21548648
155	0x3f4137a0	0.754755
156	0xbd9946e1	-0.07484222
157	0xbef68e27	-0.4815533
158	0xbedb2634	-0.42802584
159	0x3e6d0b4a	0.23148838
160	0xbe14ada9	-0.14519371
161	0x3f0fa0a3	0.5610449
162	0xbe2d1868	-0.16903841
163	0xbe245ad5	-0.16050275
164	0xbeae35f6	-0.34025544
165	0xbe2b76ab	-0.16744487
166	0xbeb1d7cf	-0.3473496
167	0xbecf3572	-0.40470463
168	0x3ee86aa9	0.45393875
169	0xbdab3569	-0.083597966
170	0xbe8c4bb2	-0.274015
171	0x3dd8cd62	0.10586049
172	0xbef66b7c	-0.4812888
173	0xbd56e65f	-0.052465793
174	0x3cc1bf7f	0.023650883
175	0x3ea03938	0.31293654
176	0x3f26f1dc	0.652128
177	0x3e0d8b49	0.13822664
178	0xbeb80fa6	-0.3594944
179	0xbe8f0d47	-0.27939817
180	0x3f12509f	0.5715427
181	0x3e9fa0ec	0.3117746
182	0xbe27772d	-0.16354056
183	0x3e880249	0.26564243
184	0xbef33a69	-0.475055
185	0x3f5df9db	0.86709374
186	0x3f166e46	0.58762014
187	0xbe07bf79	-0.13256635
188	0xbf195376	-0.59892976
189	0x3ec25baf	0.37960574
190	0x39979a83	0.00028916085
191	0xbef308e7	-0.4746773
192	0xbf11dbec	-0.569762
193	0x3eac3426	0.33633536
194	0xbef2fc5d	-0.47458163
195	0x3e86f43e	0.26358217
196	0x3e26c343	0.16285424
197	0x3f190467	0.5977234
198	0x3e8091ad	0.25111142
199	0xbe9608ce	-0.29303592
200	0x3e8ec4a2	0.27884394
201	0x3ea4890c	0.32135808
202	0xbef8a8e7	-0.48566362
203	0x3daa0e36	0.08303492
204	0xbf2a631f	-0.66557497
205	0x3e4ee429	0.20204224
206	0xbf1fff33	-0.6249878
207	0x3edcdddc	0.43138015
208	0xbb03ee87	-0.0020131187
209	0x3f6b5eb7	0.919414
210	0x3e752c27	0.23942624
211	0x3dcbc778	0.09950155
212	0x3f0c7132	0.5486022
213	0xbf04c4bd	-0.518627
214	0xbe19fd7a	-0.150381
215	0xbe913d2d	-0.28366986
216	0xbf05a449	-0.52203804
217	0xbe60e7d5	-0.21963437
218	0x3fb2089b	1.3908876
219	0x3ec386c9	0.3818877
220	0xbe285cc5	-0.16441639
221	0x3ed9ab19	0.4251335
222	0x3ec9a2e3	0.39382085
223	0x3f3de3de	0.7417582
224	0xbe842213	-0.25807247
225	0x3eba5db6	0.3639962
226	0x3f2a2684	0.6646502
227	0x3e0ac9da	0.13553563
228	0xbe8556bd	-0.2604274
229	0x3e9f1c48	0.31076264
230	0xbed6fdb5	-0.41990438
231	0xbe6b5e3b	-0.22985165
232	0x3d98d839	0.07463116
233	0xbdfc0400	-0.123054504
234	0x3e9f1492	0.3107038
235	0xbf351e21	-0.707491
236	0x3e99a8fc	0.30011737
237	0x3e05e0d0	0.1307404
238	0x3e11ed6a	0.14250723
239	0xbe8b4106	-0.27198046
240	0xbf400a0f	-0.7501535
241	0x3f332202	0.69973767
242	0xbebf6929	-0.37384918
243	0x3f11967d	0.5687025
244	0x3e46b1e4	0.19403797
245	0xbf51c550	-0.819417
246	0x3c941cbc	0.018080108
247	0xbf022e45	-0.5085185
248	0xbeea62c0	-0.45778465
249	0xbd0577d9	-0.032585
250	0x3ec01f41	0.37523845
251	0x3d9a54c2	0.075356975
252	0xbf334bcd	-0.7003754
253	0x3e98f411	0.29873708
254	0x3efe973b	0.49724755
255	0x3db19b24	0.08672169

network_body._body_endoder.seq_layers.0.bias f4 [128]
0	0x3df0d50f	0.11759388
1	0x39d6006c	0.00040817575
2	0xba2d95dd	-0.00066217576
3	0xbc0f3de2	-0.008742781
4	0x3d7cad62	0.06168879
5	0x3c04ec8f	0.008113041
6	0x3cd4d6c9	0.025981324
7	0x3ce8a3cc	0.028398417
8	0xbcd35606	-0.025797855
9	0xbc41e150	-0.011833504
10	0x3ca12ac4	0.019673713
11	0xbbcfb496	-0.006338666
12	0x3c832f34	0.01601372
13	0x3c361177	0.011112562
14	0x3b466554	0.0030272799
15	0x3da8a0da	0.08233805
16	0x3cb45aa1	0.022015871
17	0x3d81587f	0.063157074
18	0x3c3e0530	0.0115979165
19	0x38fffd77	0.00012206559
20	0xbc725ca3	-0.014792594
21	0x3d749ad8	0.059717983
22	0x3cb8d08f	0.022560386
23	0x3ccc4634	0.02493582
24	0x3c1ca839	0.009561592
25	0xbb355caf	-0.0027673652
26	0xbd344060	-0.044006705
27	0xbba09598	-0.0049006455
28	0x3bda88dc	0.006669147
29	0x3d6170a4	0.055039063
30	0x3c35c609	0.011094579
31	0xbcd2f37c	-0.025750868
32	0x3dad37fb	0.08457943
33	0x3dd93b8d	0.106070615
34	0x3cbebfb5	0.023284772
35	0x3b85b9c3	0.0040809824
36	0xbc72a22f	-0.014809175
37	0x3cd60f89	0.026130455
38	0x3d09897c	0.03357838
39	0xb9d02222	-0.00039698282
40	0x3d3a43d9	0.04547486
41	0xbc40192b	-0.0117247505
42	0x3d512d0f	0.05106836
43	0x3d54e0ee	0.051972322
44	0x3d92a96f	0.07161223
45	0x3d177492	0.036976404
46	0x3d0fb57c	0.035085186
47	0xba207fb9	-0.0006122548
48	0x3d283313	0.041064333
49	0x3c9c8071	0.019104214
50	0x3c2763b1	0.010216639
51	0x397d4b53	0.0002415602
52	0x3ce5b02d	0.028038109
53	0xbc974a27	-0.018467976
54	0x3c9387f5	0.018009165
55	0x3c000663	0.007814023
56	0x3be4491d	0.0069667236
57	0x3ace6b68	0.0015748562
58	0x3c16e638	0.009210162
59	0x3cc4dce0	0.024031103
60	0xbc895520	-0.016764224
61	0x3a874893	0.0010321311
62	0x3d48b709	0.04900268
63	0xbc062df1	-0.008189664
64	0x3c958fe8	0.018257096
65	0x3b795756	0.003804644
66	0x3c07bbe5	0.008284544
67	0xbccfecff	-0.025381563
68	0xbb20fd78	-0.0024565142
69	0x3d0c4405	0.034244556
70	0x3d1d01a9	0.03833166
71	0xbc45ce93	-0.012073177
72	0x3cb93c62	0.0226118
73	0xbc1a0b38	-0.009402089
74	0x3c9976cc	0.018733405
75	0x3d909d7d	0.070612885
76	0xbc9971d5	-0.018731037
77	0x3e094fb1	0.13409306
78	0x3c9fe9ab	0.019520601
79	0xbb8a56a1	-0.0042217528
80	0x3ce59fe6	0.028030347
81	0x3c3aa119	0.011390948
82	0x3cc8fc35	0.024534324
83	0x3dc4ec4e	0.09615384
84	0xbc8cf409	-0.017206209
85	0x3d3fa809	0.04679111
86	0xbd06bcff	-0.032895084
87	0x3d2def4b	0.042464536
88	0xbcbab013	-0.022789037
89	0x3d05aefa	0.032637574
90	0xbc84c6ed	-0.016208136
91	0xbc800385	-0.015626678
92	0xbb8bf1b9	-0.004270759
93	0xbc21adab	-0.009868066
94	0xbc170dd2	-0.009219604
95	0x3d27282f	0.040809806
96	0x3d114953	0.035470318
97	0xbc91abbe	-0.017782088
98	0x3de706e4	0.11280611
99	0x3d4af90b	0.049553912
100	0x3d951823	0.07279994
101	0xbd06c02e	-0.03289812
102	0x3d9c3b26	0.07628469
103	0x3d98a6c2	0.074536815
104	0x3a85e833	0.0010216295
105	0x3c296635	0.010339309
106	0x3d75f2e7	0.060046103
107	0x3c5372a6	0.012905752
108	0x3ca68ecd	0.020331765
109	0xbc8fc800	-0.017551422
110	0x3c03ccff	0.00804448
111	0x3b447444	0.0029976526
112	0x3dc9c16c	0.098513454
113	0xbb640515	-0.0034793068
114	0x3d4da662	0.050207503
115	0x3c2f119c	0.010685351
116	0x3d39828a	0.045290507
117	0xbcece55c	-0.02891796
118	0xbb05356a	-0.0020326027
119	0x38263d08	3.9634324e-05
120	0x3c172263	0.009224507
121	0xbc8bdc80	-0.017072916
122	0xba18f391	-0.0005834634
123	0x3d26688d	0.04062705
124	0xbbd18489	-0.0063939732
125	0xbca47433	-0.02007494
126	0xbbad06f1	-0.0052803685
127	0x3cd3b4e7	0.025843097

network_body._body_endoder.seq_layers.2.weight f4 [128, 128]
0	0xbdcdf270	-0.10056007
1	0x3d3f0435	0.04663487
2	0xbd001b15	-0.031275827
3	0x3ce989c7	0.02850808
4	0xbd8d786d	-0.06907735
5	0x3e25346e	0.16133282
6	0xbd15bdf5	-0.03655811
7	0x3e399586	0.18123445
8	0xbd644880	-0.055733204
9	0x3d592420	0.053012967
10	0x3dbf9c57	0.09355991
11	0xbe0417b1	-0.12899663
12	0xbdbfe569	-0.093699284
13	0xbd5606ce	-0.052252583
14	0x3e706289	0.23475088
15	0xbe395af1	-0.18101098
16	0xbd92a41f	-0.0716021
17	0xbc80e5a0	-0.015734494
18	0xbe342e2e	-0.17595741
19	0x3dcce93a	0.10005422
20	0x3d04ba5d	0.032404292
21	0xbc7734fc	-0.015088316
22	0xbbc72dc8	-0.0060784556
23	0x3dc00d1d	0.09377501
24	0x3da3985a	0.07988043
25	0xbb980d33	-0.0046402453
26	0xbe0b5c78	-0.13609493
27	0x3da50979	0.080584474
28	0xbcbd8654	-0.023135342
29	0x3d3c2b42	0.04593969
30	0xbdc692d6	-0.096959755
31	0xbdd857d0	-0.10563624
32	0xbd99e873	-0.07515039
33	0x3d9860f5	0.07440368
34	0xbdb152f9	-0.08658404
35	0x3d26bc99	0.040707204
36	0xbe2b4d6d	-0.16728754
37	0x3ca3c91b	0.019993355
38	0xbdb08059	-0.086182304
39	0xbdaf158b	-0.08549031
40	0x3dfbdd71	0.12298096
41	0xbdb669b2	-0.089068785
42	0x3e1861a3	0.14880995
43	0xbd90f23d	-0.07077453
44	0x3d36def3	0.044646215
45	0xbccc76d7	-0.024959011
46	0xbdd5f45d	-0.10446999
47	0x3dfe1005	0.12405399
48	0xbd8b0ac0	-0.0678916
49	0xbd97ba15	-0.07408539
50	0x3d76e425	0.06027617
51	0x3d943fec	0.07238755
52	0xbdc764f1	-0.0973605
53	0xbccd9910	-0.0250974
54	0xbd80f916	-0.06297509
55	0xbe2a642a	-0.16639772
56	0x3dbaa424	0.091133386
57	0x3daf8a03	0.085712455
58	0xbd2b0f41	-0.041762594
59	0x3dc05c4f	0.093926065
60	0xbd0838bb	-0.033257227
61	0x3d9be329	0.07611687
62	0x3de381cf	0.111087434
63	0x3defbefd	0.1170635
64	0x3dfb7253	0.12277665
65	0x3d4663ea	0.04843513
66	0x3e4d7972	0.20065859
67	0xbd812900	-0.06306648
68	0xbc4ef33e	-0.012631236
69	0xbe542eb0	-0.20720935
70	0xbd71021d	-0.058839906
71	0xbd6af299	-0.057360265
72	0x3d7281fd	0.059205998
73	0xbd5abf1e	-0.05340492
74	0x3d3776d6	0.044791065
75	0x3dcd0ecd	0.10012589
76	0x3e374100	0.1789589
77	0x3c97d08f	0.018532066
78	0x3e0c883f	0.13723849
79	0xbd56d4df	-0.052449103
80	0x3b1100a5	0.0022125628
81	0x3dbcccac	0.092187256
82	0x3d1975bd	0.0374658
83	0x3db2534b	0.08707293
84	0x3d7f7df4	0.062375978
85	0x3d06964d	0.03285818
86	0x3b71ca97	0.0036894435
87	0xbd142460	-0.036167502
88	0x3e84cd1c	0.25937736
89	0x3e3be341	0.18348409
90	0xbbeaf3da	-0.0071701827
91	0xbbe6af84	-0.007039966
92	0xbe274204	-0.16333777
93	0xbc35acce	-0.011088563
94	0xbd6c42ac	-0.05768077
95	0x3d315431	0.04329318
96	0x3cd450cb	0.025917431
97	0x3dd08f8a	0.10183628
98	0xbc7316a9	-0.014836946
99	0x3de0b699	0.10972328
100	0x3ca2e918	0.019886538
101	0x3d32d342	0.043658502
102	0xbde9016e	-0.11377226
103	0xbd89061a	-0.06690617
104	0x3d8ec481	0.06971074
105	0x3d413cf8	0.047177285
106	0x3e7b4f84	0.24542052
107	0xbd725f7e	-0.0591731
108	0xbdd860a8	-0.10565311
109	0xbd144b02	-0.036204346
110	0xbe0582d6	-0.13038191
111	0xbc1ae91f	-0.009454994
112	0x3e3c0039	0.1835946
113	0x3d8ae313	0.06781592
114	0x3d5e9d6a	0.05434934
115	0x3c04c716	0.008104106
116	0xbd2802ea	-0.041018404
117	0x3e4cb201	0.19989778
118	0x3d76c7bc	0.060249075
119	0xbc1ffce3	-0.009764883
120	0xbd1cdf13	-0.038298678
121	0x3d6e5d7c	0.058194622
122	0x3db55863	0.08854749
123	0x3e40bcf7	0.18822084
124	0xbc3ada1c	-0.01140454
125	0x3b348fb4	0.0027551474
126	0x3d109f61	0.035308246
127	0x3d8580bd	0.065186955
128	0xbdae1b6c	-0.08501324
129	0xbdc991ea	-0.09842284
130	0x3c7b970c	0.015355837
131	0xbdaf3f7e	-0.08557032
132	0xbd4fa120	-0.05069077
133	0xbd6da2d9	-0.05801663
134	0x3d44ba44	0.0480292
135	0xbe480d7f	-0.19536398
136	0xbdc5bac8	-0.09654766
137	0x3dd722d5	0.105046906
138	0xbe45a19e	-0.19299933
139	0xbcb54066	-0.022125434
140	0x3c904c88	0.017614618
141	0x3c73fd91	0.014891998
142	0x3d9b9eea	0.0759867
143	0x3dad6d9e	0.084681734
144	0x3deb00c6	0.11474757
145	0xbb054436	-0.0020334846
146	0x3dfb2252	0.122624055
147	0x3d867a7e	0.06566332
148	0xbe97469b	-0.29546055
149	0x3e444925	0.19168527
150	0x3dd874cc	0.10569152
151	0xbd87593f	-0.06608819
152	0x3d049e73	0.03237767
153	0x3e2b5db7	0.16734968
154	0xbafad060	-0.0019135587
155	0xbd9c4919	-0.0763113
156	0x3d935394	0.07193676
157	0xbdaebb3e	-0.08531807
158	0xbda77b8f	-0.08177864
159	0xbdcffd3b	-0.10155722
160	0xbd97c905	-0.07411388
161	0x3c475187	0.012165434
162	0xbd9317fa	-0.071823075
163	0xbd78209f	-0.060577985
164	0x3bad1b5b	0.005282802
165	0xbe136229	-0.14392914
166	0x3c34c588	0.011033423
167	0xbd93951e	-0.07206176
168	0xbe698e9d	-0.22808309
169	0xbdfffa76	-0.124989435
170	0xbc9285c9	-0.01788606
171	0x3de1d3a7	0.110266976
172	0xbe3db61f	-0.18526505
173	0x3d96537a	0.07340141
174	0xbd3a2f90	-0.045455515
175	0xbd3e796d	-0.04650252
176	0x3e7fd701	0.24984361
177	0xbcd0fd72	-0.025511477
178	0xbc6fd605	-0.014638429
179	0x3e3471b5	0.17621501
180	0xbe21fddb	-0.15819494
181	0x3c9d80a3	0.019226378
182	0x3d088cf6	0.033337556
183	0x3e65152f	0.22371362
184	0xbdc79bab	-0.09746488
185	0xbd85aa03	-0.06526568
186	0x3dd2c1a8	0.10290843
187	0x3d492b2f	0.04911345
188	0x3cd970fe	0.026543137
189	0x3e467245	0.19379528
190	0x3cc1670b	0.023608705
191	0x3e1ef033	0.15521316
192	0xbd086843	-0.033302557
193	0xbcfd36fa	-0.030910004
194	0x3e1fe934	0.15616304
195	0xbd0ec42a	-0.034855045
196	0x3ccd5536	0.025065046
197	0x3d412394	0.04715307
198	0x3d20a7f5	0.039222676
199	0xbdeec53d	-0.11658714
200	0x3dbcbb34	0.09215394
201	0x3e1df308	0.1542474
202	0x3d88af79	0.06674094
203	0x3e038a85	0.1284581
204	0xbe16d112	-0.14728191
205	0x3e421248	0.18952286
206	0x3d5ba432	0.053623386
207	0x3dbee184	0.093203574
208	0x3e1017e9	0.14071621
209	0x3ca6ac45	0.020345816
210	0x3cbece1d	0.023291642
211	0xbd182184	-0.037141338
212	0x3d6ddc74	0.05807157
213	0x3e36b2ec	0.17841691
214	0x3dd9bb7f	0.10631465
215	0x3d0f8ce9	0.03504649
216	0xbd0dab44	-0.03458716
217	0x3dedae1a	0.11605473
218	0xbd02f8e7	-0.031975653
219	0xbe08dd27	-0.13365613
220	0x3ced1098	0.028938577
221	0xbd01b20a	-0.031663932
222	0x3d8655ae	0.06559311
223	0xbe6272d4	-0.22114116
224	0xbe1adfcb	-0.15124433
225	0x3dce658a	0.10077961
226	0xbdc975be	-0.09836911
227	0x3cc82f7a	0.024436701
228	0x3d985249	0.0743757
229	0x3e0e067b	0.1386966
230	0xbdde4a77	-0.10854047
231	0x3cabbc77	0.02096389
232	0x3e3dbe34	0.18529588
233	0xbcfd05e6	-0.030886602
234	0xbe114452	-0.14186218
235	0xbdc23977	-0.09483617
236	0x3d258ddb	0.040418487
237	0x3d408947	0.047005918
238	0x3d586de2	0.052839167
239	0xbd0aec8b	-0.03391699
240	0x3d6b7efe	0.057494156
241	0x3dad61b6	0.084659025
242	0xbdaf38b7	-0.085557394
243	0x3e56e1ae	0.20984527
244	0x3cde56a5	0.027140925
245	0xbd36ea5f	-0.044657107
246	0xbd7a6e8b	-0.06114058
247	0xbabd00a8	-0.0014419751
248	0xbd2782cd	-0.040896226
249	0xbcf6b5c3	-0.030115968
250	0xbd11d883	-0.035606872
251	0xbe3a7e0d	-0.18212147
252	0xbc5c9bcc	-0.013464879
253	0x3dc55b55	0.09636561
254	0xbcc5e24f	-0.024155764
255	0xbbcccbef	-0.0062498967

network_body._body_endoder.seq_layers.2.bias f4 [128]
0	0xbc571f28	-0.013129987
1	0x3c445eea	0.01198552
2	0x3ba0f44e	0.004911936
3	0x3c1191d5	0.008884867
4	0x3ae10fef	0.0017170886
5	0xbb58cefd	-0.003308236
6	0xbc128a2a	-0.008944074
7	0x3c351931	0.011053369
8	0xbc1ec82b	-0.009691278
9	0x3c1149a2	0.008867653
10	0x3c728389	0.014801868
11	0xbc409d5f	-0.01175627
12	0x3c95282f	0.018207638
13	0xb9c7fea9	-0.00038145974
14	0xbc568329	-0.013092794
15	0x3c04a1d0	0.00809522
16	0xbc21f2cb	-0.0098845465
17	0xbb6fe66f	-0.0036605855
18	0x3c3338a2	0.010938795
19	0xb8ca7a7c	-9.654925e-05
20	0x3c575cc4	0.013144676
21	0xbbe8913b	-0.007097391
22	0x3c0f4bb5	0.008746077
23	0x3b9bfd43	0.0047604158
24	0x3c764b6a	0.015032629
25	0x3c9573a4	0.018243618
26	0x3d13f79f	0.03612482
27	0x3d0d0c1e	0.034435384
28	0x3cc30a05	0.023808489
29	0xbc22fead	-0.009948415
30	0x3c725a8a	0.014792094
31	0x3a87b2ba	0.0010352947
32	0xbc9d7843	-0.019222384
33	0x3b0b075b	0.00212141
34	0xbbe2d52f	-0.006922386
35	0x3acfa333	0.0015841484
36	0x3ae3b279	0.0017371915
37	0x3ce9bfd9	0.028533863
38	0x3b1f190d	0.0024276406
39	0x3bcc6186	0.0062372116
40	0xbbe8e80b	-0.00710774
41	0xbbfc8ed4	-0.007707456
42	0xbb89bd5a	-0.0042034807
43	0xbc19ff9c	-0.009399321
44	0xbbeffe29	-0.0073239994
45	0x3bece401	0.0072293286
46	0xbae9d65c	-0.0017840373
47	0x3b54735d	0.0032417395
48	0xbb356371	-0.002767768
49	0x3bf1c45a	0.0073781433
50	0xbc42dbab	-0.011893193
51	0x3bc07559	0.005873364
52	0x3c970b4b	0.018438002
53	0x3c5dfac9	0.013548561
54	0xbc3a5508	-0.011372812
55	0xbbcf6ced	-0.0063301236
56	0x3c28dc7e	0.010306476
57	0xbc16b1f3	-0.0091977
58	0xbbd2b0f9	-0.006429788
59	0x3c06c2df	0.008225172
60	0xbafe46cb	-0.001939976
61	0x3b4fd7fe	0.0031714435
62	0x3c26815d	0.010162679
63	0xbc0d8390	-0.008637324
64	0xbb83e791	-0.0040254076
65	0xbc1ae076	-0.00945293
66	0x3af9c54c	0.0019055991
67	0x3c36423e	0.011124192
68	0xbc4cf6fa	-0.012510056
69	0x3b20531b	0.0024463597
70	0xbc020802	-0.0079364795
71	0xbb9d9bb4	-0.004809821
72	0x3b519ef4	0.0031985613
73	0x3b21badc	0.0024678027
74	0xbb38a72b	-0.0028175812
75	0xbacf82f5	-0.0015831875
76	0x3c707ac3	0.014677706
77	0x3b1119a5	0.002214053
78	0xbb8d2587	-0.004307452
79	0x3c136c04	0.008997921
80	0xbc51583a	-0.0127773825
81	0xbc23cf6e	-0.009998186
82	0xbc1bdf52	-0.009513693
83	0x3a824d3c	0.000994123
84	0xbb3c10ed	-0.0028696612
85	0x3b3f841c	0.002922303
86	0x3d06ed72	0.03294129
87	0x3ca236c5	0.019801507
88	0x3c3b5285	0.011433248
89	0x3b800a75	0.0039074966
90	0xbc1707d1	-0.009218172
91	0xbcd2bd63	-0.025725072
92	0x3ca12c92	0.019674573
93	0x3cb7720f	0.022393255
94	0xbb03fada	-0.0020138533
95	0x3a2d84f3	0.0006619237
96	0x3b3c75c4	0.0028756717
97	0x3c3c194a	0.011480639
98	0x3b9a7cc0	0.0047145784
99	0x3c91ff4e	0.017821934
100	0xbc980d00	-0.018560886
101	0xbbb94777	-0.005654271
102	0x3ba83d83	0.005134286
103	0x3a40f33c	0.00073604635
104	0xbbd867f9	-0.0066041914
105	0xbbb2683c	-0.0054445546
106	0x3bbe2dfa	0.0058038207
107	0xbbb775c0	-0.0055987537
108	0xb9c6d6ae	-0.00037925452
109	0x3bfbac94	0.007680485
110	0x3b68b560	0.0035508499
111	0x3ab6b1a6	0.0013938441
112	0x3ca291f6	0.01984499
113	0x3c89facf	0.016843228
114	0x3c8e0307	0.017335428
115	0x3b5f7d94	0.003410195
116	0x3b3e5f3a	0.0029048459
117	0xbb8a3eef	-0.004218928
118	0xbbc0365b	-0.0058658547
119	0x3cabfe6a	0.020995338
120	0xbc38123a	-0.011234814
121	0x3b59656b	0.0033172022
122	0xbbb4ed00	-0.0055214167
123	0xbb171ff5	-0.002305982
124	0x3afcf454	0.001929889
125	0x3c94201d	0.018081719
126	0x3bfa6691	0.0076416214
127	0x3adaf139	0.001670397

action_model._continuous_distribution.log_sigma f4 [1, 2]
0	0xbeb16167	-0.34644625
1	0xbf1732c9	-0.59061867

action_model._continuous_distribution.mu.weight f4 [2, 128]
0	0x3d01f753	0.031730007
1	0x3d418c61	0.047253016
2	0x3d0a169f	0.03371298
3	0x3da034c0	0.07822561
4	0x3d19ef31	0.037581626
5	0xbd137386	-0.035998844
6	0xbc3c0801	-0.011476518
7	0xbd8458b2	-0.0646223
8	0x3c801e43	0.01563943
9	0xbcceb646	-0.0252334
10	0x3da5a453	0.08087983
11	0x3cac49fa	0.021031369
12	0xbdb7818e	-0.089602575
13	0x3d0d50dc	0.03450094
14	0x3b669694	0.0035184966
15	0xbd09b76c	-0.03362219
16	0x3c9781f0	0.018494576
17	0xbccdccd4	-0.025122084
18	0xbd9564d6	-0.072946236
19	0x3cde947c	0.027170412
20	0xbd85c0bd	-0.065309025
21	0x3b1626b0	0.0022911243
22	0xbd122b3f	-0.035685774
23	0x3d0a965d	0.033834804
24	0xbda10536	-0.07862322
25	0xbdd77fab	-0.105223976
26	0xbd32e99a	-0.04367981
27	0x3de503ae	0.111823425
28	0xbc903732	-0.017604444
29	0x3d0d4dd7	0.034498062
30	0xbd8d02c4	-0.06885293
31	0xbdb41b87	-0.08794313
32	0x3d146a5a	0.036234237
33	0xbcd38d71	-0.02582428
34	0x3b000e59	0.0019539802
35	0x3d3c456f	0.045964655
36	0xbb860173	-0.004089528
37	0x3d49b172	0.04924149
38	0x3d15a3b8	0.036533087
39	0xbd7f13b4	-0.06227465
40	0x3d7e0f6b	0.062026422
41	0x3c259206	0.0101056155
42	0xbca2c638	-0.019869909
43	0x3b91d148	0.004449997
44	0x3afcef4b	0.0019297389
45	0xbdb4c9f4	-0.08827582
46	0x3ca2c192	0.019867692
47	0xbb8029ed	-0.003911248
48	0x3c8cb3ac	0.017175518
49	0xbcba5a17	-0.022748036
50	0xba4cade9	-0.0007807897
51	0xbcb3591f	-0.021893082
52	0xbdb224d3	-0.0869843
53	0x3d9475b2	0.07249011
54	0x3c01e6c7	0.007928557
55	0x3c0b02f9	0.008484595
56	0xbc8772ba	-0.016534198
57	0x3d3b46c7	0.045721795
58	0xbc3ed1b5	-0.011646678
59	0xbda06848	-0.0783239
60	0x3c6f2edf	0.014598577
61	0x3c373b39	0.011183553
62	0xbccfe3a1	-0.025377097
63	0x3c61b2cc	0.013775539
64	0x3d30e105	0.043183345
65	0x3d052b96	0.03251227
66	0xbd18fe1a	-0.037351705
67	0x3d936963	0.07197835
68	0x3d0f6231	0.035005752
69	0x3d76e046	0.060272478
70	0xbc390414	-0.011292476
71	0xbcc4e6d5	-0.02403585
72	0xbd3e6450	-0.046482384
73	0xbc7e066c	-0.015504461
74	0x3cf9ae4d	0.03047862
75	0xbba35f36	-0.0049857153
76	0x3d991647	0.07474952
77	0xbc0c64a7	-0.008568919
78	0xbd87a91c	-0.06624052
79	0x3d552dee	0.052045755
80	0x3aa6bd25	0.0012721164
81	0xbd2dafd5	-0.042404015
82	0x3ce25157	0.027626676
83	0xbca2e390	-0.0198839
84	0xbb2af755	-0.0026087363
85	0x3d881c17	0.06645983
86	0x3cf01742	0.029307965
87	0x3d699e42	0.057035692
88	0xbd4a3911	-0.04937083
89	0x3c63310e	0.013866676
90	0x3c5b49f3	0.01338433
91	0xbca459ac	-0.02006229
92	0xbd6d0be2	-0.05787266
93	0x3d4ecbe5	0.050487418
94	0xbd9e1ad3	-0.0771996
95	0x3da78131	0.08178938
96	0x3d3ac27e	0.04559564
97	0x3b2b53c1	0.002614245
98	0xbd0c6c3b	-0.034282904
99	0x3d97c4c5	0.07410578
100	0xbbb605c0	-0.0055548847
101	0x3cdf0a18	0.027226493
102	0xbc2d5b58	-0.01058086
103	0xba27161c	-0.0006373839
104	0xbd2a4b37	-0.041575637
105	0xbd81a5d8	-0.0633046
106	0xbdc3ce7d	-0.09560869
107	0x3bfd26aa	0.0077255564
108	0xbc1098d9	-0.008825504
109	0x3d248d00	0.04017353
110	0xbc13e71e	-0.009027271
111	0xbd427609	-0.04747585
112	0xbdb40135	-0.08789293
113	0x3d83336c	0.06406292
114	0xbd4c8ce9	-0.04993907
115	0x3c84d63a	0.016215432
116	0xbdae5196	-0.08511655
117	0xbcc59ea4	-0.024123497
118	0xbd242cdb	-0.04008184
119	0x3dd74cd4	0.10512701
120	0x3d1f840d	0.038944293
121	0xbd040fa4	-0.03224148
122	0x3cf98ad7	0.030461712
123	0x3d4aee0a	0.049543418
124	0xbc8c0199	-0.017090606
125	0xbc6e47fe	-0.014543531
126	0x3d8f6bfa	0.07003017
127	0xbd2c1796	-0.04201468
128	0x3dc1f896	0.09471242
129	0xbdc618bb	-0.09672686
130	0x3c09c7ea	0.00840948
131	0x3b7473f8	0.0037300568
132	0x3d64b3ee	0.055835657
133	0x3c0187f5	0.00790595
134	0x3cb27b5e	0.021787342
135	0xbb24e50a	-0.0025160932
136	0x3ccf0ab2	0.025273655
137	0xbd840164	-0.06445578
138	0xbd3dc5eb	-0.046331327
139	0x3b97f88d	0.004637784
140	0xbcf4a957	-0.029865904
141	0x3d45344c	0.048145577
142	0x3c95bc88	0.018278375
143	0xbd07dd74	-0.03317018
144	0x3bdf63e0	0.006817326
145	0x3c647740	0.013944447
146	0xbc112407	-0.008858687
147	0xbc9addb3	-0.018904543
148	0x3d2b0c7f	0.041759964
149	0xbbf14d70	-0.0073639676
150	0x3cb13dd1	0.021635922
151	0x3d212ba6	0.039348267
152	0xbd9a7b61	-0.07543064
153	0x3cadbc43	0.021207934
154	0x3d2f4483	0.042789947
155	0xbdc831f5	-0.097751535
156	0x3cbdaf75	0.023154953
157	0x3c209698	0.009801529
158	0x3d546746	0.0518563
159	0x3d5764e1	0.05258644
160	0x3d0d3324	0.0344726
161	0xbc86b833	-0.016445255
162	0x3d68d112	0.05684001
163	0xbc7a3e5d	-0.015273658
164	0xbd489224	-0.048967496
165	0xbde78340	-0.11304331
166	0x3be8344b	0.007086312
167	0xbc91b41b	-0.017786076
168	0x3d8dcb49	0.06923539
169	0x3ca7b1e0	0.02047056
170	0xbb141fae	-0.002260189
171	0x3db641aa	0.08899243
172	0x3ce3c1f3	0.027802443
173	0xbcdc60e5	-0.026901672
174	0xbd252c20	-0.040325284
175	0xbd1d3dd6	-0.03838905
176	0x3cd2d621	0.02573687
177	0xbd09f32a	-0.033679165
178	0x3cf5a06c	0.029983722
179	0xbcbdc171	-0.02316353
180	0xbd35097b	-0.044198494
181	0x3d9b407f	0.07580661
182	0x3c5a7997	0.013334653
183	0x3d51094d	0.05103426
184	0xbd100d43	-0.035168897
185	0x3d94fcb2	0.0727476
186	0x3cfbed51	0.03075281
187	0xbc862bde	-0.01637834
188	0xbc9ed27e	-0.01938748
189	0x3d94bb07	0.07262235
190	0xbcd51068	-0.0260088
191	0x3c9aef6c	0.018912993
192	0xbbb4852e	-0.0055090403
193	0xbc00cb6a	-0.007860998
194	0xbced674a	-0.028979916
195	0xba6c85d3	-0.0009022627
196	0xbb2279cb	-0.0024791833
197	0x3cacd6ad	0.02109846
198	0x3dc188c8	0.09449917
199	0x3ca90245	0.020630965
200	0x3b235324	0.0024921382
201	0xbc9b7f09	-0.018981474
202	0xbbaa74ce	-0.0052019125
203	0x3cf172b9	0.02947365
204	0xbc8e7112	-0.0173879
205	0x3dcff6c3	0.10154488
206	0x3d1280ff	0.03576755
207	0x3ca26c33	0.019826984
208	0x3c6afd81	0.014342667
209	0xbc4d4d57	-0.012530646
210	0x3b847b4d	0.004043019
211	0xbcc1956f	-0.023630826
212	0xbbbf94ac	-0.0058465805
213	0xbc07f813	-0.008298892
214	0x3db0e758	0.08637875
215	0x3b3d6147	0.0028897093
216	0xbd04e468	-0.032444388
217	0x3c02eaaf	0.007990523
218	0x3c52e59f	0.012872129
219	0x3c74251b	0.014901425
220	0x3d431344	0.047625795
221	0xbd836f5f	-0.06417727
222	0xbd44b4fe	-0.04802417
223	0x3d54e86e	0.051979475
224	0xbc5f9131	-0.013645456
225	0xbdcaf62e	-0.09910236
226	0xbbde3024	-0.006780641
227	0xbb14f0f6	-0.0022726632
228	0xb80112d9	-3.077355e-05
229	0xbbdf1ca3	-0.0068088337
230	0x3d5a013e	0.05322384
231	0xbc90b747	-0.017665518
232	0xbd0f8b44	-0.035044923
233	0x3d42db71	0.047572557
234	0xbd1e3b5e	-0.038630836
235	0x3c1574fe	0.009122131
236	0xbc55ed62	-0.013057085
237	0xbcdc6f99	-0.026908683
238	0x3d4f117e	0.05055379
239	0x3be8af57	0.0071009803
240	0xbb957d15	-0.00456203
241	0x3d096ca3	0.03355087
242	0xbe23799c	-0.15964359
243	0xbd2fa574	-0.042882398
244	0x3d0a2170	0.033723295
245	0x3c473c58	0.012160383
246	0x3cef56a1	0.029216113
247	0xbcf72a7d	-0.030171627
248	0x3c71e924	0.014765058
249	0x3cd3faef	0.02587649
250	0x3bbcd8b2	0.005763137
251	0xbb9299df	-0.0044739093
252	0x3c17de4c	0.009269308
253	0xbdcc0926	-0.099626824
254	0x3ce75931	0.028240772
255	0xbcff6eda	-0.031180788

action_model._continuous_distribution.mu.bias f4 [2]
0	0xbb6a73d2	-0.00357746
1	0xbb9eab0e	-0.0048421687
