results/AI_Candidate/Boss/checkpoint.pt (torch, 445282 bytes, 36 tensors)

network_body._body_endoder.seq_layers.0.weight f4 [128, 7]
0	0x3ea3205d	0.3186063
1	0x3ec5a498	0.38602138
2	0xbf49ed46	-0.78877676
3	0x3e0a46b9	0.13503541
4	0xbc36faef	-0.011168226
5	0xbe2fb87b	-0.17160217
6	0xbfd5d3ad	-1.6705223
7	0x3df749bd	0.12074611
8	0xbe1d3b5b	-0.15354674
9	0xbef1c418	-0.4721992
10	0xbe17d469	-0.14827122
11	0xbf06a10c	-0.5258949
12	0xbc2340b6	-0.009964159
13	0x3eb5596e	0.35419792
14	0x3e85128c	0.25990713
15	0x3e51b0f8	0.20477664
16	0x3e5bb1c2	0.21454528
17	0x3cfac864	0.030613132
18	0x3df97eba	0.12182374
19	0x3de102c4	0.109868556
20	0x3d01bf94	0.031676844
21	0x3f003912	0.5008708
22	0xbd88e582	-0.066844
23	0x3d4d58a2	0.050133355
24	0xbe8f9d89	-0.28049877
25	0x3e98eb6f	0.29867122
26	0xbda4bf7c	-0.08044335
27	0x3e884307	0.26613638
28	0x3e9a9627	0.30192682
29	0xbd993e90	-0.07482636
30	0x3e2a5d47	0.16637145
31	0x3f913846	1.1345298
32	0xbf6758fa	-0.9037014
33	0x3eb7e9f0	0.35920668
34	0xbeb752ce	-0.35805362
35	0x3d69577a	0.05696819
36	0x3ce1f45f	0.027582346
37	0x3e28b904	0.16476828
38	0x3f08f87e	0.5350417
39	0x3ccd27c4	0.025043376
40	0x3de75526	0.11295538
41	0x3f26f09f	0.6521091
42	0x3eb3e91d	0.3513879
43	0x3ca7c017	0.020477338
44	0xbf178fb7	-0.59203666
45	0xbd1dcef0	-0.03852743
46	0x3e563979	0.20920362
47	0xbf26e691	-0.65195566
48	0xbf30fc77	-0.6913523
49	0x3e7dd929	0.24789871
50	0xbea19455	-0.3155848
51	0xbe6cfe5b	-0.23143904
52	0xbcdb9559	-0.026804613
53	0x3ec71841	0.38885692
54	0xbe0a236d	-0.13490076
55	0x3f3b4052	0.7314502
56	0xbecf4ddf	-0.40489098
57	0x3e80e4d3	0.2517458
58	0x3ded785e	0.11595224
59	0x3d9e12a6	0.07718401
60	0x3e4d8918	0.20071828
61	0xbf84df1d	-1.0380589
62	0xbe523c76	-0.20530877
63	0x3df7b753	0.12095513
64	0xbf2f266b	-0.68417996
65	0x3da8d845	0.08244375
66	0xbe8039ae	-0.25044006
67	0xbda2fc7c	-0.07958314
68	0x3d825051	0.063629754
69	0xbf122c4f	-0.5709886
70	0x3da66a50	0.08125746
71	0xbd8d2618	-0.068920314
72	0x3e70ce83	0.23516278
73	0xbe2f0db0	-0.17095065
74	0xbd357d66	-0.044309042
75	0x3e2b22b3	0.16712455
76	0xbf2e2978	-0.68032026
77	0xbece92fe	-0.4034652
78	0x3e00fef9	0.12597264
79	0xbee790b2	-0.4522758
80	0x3d17725f	0.036974307
81	0x3e9aea49	0.3025687
82	0xbe242f31	-0.16033627
83	0xbe95f8d7	-0.29291412
84	0xbe470b8c	-0.19437999
85	0xbe2dcb41	-0.16972066
86	0x3ee07989	0.43842724
87	0x3ecf6e3f	0.405138
88	0x3ec44269	0.38331917
89	0x3ebaa553	0.36454257
90	0xbff3ae1e	-1.9037511
91	0x3eeef77f	0.466732
92	0xbe83999f	-0.2570314
93	0x3f45a5ab	0.77205914
94	0xbe2b061e	-0.16701552
95	0x3de668ce	0.11250459
96	0x3f078804	0.5294192
97	0xbe3a7a54	-0.18210727
98	0x3f02780b	0.5096442
99	0xbf2ad3e4	-0.6672957
100	0xbf2dd5de	-0.6790446
101	0xbec71082	-0.38879782
102	0xbe95c955	-0.29255167
103	0xbda3cfd4	-0.079986244
104	0xbed5821a	-0.41700822
105	0x3ef66b25	0.4812862
106	0x3d0277a1	0.03185237
107	0xbebd54dc	-0.36978805
108	0x3dfd3492	0.123635426
109	0xbddab0a7	-0.10678225
110	0x3eb91b80	0.36153793
111	0x3f1fe12f	0.6245298
112	0x3e8623b7	0.26199123
113	0xbf1e6191	-0.61867625
114	0x3e14be6f	0.1452577
115	0x3e50e33f	0.20399188
116	0x3df0801f	0.11743187
117	0xbec28469	-0.37991646
118	0xbf301fed	-0.68798715
119	0x3e8d78ba	0.2763117
120	0xbe78870e	-0.2427027
121	0x3e8b458c	0.27201498
122	0x3efded8b	0.49595293
123	0x3d37a76e	0.044837408
124	0x3f22ab09	0.6354223
125	0x3f221346	0.6331066
126	0x3e256570	0.16151977
127	0x3f259e60	0.64694786
128	0xbc659538	-0.014012627
129	0x3cf53560	0.029932678
130	0xbe9af425	-0.30264392
131	0xbe82af59	-0.25524405
132	0xbe115746	-0.14193448
133	0x3af053c9	0.0018335517
134	0xbdfddbc2	-0.12395431
135	0xbe9831c3	-0.29725465
136	0xbcb69f59	-0.02229278
137	0x3e4628be	0.1935148
138	0xbd337308	-0.043810874
139	0x3ebd3471	0.36954072
140	0x3e9da345	0.30788627
141	0x3ddca6c9	0.10773999
142	0x3f380cfa	0.718948
143	0xbe817b14	-0.25289214
144	0x3ef837e7	0.4848015
145	0xbe026f23	-0.12737708
146	0xbe3098f0	-0.17245841
147	0xbd0e8616	-0.034795843
148	0x3e1b4958	0.15164697
149	0x3ecd8267	0.40138552
150	0x3e2668e7	0.16250955
151	0xbe5a79f5	-0.21335585
152	0xbecb52b6	-0.3971154
153	0x3f05c912	0.52259934
154	0xbe49105b	-0.19635145
155	0x3f461dd9	0.77389294
156	0xbd9946e1	-0.07484222
157	0xbeed4968	-0.46345067
158	0xbee0f3af	-0.43935916
159	0x3e6d0b4a	0.23148838
160	0xbe914a07	-0.2837679
161	0x3f14a489	0.5806356
162	0xbe190a8d	-0.14945431
163	0xbe245ad5	-0.16050275
164	0xbebd1fe5	-0.36938396
165	0xbdf50954	-0.1196467
166	0xbeb1d7cf	-0.3473496
167	0xbef3d061	-0.47619918
168	0x3ed80579	0.42191675
169	0xbdecf943	-0.115709804
170	0xbe8c4bb2	-0.274015
171	0x3d948a0c	0.07252893
172	0xbf013ba8	-0.50481653
173	0xbd56e65f	-0.052465793
174	0x3dcc5d26	0.09978704
175	0x3e9edb07	0.3102648
176	0x3f2642cc	0.64945674
177	0x3e0d8b49	0.13822664
178	0xbea0fca1	-0.3144274
179	0xbeaa5e08	-0.33274865
180	0x3f12509f	0.5715427
181	0x3eeed88e	0.46649593
182	0xbe5304c6	-0.2060729
183	0x3e6476ca	0.2231094
184	0xbef33a69	-0.475055
185	0x3f4e4f37	0.8058962
186	0x3f12d2d8	0.5735297
187	0xbe07bf79	-0.13256635
188	0xbf415a44	-0.7552836
189	0x3eb5c25e	0.35499853
190	0xbcc7340a	-0.024316806
191	0xbef308e7	-0.4746773
192	0xbf09df86	-0.53856695
193	0x3ea89dfc	0.32933033
194	0xbef2fc5d	-0.47458163
195	0x3ec069b9	0.3758066
196	0x3dc4e448	0.09613854
197	0x3f07efdd	0.5310038
198	0x3e8091ad	0.25111142
199	0xbe83724c	-0.2567314
200	0x3e7e292b	0.24820392
201	0x3ea4890c	0.32135808
202	0xbef89ef1	-0.48558763
203	0x3d8c5497	0.06852072
204	0xbf2e1b00	-0.6800995
205	0x3e4ee429	0.20204224
206	0xbf1cb560	-0.61214256
207	0x3ed924a2	0.4241076
208	0xbb03ee87	-0.0020131187
209	0x3f835d5d	1.0262867
210	0x3e250f82	0.16119197
211	0x3cae30b5	0.02126346
212	0x3f0c7132	0.5486022
213	0xbee3d565	-0.44498745
214	0xbe5aa645	-0.2135249
215	0xbe913d2d	-0.28366986
216	0xbf095983	-0.5365221
217	0xbe9149c7	-0.283766
218	0x3fa9d33f	1.3267592
219	0x3ec386c9	0.3818877
220	0xbe0417b2	-0.12899664
221	0x3eb183a8	0.34670758
222	0x3ec9a2e3	0.39382085
223	0x3f3e51ef	0.7434377
224	0xbe763820	-0.24044847
225	0x3ec363dd	0.38162127
226	0x3f2a2684	0.6646502
227	0x3dd1db40	0.10246897
228	0xbe86a81c	-0.26300132
229	0x3e9f1c48	0.31076264
230	0xbecd159d	-0.40055552
231	0xbe8e92c7	-0.27846357
232	0x3cd503f0	0.026002854
233	0xbdfc0400	-0.123054504
234	0x3e8711fc	0.26380908
235	0xbf421a94	-0.75821805
236	0x3e99a8fc	0.30011737
237	0x3e5b7829	0.21432556
238	0x3deca58d	0.11555014
239	0xbe991035	-0.29895177
240	0xbf400a0f	-0.7501535
241	0x3f2e3cfd	0.6806181
242	0xbec279e3	-0.37983617
243	0x3f11967d	0.5687025
244	0x3dce6eb0	0.10079706
245	0xbf5397d3	-0.8265354
246	0x3c33a78a	0.010965237
247	0xbf022e45	-0.5085185
248	0xbee253bc	-0.4420451
249	0xbd895d05	-0.06707195
250	0x3ec01f41	0.37523845
251	0x3d47bcc5	0.04876401
252	0xbf49dfb2	-0.78856957
253	0x3e5796a4	0.21053559
254	0x3efe973b	0.49724755
255	0x3dc4495f	0.09584307

network_body._body_endoder.seq_layers.0.bias f4 [128]
0	0x3e0d2259	0.13782634
1	0xbd28072a	-0.041022457
2	0xbd12120d	-0.035661746
3	0xbd79fcec	-0.06103222
4	0xbc2a4527	-0.010392464
5	0xbc183d48	-0.009291954
6	0xbb445970	-0.0029960535
7	0x3d261562	0.040547736
8	0xbd999bc4	-0.07500413
9	0xbb7dc44b	-0.0038721736
10	0x3d30e0f6	0.04318329
11	0xbcebf658	-0.02880399
12	0xbc3b7cef	-0.011443361
13	0x3d87882a	0.06617768
14	0xba88e5cd	-0.0010444463
15	0x3dce9417	0.1008684
16	0xbb2d5292	-0.002644692
17	0x3db469c0	0.08809233
18	0x3baadf67	0.00521462
19	0xbbf5dfd4	-0.007503489
20	0xbd6a7fb4	-0.057250693
21	0x3d8d0bb5	0.068869986
22	0x3d2ac948	0.041695863
23	0x3d365a73	0.044519853
24	0xbcb8a377	-0.022538884
25	0xbbb22f88	-0.005437795
26	0xbdb13c58	-0.08654088
27	0xbcf1b7af	-0.029506532
28	0xbd75f7f5	-0.060050923
29	0x3d25f38d	0.04051547
30	0xbd89824e	-0.06714307
31	0xbdb815c7	-0.08988529
32	0x3dd150de	0.10220502
33	0x3d6b4aa1	0.05744422
34	0xbb716bc9	-0.0036837927
35	0xbb46da3f	-0.0030342487
36	0xbdd2f747	-0.10301071
37	0x3c443103	0.011974576
38	0x3d0a0b89	0.033702407
39	0xbc7b2b89	-0.015330204
40	0x3de62d55	0.11239115
41	0xbce7e937	-0.028309448
42	0x3dafea04	0.08589557
43	0x3dacf8da	0.08445902
44	0xbb8d5d2b	-0.004314085
45	0x3ca0ac7f	0.019613503
46	0x3d1d9d48	0.038480073
47	0xbc4047ff	-0.011735915
48	0x3bf80f1b	0.00757016
49	0x3d931bf7	0.07183068
50	0x3d04a52e	0.03238409
51	0xbc3fcb8e	-0.011706246
52	0xbc29c3d4	-0.0103616305
53	0xbd6146d0	-0.054999173
54	0x3c182f06	0.009288555
55	0x3bdce6ff	0.006741404
56	0x3aa66a3d	0.0012696456
57	0xbce4a72c	-0.027911745
58	0xbd48532a	-0.048907436
59	0x3c8d01b3	0.017212724
60	0xbd8a9b5a	-0.06767912
61	0xbc3f23ee	-0.011666281
62	0x3cb95e62	0.022628013
63	0xbd85b27e	-0.06528185
64	0x3ab9331e	0.0014129614
65	0xbca48389	-0.020082252
66	0xbca18134	-0.01971493
67	0xbd6cff5a	-0.05786071
68	0xbceb7eb6	-0.028746944
69	0x3d280351	0.041018788
70	0x3d86bac8	0.065785944
71	0xbcee740b	-0.029108068
72	0x3cd566b3	0.026049947
73	0xbd1dc18c	-0.03851466
74	0x3c1839d7	0.009291134
75	0x3ded5da5	0.11590127
76	0xbcc93f9d	-0.024566466
77	0x3e099616	0.1343616
78	0xbd328d1d	-0.043591607
79	0xbd7b9d30	-0.061429203
80	0xb9d4fda4	-0.00040624768
81	0x3ca8db70	0.020612448
82	0x3ceec411	0.029146226
83	0x3d12ea23	0.03586782
84	0xbda178b9	-0.07884354
85	0xbbad5262	-0.005289362
86	0xbd332371	-0.04373497
87	0x3c3400f4	0.010986555
88	0xbd82c513	-0.06385245
89	0x3d0ae46a	0.03390924
90	0xbda458f6	-0.080247805
91	0xbd56d891	-0.052452628
92	0xbc6b3568	-0.014355995
93	0xbcef5c30	-0.029218763
94	0xbd8e9505	-0.06962017
95	0x3d2360ed	0.039887358
96	0x3d1e6bb7	0.038676944
97	0xbda8fa97	-0.08250921
98	0x3e19f9e5	0.15036733
99	0x3d94beb1	0.07262934
100	0x3da234ee	0.07920252
101	0xbdac4a38	-0.084125936
102	0x3d333e2e	0.04376047
103	0x3da41b98	0.080130756
104	0xbc901975	-0.017590264
105	0xbc9e9676	-0.019358855
106	0x3da8c761	0.082411535
107	0xbd8cb85b	-0.068711005
108	0x3d474df9	0.048658345
109	0xbdb912a6	-0.0903676
110	0xbb6ad3b9	-0.0035831763
111	0x3bf119a4	0.007357793
112	0x3d8d198a	0.06889637
113	0xbcee9dea	-0.029128034
114	0x3d105875	0.03524061
115	0x392ee388	0.00016678695
116	0x3cce917e	0.02521586
117	0x3c233bee	0.009963019
118	0xbb9e3444	-0.004828008
119	0xbc4e1bc8	-0.012579866
120	0xbd362c09	-0.04447559
121	0xbd0bc797	-0.03412589
122	0xbd3dfca3	-0.04638351
123	0x3d2a691b	0.041604143
124	0x3b7eece8	0.0038898531
125	0xbdd349e8	-0.10316831
126	0xbcf31c2c	-0.02967652
127	0x3cafd4b1	0.021463724

network_body._body_endoder.seq_layers.2.weight f4 [128, 128]
0	0xbe08f9af	-0.13376497
1	0x3d7e57b3	0.062095355
2	0xbd2d7a75	-0.042353112
3	0x3cdc8e96	0.026923459
4	0xbc6b2048	-0.014350958
5	0x3e09eee4	0.13470036
6	0xbd6f9277	-0.05848929
7	0x3e39878d	0.18118115
8	0xbd88c5c7	-0.06678348
9	0x3d9934dd	0.07480786
10	0x3d9dad05	0.076990165
11	0xbe121768	-0.14266741
12	0xbe1cfce8	-0.15330851
13	0xbd42b585	-0.04753639
14	0x3e865c4c	0.26242292
15	0xbe2ae2ab	-0.1668803
16	0xbd76ca85	-0.06025173
17	0xbc71a79a	-0.014749432
18	0xbe3edd15	-0.18639024
19	0x3dcead4d	0.10091648
20	0x3cb2021f	0.021729527
21	0xbc527415	-0.012845059
22	0xbd20349e	-0.03911268
23	0x3d932c3d	0.07186172
24	0x3db28d18	0.08718318
25	0xbc24b901	-0.010053874
26	0xbe1d1951	-0.15341689
27	0x3da56f6d	0.080778934
28	0xbd06a286	-0.03286984
29	0x3d52963d	0.05141281
30	0xbdfbe36e	-0.12299238
31	0xbdea03c9	-0.11426503
32	0xbd86a449	-0.06574304
33	0x3ddd0afb	0.1079311
34	0xbd53880f	-0.051643427
35	0x3c421ffd	0.011848447
36	0xbe395b0e	-0.18101141
37	0xba8669b6	-0.0010254893
38	0xbddedc73	-0.10881891
39	0xbe002aa9	-0.12516274
40	0x3e1d57da	0.15365544
41	0xbdc37cc4	-0.095452815
42	0x3e2e84fc	0.17042917
43	0xbe004011	-0.1252444
44	0x3d22abfe	0.039714806
45	0xbcbdbd0f	-0.02316144
46	0xbdf02c52	-0.117272034
47	0x3e01de35	0.12682422
48	0xbdb1698c	-0.086627096
49	0xbe03e5a7	-0.12880574
50	0x3d5e1021	0.0542146
51	0x3d60c7f4	0.05487819
52	0xbdec16f2	-0.11527814
53	0xbd0b911b	-0.03407393
54	0xbd4d3f25	-0.050109047
55	0xbe39ca84	-0.1814366
56	0x3da4527e	0.08023547
57	0x3da95dad	0.0826982
58	0xbd85ee53	-0.06539597
59	0x3dcef716	0.10105722
60	0xbd0c3668	-0.034231573
61	0x3de9b61b	0.11411687
62	0x3e034bf4	0.12821943
63	0x3dd8990c	0.105760664
64	0x3df3094e	0.11867009
65	0x3d1c9fc4	0.038238302
66	0x3e3fcfa5	0.18731554
67	0xbd503cf0	-0.050839365
68	0xbcc630c6	-0.024193179
69	0xbe72bc7e	-0.23704717
70	0xbdc72476	-0.09723751
71	0xbd8118b8	-0.06303543
72	0x3d89e347	0.06732803
73	0xbd718b12	-0.05897052
74	0x3d58af02	0.052901275
75	0x3dcedf69	0.10101206
76	0x3e3cc040	0.18432713
77	0x3baa46b8	0.0051964186
78	0x3dd60bc8	0.10451466
79	0xbd933356	-0.07187526
80	0xbc9eda4e	-0.019391205
81	0x3daeb133	0.08529892
82	0x3d8f323f	0.069920056
83	0x3dd67015	0.10470597
84	0x3d4d4712	0.050116606
85	0x3d34b68b	0.0441194
86	0x3ce7fd41	0.028319003
87	0xbd6962b2	-0.05697889
88	0x3e7ead79	0.24870862
89	0x3e2e400b	0.17016618
90	0xbc8cec64	-0.017202564
91	0xbc8f597c	-0.017498724
92	0xbe4243d4	-0.18971187
93	0xbca93ba4	-0.020658322
94	0xbd8ae74a	-0.06782396
95	0x3a7e623c	0.0009703969
96	0x3d16bbd5	0.036800224
97	0x3d85a629	0.06525833
98	0xbdbdc65e	-0.09266351
99	0x3de4a4a6	0.11164217
100	0xbc123af1	-0.008925186
101	0x3d3e196b	0.04641096
102	0xbe0f5ebb	-0.1400098
103	0xbda2a70a	-0.079420164
104	0x3d802f4b	0.062590204
105	0x3d06e915	0.032937128
106	0x3e7283e9	0.23683132
107	0xbd8a6226	-0.067570016
108	0xbe106e0f	-0.14104484
109	0xbd43860c	-0.04773526
110	0xbe1294fc	-0.14314646
111	0xbd04df0a	-0.03243927
112	0x3e041313	0.12897901
113	0x3d80b268	0.06284028
114	0x3da93c03	0.082633995
115	0x3be0a4b7	0.006855573
116	0xbd874035	-0.066040434
117	0x3d915593	0.070964
118	0x3d43baa4	0.047785416
119	0xbd0d9039	-0.03456137
120	0xbd3b4326	-0.045718335
121	0x3d3f6054	0.046722725
122	0x3da4c19b	0.0804474
123	0x3e553c0a	0.20823684
124	0xbdce1cc5	-0.10064081
125	0xbb17fe71	-0.002319243
126	0x3cb0c8f7	0.021580203
127	0x3d1856f9	0.03719232
128	0xbd3e29d6	-0.046426617
129	0xbe1610ee	-0.14654896
130	0x3c1afa0b	0.009459029
131	0xbd91dad4	-0.07121816
132	0xbbf45e76	-0.0074575497
133	0xbd9a5518	-0.075357616
134	0x3d9911a9	0.074740715
135	0xbe8dc55d	-0.2768964
136	0xbdd74cd3	-0.105127
137	0x3d822fcc	0.06356773
138	0xbe25e8ba	-0.1620206
139	0xbcc4c4d9	-0.024019646
140	0xbca46f3e	-0.020072576
141	0x3b135b73	0.0022484928
142	0x3cdd434d	0.02700963
143	0x3d7e3cd5	0.062069733
144	0x3ddb7ecd	0.10717545
145	0xbc849f8c	-0.01618936
146	0x3e226014	0.15856963
147	0x3cc8e2b4	0.024522163
148	0xbe949940	-0.2902317
149	0x3e465c7f	0.19371222
150	0x3e1e29d5	0.15445645
151	0xbd2fb335	-0.042895515
152	0xba9a9975	-0.0011795001
153	0x3e4d77ba	0.20065203
154	0xbc857832	-0.016292665
155	0xbd681c5b	-0.056667667
156	0x3daca268	0.08429414
157	0xbe030323	-0.12794165
158	0xbd0842c7	-0.03326681
159	0xbdcd679f	-0.1002953
160	0xbc04f5a4	-0.008115206
161	0xbc2b220b	-0.010445128
162	0xbd2b6927	-0.041848328
163	0xbd3bb264	-0.045824423
164	0xbba9f207	-0.0051863226
165	0xbe184a8d	-0.14872189
166	0xbcae0c6e	-0.021246161
167	0xbdcab991	-0.09898675
168	0xbe9ae05f	-0.30249307
169	0xbdf2f9f0	-0.11864078
170	0xbdfedc9e	-0.12444423
171	0x3e4f390f	0.2023661
172	0xbe313c47	-0.1730815
173	0xba86d13a	-0.0010285743
174	0xbd5ace27	-0.05341926
175	0xbd394733	-0.045233916
176	0x3e70bc3c	0.23509306
177	0xbb05bec7	-0.0020407902
178	0x3d378e48	0.044813424
179	0x3e4e61e5	0.20154531
180	0xbe171535	-0.14754184
181	0x3cebf85c	0.02880495
182	0xbc2cca42	-0.010546269
183	0x3e821793	0.2540861
184	0xbdc3ac15	-0.095543064
185	0xbd059ea5	-0.032622
186	0x3dac2589	0.08405597
187	0xbcfcc8a0	-0.030857384
188	0x3d23f71a	0.040030576
189	0x3e13661c	0.1439442
190	0x3cc06160	0.023483932
191	0x3e103aa0	0.14084864
192	0xbdc0e9c6	-0.09419589
193	0xbd3e6574	-0.046483472
194	0x3e27311f	0.16327332
195	0xbd5823da	-0.052768566
196	0x3cf83f08	0.030303493
197	0x3e0fa001	0.1402588
198	0x3d9b4741	0.0758195
199	0xbddd0105	-0.1079121
200	0x3ce43554	0.02785746
201	0x3e34d834	0.176606
202	0x3ce00409	0.027345674
203	0x3e16bbce	0.1472008
204	0xbe1df450	-0.15425229
205	0x3e5e5296	0.21711192
206	0x3ce050fb	0.027382364
207	0x3de08f58	0.10964841
208	0x3db144a2	0.08655669
209	0x3b39eb03	0.0028368838
210	0xbcc95978	-0.024578795
211	0xbdc3aba5	-0.09554223
212	0x3d3b0519	0.04565916
213	0x3e17b607	0.14815532
214	0x3d5c435b	0.053775173
215	0x3c93e5e4	0.018053956
216	0xbd592619	-0.05301485
217	0x3d1d9a45	0.0384772
218	0xbcfc9e09	-0.030837076
219	0xbe08c460	-0.13356161
220	0x3d84bcc1	0.064813145
221	0xbd8c0cba	-0.06838365
222	0x3da73bbe	0.08165692
223	0xbe1341c7	-0.14380561
224	0xbe295a5c	-0.16538376
225	0x3dbd7eb1	0.0925268
226	0xbddc8c01	-0.10768891
227	0xbd1b6fca	-0.037948407
228	0x3d579c16	0.05263909
229	0x3dc64d04	0.09682658
230	0xbdea17aa	-0.11430295
231	0x3ca5f9fc	0.020260803
232	0x3e272412	0.16322353
233	0xbd3133d6	-0.043262325
234	0xbdce87e8	-0.10084516
235	0xbd8e835b	-0.06958648
236	0x3db6e8ef	0.08931147
237	0x3cf79f0f	0.030227212
238	0x3da10717	0.078626804
239	0xbd856d71	-0.06515015
240	0x3d404d84	0.046948925
241	0x3dd2beb1	0.10290278
242	0xbd9b93a1	-0.07596517
243	0x3e37a177	0.17932688
244	0x3d89f549	0.067362376
245	0xbdfd175d	-0.12357972
246	0xbd5e54af	-0.05427998
247	0x3d0b2991	0.033975188
248	0xbd10b0cf	-0.035324868
249	0xbd8122e8	-0.06305486
250	0xbd64f8a1	-0.055901174
251	0xbe4b8c3b	-0.19877712
252	0xbbe07560	-0.0068499297
253	0x3de22188	0.11041552
254	0xbc8c5f94	-0.017135419
255	0x3d4ea1bc	0.05044721

network_body._body_endoder.seq_layers.2.bias f4 [128]
0	0xbcc2e1ab	-0.023789247
1	0x3cb9d696	0.02268533
2	0xbd0b3ae2	-0.033991702
3	0xbbdecbdd	-0.0067992047
4	0xbbb80d05	-0.0056167864
5	0xbbf73a46	-0.0075447885
6	0xbd3b8da3	-0.045789372
7	0xbb04bc25	-0.0020253744
8	0xbd2f2c52	-0.042766877
9	0x3cea4fdd	0.028602535
10	0x3c8369d8	0.016041681
11	0xbd060b60	-0.03272569
12	0x3c9c951a	0.019114066
13	0xbb3a7a55	-0.0028454263
14	0xbd8d68aa	-0.06904729
15	0x3c5fbb91	0.013655559
16	0xbd17a8e5	-0.037026305
17	0xbcad7010	-0.0211716
18	0xbb99233b	-0.0046733893
19	0xbc8e090d	-0.0173383
20	0xbce81f92	-0.028335366
21	0xbcd8956d	-0.02643844
22	0xbccb2858	-0.02479951
23	0xbb88af56	-0.0041712923
24	0x3cf45c55	0.029829184
25	0xba88d585	-0.001043961
26	0xbbc1f1f7	-0.005918737
27	0xbba796d7	-0.005114417
28	0xbc4718af	-0.012151881
29	0xbd0f44de	-0.034977786
30	0xbc873e79	-0.016509281
31	0xbc159964	-0.009130809
32	0xbcf28445	-0.029604087
33	0xbbf06e18	-0.007337343
34	0xbadc8d17	-0.0016826716
35	0xbd51f8c9	-0.05126265
36	0xbb18ab5c	-0.0023295498
37	0x3d164c3a	0.03669379
38	0xbd6af858	-0.057365745
39	0x3c711818	0.014715217
40	0xbc8b7d29	-0.017027454
41	0xbc0ac57a	-0.008469934
42	0xbd22901a	-0.039688207
43	0x37ef3001	2.8513374e-05
44	0xbd7ffed9	-0.0624989
45	0xbbb6197c	-0.005557237
46	0xbbcfd640	-0.0063426793
47	0xbba00a29	-0.0048840237
48	0xb9b4d66c	-0.00034492032
49	0x3bafdd35	0.005366946
50	0xbce844d1	-0.028353127
51	0xbb3f4c0c	-0.0029189615
52	0x3cd89ccb	0.026441952
53	0xbce0e334	-0.027452089
54	0xbd81744b	-0.06321009
55	0xbc166347	-0.009178943
56	0x3bde1603	0.0067775263
57	0xbc445e7d	-0.011985418
58	0xbd050a12	-0.032480307
59	0xbbe75a99	-0.0070603606
60	0xbd86461f	-0.06556343
61	0xbbf3eb06	-0.0074437885
62	0xbc468873	-0.012117493
63	0xbd59ad4c	-0.053143784
64	0xbd35d958	-0.04439673
65	0xbd2c5949	-0.042077336
66	0x3be91a76	0.00711375
67	0xbad98a98	-0.001659709
68	0xbd3adff8	-0.04562375
69	0xbb88bc01	-0.0041728024
70	0xbc9af4b5	-0.018915514
71	0xbd2f22e4	-0.042757884
72	0xbced49a1	-0.028965773
73	0xbcd35224	-0.025796004
74	0xbd76e7f6	-0.06027981
75	0xbcfcdf54	-0.03086821
76	0xbb072aec	-0.0020624949
77	0xbbb6b8fe	-0.005576252
78	0xbc63f062	-0.013912292
79	0xbcd56dfa	-0.026053417
80	0xbdc0765a	-0.09397574
81	0xbd193fcd	-0.03741436
82	0xbbbf489c	-0.005837513
83	0xbc65b1af	-0.014019414
84	0xbc8b11fc	-0.016976349
85	0x3b8992c2	0.004198403
86	0xbcd26a79	-0.025685536
87	0x3c57c741	0.013170064
88	0x3c82c285	0.015961895
89	0xbd05e3ba	-0.03268788
90	0xbda1c175	-0.07898227
91	0xbd740de1	-0.05958355
92	0xbb38d8be	-0.002820536
93	0x3c9e9d0f	0.019362
94	0xbcd94186	-0.026520502
95	0xbc5a44db	-0.0133220805
96	0xbba36925	-0.0049868994
97	0x3d164d5c	0.03669487
98	0x3c14995d	0.009069768
99	0xbc1720e8	-0.009224154
100	0xbd561a89	-0.0522714
101	0x3b163298	0.002291834
102	0xbc12b91b	-0.008955265
103	0xbcbbba51	-0.022915991
104	0xbd3e5ec3	-0.04647709
105	0xbc8c697d	-0.017140144
106	0xbc0006c4	-0.007814113
107	0xbc37506e	-0.0111886095
108	0xbd10460a	-0.035223044
109	0x3b1ad2c6	0.0023624166
110	0xbcaf42f7	-0.021394236
111	0xbcd3c2ef	-0.025849788
112	0x3bd67b71	0.006545477
113	0x3c66b390	0.014080897
114	0x3d01e1df	0.031709548
115	0xbc0667ba	-0.008203441
116	0xbc24c7fc	-0.010057446
117	0xbd693f80	-0.056945324
118	0xbd106c8e	-0.035259776
119	0x3cdedd9a	0.027205277
120	0x3ba3c6b7	0.004998054
121	0x3cd734a7	0.026270224
122	0xbcec4ccd	-0.028845215
123	0xbc5f3eaf	-0.013625785
124	0xbcdf8d01	-0.027288916
125	0xbd79afd3	-0.060958695
126	0xbc43fd12	-0.011962192
127	0xbb9d8173	-0.0048066913

action_model._continuous_distribution.log_sigma f4 [1, 2]
0	0xbf8b222e	-1.0869806
1	0xc0147644	-2.3197184

action_model._continuous_distribution.mu.weight f4 [2, 128]
0	0x3d6648b4	0.05622168
1	0x3d602bc4	0.05472924
2	0xbba6f0e4	-0.0050946344
3	0x3d853e71	0.065060504
4	0x3be64e38	0.0070283674
5	0xbca99c5f	-0.020704446
6	0xbc06c7d3	-0.008226353
7	0xbdbd602b	-0.09246858
8	0x3c314eac	0.0108219795
9	0xbd2ae580	-0.041722775
10	0x3e04fb83	0.12986569
11	0xbb741342	-0.0037242924
12	0xbe1a6c7a	-0.15080443
13	0x3d49af3a	0.049239375
14	0x3bd8902b	0.006608983
15	0xbd965046	-0.0733953
16	0x3a803433	0.0009781182
17	0xbc97ffe6	-0.01855464
18	0xbd685f35	-0.05673142
19	0xbc9c1067	-0.01905079
20	0xbc8cf5a0	-0.017206967
21	0x3aa501c7	0.0012589031
22	0xbc82131c	-0.015878253
23	0x3d1f9d11	0.03896815
24	0x3da04ae4	0.07826784
25	0xbdeb522b	-0.11490282
26	0xbce5b306	-0.028039467
27	0x3d7e734c	0.062121674
28	0xbc8e834b	-0.01739659
29	0x3d301cf2	0.042996354
30	0xbd42d26d	-0.04756396
31	0xbdd7431c	-0.10510847
32	0x3d252ec4	0.040327802
33	0xbc5678ff	-0.013090371
34	0x3cb09c45	0.02155889
35	0x3cbc9c1e	0.023023661
36	0xbd0c67fa	-0.034278847
37	0x3def742a	0.116920784
38	0x3c6ed30b	0.014576684
39	0xbddfaaeb	-0.10921272
40	0x3e36bc01	0.17845155
41	0xbb59ceef	-0.0033234914
42	0xbcc848a6	-0.024448704
43	0xbc46fd22	-0.0121453125
44	0x3925d54c	0.00015815085
45	0xbdcc6289	-0.099797316
46	0x3b83064f	0.003998555
47	0xbc58f136	-0.013241103
48	0xbdd037b2	-0.10166873
49	0xbd3fdc9c	-0.04684125
50	0xbb9904c8	-0.0046697594
51	0xbbc41652	-0.005984106
52	0xbe188d0e	-0.14897558
53	0x3d757b68	0.059932142
54	0x3a1f9c02	0.00060886156
55	0x3ceddb74	0.029035307
56	0xbcafd4bb	-0.021463742
57	0x3d9747ab	0.073867165
58	0xbc70d290	-0.0146986395
59	0xbd9ffe44	-0.07812169
60	0xbb7a16a7	-0.0038160475
61	0x3bf805bd	0.0075690434
62	0xbc6cbdea	-0.014449576
63	0xbbc208c7	-0.0059214565
64	0x3c0d6f3e	0.008632479
65	0x3d33f327	0.04393306
66	0xbd90a290	-0.07062256
67	0x3d82abd1	0.06380428
68	0x3d175f45	0.03695609
69	0x3dc9faeb	0.09862312
70	0xbc05df47	-0.008170909
71	0xbcfd0ab8	-0.0308889
72	0xbcdc8d29	-0.02692278
73	0xbb8098c5	-0.0039244615
74	0xbb8a7b55	-0.004226128
75	0x3bb42a08	0.0054981746
76	0x3d23dec3	0.040007364
77	0x3c67ecea	0.014155606
78	0xbdbfb31b	-0.093603335
79	0x3d14a09f	0.036285993
80	0xbad11f57	-0.0015954775
81	0xbd00db95	-0.03145941
82	0xbbbe38ad	-0.005805096
83	0x3aa0ab27	0.0012258039
84	0xba25449a	-0.0006304473
85	0x3dbe5bef	0.09294879
86	0xbb554209	-0.003254058
87	0xbaec4067	-0.0018024564
88	0xbdb45b3a	-0.088064626
89	0x3c8fc6dc	0.017550878
90	0x3bd5aa92	0.0065205777
91	0xbc824ede	-0.015906747
92	0xbd863491	-0.06552995
93	0x3d9ce2e9	0.07660467
94	0xbd88c03d	-0.066772915
95	0x3e08ced3	0.13360147
96	0x3a789904	0.00094832503
97	0xbd81bc6d	-0.063347675
98	0xbda9c6cf	-0.08289873
99	0x3d15aa59	0.03653941
100	0xbc326e6a	-0.010890583
101	0x3bbf1863	0.0058317645
102	0x3bd73f6a	0.006568839
103	0x3c769283	0.01504958
104	0x398d9e31	0.00027011478
105	0xbdd99416	-0.10623948
106	0xbdd79856	-0.10527103
107	0xbab8e29a	-0.0014105618
108	0xbac72b90	-0.0015195478
109	0x3d641896	0.05568751
110	0x3c60c106	0.013717895
111	0xbca41cfa	-0.020033348
112	0xbe09d7c5	-0.13461216
113	0x3e089e47	0.13341628
114	0xbd610268	-0.054933935
115	0x3c99e410	0.018785506
116	0xbde1c000	-0.11022949
117	0x3a16e32f	0.0005755899
118	0xbce5463b	-0.02798759
119	0x3e1d4380	0.1535778
120	0x3dd3b544	0.10337308
121	0xbe0d7afd	-0.13816448
122	0x3d214101	0.039368633
123	0x3a18f6a3	0.00058350916
124	0xb8d703e0	-0.00010252721
125	0xbd42e193	-0.047578406
126	0x3ca32bab	0.019918283
127	0xbd40b352	-0.047046013
128	0x3d28b03b	0.04118369
129	0xbddad08b	-0.10684308
130	0xbb0dabec	-0.0021617366
131	0xbb1043e9	-0.0022013134
132	0xbc397d03	-0.011321309
133	0x3a0c2dda	0.00053474086
134	0x3bad833f	0.005295187
135	0xbcc79088	-0.02436091
136	0xbb553b88	-0.0032536704
137	0xbd6ca272	-0.057772107
138	0xbce4e8f3	-0.02794311
139	0x3b3a5df6	0.0028437353
140	0x3b4db99f	0.0031391156
141	0x3d4ea9e1	0.050454978
142	0xbb2d2cf4	-0.00264245
143	0xbcfa3eaf	-0.030547468
144	0xb9bab536	-0.00035611697
145	0x3a01d4ad	0.00049526506
146	0xba8cb9cb	-0.0010736523
147	0xbbeca916	-0.007222305
148	0x3d20194e	0.039086632
149	0xbaa18d16	-0.0012325372
150	0x3c6253fa	0.013813967
151	0x3ca9b74f	0.020717291
152	0xbdd61166	-0.10452537
153	0x3b32a64e	0.002725977
154	0x3d1b2417	0.037876215
155	0x3d297609	0.041372333
156	0x3cfa51b9	0.030556547
157	0x3c6370e3	0.013881895
158	0x3b1cfb0a	0.0023953342
159	0x3d685b11	0.056727473
160	0x3c9b5b64	0.018964477
161	0xba6891b2	-0.0008871808
162	0x3da29f23	0.07940509
163	0x3bbebda8	0.0058209486
164	0xbd08b53d	-0.033375967
165	0xbdae2f8a	-0.08505161
166	0x3a840052	0.0010070896
167	0xbc569cd1	-0.013098911
168	0x3d43f63b	0.047842246
169	0x368a502c	4.1220537e-06
170	0xbc19bfda	-0.00938412
171	0x3d64ecd0	0.055889904
172	0xbb718f4a	-0.0036859089
173	0xbbbcfdb4	-0.0057675485
174	0xbbe48f54	-0.006975094
175	0xbc8bb70f	-0.017055063
176	0x3d8f0213	0.069828175
177	0xbc890d0b	-0.016729852
178	0x3c856728	0.01628454
179	0xbbf647e0	-0.0075158924
180	0xbce683e8	-0.02813907
181	0x3cc2db7a	0.023786295
182	0xbb771a51	-0.0037704895
183	0x3cfc45cd	0.030795002
184	0xbcd240de	-0.025665697
185	0x3d8e5a65	0.06950835
186	0x3b882a52	0.0041554356
187	0xbbb4a99a	-0.005513382
188	0x3b8a834f	0.004227079
189	0x3c8b3de8	0.016997293
190	0x3bb61900	0.0055571795
191	0xbb48b838	-0.003062738
192	0xbbfbeb54	-0.0076879654
193	0x3c41580a	0.011800775
194	0xbc9aeb1a	-0.018910933
195	0xbaf2cd9f	-0.0018524415
196	0x3c7dcc45	0.015490596
197	0x3d8316c2	0.06400825
198	0x3dc9b00c	0.098480314
199	0x3b983b50	0.0046457425
200	0x3a4ca0c5	0.0007805939
201	0x3aab2a46	0.0013058863
202	0xbad6fcd8	-0.0016402258
203	0x3afd4193	0.0019321911
204	0xbb07f1cf	-0.0020743494
205	0x3d121c95	0.03567179
206	0x3d33e2e9	0.04391757
207	0xbb268ec5	-0.0025414687
208	0xba967589	-0.001147912
209	0x3c459e11	0.012061612
210	0x3a9b5cf7	0.0011853267
211	0xbb0b7a35	-0.0021282558
212	0xb9f88df8	-0.0004740802
213	0x3b1d9df7	0.0024050453
214	0x3cdff569	0.0273387
215	0x39cbbaf2	0.00038858462
216	0xbcb681ef	-0.022278754
217	0x3c70f31e	0.014706401
218	0x3b433f62	0.0029792418
219	0x3c64f329	0.0139739895
220	0xbc5a3a3c	-0.013319548
221	0xbcb1b533	-0.021692848
222	0x3b9b2720	0.0047348887
223	0x3d0af51a	0.033925153
224	0xb9c396aa	-0.00037305552
225	0xbde2c37c	-0.11072442
226	0xbc9c085b	-0.019046953
227	0x3c2010ce	0.009769632
228	0xba3fe67a	-0.00073204155
229	0x39d0482a	0.00039726618
230	0x3d972de4	0.073818
231	0xbb0f4186	-0.0021859123
232	0x3b7e344a	0.003878849
233	0x3d995874	0.07487574
234	0xbcb0e2ce	-0.021592524
235	0x39802a14	0.00024445413
236	0xbb32fb6e	-0.0027310508
237	0xbc741577	-0.014897696
238	0x3d3573b2	0.04429979
239	0x3afc72eb	0.0019260322
240	0x3c928273	0.017884469
241	0x3d4744c3	0.04864956
242	0xbde2e245	-0.11078314
243	0xba499c92	-0.00076908723
244	0x3d46b166	0.048509024
245	0x3a90746f	0.0011021028
246	0x3ba1240c	0.004917627
247	0xbc3c0960	-0.011476845
248	0x3c7a6138	0.015281968
249	0x3d6fcc75	0.058544595
250	0x3c391f01	0.011298896
251	0xb9fbf207	-0.00048054775
252	0x3d08dae1	0.033411864
253	0x3b9933a9	0.004675348
254	0x393f7c2e	0.0001826144
255	0xbc20d2a2	-0.009815844

action_model._continuous_distribution.mu.bias f4 [2]
0	0xbc20a590	-0.009805098
1	0xbc6e4d9f	-0.0145448735

exp_avg f4 [128, 7]
0	0x377d6799	1.5104096e-05
1	0x3a00ced3	0.0004913632
2	0x00000000	0.0
3	0x3b4c6f1b	0.0031194154
4	0xba19af48	-0.0005862606
5	0x00000000	0.0
6	0x3a055f77	0.0005087773
7	0x36ce8a8e	6.1554083e-06
8	0x3951fbd1	0.00020025602
9	0x00000000	0.0
10	0x391edcbe	0.00015150287
11	0x3965eb8d	0.00021926891
12	0x00000000	0.0
13	0x3774ed2c	1.4598754e-05
14	0x3659e5d9	3.2469309e-06
15	0x38dd8466	0.00010562762
16	0x00000000	0.0
17	0xbb89123a	-0.004183081
18	0x38a157fd	7.693467e-05
19	0x00000000	0.0
20	0x39794bfd	0.00023774798
21	0xb89e4158	-7.546198e-05
22	0xbb20e41f	-0.0024550033
23	0x00000000	0.0
24	0xb798c8da	-1.821334e-05
25	0xbb468788	-0.0030293185
26	0x00000000	0.0
27	0xb9f9648b	-0.0004756789
28	0xb7ab5434	-2.0423999e-05
29	0xba2e2f2e	-0.00066446036
30	0x00000000	0.0
31	0xba4dddea	-0.0007853197
32	0xb937f203	-0.00017542396
33	0x00000000	0.0
34	0x37f3ce76	2.9063998e-05
35	0xb868dae7	-5.551698e-05
36	0xbaecbc2d	-0.0018061452
37	0x00000000	0.0
38	0x3a78d626	0.000949236
39	0xbb2ed641	-0.0026677998
40	0x00000000	0.0
41	0x39ac95a3	0.00032917885
42	0xb860db82	-5.3610194e-05
43	0xbae49ac5	-0.0017441144
44	0x00000000	0.0
45	0xbb3e5e2e	-0.0029047835
46	0xbb130b2f	-0.0022437086
47	0x00000000	0.0
48	0xb827b2e4	-3.9982508e-05
49	0xb91d9638	-0.00015028648
50	0xbba03656	-0.00488929
51	0x00000000	0.0
52	0xbc30ae61	-0.010783763
53	0xbbba09fe	-0.0056774607
54	0x00000000	0.0
55	0xba77e26b	-0.0009456041
56	0x3743f563	1.1680039e-05
57	0x39c73840	0.00037998147
58	0x00000000	0.0
59	0x3a9743f7	0.0011540641
60	0x3a52b7bb	0.0008038242
61	0x00000000	0.0
62	0xb99924d0	-0.00029209862
63	0xb53f2f8a	-7.1222223e-07
64	0xb7c25f10	-2.317087e-05
65	0x00000000	0.0
66	0xb8ab23f3	-8.1606115e-05
67	0xb88b78e2	-6.650553e-05
68	0x00000000	0.0
69	0x3733e6cc	1.0722968e-05
70	0x34efa94c	4.46404e-07
71	0x37739d80	1.45205995e-05
72	0x00000000	0.0
73	0xba9666a1	-0.0011474678
74	0xb9fb378e	-0.00047915842
75	0x00000000	0.0
76	0x369550b3	4.4499407e-06
77	0xb82540c3	-3.939938e-05
78	0xbaa8021b	-0.001281801
79	0x00000000	0.0
80	0xbbc10323	-0.0058902665
81	0xbaeb990f	-0.0017974692
82	0x00000000	0.0
83	0x369feb86	4.765988e-06
84	0xb8502bf9	-4.9632017e-05
85	0xbad3a3e4	-0.0016146866
86	0x00000000	0.0
87	0x3b295f5a	0.0025844187
88	0xba9ffc55	-0.0012205938
89	0x00000000	0.0
90	0xb853e9e8	-5.0524162e-05
91	0x3787a776	1.6171234e-05
92	0x3a09e9e1	0.0005260986
93	0x00000000	0.0
94	0xba5f46c0	-0.00085173175
95	0x39de0673	0.00042347945
96	0x00000000	0.0
97	0x38ad99b1	8.27791e-05
98	0x369d613c	4.690284e-06
99	0x39200035	0.00015258866
100	0x00000000	0.0
101	0xb96252a7	-0.0002158383
102	0x38e8fcd8	0.00011109718
103	0x00000000	0.0
104	0x37888f29	1.6279128e-05
105	0x38492148	4.795313e-05
106	0x3acc7b76	0.0015600759
107	0x00000000	0.0
108	0x3a258ae5	0.00063149474
109	0x3a0aed6d	0.00052996614
110	0x00000000	0.0
111	0x39ee1f75	0.00045418335
112	0xb6b9efdf	-5.5413543e-06
113	0xb93d08e4	-0.00018027757
114	0x00000000	0.0
115	0xb7c657f5	-2.3644398e-05
116	0xb9807377	-0.0002450009
117	0x00000000	0.0
118	0x37b4d783	2.1558028e-05
119	0x37e885fd	2.7718948e-05
120	0x3a6c655d	0.000901779
121	0x00000000	0.0
122	0x3a7b5185	0.00095870375
123	0x3a7ebe66	0.00097177026
124	0x00000000	0.0
125	0x399239b3	0.0002789028
126	0x38ec7f17	0.00011277029
127	0x3b707023	0.0036687932
128	0x00000000	0.0
129	0x3ba859d1	0.00513766
130	0x3b53cfc4	0.0032319883
131	0x00000000	0.0
132	0x3a1fb1c4	0.0006091858
133	0xb88ce005	-6.717447e-05
134	0xbb0f38ec	-0.0021853996
135	0x00000000	0.0
136	0xbb4b5a91	-0.0031029324
137	0xbb1389bf	-0.0022512523
138	0x00000000	0.0
139	0xb9ba136e	-0.0003549116
140	0xb8d0b32c	-9.951586e-05
141	0xbb542d25	-0.003237554
142	0x00000000	0.0
143	0xba0b4002	-0.0005311967
144	0xbb5a3eda	-0.0033301623
145	0x00000000	0.0
146	0xba81284f	-0.0009853932
147	0x38f22bb1	0.000115475974
148	0x3b7634da	0.0037568123
149	0x00000000	0.0
150	0x3a9d9738	0.0012023216
151	0x3b31f872	0.0027156142
152	0x00000000	0.0
153	0x3a30dd66	0.0006746858
154	0x37d9d942	2.5969584e-05
155	0x3a5d7aad	0.0008448761
156	0x00000000	0.0
157	0x3be3bf48	0.0069502927
158	0x3a1739d8	0.0005768812
159	0x00000000	0.0
160	0x397e15f8	0.00024231512
161	0x37e4105c	2.7187336e-05
162	0x3a67dc37	0.0008844765
163	0x00000000	0.0
164	0xbb3e4601	-0.0029033425
165	0xb98a9012	-0.00026428752
166	0x00000000	0.0
167	0xb8a20f76	-7.727642e-05
168	0x350fb08d	5.3528566e-07
169	0x3792166d	1.7415e-05
170	0x00000000	0.0
171	0x39946853	0.00028306487
172	0x38f5c8e5	0.0001171993
173	0x00000000	0.0
174	0x37cdd951	2.45391e-05
175	0x38a4cbae	7.858068e-05
176	0x3b278ab8	0.002556486
177	0x00000000	0.0
178	0x3a94e33b	0.0011359224
179	0x3b129c05	0.0022370827
180	0x00000000	0.0
181	0x3a045689	0.0005048295
182	0xb937296c	-0.00017467671
183	0xbbba36a3	-0.0056827827
184	0x00000000	0.0
185	0x3af60ee8	0.0018772753
186	0xbb978e91	-0.0046251495
187	0x00000000	0.0
188	0x394b9590	0.00019415305
189	0xb5c2a41a	-1.4501886e-06
190	0xb845e103	-4.717802e-05
191	0x00000000	0.0
192	0xbadfa4d6	-0.0017062675
193	0xba1e2569	-0.0006032796
194	0x00000000	0.0
195	0xb9af87e9	-0.00033479862
196	0x38a62d77	7.923965e-05
197	0x3b28f20e	0.0025779041
198	0x00000000	0.0
199	0xbab5a55e	-0.0013858487
200	0x3b4be0b4	0.0031109275
201	0x00000000	0.0
202	0x39b1b5ce	0.00033895526
203	0x38ba5125	8.8842855e-05
204	0x3b3d6bb3	0.0028903305
205	0x00000000	0.0
206	0xbbe984d2	-0.007126429
207	0x3ab44339	0.0013752944
208	0x00000000	0.0
209	0xb9a37a5a	-0.00031180942
210	0x3606cb9d	2.0086075e-06
211	0x38890886	6.534257e-05
212	0x00000000	0.0
213	0xba181645	-0.0005801658
214	0xb9fcee42	-0.000482427
215	0x00000000	0.0
216	0x34a083bf	2.989818e-07
217	0xb72ce9a5	-1.03063985e-05
218	0xb9afc958	-0.00033528614
219	0x00000000	0.0
220	0xb9a3eb2d	-0.00031265002
221	0xb9e855b0	-0.0004431433
222	0x00000000	0.0
223	0x388b6f96	6.648821e-05
224	0x38da7743	0.00010417264
225	0x3b5e1b44	0.0033890763
226	0x00000000	0.0
227	0x3b5ae677	0.0033401528
228	0x3b56df6d	0.003278698
229	0x00000000	0.0
230	0x39b3bece	0.000342837
231	0x36ee25d2	7.0973556e-06
232	0x39721d31	0.00023089793
233	0x00000000	0.0
234	0x398199ee	0.00024719484
235	0x39b5838f	0.0003462103
236	0x00000000	0.0
237	0x389d1a60	7.491256e-05
238	0xb7be7516	-2.2704287e-05
239	0xba41a19c	-0.00073864474
240	0x00000000	0.0
241	0xba957a62	-0.0011404271
242	0xb9e3dd51	-0.00043461708
243	0x00000000	0.0
244	0xb7a9197e	-2.015824e-05
245	0xb7dfc1ab	-2.6673855e-05
246	0xba637cc4	-0.00086779543
247	0x00000000	0.0
248	0x3ad5063d	0.001625247
249	0xbaa9406b	-0.0012912875
250	0x00000000	0.0
251	0xb923f5e7	-0.00015636497
252	0xb872ee1c	-5.7919053e-05
253	0xbaf6fa62	-0.001884293
254	0x00000000	0.0
255	0x390a5394	0.00013191841

exp_avg_sq f4 [128, 7]
0	0x361d8619	2.3472878e-06
1	0x3b22d0d7	0.0024843717
2	0x00000000	0.0
3	0x3addbade	0.0016916653
4	0x3b5cf6d2	0.0033716452
5	0x00000000	0.0
6	0x372e31a0	1.0382762e-05
7	0x31fc34ca	7.3401667e-09
8	0x370256f5	7.76885e-06
9	0x00000000	0.0
10	0x366ed62f	3.5589435e-06
11	0x369fe390	4.765061e-06
12	0x00000000	0.0
13	0x3313c0d6	3.4401488e-08
14	0x35c28d16	1.4495188e-06
15	0x3ac91664	0.0015341756
16	0x00000000	0.0
17	0x3aa2e69a	0.0012428344
18	0x3ab075f0	0.0013462882
19	0x00000000	0.0
20	0x3700e1a4	7.681931e-06
21	0x33f46308	1.1380149e-07
22	0x38fc990c	0.000120448036
23	0x00000000	0.0
24	0x3880c10f	6.1394756e-05
25	0x3918a154	0.00014555949
26	0x00000000	0.0
27	0x35dcf958	1.6463846e-06
28	0x33c23519	9.0434874e-08
29	0x38c8bb33	9.571612e-05
30	0x00000000	0.0
31	0x38ee6c3b	0.00011368884
32	0x38716fe6	5.756309e-05
33	0x00000000	0.0
34	0x340ab6a3	1.2918694e-07
35	0x348980d3	2.561197e-07
36	0x398e1f60	0.00027107727
37	0x00000000	0.0
38	0x39111be1	0.00013838663
39	0x39929291	0.0002795649
40	0x00000000	0.0
41	0x3655d815	3.186525e-06
42	0x363ea7d5	2.8409897e-06
43	0x3b450faf	0.0030069163
44	0x00000000	0.0
45	0x3aec3250	0.0018020365
46	0x3b148a82	0.0022665565
47	0x00000000	0.0
48	0x36d11549	6.2311633e-06
49	0x36c52a75	5.876e-06
50	0x3bcbca2b	0.0062191687
51	0x00000000	0.0
52	0x3b845984	0.0040389914
53	0x3c0c0d6e	0.008548124
54	0x00000000	0.0
55	0x38b6b8e8	8.712878e-05
56	0x3484cbb2	2.4735124e-07
57	0x398941ce	0.00026179705
58	0x00000000	0.0
59	0x38f9f107	0.0001191814
60	0x39abe1a2	0.0003278377
61	0x00000000	0.0
62	0x361713f9	2.251238e-06
63	0x3147713f	2.9022684e-09
64	0x364e2480	3.0717638e-06
65	0x00000000	0.0
66	0x363ad07d	2.7837516e-06
67	0x3670a1ad	3.5856895e-06
68	0x00000000	0.0
69	0x32f921bd	2.9002758e-08
70	0x339c3766	7.274393e-08
71	0x38a176fd	7.6992415e-05
72	0x00000000	0.0
73	0x389b482e	7.4044205e-05
74	0x38b2867b	8.51275e-05
75	0x00000000	0.0
76	0x34fd38c6	4.716623e-07
77	0x361b544b	2.3145865e-06
78	0x3b208c42	0.0024497663
79	0x00000000	0.0
80	0x3adf09b7	0.0017016445
81	0x3b04834e	0.0020219865
82	0x00000000	0.0
83	0x372bf058	1.0248354e-05
84	0x358677a5	1.0018599e-06
85	0x3a8afc31	0.0010603723
86	0x00000000	0.0
87	0x3a2eedfa	0.00066730345
88	0x3a88a231	0.0010424313
89	0x00000000	0.0
90	0x3605d027	1.9939705e-06
91	0x332bd595	4.0008292e-08
92	0x38319b66	4.2344815e-05
93	0x00000000	0.0
94	0x38473209	4.7491896e-05
95	0x3852e791	5.0283565e-05
96	0x00000000	0.0
97	0x3519b3c7	5.725855e-07
98	0x31293d6c	2.462765e-09
99	0x362eece9	2.606592e-06
100	0x00000000	0.0
101	0x3638006f	2.741839e-06
102	0x3632cf8c	2.6644875e-06
103	0x00000000	0.0
104	0x32899f3a	1.6021307e-08
105	0x35118ed5	5.422456e-07
106	0x3a1672a6	0.000573913
107	0x00000000	0.0
108	0x39f2f63e	0.00046341302
109	0x39c57962	0.00037665205
110	0x00000000	0.0
111	0x3640cb2f	2.8728498e-06
112	0x31405ab7	2.7991243e-09
113	0x3646d126	2.962604e-06
114	0x00000000	0.0
115	0x35cda83a	1.5322651e-06
116	0x363f6b5f	2.8523716e-06
117	0x00000000	0.0
118	0x3285c145	1.5571127e-08
119	0x343e24ce	1.7708518e-07
120	0x39448801	0.00018742682
121	0x00000000	0.0
122	0x38af586a	8.361119e-05
123	0x3904976d	0.00012644911
124	0x00000000	0.0
125	0x367633bb	3.6686968e-06
126	0x363c3188	2.8043014e-06
127	0x3b428411	0.0029680768
128	0x00000000	0.0
129	0x3aea36a7	0.0017869071
130	0x3b0f25d0	0.0021842606
131	0x00000000	0.0
132	0x3799e19a	1.8344075e-05
133	0x3528a7b5	6.2828923e-07
134	0x3a2e521b	0.0006649808
135	0x00000000	0.0
136	0x39e83f17	0.00044297494
137	0x3a5c4608	0.00084027695
138	0x00000000	0.0
139	0x372b3c2d	1.0206405e-05
140	0x3544b7ae	7.328298e-07
141	0x3a4b5370	0.00077562686
142	0x00000000	0.0
143	0x3a04384b	0.00050437887
144	0x3a2bcfe5	0.0006554111
145	0x00000000	0.0
146	0x36b82405	5.4878205e-06
147	0x35b0e922	1.3180872e-06
148	0x3ab6da9c	0.0013950649
149	0x00000000	0.0
150	0x3a6f81f0	0.00091364887
151	0x3a58682f	0.00082552707
152	0x00000000	0.0
153	0x3702b478	7.7906225e-06
154	0x3665fd62	3.4271147e-06
155	0x3b6db751	0.0036272595
156	0x00000000	0.0
157	0x3af32b53	0.001855234
158	0x3b4cef01	0.0031270387
159	0x00000000	0.0
160	0x37eda4e9	2.8329394e-05
161	0x3513288e	5.482078e-07
162	0x3a181a26	0.0005802236
163	0x00000000	0.0
164	0x3a2a1671	0.00064883294
165	0x3a2be184	0.0006556737
166	0x00000000	0.0
167	0x36c095d0	5.7394864e-06
168	0x31b88b07	5.3709104e-09
169	0x36bebe3b	5.684587e-06
170	0x00000000	0.0
171	0x3681f73c	3.8732815e-06
172	0x36a25a3f	4.8384823e-06
173	0x00000000	0.0
174	0x33268efe	3.8779937e-08
175	0x356c8305	8.810751e-07
176	0x3a74750b	0.0009325302
177	0x00000000	0.0
178	0x39d28da0	0.0004015984
179	0x3a19f079	0.000587232
180	0x00000000	0.0
181	0x364c6dcd	3.0462281e-06
182	0x352cc2fe	6.4358744e-07
183	0x3a3290c7	0.00068117346
184	0x00000000	0.0
185	0x3940b620	0.00018378394
186	0x39f013e8	0.00045791198
187	0x00000000	0.0
188	0x3686dad3	4.0189857e-06
189	0x349b513c	2.8930106e-07
190	0x39a08912	0.00030619703
191	0x00000000	0.0
192	0x395b688c	0.00020924414
193	0x39aead48	0.0003331697
194	0x00000000	0.0
195	0x368ad08b	4.136998e-06
196	0x34e7bb4c	4.316338e-07
197	0x39ef844f	0.0004568421
198	0x00000000	0.0
199	0x39cc5c03	0.00038978466
200	0x3a06f286	0.0005147833
201	0x00000000	0.0
202	0x35ed033e	1.765882e-06
203	0x361f4628	2.3733683e-06
204	0x3b24a005	0.0025119793
205	0x00000000	0.0
206	0x3b224345	0.0024759334
207	0x3b22a6a4	0.0024818564
208	0x00000000	0.0
209	0x37d64dfa	2.5547099e-05
210	0x3349b145	4.6960185e-08
211	0x385077e3	4.9702718e-05
212	0x00000000	0.0
213	0x381a0499	3.6720743e-05
214	0x38179daa	3.614804e-05
215	0x00000000	0.0
216	0x3423f21b	1.5268635e-07
217	0x33d71034	1.0014665e-07
218	0x38de49c1	0.00010599523
219	0x00000000	0.0
220	0x38d1a87f	9.9972814e-05
221	0x38e37f9a	0.00010847971
222	0x00000000	0.0
223	0x351c0a30	5.8129353e-07
224	0x35a79b14	1.2487603e-06
225	0x3aad3c85	0.0013216889
226	0x00000000	0.0
227	0x3a1bb4fe	0.00059397507
228	0x3a752ba7	0.0009352513
229	0x00000000	0.0
230	0x371e4688	9.433956e-06
231	0x3220292c	9.322587e-09
232	0x37258a8c	9.867024e-06
233	0x00000000	0.0
234	0x3713ea0b	8.816375e-06
235	0x36d4e852	6.345138e-06
236	0x00000000	0.0
237	0x33fd87a2	1.1805902e-07
238	0x337a02e1	5.821028e-08
239	0x38813475	6.16097e-05
240	0x00000000	0.0
241	0x38a708a6	7.9647914e-05
242	0x381a43cd	3.6779606e-05
243	0x00000000	0.0
244	0x34db1657	4.0808183e-07
245	0x348c2f36	2.6111383e-07
246	0x3990e4db	0.0002763633
247	0x00000000	0.0
248	0x398bab2d	0.00026639682
249	0x39d15490	0.0003992659
250	0x00000000	0.0
251	0x369b3f2f	4.6267155e-06
252	0x347063db	2.2388069e-07
253	0x39787736	0.00023695533
254	0x00000000	0.0
255	0x390fbc24	0.0001370763

exp_avg f4 [128]
0	0x38d32922	0.000100689256
1	0x382c1e1c	4.1036037e-05
2	0x37b5923d	2.1644979e-05
3	0xba03e0c3	-0.00050307455
4	0xb90ec624	-0.00013615988
5	0xb9c20b87	-0.00037011152
6	0xb9bb6189	-0.0003574009
7	0xba835254	-0.0010019043
8	0x38a34b75	7.786501e-05
9	0xb69f5237	-4.7481403e-06
10	0x3647b015	2.9755804e-06
11	0xb989b61d	-0.0002626636
12	0xb9ad79c5	-0.00033087857
13	0x38e2167a	0.00010780706
14	0x380325ef	3.1268162e-05
15	0x39a79bb7	0.0003196874
16	0xb81af251	-3.6942136e-05
17	0x3941c465	0.00018479077
18	0x3a45148b	0.0007518015
19	0xb9eaca5e	-0.00044782733
20	0xba2dea3e	-0.0006634331
21	0x3a49cef8	0.0007698382
22	0x39358a4f	0.00017313029
23	0x393e0c94	0.00018124498
24	0x366f7c24	3.5686035e-06
25	0x3a095452	0.00052387
26	0xba98a24c	-0.0011645048
27	0xb7223284	-9.667714e-06
28	0x3a0a7adc	0.00052825897
29	0x3a1b4355	0.0005922814
30	0x3760a4cc	1.338981e-05
31	0xb8901667	-6.870628e-05
32	0x3a360deb	0.0006944823
33	0x38467440	4.7315145e-05
34	0xb91eb6cf	-0.00015136156
35	0xb93a770c	-0.0001778269
36	0xb9ca70e3	-0.0003861255
37	0xb91218c5	-0.00013932872
38	0x388e099c	6.7728775e-05
39	0xb9de368d	-0.00042383783
40	0xb800d06c	-3.0711686e-05
41	0xb96c197a	-0.00022516205
42	0xb7fbbd9a	-3.0009822e-05
43	0x391121e0	0.00013840897
44	0xb8b75bb5	-8.743202e-05
45	0x36880f12	4.0548703e-06
46	0x396e878f	0.00022747948
47	0x39202661	0.00015273086
48	0x3a531e3a	0.00080535153
49	0x38ffe5e5	0.00012202169
50	0xb7acbd2c	-2.0592088e-05
51	0x3a02139e	0.00049620296
52	0x3988fd1d	0.00026128525
53	0x39326ce0	0.00017015962
54	0xb94973da	-0.00019212012
55	0x39e22a62	0.00043137657
56	0xb91856c3	-0.00014528171
57	0xb9ab671d	-0.00032692487
58	0x38ab597b	8.1705824e-05
59	0xb9d1ddb7	-0.00040028777
60	0x3950318c	0.00019854883
61	0xb7ed8091	-2.831247e-05
62	0x3882aae2	6.2307125e-05
63	0x39fffa10	0.000488237
64	0xb93de48a	-0.00018109582
65	0x399798cd	0.0002891481
66	0x3a4a29bc	0.00077119074
67	0xb81aac8c	-3.6877158e-05
68	0x3a07cd6f	0.00051804533
69	0xb99c68de	-0.0002983277
70	0xb89f061a	-7.582847e-05
71	0xba45d8d4	-0.00075472635
72	0xb95e2575	-0.00021185524
73	0x3888015f	6.485241e-05
74	0x383033e9	4.2010015e-05
75	0x3a68bd51	0.0008878308
76	0xb731fd7e	-1.0609043e-05
77	0x3a8c66a6	0.0010711744
78	0x390a4cea	0.00013189358
79	0x399572fb	0.00028505162
80	0xb9f4f97c	-0.00046725187
81	0xb926d92b	-0.00015911895
82	0x38afc977	8.382176e-05
83	0xb657eac1	-3.2174141e-06
84	0xb8b805b9	-8.77487e-05
85	0x381b2f6c	3.6999045e-05
86	0xb83e6bc8	-4.539991e-05
87	0x39bd211d	0.0003607356
88	0x39a823b6	0.00032070064
89	0xb76be905	-1.4061346e-05
90	0xb8979442	-7.227856e-05
91	0xb9ee2c71	-0.0004542801
92	0x38ea9920	0.00011186511
93	0xb8d9d9ea	-0.00010387956
94	0x395a2c3c	0.00020806579
95	0x393128f7	0.00016895296
96	0x38f50dde	0.00011685093
97	0xb89f3e98	-7.59337e-05
98	0xb577a2f0	-9.2251776e-07
99	0x3854229b	5.0576968e-05
100	0xba0f7c8d	-0.00054735766
101	0xb5fca750	-1.8824157e-06
102	0xb717814f	-9.030408e-06
103	0x398321ab	0.00025011352
104	0x3a11ff87	0.00055693876
105	0xb9ae3db7	-0.00033233847
106	0x3a44b0e7	0.0007503167
107	0xb919ff0f	-0.00014686234
108	0x39afb544	0.00033513654
109	0x3a1970b8	0.0005853283
110	0x39df4573	0.00042585618
111	0xbabce44e	-0.0014411302
112	0x369e6947	4.721023e-06
113	0x396f2434	0.00022806303
114	0xb8807567	-6.1253835e-05
115	0x38b48023	8.606936e-05
116	0xb9d5153e	-0.00040642353
117	0xb999c11d	-0.00029326315
118	0xba2cbace	-0.00065891154
119	0xb8428094	-4.6372952e-05
120	0xb9ce247a	-0.0003931856
121	0xba82229b	-0.0009928526
122	0x38ad21ac	8.255555e-05
123	0x37d95ee3	2.59126e-05
124	0x38d3c70e	0.00010098341
125	0xb8f2abbb	-0.000115714465
126	0xb8569cf4	-5.116775e-05
127	0x3852a5e1	5.022239e-05

exp_avg_sq f4 [128]
0	0x38dac7a5	0.00010432237
1	0x34af23e8	3.2622415e-07
2	0x38871a61	6.442215e-05
3	0x36a9b5ef	5.0577723e-06
4	0x3686dd27	4.0192567e-06
5	0x373ef933	1.1382904e-05
6	0x390465d9	0.00012626442
7	0x3988eb33	0.00026115178
8	0x37386f78	1.0993208e-05
9	0x340a7fd7	1.289876e-07
10	0x3658f6d7	3.2330188e-06
11	0x38d7bb6f	0.00010286911
12	0x383ac1e7	4.452644e-05
13	0x35eea7b1	1.7781186e-06
14	0x33eb0d46	1.0945455e-07
15	0x37ca2908	2.4099383e-05
16	0x340593cd	1.244036e-07
17	0x37040aad	7.870299e-06
18	0x3902b01b	0.0001246337
19	0x37ea3d46	2.7923506e-05
20	0x38089b5b	3.2569613e-05
21	0x3875b492	5.858072e-05
22	0x391fb66c	0.00015231379
23	0x37cc621e	2.4364384e-05
24	0x3480272c	2.387036e-07
25	0x38243def	3.9158327e-05
26	0x37eff169	2.8603436e-05
27	0x3757b733	1.2857653e-05
28	0x37a0ec27	1.9183453e-05
29	0x38dd3604	0.000105481624
30	0x360c0fed	2.0870896e-06
31	0x369558cf	4.4508847e-06
32	0x3868c835	5.5499568e-05
33	0x34de7112	4.1432992e-07
34	0x362d9dab	2.5870784e-06
35	0x3742b28a	1.160487e-05
36	0x3726ef4a	9.950085e-06
37	0x38c587c6	9.418982e-05
38	0x372dcaad	1.0358793e-05
39	0x37702acd	1.431508e-05
40	0x36130f05	2.191345e-06
41	0x39027160	0.00012440002
42	0x358e071e	1.0581896e-06
43	0x39ac81c6	0.00032903085
44	0x3883a449	6.277167e-05
45	0x32507bc4	1.21353345e-08
46	0x3768887f	1.3860058e-05
47	0x37f59d3b	2.9279492e-05
48	0x37e52f1d	2.7320866e-05
49	0x353d710d	7.05725e-07
50	0x36db81ea	6.5418326e-06
51	0x38318467	4.2323398e-05
52	0x37c40064	2.3365203e-05
53	0x373e73f8	1.1351884e-05
54	0x37775c00	1.4743768e-05
55	0x38b1919c	8.4671396e-05
56	0x37f91f57	2.9697707e-05
57	0x367216f5	3.6074173e-06
58	0x36fb9ac4	7.4984e-06
59	0x38835017	6.261485e-05
60	0x36cca5ee	6.0989905e-06
61	0x33c43a08	9.137517e-08
62	0x353c3f50	7.012759e-07
63	0x3798b713	1.8205063e-05
64	0x38e68f37	0.000109939305
65	0x371b5e31	9.260651e-06
66	0x380219d0	3.1018455e-05
67	0x33f7f562	1.1546469e-07
68	0x37e68a81	2.7482633e-05
69	0x38c0a822	9.1865906e-05
70	0x3915c3ad	0.00014282642
71	0x37ef4fe4	2.8528222e-05
72	0x37c5f3c1	2.3597737e-05
73	0x38571822	5.128247e-05
74	0x34a55c60	3.0800857e-07
75	0x39ba861e	0.0003557661
76	0x3470a86f	2.2413018e-07
77	0x382bfd51	4.1005496e-05
78	0x3755f5ff	1.2753065e-05
79	0x370a8657	8.256719e-06
80	0x383867d3	4.3965712e-05
81	0x37f8d6c9	2.9663921e-05
82	0x34aadcc3	3.1825593e-07
83	0x3529f75b	6.3317356e-07
84	0x37368cc9	1.0880824e-05
85	0x33dfcb55	1.04212326e-07
86	0x340c160f	1.3046541e-07
87	0x3755d9c9	1.2746496e-05
88	0x370a5d89	8.247219e-06
89	0x3906a9d9	0.00012842509
90	0x3684a497	3.9530673e-06
91	0x382611b5	3.9593975e-05
92	0x37969236	1.7949478e-05
93	0x37f57e9a	2.926523e-05
94	0x3757ad39	1.285533e-05
95	0x38c89fc5	9.5665026e-05
96	0x358a3075	1.0295904e-06
97	0x3569d63c	8.7111016e-07
98	0x3898cb15	7.285752e-05
99	0x34d84a6b	4.0287281e-07
100	0x37cccd23	2.441422e-05
101	0x32e31509	2.6435844e-08
102	0x375e9156	1.326607e-05
103	0x37255116	9.853646e-06
104	0x38beb7e7	9.0941605e-05
105	0x384b2e23	4.844194e-05
106	0x37039004	7.84174e-06
107	0x366a67e7	3.4929196e-06
108	0x398f9cdf	0.00027391964
109	0x3702a133	7.786136e-06
110	0x38b6ae96	8.7109554e-05
111	0x388ca942	6.707247e-05
112	0x35aab805	1.2719544e-06
113	0x3803b0ae	3.139738e-05
114	0x35a756b9	1.2467709e-06
115	0x38e4a934	0.00010903404
116	0x382747fd	3.9882947e-05
117	0x3752d20b	1.256588e-05
118	0x380d244b	3.365082e-05
119	0x380907a1	3.267045e-05
120	0x36ee9a58	7.1109207e-06
121	0x393e4320	0.00018144818
122	0x3736e3c6	1.0901078e-05
123	0x34255559	1.5397872e-07
124	0x36a505fc	4.91808e-06
125	0x3668241b	3.459171e-06
126	0x377bd109	1.5009436e-05
127	0x3820b5e5	3.8316375e-05
