results/PartialTrainedAI/Boss/Boss-18484.pt (torch, 445282 bytes, 36 tensors)

network_body._body_endoder.seq_layers.0.weight f4 [128, 7]
00000000: 44c3 3a3e 63c3 7f3e 46ed 49bf 23bb 663e
00000010: d1a3 28be 7bb8 2fbe f8d3 8dbf e2f4 243e
00000020: a100 e8bd 18c4 f1be b61a 53be 0b9e ebbe
00000030: b640 23bc 3732 983c c9c9 973e c01e 773e
00000040: c2b1 5b3e 4bd6 3c3c 65fb 053e c402 e13d
00000050: ab54 4d3e 4c57 103f 4b29 7ebb a258 4d3d
00000060: 6776 bdbe a492 b83e 7cbf a4bd 0fd0 f0bd
00000070: ef78 9f3e 61b5 85bd 475d 2a3e bded 8f3f
00000080: 87f1 68bf f0e9 b73e 8ba3 27be 17c3 873d
00000090: 5026 173d 04b9 283e 6e03 0b3f 1f73 b33c
000000a0: 2655 e73d 44e2 b63e eadc b53e d206 c73c
000000b0: b78f 17bf 712c 3dbd d348 303e 91e6 26bf
000000c0: bc0f afbe f67d 553e 64c2 b5be 5bfe 6cbe
000000d0: 323b 5a39 ca3c a63e 6d23 0abe acc2 c63e
000000e0: a1ff a9be d333 a63e 5e78 ed3d 851d 7d3d
000000f0: ceee 883e 1ddf 84bf 65ce 103e 892b 013e
00000100: 8ccf 2dbf 45d8 a83d 44e0 7bbe 9c28 bbbd
00000110: 5150 823d 5f9e 7bbe ae5e 183d 6671 e7bd
00000120: 83ce 703e c0d1 e4bd 7df9 e7bd b322 2b3e
00000130: e262 cfbe 242f c0be 6ac7 1d3e b290 e7be
00000140: a1cc bd3c 3a11 913e 312f 24be 1bac 6fbe
00000150: 4e3f 3dbe d2fd 23be 8979 e03e 6ec9 b13e
00000160: 0452 bf3e 53a5 ba3e c90e a9bf 0296 cc3e
00000170: fcfb a5be aba5 453f fce6 aabd c85f 3c3c
00000180: 0488 073f 4b26 6ebe dc96 023f c7b2 2abf
00000190: ded5 2dbf 114a c0be c2cd a2be d4cf a3bd
000001a0: 7745 e7bd 3ddf c33e 261a 89bd dc54 bdbe
000001b0: b2f2 113e 07e7 25be 801b b93e 1554 363e
000001c0: 4505 873e b0f3 1dbf 6fbe 143e 24ff 533e
000001d0: 7c72 b73d 6984 c2be 532c b3be af8c 423e
000001e0: 9c7e a8be 8c45 8b3e 6d1f e33e f3b9 21bd
000001f0: 09ab 223f 72d7 a43e ca88 213e 35a7 243f
00000200: 3895 65bc 7a49 cd3c f321 83be 59af 82be
00000210: b84c 50be 4b77 0f3c d2ad efbd c331 98be
00000220: d18d 00bd edf5 2f3e 0873 33bd b75b 9c3d
00000230: 20d2 ba3e 7db1 283e fa0c 383f 79ba 89be
00000240: 9135 033f 236f 02be eb40 a5be 7c43 d6bd
00000250: cc87 a73d 6782 cd3e 5be6 c33d a334 70be
00000260: b652 cbbe abe4 243e 093a 76be 0bd3 3a3f
00000270: e146 99bd 4ccc eabe 259d d9be 4a0b 6d3e
00000280: e109 4cbe 694b 093f b870 46be d55a 24be
00000290: a246 a4be a1db 42be cfd7 b1be 920e 84be
000002a0: 230d e53e 43a9 b8bd b24b 8cbe 7c84 a83d
000002b0: cec0 edbe 5fe6 56bd c9d8 5b3e bbc3 a23e
000002c0: 0c37 283f 498b 0d3e 293c bcbe 0c25 84be
000002d0: 9f50 123f 2c8a 683e dcfb f7bd e9bf 9d3e
000002e0: 693a f3be fadc 463f 27c7 163f 79bf 07be
000002f0: 7b24 12bf 4b71 c43e 45df 8e3b e708 f3be
00000300: ed14 11bf e9da a03e 5dfc f2be 1064 933e
00000310: bdc7 1f3e 4245 173f ad91 803e f650 8fbe
00000320: 8356 963e 0c89 a43e 48d5 a3be 66e7 e23c
00000330: 468f 38bf 29e4 4e3e 16ff 19bf 8326 be3e
00000340: 87ee 03bb f4ff 303f 2f87 6b3e 5a7c b83d
00000350: 3271 0c3f 850b 02bf 4546 26be 2d3d 91be
00000360: f900 9dbe 2c35 48be 221f b53f c986 c33e
00000370: b8f9 23be c9e3 ec3e e3a2 c93e cf29 143f
00000380: 1ba6 adbe bdd6 903e 8426 2a3f b147 0b3e
00000390: c0d7 afbe 481c 9f3e cafa eabe e0a0 aebe
000003a0: d454 16bd 0004 fcbd 65ff 883e 68d8 46bf
000003b0: fca8 993e ef77 13bd 531f f33d d770 97be
000003c0: 0f0a 40bf bd2c 313f 51b0 b2be 7d96 113f
000003d0: f2c1 503e 9faa 52bf 48f1 6e3c 452e 02bf
000003e0: 0b4d f3be bd8c 00bd 411f c03e 0e72 e9bd
000003f0: 4357 2fbf 58dd a03e 3b97 fe3e cae3 b03d
0.1823855 0.24976878 -0.78877676 0.22532324 -0.16468741 -0.17160217 -1.1080313 0.1610904
-0.11328245 -0.4721992 -0.20615658 -0.46019015 -0.009964159 0.018578632 0.29646137 0.24132824
0.21454528 0.011525701 0.1308418 0.109868556 0.2005183 0.56383204 -0.0038781937 0.050133355
-0.37004396 0.36049378 -0.08044335 -0.11758434 0.31146953 -0.06528736 0.16637145 1.1244427
-0.9099354 0.35920668 -0.1637098 0.06629007 0.036901772 0.16476828 0.5430211 0.02190548
0.11295538 0.35719502 0.35520107 0.024295244 -0.59203666 -0.04618496 0.1721528 -0.65195566
-0.34191692 0.20848832 -0.3549987 -0.23143904 0.00020812152 0.32468253 -0.13490076 0.38820398
-0.33202842 0.32461414 0.11595224 0.06179573 0.26744694 -1.0380589 0.14141233 0.12614264
-0.67894816 0.08244375 -0.2459727 -0.09138605 0.063629754 -0.24572133 0.03719967 -0.11300926
0.23516278 -0.11172819 -0.11326883 0.16712455 -0.4050513 -0.37535965 0.15408102 -0.4522758
0.023168864 0.28333455 -0.16033627 -0.23405497 -0.1848118 -0.16014794 0.43842724 0.3472399
0.3736726 0.36454257 -1.3207637 0.39958197 -0.3241881 0.77205914 -0.08344838 0.011497445
0.5294192 -0.23256795 0.51011443 -0.6667904 -0.6790446 -0.37556508 -0.31797606 -0.079986244
-0.11292546 0.38256255 -0.066944405 -0.36978805 0.14252737 -0.16201411 0.36153793 0.17805512
0.26371208 -0.6169996 0.1452577 0.20702797 0.08957383 -0.37991646 -0.34994754 0.18998979
-0.32909095 0.27201498 0.44359913 -0.039483976 0.6354223 0.32195622 0.15774837 0.6431764
-0.014012627 0.02505945 -0.2561184 -0.25524405 -0.20341766 0.008756469 -0.117030755 -0.29725465
-0.031385247 0.17183657 -0.043810874 0.07634681 0.36488438 0.16473956 0.718948 -0.2690008
0.5125361 -0.12737708 -0.3227609 -0.104620904 0.08180198 0.40138552 0.09565421 -0.2345758
-0.3971154 0.16102855 -0.24045576 0.72978276 -0.07484222 -0.4585899 -0.42502704 0.23148838
-0.19925644 0.5363069 -0.19378936 -0.16050275 -0.3208514 -0.19029094 -0.3473496 -0.25792366
0.44736585 -0.09016659 -0.274015 0.082283944 -0.4643616 -0.052465793 0.21469416 0.31789955
0.65708995 0.13822664 -0.3676465 -0.25809515 0.5715427 0.22708958 -0.12108585 0.30810478
-0.475055 0.77680933 0.5889763 -0.13256635 -0.57086915 0.38367686 0.004360112 -0.4746773
-0.56672555 0.31417015 -0.47458163 0.2878728 0.15603538 0.59090054 0.25111142 -0.27991456
0.29362878 0.32135808 -0.31998658 0.02769823 -0.7209362 0.20204224 -0.60154855 0.37138757
-0.0020131187 0.69140553 0.23000787 0.09008093 0.5486022 -0.5079883 -0.16237743 -0.28366986
-0.30664805 -0.19551533 1.4150126 0.3818877 -0.16013229 0.46267536 0.39382085 0.57876295
-0.3391579 0.28288832 0.6646502 0.13601567 -0.34344292 0.31076264 -0.45894462 -0.34107113
-0.036701992 -0.123054504 0.2675735 -0.7767396 0.30011737 -0.03600305 0.11871209 -0.29578277
-0.7501535 0.6920889 -0.34900144 0.5687025 0.20386484 -0.822916 0.014583893 -0.5085185
-0.47519717 -0.03138422 0.37523845 -0.11398707 -0.68492526 0.31418872 0.49724755 0.08637197

network_body._body_endoder.seq_layers.0.bias f4 [128]
00000000: f8b6 ce3a ad49 44ba 363f 693a 8671 fd3a
00000010: cf9f 5fba 80ce e737 c452 573a b58c 943a
00000020: a512 0cbb 2ebe b03a 026f 6cba 03bc 36ba
00000030: 1d4c f5ba aa37 80ba a3c9 0eba ae5b 083b
00000040: 56a2 7bba 2a5d e03a f21b bd3a d629 18ba
00000050: c52a 83b9 2bc3 7eba 0a0b 1ebb 708c 4339
00000060: b819 443b 51ea 0f3b 468e caba fd7e 59ba
00000070: fa1b 20b9 944c a7b9 db71 db3a c213 d5ba
00000080: 96b9 633b 9cfb abbb ce6d 07ba 872e 193a
00000090: 542f 283a 2234 293a 8a93 83ba 2b6c b9ba
000000a0: e79c 33bb 4a88 643a 11b0 663b 88ea 0f3b
000000b0: 16e6 fb3a 9c3c 1bbb f6da 36bb eb23 11ba
000000c0: 9084 8339 3fb3 40ba 5609 82ba d3ff d338
000000d0: 2db2 893a 549f 5ab7 73c6 813a 4af3 d03a
000000e0: 96ef 853a cff9 41b8 6459 5bba 1891 57ba
000000f0: 1cf6 42bb dbac 8cba e907 7dbb 5dc3 a1ba
00000100: f1af 77b9 7f86 96ba 6498 3a3a ee1c a43a
00000110: 854a 2d39 025c 47b9 bcba ae3a 00ef 1f3a
00000120: 3244 4cbb 5bdb f5b9 e702 21bb f459 99ba
00000130: b665 e339 1c53 1c39 724d 353a 6dc7 8038
00000140: a9fc 2dbb 608b 17bb 785f bdb9 1d29 d2b8
00000150: 102c 5dba 3961 32bb 889b 0bbb 8972 1f39
00000160: 03de 07bb 9426 2dba de7c 39ba fbb2 70ba
00000170: ffaa 10b9 4ed3 53ba 816d 3ebb 69f5 36ba
00000180: cf47 8e3a 1d64 a8ba d93a b73a 0f2a 0d3b
00000190: ab99 a7b9 dbff d73a 903e 833a 76c3 37bb
000001a0: 9f37 deb9 9e3c b33a 7682 063a ae20 763a
000001b0: 448b d5b9 5e13 5ebb 19bc ce3a d1c5 42bb
000001c0: 8506 203a 33f8 a93a 88b0 943a 35cc 873a
000001d0: 44d8 5d3a e19a 30bb 2409 033b 3635 353a
000001e0: 56ff 6e3a 9fa2 fcb9 4519 9939 d022 81b9
000001f0: 154e c3ba e58c 8439 cd47 bf3a fb52 2ab9
0.0015771082 -0.0007487785 0.0008897664 0.0019336201 -0.0008530588 2.7633505e-05 0.0008213932 0.0011333438
-0.0021373418 0.0013484412 -0.0009019227 -0.0006970765 -0.00187147 -0.0009782214 -0.00054469163 0.0020806598
-0.000959908 0.0017117609 0.0014427884 -0.0005804574 -0.00025018133 -0.00097184133 -0.0024115467 0.00018648966
0.0029922556 0.0021959732 -0.0015453778 -0.0008296816 -0.00015269211 -0.00031909777 0.0016742306 -0.0016256499
0.003474807 -0.0052485 -0.00051662035 0.000584342 0.0006415744 0.0006454607 -0.0010038477 -0.0014146616
-0.0027406754 0.00087178184 0.0035200159 0.002195986 0.0019218351 -0.002368725 -0.0027901507 -0.0005536663
0.00025085034 -0.00073509285 -0.0009920995 0.00010108915 0.0010505371 -1.3030909e-05 0.0009901061 0.0015941646
0.0010218497 -4.6247438e-05 -0.0008367507 -0.000822322 -0.0029748743 -0.0010732667 -0.003860945 -0.0012341548
-0.00023621299 -0.0011484175 0.0007118045 0.0012520829 0.00016526326 -0.00019012394 0.0013330798 0.00061009824
-0.0031168577 -0.00046893474 -0.002456838 -0.0011699782 0.00043372595 0.0001490828 0.00069161423 6.1406616e-05
-0.0026548302 -0.0023123845 -0.0003612002 -0.00010021238 -0.0008437047 -0.0027218594 -0.002130242 0.0001520609
-0.0020731695 -0.0006605175 -0.00070757966 -0.00091819436 -0.00013796611 -0.0008080498 -0.0029056969 -0.0006979318
0.0010855141 -0.0012847219 0.001397933 0.0021539961 -0.00031967214 0.0016479449 0.0010013152 -0.0028040088
-0.0004238458 0.0013674682 0.00051311345 0.0009389025 -0.00040730287 -0.0033886055 0.001577261 -0.0029719959
0.0006104487 0.0012967646 0.0011344114 0.0010360541 0.0008462707 -0.0026947784 0.0019994462 0.0006912531
0.00091170275 -0.00048186348 0.0002920126 -0.00024630735 -0.001490059 0.00025281977 0.0014593542 -0.00016243376

network_body._body_endoder.seq_layers.2.weight f4 [128, 128]
00000000: 32e0 44bc 7af6 35bc d0a4 16bd 922c 8d3c
00000010: 9fae a2bd db55 0d3e 548b d8bc 8b4c 1a3d
00000020: 1e22 81bd 58f2 8a3c 826e 803d f27b 0dbe
00000030: 17c6 b8bc e786 80bd 0511 3a3e 6468 39be
00000040: 7374 9abd ca76 c03c d8df 01be 5ac3 fd3c
00000050: d16d cd3c 5e4f 913c 80d2 8e3d c081 763d
00000060: 6eae ae3c 34e7 113d fb4e 1fbe a798 9f3d
00000070: 61af 80bc 8a42 553d efa2 44bd 9b0a d5bd
00000080: d410 0d3a 6d8c 2ebc 5f54 aabd 3f98 a73d
00000090: 166a 35be 22db 613c 9cc0 84bd 8731 afbd
000000a0: 504f 8f3c 01ba e4bd 3ee5 3a3d 9082 a13d
000000b0: 2dec 5f3d ccd4 b0bd 38b6 efbd 30a5 063e
000000c0: 0a5f 99bd 4589 4ebd d988 9e3d bda5 c93d
000000d0: 9c0b 8bbd d5cb aabc 9286 91bd d786 02be
000000e0: d822 fb3d 8444 863d e968 80bd 8389 e43c
000000f0: 34f6 1dbd 69f9 413a 76f2 593d ad14 d33d
00000100: 2107 903d 8015 ca3c 527d 543e 3a25 a7bd
00000110: 3951 f8bb 2e2e 13be c1c2 4a3d 2f10 81bd
00000120: cce1 613d dbfb 09bd f1c5 a1bb 65bf 3c3e
00000130: 8c91 283e 8fc1 913d 86ab ce3d cc15 2fbd
00000140: ce5f c2bd be7d 8f3d 9e66 47bd 739d 703b
00000150: 3668 443d 211b a3bb 1658 1dbd 6b4f dd3c
00000160: fe2c 783e 85b0 963d dcaa a2bb 26c1 2bbc
00000170: 3f5f edbd 02c5 48bd 48f3 35bd 4333 a93d
00000180: 248c 2dbc ae51 b03d 73b0 ad3c 589d 483d
00000190: 1f78 bdbd 6a9b 72bc 38b1 8bbd 81ce 6dbc
000001a0: d79a 503d 54e8 d93c c552 373e 3a73 3dbd
000001b0: 13b3 ab3b 49ba 58bd 38a4 ccbd b0e1 5bbd
000001c0: ce7b 343e 1e12 b13d b061 bd3c b3b0 55bc
000001d0: 1a52 7abb 8c45 543e 6ef9 873d 2834 033d
000001e0: d890 82bc 4385 a13c bfc9 8d3d 2b7f 123e
000001f0: 2834 1f3b 1d4e ca3b 582d 1d3d 1fac cc3d
00000200: 026f 19bd b5a1 99bd a986 043c 16e7 47bd
00000210: cfc6 933c f929 bfbd 110c c83d 1f4b efbd
00000220: 2712 c9bd 6df3 c23d c814 2dbe 1a5e 97bb
00000230: 5338 973c 8bb0 ba3c 2e4e 903d a941 a13c
00000240: e340 ee3d 0f26 cdbc 6e6c d03d 4331 e13d
00000250: 8d4d 8bbe 12f9 e33d 00c4 c73d 77b7 ecbc
00000260: 2108 8c3d 8c1e 1c3e 2706 a7bb bd2a 2cbd
00000270: e186 a63d 0781 ccbc d410 5dbd 234b e2bd
00000280: bdc3 61bd bf3c b23d b4b1 21bc f2b4 31bd
00000290: 62b1 9139 8bb3 f9bd 82d5 163d 6ee8 bbbd
000002a0: 2f31 28be 3b45 9fbd 32bb 02bc 9dcb 5e3d
000002b0: 95c2 0dbe 95dd 783d 60a2 e9bd 7a30 7fbd
000002c0: bfe2 433e c889 93bc bfe1 b23c 69dc 3a3e
000002d0: c496 03be e980 b53c 3f9d 963c 3787 5f3e
000002e0: 480d bdbd aafa 1bbd 1998 943d 5f2d de3c
000002f0: 4adc 563d 7369 523e 5b8f b03d 5023 123e
00000300: 3425 b7bd 1207 62bd 4690 1f3e fa96 88bc
00000310: 603a 373c 27c1 0a3e f90b 633c d85e cdbd
00000320: e62e 3c3d 416f 143e a242 a13d 0912 09bd
00000330: 21bc 03be cecd f73d 14d6 413d 70b5 e13d
00000340: 8e0e 963c fa4d 47bd 93bf 243d 8ae0 57bc
00000350: 6834 633d a474 3b3e 83ee aa3d f75f 293d
00000360: 0b38 2dbd 0f80 813d 8b11 45bd 371d 07be
00000370: 302c cf3c 5fcd 55bd c529 8d3d 565a 2fbe
00000380: 87c1 cfbd 093f 463d 2586 b9bd 58ef 253d
00000390: 0d55 433d 68f9 213e 539c dcbd 6da4 6cbb
000003a0: 56ce 1d3e 9657 e4bb a55a f5bd 7760 89bd
000003b0: d5ba 92bc 7c80 383d 7458 473d 3174 03bd
000003c0: 08ab 463d d5a3 833d ad28 1abd 0602 1f3e
000003d0: 138c 6d3d 05f0 35bd a08e 83bd 12cb 883c
000003e0: f436 07bd 0e4f 84bc 43cf 3dbd 1e07 20be
000003f0: 561f 8e3c 8ba3 cd3d 02e4 94bc 1f10 863d
-0.012016343 -0.011106128 -0.03677827 0.017233167 -0.079434626 0.13802283 -0.026433624 0.037670653
-0.063053355 0.016961262 0.06271078 -0.13816813 -0.022555394 -0.062757306 0.18170555 -0.18106228
-0.07541742 0.023494143 -0.12683046 0.03097694 0.025076779 0.01773804 0.069737434 0.060182333
0.021323409 0.035620883 -0.15557472 0.07792788 -0.015708627 0.05206541 -0.048006948 -0.104024135
0.0005381231 -0.010653597 -0.08316874 0.081833355 -0.1771625 0.0137851555 -0.0648205 -0.085543685
0.017493874 -0.1116829 0.04562878 0.07886231 0.054668594 -0.08634338 -0.11704677 0.13148952
-0.074888304 -0.05042388 0.07740945 0.09846065 -0.06789324 -0.020849148 -0.071057454 -0.1274675
0.12262505 0.06556037 -0.0627001 0.027897602 -0.038564876 0.0007399531 0.053209744 0.10306678
0.0703261 0.024668455 0.20750931 -0.08161397 -0.007578042 -0.14373085 0.049502138 -0.06301915
0.055146977 -0.033687454 -0.0049369265 0.18432386 0.16461772 0.071169965 0.10091309 -0.042745396
-0.094909295 0.07006405 -0.048681848 0.003671494 0.047950946 -0.0049775993 -0.038414083 0.027015409
0.24235913 0.07357887 -0.0049642157 -0.010483062 -0.115904324 -0.049016006 -0.044421464 0.082617305
-0.010592494 0.08609329 0.021202302 0.04897818 -0.09251427 -0.014807561 -0.06820911 -0.014514566
0.050928917 0.02660004 0.17902668 -0.046252467 0.005239853 -0.05291203 -0.0999226 -0.05368203
0.17625353 0.08646034 0.02311787 -0.013042617 -0.003819591 0.20729655 0.06639372 0.032032162
-0.015938208 0.019716864 0.06923246 0.14306323 0.0024292562 0.0061738626 0.03837332 0.09993767
-0.03745938 -0.07501546 0.008088746 -0.048804365 0.018039135 -0.093341775 0.097679265 -0.1168425
-0.098179154 0.09519086 -0.16902459 -0.004619372 0.018459475 0.02278926 0.070461616 0.01968463
0.1163347 -0.025042562 0.10176931 0.10995724 -0.27207604 0.11131491 0.09754181 -0.028896077
0.06837488 0.15246028 -0.005097169 -0.042032946 0.08131195 -0.024963869 -0.053971127 -0.110494874
-0.05511831 0.08702993 -0.009869028 -0.043385454 0.00027788716 -0.12192448 0.03682471 -0.09175192
-0.16425012 -0.077768765 -0.007979201 0.0543934 -0.13843758 0.060758192 -0.11407924 -0.06230209
0.19129466 -0.018010035 0.02183616 0.18248142 -0.12850481 0.022156196 0.018385528 0.21828924
-0.09231049 -0.03808085 0.07255573 0.027121244 0.052456178 0.20548038 0.08621093 0.14271283
-0.08942643 -0.055182524 0.1558238 -0.016673554 0.011183351 0.13550244 0.013857835 -0.10027856
0.045943163 0.14495565 0.07874037 -0.033464465 -0.12864734 0.12099801 0.0473233 0.110209346
0.018317487 -0.04865835 0.040221762 -0.013176093 0.0554699 0.18306214 0.08346274 0.041351285
-0.042289775 0.06323253 -0.048112433 -0.13194738 0.025289625 -0.05219781 0.068927325 -0.17124304
-0.10144334 0.04839996 -0.09058789 0.04051146 0.047688533 0.15817797 -0.10772004 -0.0036108748
0.15410742 -0.006968449 -0.1198018 -0.06707852 -0.017911354 0.045044407 0.04866834 -0.03209323
0.04850295 0.06427733 -0.037636448 0.15528116 0.057994913 -0.044418354 -0.06423688 0.016698394
-0.03301139 -0.016150977 -0.04634024 -0.15627715 0.017348927 0.10040959 -0.018175129 0.065460436

network_body._body_endoder.seq_layers.2.bias f4 [128]
00000000: 8dd7 a1b9 cae0 f13a 7647 1b3a ff69 6eba
00000010: 3646 01bb d706 7fba f4e9 3dba f311 d739
00000020: c027 65ba 9ba6 483a 5652 883a 7e3c 91ba
00000030: c244 0f3a 69d0 6039 029a 3aba 18d4 253a
00000040: cbdc 9c39 a68e 6eba 2fe3 8d3a 16a5 cf39
00000050: 7b2b 4fbb 8489 8d3a 8c75 c63a 2dae 403a
00000060: 61e9 61ba 8eec 523a a37d 973a 0cda 833b
00000070: 9568 d03a c4f6 eeba f906 96ba ec03 66b9
00000080: 838f 56b8 9b1e 8039 14ae 75ba 3ee8 2b3a
00000090: ffc0 1b3a 5a96 183b 7401 6939 b2e0 04b9
000000a0: 1e52 1e3a 00f5 48ba fd8d 73ba 36b7 f6b7
000000b0: 8f4d 6aba 25fc 9fb8 4756 d639 f524 4e3a
000000c0: ff3a 71ba 4bc5 3d3a 7ba7 32ba f6e9 9a3a
000000d0: c943 c83a a3d4 e2ba 5c93 0bba c593 c3b9
000000e0: 0955 b13a 5b00 0bba f13a 6cba 8411 eeb9
000000f0: 943b 863a e58c b5ba bec6 443a 8868 1938
00000100: 3cac 9639 8c28 91ba 6d1e 7139 e436 feba
00000110: 810e 12ba c669 14ba 25ec 1c3a 26b9 8dba
00000120: d2f3 0e3a 4b25 023a 5012 663a 313e cd39
00000130: fe4f 56ba a9cf e839 577b 09ba f460 3239
00000140: ed9a 68ba 2e93 a7ba 3b5a a2ba 69cf 73ba
00000150: 9adf d238 564f 35ba 07c7 c8ba c86b 21ba
00000160: 9738 df39 2275 0abb bf11 83ba 5946 b1ba
00000170: 40ff 1ab8 8c8c 8d3a baeb bbba 9ee1 4d3a
00000180: 9a1f fb39 e171 ed3a b04b 373a cba2 8637
00000190: aaac 87ba 1ea7 f5ba 9ce7 ceb9 1e9d 89b9
000001a0: 3079 5cba a1d3 d239 6c69 f739 3b73 bfb9
000001b0: e19d 123a 7125 bd3a c29a 59bb 3c54 17ba
000001c0: ddc2 4a3b e0eb cdba c481 2cbb 12ae de39
000001d0: 9a9f 9339 89d7 83ba a0b6 82ba 5f7b 6b3b
000001e0: 69fa 1fbb f80e ae3a a3b1 05ba c5c6 19b9
000001f0: 6234 01bb d2df 123b 8386 adba 0019 9039
-0.0003086891 0.0018453833 0.0005923429 -0.0009094774 -0.0019725687 -0.0009728497 -0.00072446396 0.0004102137
-0.000874158 0.00076542207 0.0010400515 -0.001108065 0.0005465263 0.00021439944 -0.0007118286 0.0006325855
0.00029919142 -0.0009100236 0.0010825152 0.00039605115 -0.003161161 0.0010798429 0.0015141233 0.0007350173
-0.0008617845 0.00080461137 0.0011557828 0.004023796 0.0015900308 -0.0018231501 -0.001144617 -0.0002193597
-5.115523e-05 0.00024436865 -0.0009371948 0.0006557739 0.00059415394 0.0023282976 0.00022221153 -0.00012672207
0.0006039458 -0.00076659024 -0.0009290872 -2.94108e-05 -0.0008937949 -7.6286764e-05 0.00040881542 0.00078637834
-0.00092022115 0.0007239177 -0.00068151177 0.0011818993 0.0015278991 -0.0017305802 -0.00053243875 -0.00037303395
0.0013529371 -0.0005302482 -0.00090114685 -0.00045407948 0.0010241144 -0.0013851194 0.00075064215 3.6575395e-05
0.00028738554 -0.0011074706 0.00022994886 -0.0019395021 -0.0005571619 -0.00056615134 0.0005986116 -0.0010812625
0.0005453202 0.00049646635 0.00087765325 0.00039146983 -0.0008175372 0.00044405207 -0.00052445143 0.0001701152
-0.00088731834 -0.0012784952 -0.001238651 -0.0009300621 0.00010055229 -0.0006916424 -0.0015318104 -0.0006157723
0.00042576037 -0.0021126946 -0.0009999796 -0.0013524994 -3.695418e-05 0.0010799333 -0.001433722 0.0007853749
0.00047897996 0.0018115604 0.00069921743 1.6049851e-05 -0.001035114 -0.0018741821 -0.00039463944 -0.00026247738
-0.00084103923 0.00040211997 0.00047190057 -0.00036516212 0.0005592984 0.0014430714 -0.0033203815 -0.0005772745
0.0030938901 -0.0015710555 -0.0026322464 0.00042472832 0.00028156937 -0.0010058741 -0.0009972639 0.003593169
-0.002441073 0.0013279608 -0.00051000173 -0.00014665264 -0.001971506 0.002241124 -0.001323894 0.00027484447

action_model._continuous_distribution.log_sigma f4 [1, 2]
00000000: 16bd 61ba c8d9 df38
-0.0008611245 0.000106740335

action_model._continuous_distribution.mu.weight f4 [2, 128]
00000000: 87a4 8d3c cf1b af3c 7d7b 9c3c 2f29 123c
00000010: 4ff9 a23b cdfb 28bd 3127 92bb 63ad 1cbc
00000020: 5f1d cc3b 6b05 b1bb bfdf 4a3c 4c7f 453c
00000030: 0d3a 1dbd 4a78 203c 64fe eb3b 1496 593a
00000040: 19d0 a83c 2dec d0bc 354e 7abc ed6c 653c
00000050: 8118 f9bc 067a 513c 7287 90bc c145 183c
00000060: 6f60 e1bb 0d91 e2bc a1ce 8bbc 79c4 e43b
00000070: c461 25bc 32f2 963c 41a4 cebc cb41 40bd
00000080: b204 c13c b4be 3dbc ea8f 98bb 244e b83c
00000090: 6b35 5ebb 0ddb 6cbc 96dc 2c3c aed0 1f3b
000000a0: 6672 823c bce8 203c 0986 43bc 717f 85bb
000000b0: 4379 58bc 2120 19bc 1e40 9f3a bf3f c3bb
000000c0: 7fe8 4239 194e e5bb 45cf 6e3b de94 93bb
000000d0: 1ac1 75bc c846 8eba 1326 2a3c 864c 2bbc
000000e0: 17bf 08bc b885 c93b 62d9 5c3b 7ae4 8ebb
000000f0: 8884 283c 7ad8 693c 38b8 a33b 68b2 3f3c
00000100: 3ce3 013d 9807 a83c 4e3f 87bc da62 e63b
00000110: ec3c d33c 7371 2c3d 1430 883b 7311 61bc
00000120: 094f 2cbd 75bf a0bb 18c8 be3c 04cb e8bb
00000130: 632a bc3c 270d 4cbc bbd6 b8bc 0cb1 253c
00000140: 319f 0c3b 2d37 1cbc 3044 a53c 8750 bcbc
00000150: ffaa 7ebc 4fe4 393c 57d9 dcba 926d f53a
00000160: 4bc4 183a d3a8 0f3c 78ac 223c a52c d0bc
00000170: 62f9 57bc e76f 30bc ddf1 cdbc 36fd 9f3c
00000180: 4870 f93c ffe1 103c a4a8 aabb c16d 113d
00000190: b110 43bb 0dc4 7a3c 4169 24bb c060 1abc
000001a0: a3bc 92bc 43d2 f8bb 9685 9bbc 5ae1 0c3c
000001b0: 2cde dabb 893b 203c e999 203c 3766 16bd
000001c0: 14b2 4ebc b156 c63c 7416 f3bc ddc7 883c
000001d0: aff1 abbc 8dd8 04bc a5b6 0ebd c6df cd3c
000001e0: ffd5 b23b 363a 40bc e1be 043c 54d3 dd3b
000001f0: 9454 45bc 1ce2 26bd e32a 9f3c 2255 d9bc
00000200: 3006 bd3c 12dd 37bd c089 3f3a 77c6 5e3b
00000210: f54a 493c 5b50 a7ba a182 a13c f5d7 1abb
00000220: 60d7 9b3c 6c78 ddbc f109 a93b 779c 7c3c
00000230: 8e0b 21bd 69f5 2f3c 330d 8d3c 090a 21bc
00000240: cc2e c53b ada1 ec3b cf89 983b efe1 4bbc
00000250: 5221 093c 0473 08bc a21b bf3b 1c17 333c
00000260: ecf0 85bb 4d4b 573c 30b0 093c df8f 9cbb
00000270: 1a3d 303c 8872 d03a 6284 333c 18f9 123c
00000280: 8c27 4e3c a855 aebc 420a d93c b1bb 4fbb
00000290: cc47 42bd 5857 ddbc 3ee2 cdbb f7f6 f7bb
000002a0: fb53 c83c d981 983c 3e72 9b3b d748 d03b
000002b0: 3c94 fc3b 4754 b33b dd47 2bbd 3f35 22bd
000002c0: e6dd aa3c 6835 e5bc cc7f 8c3c 3239 06bc
000002d0: 3cb7 94bc 3400 003d 5f83 413c bed4 a93c
000002e0: 4b75 00bd 30e3 c13c 0e60 d33c c209 953a
000002f0: 30b1 7bbc 774f 943c 6268 0bbc 35ce 763c
00000300: 14ba c5bc 15b7 87bc ead1 ffbc 4201 223c
00000310: b866 a0bb 4987 b23a dd9a b13c 7576 873c
00000320: 6589 883b 1376 bdbc 5c3a 73bc abba ae3c
00000330: 9471 f4ba 640c 993c 9795 973c 1693 533b
00000340: a1c7 5f3c 1133 7dba b4a8 d73b db12 babb
00000350: 8112 67bc d1ba 9e3c a90d ca3a 0e07 da3a
00000360: 8ea5 74bc 8dce cd3b 0f8e 983c be35 943c
00000370: 4e0c 543c 1f4a b6bc 99c5 67bc baf2 b33c
00000380: 881f 64bc 602f 4dbc bcbd 84bb e387 a1ba
00000390: ea64 90b9 467e 12bc 3aea b23c 10f2 84bc
000003a0: 490c 8dbc 58db 193c 97c7 ecbb 39b8 da3b
000003b0: 3a21 70bc f507 6ebc 3621 6e3c 0546 86ba
000003c0: 4df2 9aba 91b0 4c3b 9643 84bc 296b cebc
000003d0: 914d 6e3c 618a 863c fa82 b23c 7d4d a0bb
000003e0: ec4f b33b 3f59 753c f098 7abb e794 03bc
000003f0: f610 e5ba d34f 22bd 6eff 993c 73ff edbc
0.017290367 0.021375565 0.019101853 0.008920952 0.0049735676 -0.04125576 -0.0044602384 -0.009562823
0.0062290872 -0.005402257 0.012382447 0.012054276 -0.03838544 0.009794304 0.0072019566 0.00083002564
0.020607041 -0.025503242 -0.015277435 0.014003021 -0.030407192 0.01278544 -0.01764271 0.009293974
-0.006877951 -0.027657056 -0.017066302 0.006981429 -0.01009411 0.018426035 -0.025224807 -0.046937745
0.02356181 -0.011581112 -0.004655828 0.022498198 -0.0033906351 -0.014456523 0.010550639 0.0024385857
0.01592369 0.009821113 -0.011933812 -0.00407403 -0.013212505 -0.009346039 0.0012149846 -0.005958527
0.00018587893 -0.0069978354 0.003643946 -0.0045038303 -0.014999652 -0.0010854835 0.010385054 -0.010455256
-0.008346341 0.0061499737 0.0033698906 -0.0043607326 0.010285504 0.014272803 0.004996326 0.01170025
0.03171085 0.020511433 -0.016509678 0.007030827 0.025785886 0.04210038 0.004156122 -0.01373707
-0.04206756 -0.004905636 0.023288772 -0.0071042795 0.02296943 -0.012454308 -0.022563329 0.010113012
0.002145719 -0.009534639 0.020174116 -0.022987617 -0.015543698 0.011345937 -0.001684944 0.0018724671
0.000582759 0.008768278 0.009928815 -0.025411913 -0.013182016 -0.010768867 -0.025139743 0.01952992
0.030449048 0.008842944 -0.005208092 0.03550506 -0.0029764588 0.015305531 -0.002508715 -0.009422481
-0.017912215 -0.0075934245 -0.018984597 0.00859865 -0.006679317 0.009779819 0.00980232 -0.036718573
-0.012615699 0.02421126 -0.029673792 0.016696865 -0.020989267 -0.00810827 -0.034842152 0.025131118
0.005457639 -0.011732629 0.00810215 0.006769577 -0.012044091 -0.04074298 0.01942963 -0.026529852
0.02307424 -0.044888563 0.0007306598 0.0033992806 0.012285938 -0.0012765037 0.019715609 -0.0023627256
0.019023597 -0.02703496 0.005158656 0.0154181635 -0.03931766 0.010739663 0.017218208 -0.009829053
0.0060175415 0.0072214217 0.0046551 -0.0124440035 0.008369761 -0.008328203 0.0058321515 0.010930803
-0.004087558 0.013140512 0.008403823 -0.004777893 0.010756755 0.0015903274 0.0109568555 0.008970521
0.012582671 -0.021281078 0.02649415 -0.0031697566 -0.047431752 -0.027019188 -0.0062830737 -0.0075672823
0.024454108 0.018616604 0.0047438433 0.0063563394 0.0077081006 0.005472693 -0.04181658 -0.03960156
0.020857763 -0.027979568 0.017150782 -0.008192347 -0.01815378 0.031250194 0.0118111065 0.020731326
-0.03136186 0.023667902 0.025802638 0.0011370706 -0.015362069 0.018104298 -0.0085087735 0.015063812
-0.02413658 -0.016566793 -0.031228025 0.009887995 -0.0048950575 0.001362064 0.02168029 0.016535977
0.0041667693 -0.023127591 -0.014845457 0.021329245 -0.0018649572 0.018682666 0.018503947 0.0032283715
0.013658435 -0.00096587936 0.0065813903 -0.0056785173 -0.014103533 0.01937619 0.0015415448 0.0016634183
-0.014932049 0.0062807263 0.018622426 0.018092033 0.012942387 -0.02225214 -0.014146232 0.021966327
-0.013923533 -0.012523502 -0.0040509384 -0.0012323823 -0.00027541007 -0.008941239 0.021840204 -0.016228706
-0.017217772 0.0093906745 -0.0072259414 0.006674793 -0.014656359 -0.014528264 0.014534285 -0.0010244256
-0.0011821479 0.0031233171 -0.016145509 -0.025197582 0.01454486 0.016423406 0.02179097 -0.00489205
0.005472174 0.014974891 -0.003823813 -0.008031107 -0.0017476368 -0.039626908 0.018798556 -0.029052472

action_model._continuous_distribution.mu.bias f4 [2]
00000000: fffe 2a3a bd0e 2aba
0.0006522983 -0.00064871815

exp_avg f4 [128, 7]
00000000: 0cea b8b6 b5fe 3bb9 0000 0000 0c38 d038
00000010: 516e c2b8 0000 0000 ed80 d3b7 2093 1ab4
00000020: 8326 9db6 0000 0000 ae11 6a37 012a b2b5
00000030: 0000 0000 e55e ef32 e7ce 60b7 b68d e4b9
00000040: 0000 0000 9f90 8139 fb11 4eb9 0000 0000
00000050: d39f 16b6 c007 d1b5 9783 54b8 0000 0000
00000060: a65b e6b8 67f0 d5b7 0000 0000 452a a7b7
00000070: d36f 0a36 ecbd 8c38 0000 0000 13fe 7238
00000080: fe9d a938 0000 0000 eb29 af36 c7e5 0837
00000090: d82d 8b39 0000 0000 7be4 0639 5a0b 2338
000000a0: 0000 0000 9311 1eb8 31f4 13b5 b36b 96b7
000000b0: 0000 0000 186f a8b8 76e9 c9b7 0000 0000
000000c0: 1292 4ab6 af2e 9f35 05d6 2138 0000 0000
000000d0: f2af 2b38 ddd2 9b37 0000 0000 19cf 1db8
000000e0: 65d7 26b7 de9e a9b9 0000 0000 8184 ec39
000000f0: 0666 40b9 0000 0000 0d94 d738 fbed 0635
00000100: 8f2d 8937 0000 0000 a318 63b7 a826 e336
00000110: 0000 0000 8ad0 3ab6 7688 2436 3346 a738
00000120: 0000 0000 4b24 7cb8 63fd 7838 0000 0000
00000130: 9b61 beb6 320b 9a36 869c 1c39 0000 0000
00000140: e186 8239 da2d b238 0000 0000 fa15 4db7
00000150: 3866 feb5 3452 81b8 0000 0000 5b65 ddb7
00000160: 7bc8 2fb9 0000 0000 15af a038 031b 9535
00000170: 2297 1738 0000 0000 f7c6 bfb6 eb6e 89b6
00000180: 0000 0000 6b00 29b4 cc4b 36b5 6255 b9b7
00000190: 0000 0000 fc67 d537 455a 5eb7 0000 0000
000001a0: fc7b 9036 0ede 30b6 78d0 b3b8 0000 0000
000001b0: 9562 cab4 0f70 33b7 0000 0000 c655 74b7
000001c0: e25b 6434 892a e836 0000 0000 e04d c437
000001d0: 2846 e7b5 0000 0000 c9e8 0d36 a9a3 91b5
000001e0: 6011 14b8 0000 0000 5c69 9bb8 56c6 37b8
000001f0: 0000 0000 15ce 3cb7 0611 a0b6 26bc 22b9
00000200: 0000 0000 888c 02ba 143b a5b8 0000 0000
00000210: f07d 43b8 4720 b936 e335 3c39 0000 0000
00000220: 7545 e1b8 44e0 e838 0000 0000 075e a0b7
00000230: 8067 0c37 5abe 8e39 0000 0000 da4c 78b8
00000240: add4 0239 0000 0000 bbe7 bfb7 4049 9fb4
00000250: 23ee 21b7 0000 0000 a3d0 9638 684f 5ab8
00000260: 0000 0000 d483 b036 be05 3db6 9e2b c0b8
00000270: 0000 0000 9a06 cb38 3208 91b8 0000 0000
00000280: 2ce0 2b38 0a69 bf36 7099 4239 0000 0000
00000290: 6313 0cb9 ce3d 1939 0000 0000 6b45 ecb7
000002a0: a55a bab5 8775 3db8 0000 0000 f730 6937
000002b0: c527 e9b7 0000 0000 7ef5 6ab5 76f9 64b7
000002c0: 2bca e8b9 0000 0000 5b36 b5b8 f867 7cb9
000002d0: 0000 0000 d235 76b7 c5c8 9e36 e56d 2139
000002e0: 0000 0000 2db5 0bb9 3387 2639 0000 0000
000002f0: 5652 6237 054b 3ab7 5165 bdb9 0000 0000
00000300: 705d 1b3a 50cd 2bb9 0000 0000 5f94 4637
00000310: 3042 0634 307e 8836 0000 0000 c157 fe38
00000320: 12c7 22b5 0000 0000 7baa eeb7 5b74 e6b3
00000330: 784e 6ab6 0000 0000 ab12 b837 d9e8 a3b7
00000340: 0000 0000 357b a5b5 39a1 7636 10bd fa38
00000350: 0000 0000 3c98 ecb8 4c5c 2636 0000 0000
00000360: c4fb 15b8 759b 1f36 3644 a238 0000 0000
00000370: 92e0 9ab7 0e2b c637 0000 0000 74fd 2336
00000380: 2d69 01b7 3691 83b9 0000 0000 40eb f0b8
00000390: 2273 eeb8 0000 0000 5844 4eb8 d826 3c36
000003a0: 6e49 bf38 0000 0000 ba89 f538 6e51 5738
000003b0: 0000 0000 81f4 2537 7b5a dcb5 0805 60b8
000003c0: 0000 0000 cd5f 5eb8 a222 0eb9 0000 0000
000003d0: ea89 5bb7 fae0 b236 e4db 3539 0000 0000
000003e0: 5dfa 0db9 34ac d838 0000 0000 102f f5b7
000003f0: 178a bab3 90b1 3db6 0000 0000 d976 17b9
-5.510874e-06 -0.00017928595 0.0 9.9286524e-05 -9.271189e-05 0.0 -2.5213196e-05 -1.4395891e-07
-4.683448e-06 0.0 1.3951603e-05 -1.3274258e-06 0.0 2.7866415e-08 -1.3399614e-05 -0.00043593132
0.0 0.00024712548 -0.00019652389 0.0 -2.2444772e-06 -1.5573969e-06 -5.066729e-05 0.0
-0.000109843255 -2.5503525e-05 0.0 -1.9927635e-05 2.0628693e-06 6.711096e-05 0.0 5.793392e-05
8.087976e-05 0.0 5.2202863e-06 8.159731e-06 0.00026546302 0.0 0.00012864351 3.88728e-05
0.0 -3.7686503e-05 -5.511711e-07 -1.7931545e-05 0.0 -8.031557e-05 -2.4069781e-05 0.0
-3.018537e-06 1.186001e-06 3.8584712e-05 0.0 4.093344e-05 1.857563e-05 0.0 -3.762459e-05
-9.9445215e-06 -0.00032352557 0.0 0.0004511215 -0.00018348554 0.0 0.000102795755 5.02652e-07
1.6352888e-05 0.0 -1.3535991e-05 6.7696274e-06 0.0 -2.7837546e-06 2.4517335e-06 7.976256e-05
0.0 -6.0115282e-05 5.9363792e-05 0.0 -5.673804e-06 4.590861e-06 0.00014935629 0.0
0.00024896025 8.496242e-05 0.0 -1.2224069e-05 -1.8954224e-06 -6.166511e-05 0.0 -2.639245e-05
-0.00016763985 0.0 7.662006e-05 1.1109227e-06 3.614196e-05 0.0 -5.715406e-06 -4.0958307e-06
0.0 -1.5739504e-07 -6.791058e-07 -2.2093478e-05 0.0 2.544e-05 -1.3253249e-05 0.0
4.305968e-06 -2.6355297e-06 -8.5742155e-05 0.0 -3.769716e-07 -1.0695322e-05 0.0 -1.4563504e-05
2.1267581e-07 6.9190905e-06 0.0 2.3401284e-05 -1.7231259e-06 0.0 2.1146136e-06 -1.0850973e-06
-3.530213e-05 0.0 -7.410601e-05 -4.3815315e-05 0.0 -1.1253655e-05 -4.7703534e-06 -0.00015519615
0.0 -0.0004980047 -7.878817e-05 0.0 -4.660891e-05 5.517187e-06 0.00017949152 0.0
-0.000107417734 0.00011104395 0.0 -1.9117271e-05 8.368748e-06 0.00027226174 0.0 -5.919938e-05
0.00012476994 0.0 -2.2876882e-05 -2.9669354e-07 -9.651793e-06 0.0 7.191419e-05 -5.2049203e-05
0.0 5.2605556e-06 -2.8166537e-06 -9.163398e-05 0.0 9.681024e-05 -6.915665e-05 0.0
4.0978353e-05 5.7044717e-06 0.00018558442 0.0 -0.00013358663 0.00014614241 0.0 -2.8165718e-05
-1.3884461e-06 -4.5170567e-05 0.0 1.3899283e-05 -2.7794284e-05 0.0 -8.752903e-07 -1.3647941e-05
-0.00044401115 0.0 -8.640877e-05 -0.00024071324 0.0 -1.4675274e-05 4.7321396e-06 0.00015395095
0.0 -0.00013323566 0.0001588136 0.0 1.348982e-05 -1.1103931e-05 -0.00036124376 0.0
0.0005926704 -0.00016384316 0.0 1.1836265e-05 1.2503801e-07 4.067806e-06 0.0 0.00012128009
-6.063939e-07 0.0 -2.8451197e-05 -1.07313745e-07 -3.4914392e-06 0.0 2.1943202e-05 -1.9539542e-05
0.0 -1.2329316e-06 3.67507e-06 0.000119561446 0.0 -0.00011281713 2.4789651e-06 0.0
-3.5758843e-05 2.3783334e-06 7.737467e-05 0.0 -1.8462804e-05 2.3623488e-05 0.0 2.4436422e-06
-7.713487e-06 -0.00025094458 0.0 -0.000114879105 -0.000113701695 0.0 -4.9177877e-05 2.8036793e-06
9.121267e-05 0.0 0.00011708164 5.133583e-05 0.0 9.891694e-06 -1.6417611e-06 -5.3410447e-05
0.0 -5.3018146e-05 -0.00013555077 0.0 -1.3085528e-05 5.331004e-06 0.00017343421 0.0
-0.00013540075 0.00010331758 0.0 -2.9228191e-05 -8.686418e-08 -2.826655e-06 0.0 -0.00014444756

exp_avg_sq f4 [128, 7]
00000000: b9d9 cf2d 8bd5 d632 0000 0000 c61a 5132
00000010: 60b0 af32 0000 0000 4854 962e 4793 1029
00000020: c36e 152e 0000 0000 44c2 ee2d 1759 a72d
00000030: 0000 0000 2d6c 082a bc1c 062f 4c9e 0a34
00000040: 0000 0000 f2ba d733 53dd 0f34 0000 0000
00000050: c5b8 2130 cee1 a22d dc5a a832 0000 0000
00000060: 86e9 1d32 a24e c132 0000 0000 6e7a f42e
00000070: d639 642c 09e5 6b31 0000 0000 9db0 0432
00000080: 3c4d 5331 0000 0000 fc98 e12d abfe d62d
00000090: 4938 de32 0000 0000 9a50 7a32 a61a 2133
000000a0: 0000 0000 b86d 1430 46f2 072d 9983 0c32
000000b0: 0000 0000 a81e 8831 48ee 3c32 0000 0000
000000c0: dbda 7a2e 95b9 142d cfb8 1932 0000 0000
000000d0: be8a 0632 d188 8232 0000 0000 7be9 202f
000000e0: 5325 f02e fe36 f833 0000 0000 aa7b 0334
000000f0: 4c70 f933 0000 0000 5cbd 8930 e4ad 152a
00000100: 5db5 1a2f 0000 0000 7665 092f fd22 0b2f
00000110: 0000 0000 7f11 a82b cbbf 652b f777 6d30
00000120: 0000 0000 1a07 5630 4c22 3f30 0000 0000
00000130: 944f 602c 27b8 562e 2cef 5d33 0000 0000
00000140: c21b 0833 ece8 4433 0000 0000 e3c0 ea2f
00000150: a470 a22d e8e5 a732 0000 0000 6b41 4932
00000160: 20f5 1233 0000 0000 2bb4 c02f 7d1a f62a
00000170: 835f fe2f 0000 0000 92e3 fc2f 5e51 1030
00000180: 0000 0000 072c c02c ef45 982a c563 9d2f
00000190: 0000 0000 0cdb 822f 4cb2 4d2f 0000 0000
000001a0: 4ae8 1f2c 5362 382c 5f94 3e31 0000 0000
000001b0: db3e c831 0f3a f230 0000 0000 69b3 222e
000001c0: 9833 102a 0b0c 152f 0000 0000 cbbe 3a2f
000001d0: cbb8 042f 0000 0000 9ca9 de2b 8ab1 b72c
000001e0: acdd bd31 0000 0000 2efd 5c32 053c cb31
000001f0: 0000 0000 2355 7b2e a21f a22e 4492 a733
00000200: 0000 0000 4e39 9f33 7be0 9d33 0000 0000
00000210: 09c7 5030 47c2 f32d 0ef3 fb32 0000 0000
00000220: 7e69 eb32 a552 2b33 0000 0000 0ab9 0d2f
00000230: 3bf9 1d2e 0848 2333 0000 0000 68f1 e732
00000240: de5f 1233 0000 0000 0772 662f 7f95 bb2c
00000250: 0ae3 c131 0000 0000 462f a831 fce4 3e31
00000260: 0000 0000 5901 3f2e 7550 ae2d e32b b432
00000270: 0000 0000 f751 9c32 cac8 b632 0000 0000
00000280: 11b1 7e2f 98bd e12c 3953 e931 0000 0000
00000290: 4bc4 da31 2c22 a431 0000 0000 1743 912e
000002a0: 10d2 c42a 146f cb2f 0000 0000 9c45 af2f
000002b0: 478c a22f 0000 0000 3290 ea2b f6d8 902e
000002c0: d4b6 9533 0000 0000 a20a d832 5484 3e33
000002d0: 0000 0000 2586 dc2f a9e3 872d 9b74 8c32
000002e0: 0000 0000 dff1 a832 6e9c c632 0000 0000
000002f0: ed11 bf2e 7c47 802f ea96 8434 0000 0000
00000300: e5da 3134 8642 8334 0000 0000 e9ed fe30
00000310: dae3 a42d 456e aa32 0000 0000 9671 8332
00000320: 4ab2 8232 0000 0000 04e1 3f2f e66a 9a2b
00000330: 4a9b 9f30 0000 0000 be63 8b30 35dd f430
00000340: 0000 0000 28d4 ab2d 7e0d fb2d 78be 0133
00000350: 0000 0000 5ae0 b532 3701 0333 0000 0000
00000360: 1539 8a2f 942c 192c 3752 1e31 0000 0000
00000370: 92ac d130 2590 a130 0000 0000 9ac0 282d
00000380: 2b30 6c2d d51f 7432 0000 0000 dcac a032
00000390: 2c52 0232 0000 0000 9d11 4c2f 4bc4 622b
000003a0: fd62 6a30 0000 0000 c704 c430 98bd 9c2f
000003b0: 0000 0000 2400 092d d14e 802d 8f9e 8432
000003c0: 0000 0000 4cd3 f832 a124 8632 0000 0000
000003d0: 42e1 d22e 6f58 e12c b7ea e831 0000 0000
000003e0: fb3b 9331 6384 8831 0000 0000 d394 9e2e
000003f0: da58 d52d 2284 dc32 0000 0000 280b e732
2.3629864e-11 2.5009987e-08 0.0 1.2171489e-08 2.0452887e-08 0.0 6.8361816e-11 3.2102166e-14
3.3977054e-11 0.0 2.7143739e-11 1.9025266e-11 0.0 1.2116758e-13 1.2197438e-10 1.290984e-07
0.0 1.0045723e-07 1.339843e-07 0.0 5.883403e-10 1.8517545e-11 1.9599092e-08 0.0
9.1917e-09 2.2503915e-08 0.0 1.1117583e-10 3.2432854e-12 3.4327192e-09 0.0 7.7235685e-09
3.0748444e-09 0.0 2.5647477e-11 2.4442079e-11 2.5869797e-08 0.0 1.4570242e-08 3.750997e-08
0.0 5.3998006e-10 7.727657e-12 8.178994e-09 0.0 3.961606e-09 1.0997219e-08 0.0
5.70378e-11 8.4540335e-12 8.947793e-09 0.0 7.831373e-09 1.5196209e-08 0.0 1.4634864e-10
1.09205665e-10 1.1558403e-07 0.0 1.2245314e-07 1.1615393e-07 0.0 1.0021881e-09 1.3294189e-13
1.4070652e-10 0.0 1.2496124e-10 1.2654407e-10 0.0 1.1941974e-12 8.162331e-13 8.639058e-10
0.0 7.786284e-10 6.9534134e-10 0.0 3.187649e-12 4.8821527e-11 5.1673098e-08 0.0
3.1690213e-08 4.5846647e-08 0.0 4.2701406e-10 1.846729e-11 1.9545908e-08 0.0 1.1714614e-08
3.4216214e-08 0.0 3.5052614e-10 4.3716758e-13 4.6270196e-10 0.0 4.6000231e-10 5.2502525e-10
0.0 5.4618562e-12 2.704915e-13 2.8629024e-10 0.0 2.3802504e-10 1.8707985e-10 0.0
2.2724205e-12 2.6202554e-12 2.7732978e-09 0.0 5.827912e-09 1.7624319e-09 0.0 3.6993884e-11
1.280767e-13 1.355575e-10 0.0 1.6984385e-10 1.2070982e-10 0.0 1.5821125e-12 5.2208836e-12
5.525825e-09 0.0 1.2863252e-08 5.914901e-09 0.0 5.714641e-11 7.372526e-11 7.803149e-08
0.0 7.414438e-08 7.351715e-08 0.0 7.5952805e-10 2.7712178e-11 2.9330774e-08 0.0
2.7405573e-08 3.9889205e-08 0.0 1.2889614e-10 3.5919028e-11 3.8016907e-08 0.0 2.7001718e-08
3.4080465e-08 0.0 2.0958889e-10 5.331457e-12 5.6428506e-09 0.0 4.894818e-09 2.7778801e-09
0.0 4.342957e-11 1.981724e-11 2.0974715e-08 0.0 1.8198064e-08 2.1278897e-08 0.0
2.3164072e-10 6.4159338e-12 6.790654e-09 0.0 6.366951e-09 4.776913e-09 0.0 6.605754e-11
3.4962354e-13 3.700441e-10 0.0 3.1881775e-10 2.95673e-10 0.0 1.6666722e-12 6.586902e-11
6.9716094e-08 0.0 2.5150545e-08 4.4358174e-08 0.0 4.0113082e-10 1.5448825e-11 1.6351171e-08
0.0 1.9667764e-08 2.312137e-08 0.0 8.688859e-11 2.3333857e-10 2.469672e-07 0.0
1.6564043e-07 2.4449054e-07 0.0 1.854855e-09 1.8745828e-11 1.984075e-08 0.0 1.530206e-08
1.5215068e-08 0.0 1.745129e-10 1.0972028e-12 1.1612908e-09 0.0 1.014193e-09 1.7816207e-09
0.0 1.9534666e-11 2.8541388e-11 3.0208383e-08 0.0 2.1173197e-08 3.050192e-08 0.0
2.5142613e-10 2.1767354e-12 2.303876e-09 0.0 1.5255799e-09 1.175526e-09 0.0 9.5924605e-12
1.3425742e-11 1.4209907e-08 0.0 1.8705059e-08 7.58568e-09 0.0 1.855995e-10 8.056374e-13
8.5269375e-10 0.0 1.4262235e-09 2.851095e-10 0.0 7.78758e-12 1.4586917e-11 1.5438927e-08
0.0 2.8967087e-08 1.561631e-08 0.0 9.589708e-11 6.4047027e-12 6.7787727e-09 0.0
4.285082e-09 3.9731716e-09 0.0 7.2114446e-11 2.4254754e-11 2.5671458e-08 0.0 2.6897013e-08

exp_avg f4 [128]
00000000: 1f18 1ab8 d4cf 80b5 cb56 bbb8 1831 2eb7
00000010: 66b9 6637 9429 6438 6097 76b6 ffa6 0437
00000020: 7f08 8bb8 c3e1 6036 2a1c 8937 b95e 0038
00000030: 6800 54b7 3e82 f836 a6e9 97b6 8863 93b7
00000040: d34c be35 f3bb f2b6 b063 05b8 5a45 1a38
00000050: 7e01 6a38 aeba 04b6 4084 9db7 f481 1f38
00000060: 584b 1bb7 aacf beb8 b051 0438 0d3e 9bb8
00000070: 1fc2 5f35 fa0d 40b5 0086 cd37 5901 8537
00000080: 1caf 57b8 e0ca 9c37 619f 37b7 9010 1538
00000090: d47d 1bb5 b7b7 9fb8 835f 7735 4bd9 9a38
000000a0: 1b84 7636 c1c1 aab8 b49c 4bb6 9fa9 5c35
000000b0: acec 2538 8b49 ae35 faf6 b037 8d28 09b8
000000c0: 6079 a7b8 0a62 9e36 16af 16b7 e29f 0238
000000d0: f8d7 c9b7 4ea7 e437 d4b4 a237 95db 55b8
000000e0: cce1 8238 8501 3eb8 01c6 7137 5d0a 9738
000000f0: f335 b0b7 17d5 9136 651c 6537 e0dd efb7
00000100: 1112 5036 c2e8 7838 0f44 5eb8 cd3c a2b6
00000110: 6ce3 4e37 c49f e637 ce7c 0137 56d1 5537
00000120: b9f8 9db4 8733 2db8 36d8 a8b3 8d31 e035
00000130: fad4 fb35 15cd 08b7 4635 24b8 7a96 3638
00000140: 2309 b137 73eb 8b38 654d a036 ab17 39b6
00000150: 3f21 08b8 9996 e736 3116 1f36 484f 19b8
00000160: 6e13 7038 b31c 8138 3da4 8e38 428e f438
00000170: 3570 8ab7 b10e b838 ac4b f936 baa8 88b7
00000180: 8251 76b6 1bd9 ee36 131c e535 3810 f2b5
00000190: 9d6e ad37 1db8 f7b6 9c36 38b7 139a 4b38
000001a0: 19eb 8b38 3818 64b7 a061 f1b7 b798 8d38
000001b0: 56af f938 e8ee 8e37 b6b1 17b8 cab2 8335
000001c0: 4a9c c735 6f60 45b8 1520 b8b5 cbf3 a2b8
000001d0: f432 4238 addf d837 c2d2 c037 c9e9 de37
000001e0: 7fe7 0838 f030 03b8 1f1b 3ab8 fe52 72b6
000001f0: 82eb 3037 7491 9335 365b aab7 3c8e 08b7
-3.6738926e-05 -9.597229e-07 -8.933021e-05 -1.0382639e-05 1.3752235e-05 5.439816e-05 -3.6744968e-06 7.906695e-06
-6.629619e-05 3.3510012e-06 1.6344788e-05 3.0605795e-05 -1.2636279e-05 7.406138e-06 -4.527351e-06 -1.7570113e-05
1.4178462e-06 -7.234042e-06 -3.1802512e-05 3.678105e-05 5.5791337e-05 -1.9778195e-06 -1.8777442e-05 3.8029582e-05
-9.256262e-06 -9.0985865e-05 3.154733e-05 -7.402534e-05 8.3356457e-07 -7.154591e-07 2.4500303e-05 1.5855463e-05
-5.1423078e-05 1.869112e-05 -1.0944758e-05 3.5539793e-05 -5.7925104e-07 -7.6159304e-05 9.215366e-07 7.383766e-05
3.6733752e-06 -8.142321e-05 -3.034057e-06 8.220322e-07 3.9559483e-05 1.2985414e-06 2.1095842e-05 -3.270111e-05
-7.9857884e-05 4.72018e-06 -8.981462e-06 3.1143318e-05 -2.4061635e-05 2.7257625e-05 1.939611e-05 -5.098766e-05
6.240941e-05 -4.5300945e-05 1.4410821e-05 7.2021714e-05 -2.1005957e-05 4.3461437e-06 1.3656075e-05 -2.8594339e-05
3.1004931e-06 5.934458e-05 -5.299231e-05 -4.8350544e-06 1.2331508e-05 2.7492533e-05 7.7180575e-06 1.2744529e-05
-2.9424498e-07 -4.1294403e-05 -7.862438e-08 1.6703722e-06 1.8762942e-06 -8.153981e-06 -3.915026e-05 4.3532324e-05
2.1104299e-05 6.671892e-05 4.7773815e-06 -2.7580925e-06 -3.245589e-05 6.9018683e-06 2.3705763e-06 -3.655188e-05
5.7238554e-05 6.156545e-05 6.8016794e-05 0.00011661324 -1.6503132e-05 8.77654e-05 7.4295876e-06 -1.6291033e-05
-3.67043e-06 7.118227e-06 1.707e-06 -1.8035125e-06 2.0674715e-05 -7.3826072e-06 -1.0979969e-05 4.8542464e-05
6.671827e-05 -1.3595498e-05 -2.8774899e-05 6.751849e-05 0.00011905904 1.7038969e-05 -3.616671e-05 9.812295e-07
1.4872141e-06 -4.705827e-05 -1.3718405e-06 -7.770172e-05 4.6300658e-05 2.5853364e-05 2.2986325e-05 2.6573327e-05
3.2640524e-05 -3.127841e-05 -4.4371114e-05 -3.6109118e-06 1.0545251e-05 1.0994686e-06 -2.0308053e-05 -8.139348e-06

exp_avg_sq f4 [128]
00000000: c756 9030 d8cb c82b d143 ba31 0239 6230
00000010: 1e7d 1e2f 174d 9530 e8cf bc2f 568f ce2f
00000020: 25c4 a631 b3e2 cf2c d58b 1f2e f61b 1531
00000030: d79b 6130 60e7 aa2d 0a7d 532d 100b 002f
00000040: 3747 c82c a120 7f2f 772b 6131 7c46 a930
00000050: bc67 db30 e943 822f c919 7230 29c3 9c2f
00000060: f8ad 882d b62c 4931 c7bb 3c30 ee29 3232
00000070: 1203 6530 9c77 562e 1957 ae30 70bd d42e
00000080: 9704 2430 c079 1d2e 3734 3230 f27c 9c2f
00000090: 0e28 9430 f8a0 a631 8ba4 0d2e 2539 0331
000000a0: 842a 7e2c eaf1 5131 076a 172d 4246 4730
000000b0: 6082 aa30 0078 e52a fffc a72f 3732 d231
000000c0: 9e76 0c31 a40b 342e f2f6 642f 60d2 8f31
000000d0: b3c3 6730 6517 d530 bac6 fc2f 35d0 dd31
000000e0: 83b9 0231 4d77 4330 d3b0 e02e 2e8f c931
000000f0: 0b86 5730 07ff ce2c da7d 712e ab0e 5a31
00000100: 1f4b 2a31 56c8 d931 6f8f 0b31 5e03 8e2d
00000110: c258 d730 ddd2 be30 61d8 d12f d5bc da30
00000120: 93aa 852e ef88 1c31 2317 112c 58d3 e02e
00000130: b09c a62c 015b f52e 56c1 7131 0a9b de30
00000140: dfbe 9d2f c0a5 fe30 070c e62d 37dc 762c
00000150: 2e3f ef30 88e2 202d 4c2d 362d 00c3 9830
00000160: 72de 6430 a2b7 0231 5e62 9731 0a16 3a32
00000170: 327e 5130 94a4 dc31 2463 f52f 20e7 082f
00000180: 15b2 352d 854b e32e a0d9 802d 17f8 4e2b
00000190: 891e 0130 9ec1 4b2e b1e5 a22f e988 f82f
000001a0: 935f b331 b6a5 9630 33f3 af2f b17f 5a31
000001b0: 18ce 8231 1950 932f 5d2a fd30 81a4 db2f
000001c0: f848 c72d 9971 9031 85cb c92c 94ec 1c32
000001d0: 5a1d da30 724c 6d30 9d53 c230 1cb2 4030
000001e0: e016 3f30 6338 db30 af0d 5330 9091 172e
000001f0: 6a1e 0a2e 16d9 6230 171e 2431 e0de 1530
1.0502043e-09 1.4267433e-12 5.4210223e-09 8.2299334e-10 1.4414467e-10 1.0863087e-09 3.4344727e-10 3.7573028e-10
4.853535e-09 5.9084625e-12 3.627661e-11 2.1698248e-09 8.2075985e-10 1.9429514e-11 1.2021726e-11 1.1645462e-10
5.6922483e-12 2.3203707e-10 3.2766516e-09 1.2316401e-09 1.596383e-09 2.3695115e-10 8.807573e-10 2.8514904e-10
1.5538668e-11 2.9274765e-09 6.866085e-10 1.0370497e-08 8.331408e-10 4.87642e-11 1.2684921e-09 9.674295e-11
5.9669375e-10 3.5805803e-11 6.4830225e-10 2.8465014e-10 1.0779801e-09 4.849536e-09 3.2205832e-11 1.9095492e-09
3.6119172e-12 3.0551015e-09 8.606899e-12 7.249562e-10 1.2406183e-09 4.0761838e-13 3.0556888e-10 6.117513e-09
2.0440107e-09 4.09376e-11 2.0824212e-10 4.1857646e-09 8.4315416e-10 1.5504439e-09 4.5979737e-10 6.455617e-09
1.902294e-09 7.1110123e-10 1.0217751e-10 5.8661476e-09 7.840703e-10 5.883186e-12 5.4908834e-11 3.1731513e-09
2.4780957e-09 6.3383068e-09 2.0308695e-09 1.6145026e-11 1.5668535e-09 1.388425e-09 3.8170625e-10 1.5915257e-09
6.07844e-11 2.2778825e-09 2.0618583e-12 1.0223883e-10 4.7353996e-12 1.11574756e-10 3.5180014e-09 1.6196691e-09
2.8693756e-10 1.8528041e-09 2.6153314e-11 3.5080946e-12 1.7407495e-09 9.145247e-12 1.035556e-11 1.1114878e-09
8.326203e-10 1.9021873e-09 4.4058615e-09 1.0831636e-08 7.621309e-10 6.421553e-09 4.4635684e-10 1.245124e-10
1.0328201e-11 1.033618e-10 1.464856e-11 7.3530196e-13 4.697332e-10 4.6328823e-11 2.9630834e-10 4.5208218e-10
5.220451e-09 1.0961034e-09 3.2005118e-10 3.179576e-09 3.806928e-09 2.6796057e-10 1.8420213e-09 3.9952755e-10
2.2656085e-11 4.203866e-09 5.735359e-12 9.134187e-09 1.586993e-09 8.6328733e-10 1.4139122e-09 7.01023e-10
6.95179e-10 1.5950373e-09 7.67808e-10 3.446271e-11 3.140458e-11 8.252682e-10 2.3882245e-09 5.452261e-10
