results/PartialTrainedAI/Boss/Boss-2499940.onnx (onnx, 75574 bytes, 7 tensors)

network_body._body_endoder.seq_layers.0.weight f4 [128, 7]
0	0x3e98609d	0.2976121
1	0x3ebae4df	0.3650274
2	0xbf49ed46	-0.78877676
3	0x3e2569c0	0.16153622
4	0xbd2f4d8a	-0.042798556
5	0xbe2fb87b	-0.17160217
6	0xbfc3c1fe	-1.5293577
7	0x3e155a0f	0.14585136
8	0xbe0384d6	-0.12843642
9	0xbef1c418	-0.4721992
10	0xbe3751db	-0.17902319
11	0xbef91ebf	-0.4865627
12	0xbc2340b6	-0.009964159
13	0x3e83db8b	0.25753435
14	0x3e921ace	0.28536075
15	0x3e6bc0b1	0.23022725
16	0x3e5bb1c2	0.21454528
17	0x3cbbf1a6	0.022942375
18	0x3e0975fa	0.1342391
19	0x3de102c4	0.109868556
20	0x3d345669	0.04402772
21	0x3f09d6c1	0.53843313
22	0xbcefd8ef	-0.029278247
23	0x3d4d58a2	0.050133355
24	0xbeaf7802	-0.34271246
25	0x3ea9964e	0.33122486
26	0xbda4bf7c	-0.08044335
27	0x3e62170a	0.22079101
28	0x3eae643b	0.34060845
29	0xbd140a79	-0.0361428
30	0x3e2a5d47	0.16637145
31	0x3f94f78e	1.1638048
32	0xbf5d134b	-0.86357564
33	0x3eb7e9f0	0.35920668
34	0xbe8d1e8f	-0.27562377
35	0x3d856ff3	0.06515493
36	0x3d1282ac	0.03576915
37	0x3e28b904	0.16476828
38	0x3f0ce7f3	0.55041426
39	0x3d01839f	0.031619664
40	0x3de75526	0.11295538
41	0x3f1d7c60	0.61517906
42	0x3ebca671	0.36845735
43	0x3d19caa7	0.03754678
44	0xbf178fb7	-0.59203666
45	0xbd4bc41d	-0.049747575
46	0x3e544441	0.20729162
47	0xbf26e691	-0.65195566
48	0xbf1a45af	-0.6026258
49	0x3e785ab4	0.2425335
50	0xbea45362	-0.32094866
51	0xbe6cfe5b	-0.23143904
52	0xbd01aa83	-0.031656753
53	0x3ec005bf	0.37504384
54	0xbe0a236d	-0.13490076
55	0x3f30fd28	0.69136286
56	0xbec3c1ff	-0.38233945
57	0x3e8c70d4	0.2742983
58	0x3ded785e	0.11595224
59	0x3d8838e1	0.06651474
60	0x3e63f441	0.22261144
61	0xbf84df1d	-1.0380589
62	0xbde2b865	-0.11070327
63	0x3df299bd	0.118457295
64	0xbf2fc9f2	-0.6866752
65	0x3da8d845	0.08244375
66	0xbe77dc70	-0.24205184
67	0xbdcbc569	-0.099497624
68	0x3d825051	0.063629754
69	0xbee6aead	-0.45055142
70	0x3d9e27ab	0.0772241
71	0xbd9568c5	-0.07295374
72	0x3e70ce83	0.23516278
73	0xbe214057	-0.157472
74	0xbd9d342f	-0.07675969
75	0x3e2b22b3	0.16712455
76	0xbf1c171d	-0.6097277
77	0xbec7e943	-0.39045152
78	0x3e0e529a	0.13898697
79	0xbee790b2	-0.4522758
80	0x3cd5c536	0.026095014
81	0x3e985e03	0.29759225
82	0xbe242f31	-0.16033627
83	0xbe8c99f4	-0.27461207
84	0xbe43a436	-0.1910561
85	0xbe2a63f3	-0.1663969
86	0x3ee07989	0.43842724
87	0x3ed0895b	0.40729794
88	0x3ec20dc1	0.37901118
89	0x3ebaa553	0.36454257
90	0xbfdb45bb	-1.7130655
91	0x3ed41220	0.41420078
92	0xbe9e7fd0	-0.30956888
93	0x3f45a5ab	0.77205914
94	0xbdd7e90f	-0.10542499
95	0x3d644544	0.05573012
96	0x3f078804	0.5294192
97	0xbe0972b8	-0.13422668
98	0x3f022dd2	0.50851166
99	0xbf2b1db3	-0.6684219
100	0xbf2dd5de	-0.6790446
101	0xbec514e3	-0.38492498
102	0xbe9e3596	-0.30900258
103	0xbda3cfd4	-0.079986244
104	0xbeb9fa2a	-0.36323673
105	0x3eedec72	0.46469456
106	0x3c7a009b	0.015258933
107	0xbebd54dc	-0.36978805
108	0x3e01e04d	0.1268322
109	0xbdf097b8	-0.11747688
110	0x3eb91b80	0.36153793
111	0x3f07115a	0.5276085
112	0x3e9055ff	0.2819061
113	0xbf19481d	-0.5987566
114	0x3e14be6f	0.1452577
115	0x3e67c46c	0.22633523
116	0x3dfc9fbd	0.12335155
117	0xbec28469	-0.37991646
118	0xbf11e19f	-0.56984895
119	0x3e8dd707	0.27703115
120	0xbe77ca79	-0.24198331
121	0x3e8b458c	0.27201498
122	0x3f037e92	0.51365006
123	0x3d38c1c8	0.04510668
124	0x3f22ab09	0.6354223
125	0x3f1ed5ba	0.6204487
126	0x3e27c087	0.16382037
127	0x3f263515	0.64924747
128	0xbc659538	-0.014012627
129	0x3d18f32c	0.03734128
130	0xbe90d8d3	-0.28290424
131	0xbe82af59	-0.25524405
132	0xbe0f20c4	-0.13977343
133	0x3c39d90d	0.011343253
134	0xbdea61a5	-0.114444055
135	0xbe9831c3	-0.29725465
136	0xbd001953	-0.03127415
137	0x3e45d8b9	0.19320954
138	0xbd337308	-0.043810874
139	0x3ea9806b	0.33105788
140	0x3ead7b53	0.3388315
141	0x3e0e03b1	0.13868596
142	0x3f380cfa	0.718948
143	0xbe942b28	-0.28939176
144	0x3f0034db	0.5008065
145	0xbe026f23	-0.12737708
146	0xbe2b1235	-0.16706164
147	0xbd416597	-0.047216024
148	0x3e0e910a	0.13922516
149	0x3ecd8267	0.40138552
150	0x3e2fae6d	0.17156382
151	0xbe59de3a	-0.21276179
152	0xbecb52b6	-0.3971154
153	0x3eeef1be	0.4666881
154	0xbe533165	-0.20624311
155	0x3f439588	0.7640004
156	0xbd9946e1	-0.07484222
157	0xbeec6c15	-0.4617621
158	0xbedda07e	-0.43286508
159	0x3e6d0b4a	0.23148838
160	0xbe889a78	-0.2668035
161	0x3f1281aa	0.572291
162	0xbe2195dd	-0.15779825
163	0xbe245ad5	-0.16050275
164	0xbeb4f8a1	-0.3534594
165	0xbe1f0261	-0.15528251
166	0xbeb1d7cf	-0.3473496
167	0xbedf5fe6	-0.43627852
168	0x3ed9b22c	0.42518747
169	0xbde646ae	-0.1124395
170	0xbe8c4bb2	-0.274015
171	0x3da20658	0.07911366
172	0xbefb3369	-0.4906266
173	0xbd56e65f	-0.052465793
174	0x3da627a2	0.08113028
175	0x3ea2ab36	0.3177125
176	0x3f282ac8	0.6569028
177	0x3e0d8b49	0.13822664
178	0xbeafc71f	-0.34331605
179	0xbe9a09fd	-0.30085745
180	0x3f12509f	0.5715427
181	0x3ecf9afd	0.40547934
182	0xbe2e9abd	-0.17051215
183	0x3e847062	0.2586699
184	0xbef33a69	-0.475055
185	0x3f52644d	0.82184297
186	0x3f18e724	0.5972769
187	0xbe07bf79	-0.13256635
188	0xbf30688f	-0.68909544
189	0x3ec0151a	0.375161
190	0xbb882b85	-0.0041555786
191	0xbef308e7	-0.4746773
192	0xbf103914	-0.56337094
193	0x3eab6e82	0.33482748
194	0xbef2fc5d	-0.47458163
195	0x3eb28048	0.34863496
196	0x3e0a72b2	0.13520315
197	0x3f11f00d	0.57006913
198	0x3e8091ad	0.25111142
199	0xbe8c4b41	-0.27401164
200	0x3e909e5c	0.2824582
201	0x3ea4890c	0.32135808
202	0xbede397e	-0.43403238
203	0x3da29536	0.07938616
204	0xbf2b52eb	-0.669234
205	0x3e4ee429	0.20204224
206	0xbf1e6f10	-0.6188822
207	0x3ed9bfe8	0.42529225
208	0xbb03ee87	-0.0020131187
209	0x3f7c64a5	0.9859107
210	0x3e6d0977	0.23148142
211	0x3dbb8249	0.09155709
212	0x3f0c7132	0.5486022
213	0xbf02faa5	-0.51163703
214	0xbe2b0816	-0.16702303
215	0xbe913d2d	-0.28366986
216	0xbf0318f9	-0.5120998
217	0xbe7e338b	-0.2482435
218	0x3fae5f2d	1.3622795
219	0x3ec386c9	0.3818877
220	0xbe0f515c	-0.1399588
221	0x3ec68060	0.38769817
222	0x3ec9a2e3	0.39382085
223	0x3f47aab4	0.7799485
224	0xbe833fbc	-0.25634563
225	0x3ebb4040	0.36572456
226	0x3f2a2684	0.6646502
227	0x3e0299a2	0.12753919
228	0xbe89e082	-0.26929098
229	0x3e9f1c48	0.31076264
230	0xbec7db96	-0.39034718
231	0xbe8d9e90	-0.27660036
232	0x3ce447e8	0.027866319
233	0xbdfc0400	-0.123054504
234	0x3e8fd28a	0.28090316
235	0xbf406f80	-0.75170135
236	0x3e99a8fc	0.30011737
237	0x3e26ea93	0.1630042
238	0x3e09cdea	0.13457456
239	0xbe8f527e	-0.27992624
240	0xbf400a0f	-0.7501535
241	0x3f31a463	0.6939146
242	0xbeb80e4d	-0.3594841
243	0x3f11967d	0.5687025
244	0x3e53aded	0.20671816
245	0xbf54e714	-0.831651
246	0x3bbf9f21	0.005847827
247	0xbf022e45	-0.5085185
248	0xbee29a6b	-0.44258437
249	0xbd7e2b89	-0.062053237
250	0x3ec01f41	0.37523845
251	0x3d9e69ce	0.077350244
252	0xbf36a75a	-0.7134911
253	0x3e923ceb	0.28562102
254	0x3efe973b	0.49724755
255	0x3dbb7a77	0.09154218

network_body._body_endoder.seq_layers.0.bias f4 [128]
0	0x3def4544	0.11683133
1	0xbc825da8	-0.0159138
2	0xbc274cc2	-0.010211172
3	0xbcc03c87	-0.023466362
4	0x3ce7c27a	0.028290976
5	0xba90db18	-0.0011051623
6	0x3c6693a2	0.014073284
7	0x3d101b93	0.035182547
8	0xbd56d878	-0.052452534
9	0xbbd0be3d	-0.0063703344
10	0x3d205bdd	0.039150108
11	0xbc815b0c	-0.015790485
12	0xbc0509a7	-0.008119977
13	0x3c5f811b	0.013641621
14	0xbb0e48f9	-0.0021710976
15	0x3dac9888	0.084275305
16	0x3c8d84a8	0.01727517
17	0x3db5e2ea	0.08881171
18	0x3bf64129	0.007515092
19	0x3b037970	0.0020061396
20	0xbcd77bc0	-0.026304126
21	0x3d673797	0.0564495
22	0x3d024603	0.03180505
23	0x3d142dce	0.036176495
24	0xbc9dd7fb	-0.019268027
25	0x3b03aa88	0.0020090658
26	0xbd50cf2c	-0.050978824
27	0xbc191d34	-0.0093453415
28	0xbcabea22	-0.020985667
29	0x3d52754f	0.051381405
30	0x3b4e6fca	0.0031499737
31	0xbd5eaadb	-0.05436216
32	0x3db0c2db	0.08630916
33	0x3d72ecc9	0.059307847
34	0x3c7b5bb8	0.015341692
35	0xbc058e44	-0.008151595
36	0xbce4c5b5	-0.027926305
37	0x3cd847bd	0.026401395
38	0x3d0ac7bc	0.033881888
39	0xbca51161	-0.020149888
40	0x3dacac5c	0.084313124
41	0xbc67190b	-0.014105092
42	0x3da4690f	0.08027851
43	0x3d841989	0.06450183
44	0x3d0ef220	0.034898877
45	0x3ce75e46	0.028243195
46	0x3d2b3c99	0.041805837
47	0xbb5513bb	-0.003251298
48	0x3ce9100f	0.02845004
49	0x3d5f2192	0.054475375
50	0x3c7791ab	0.015110414
51	0xba626dc3	-0.00086375716
52	0x3c96dd16	0.018415969
53	0xbcba478a	-0.02273919
54	0x3c6eb1a9	0.014568725
55	0x3c29a94c	0.010355305
56	0x3b3e12a1	0.0029002803
57	0x3b887d27	0.00416531
58	0xbc462b73	-0.01209532
59	0x3c8dbaab	0.017300924
60	0xbcb384d8	-0.02191393
61	0xbbd8d5a5	-0.0066172653
62	0x3d1a8d09	0.037732158
63	0xbcb3399c	-0.021878056
64	0x3c3874b0	0.011258289
65	0x3bc9fa06	0.0061638383
66	0x3a00c59b	0.0004912258
67	0xbd062ddd	-0.032758582
68	0xbc67cad7	-0.014147482
69	0x3d19b087	0.037521865
70	0x3d52d8b7	0.051476207
71	0xbc91d0ce	-0.017799761
72	0x3cad9eec	0.021193944
73	0xbcb412a3	-0.021981543
74	0x3b99bae5	0.004691469
75	0x3dbf79f5	0.09349433
76	0xbc64739a	-0.013943577
77	0x3e094537	0.1340531
78	0xbc509e2a	-0.012733022
79	0xbc0b1ea8	-0.008491196
80	0xbbdd3e77	-0.006751831
81	0x3c9c4c8b	0.019079467
82	0x3d2d8a2e	0.042368107
83	0x3d3ff0bf	0.046860453
84	0xbd1ea99a	-0.038735963
85	0x3bf47ac5	0.0074609243
86	0xbd1a6760	-0.037696242
87	0x3c90cd03	0.017675882
88	0xbd090df6	-0.03346058
89	0x3d27d0dd	0.040970672
90	0xbd13a83c	-0.036049113
91	0xbcfc9d75	-0.0308368
92	0xbc120f02	-0.008914711
93	0xbc52ce85	-0.012866621
94	0xbd1006ab	-0.03516261
95	0x3d1884fd	0.037236203
96	0x3d31162a	0.043234028
97	0xbd1dbef4	-0.038512185
98	0x3e01377d	0.12618823
99	0x3d80e711	0.062940724
100	0x3d94c614	0.07264343
101	0xbd510bef	-0.05103677
102	0x3d48aece	0.04899483
103	0x3d993954	0.074816376
104	0xbb94200f	-0.0045204232
105	0xbb5a49d7	-0.0033308172
106	0x3d813f1d	0.06310866
107	0xbc1bd753	-0.0095117865
108	0x3cfba466	0.03071804
109	0xbcf6074c	-0.030032776
110	0x3bc6b040	0.006063491
111	0x3bdb4e37	0.0066926735
112	0x3d7b2cce	0.061322026
113	0xbbb2a7ad	-0.0054521174
114	0x3cf26157	0.02958743
115	0x3bb71b79	0.005587992
116	0x3ce80b73	0.028325772
117	0x3c159b89	0.009131321
118	0x3bccdc41	0.0062518422
119	0xbaf3b2d2	-0.0018592721
120	0x3ba1b269	0.004934598
121	0xbcddab89	-0.027059333
122	0xbca90927	-0.020634247
123	0x3d76dfcf	0.060272034
124	0x3d27cd3c	0.04096721
125	0xbd41f051	-0.047348324
126	0xbbe12274	-0.006870562
127	0x3cd7a7bc	0.0263251

network_body._body_endoder.seq_layers.2.weight f4 [128, 128]
0	0xbdce9d0c	-0.10088548
1	0x3d1180ac	0.0355231
2	0xbd051c13	-0.032497477
3	0x3cc323fb	0.023820868
4	0xbd01f706	-0.03172972
5	0x3e1d0230	0.15332866
6	0xbd29e5e5	-0.04147901
7	0x3e22b3a1	0.15888835
8	0xbd692aac	-0.05692546
9	0x3d5c11cc	0.05372791
10	0x3d945a71	0.07243813
11	0xbe06d916	-0.13168749
12	0xbde37990	-0.111071706
13	0xbd557fde	-0.052123897
14	0x3e78c7f2	0.24295023
15	0xbe1c0282	-0.15235332
16	0xbda0a63e	-0.07844208
17	0x3ca27e64	0.019835658
18	0xbe27c1b8	-0.16382492
19	0x3db78a31	0.08961905
20	0x3ce38513	0.027773416
21	0x3c05c0ac	0.008163612
22	0xbc6c870d	-0.0144364955
23	0x3d8dcb8f	0.06923591
24	0x3d857be2	0.065177694
25	0x3b4b751a	0.003104514
26	0xbe0f71a6	-0.14008197
27	0x3da0eba5	0.078574456
28	0xbcbb9906	-0.022900116
29	0x3d33ae94	0.043867663
30	0xbdebdbf3	-0.11516561
31	0xbdd4ae12	-0.10384764
32	0xbd6019b8	-0.054712027
33	0x3d9b0ca3	0.0757077
34	0xbd791f32	-0.060820766
35	0x3cd5033e	0.026002523
36	0xbe2d4083	-0.1691914
37	0x3c7d95e7	0.015477634
38	0xbdb86698	-0.09003943
39	0xbdc49ef2	-0.09600629
40	0x3e0677b1	0.13131596
41	0xbdc8db30	-0.09807432
42	0x3e240391	0.16016985
43	0xbdcce3be	-0.10004376
44	0x3d404aa1	0.04694617
45	0xbd0d5be3	-0.034511458
46	0xbdb7bc92	-0.08971514
47	0x3e01d3d2	0.1267846
48	0xbd7fd2e3	-0.062456977
49	0xbdc35563	-0.095377706
50	0x3d5dbac0	0.054133177
51	0x3d9a3bcc	0.075309366
52	0xbdd8009f	-0.105469935
53	0xbccddda4	-0.0251301
54	0xbd967129	-0.07345802
55	0xbe233963	-0.1593986
56	0x3db748d8	0.08949441
57	0x3d89173e	0.06693886
58	0xbd45dfe0	-0.048309207
59	0x3daf91cc	0.085727304
60	0xbd110b69	-0.035411272
61	0x3db8f2bc	0.09030673
62	0x3dd368b9	0.10322709
63	0x3dee4dab	0.11635908
64	0x3df16628	0.11787063
65	0x3d44b871	0.04802746
66	0x3e4f077b	0.20217697
67	0xbd8fb227	-0.07016402
68	0xbc1204a4	-0.008912239
69	0xbe5177f2	-0.20455912
70	0xbd9811a2	-0.07425238
71	0xbd7865cf	-0.060643967
72	0x3d35d9b3	0.044397067
73	0xbd42e186	-0.047578357
74	0x3d07868e	0.033087306
75	0x3dfb4f57	0.12270992
76	0x3e2f453f	0.17116259
77	0x3d0b0b29	0.03394619
78	0x3df86f26	0.12130575
79	0xbd62be13	-0.05535705
80	0xbc429c7b	-0.011878128
81	0x3dc62ce8	0.09676534
82	0x3d1941d0	0.03741628
83	0x3dab7123	0.083711885
84	0x3d7a7ad3	0.06115229
85	0x3cc49297	0.02399568
86	0x3b43e653	0.0029891923
87	0xbc9d2d2f	-0.019186584
88	0x3e841b98	0.25802302
89	0x3e283867	0.16427766
90	0xbb9dad37	-0.0048119086
91	0xbc0039fb	-0.007826324
92	0xbe2e9fa1	-0.17053081
93	0xbc7f0cea	-0.015567044
94	0xbd618a20	-0.055063367
95	0x3d060c35	0.032726485
96	0x3c8f1c1e	0.017469462
97	0x3dc84c50	0.097801805
98	0xbd64da92	-0.055872507
99	0x3dce2b3f	0.10066842
100	0xbae64232	-0.0017567335
101	0x3ce35161	0.027748765
102	0xbde6d815	-0.11271683
103	0xbd480dce	-0.04884129
104	0x3d908026	0.070556924
105	0x3d32e7c4	0.04367806
106	0x3e677e60	0.22606802
107	0xbd793c8f	-0.06084877
108	0xbde6d4c0	-0.112710476
109	0xbd1a1650	-0.037618935
110	0xbdfbff32	-0.12304534
111	0xbcbc8b6b	-0.023015698
112	0x3e00f67d	0.12594028
113	0x3d9c196a	0.07622035
114	0x3d62f91d	0.055413354
115	0x3c2fb777	0.010724894
116	0xbd427029	-0.047470246
117	0x3dc1a394	0.09455028
118	0x3d7fd9bd	0.06246351
119	0xbc62d075	-0.013843645
120	0xbd1cdb8a	-0.038295306
121	0x3d5949a9	0.053048763
122	0x3db38dab	0.087672554
123	0x3e397d33	0.18114166
124	0xbdb5889e	-0.08863948
125	0x3abba6f4	0.0014316724
126	0x3d148c22	0.036266454
127	0x3d6632ca	0.05620078
128	0xbd132393	-0.035922598
129	0xbdf89c58	-0.12139195
130	0x3c98d26a	0.01865502
131	0xbd84efc1	-0.06491042
132	0xbd0abd42	-0.033871897
133	0xbd8aa947	-0.06770568
134	0x3dccd37d	0.10001276
135	0xbe6ac258	-0.22925699
136	0xbdb73658	-0.08945912
137	0x3d9c5a51	0.07634414
138	0xbe38a085	-0.18029983
139	0xbb649753	-0.0034880235
140	0x3c622730	0.013803288
141	0x3b6ed176	0.0036440766
142	0x3d573a3a	0.052545764
143	0x3d4eff86	0.050536655
144	0x3dcae5f0	0.09907138
145	0xbc8e3702	-0.017360214
146	0x3e144582	0.1447964
147	0x3d7abb3b	0.061213713
148	0xbe8d740b	-0.27627596
149	0x3e34a808	0.17642224
150	0x3e044c94	0.12919837
151	0xbd603e89	-0.05474714
152	0x3c934e50	0.017981678
153	0x3e360015	0.17773469
154	0x3b8c6ed4	0.0042856727
155	0xbd792cb5	-0.06083365
156	0x3db7688d	0.08955488
157	0xbdeef0b3	-0.116670035
158	0xbd64b340	-0.05583501
159	0xbdc5d46e	-0.09659658
160	0xbccd9c8a	-0.025099058
161	0x3c2dbccf	0.0106040975
162	0xbd93bcc6	-0.0721374
163	0xbd704047	-0.05865505
164	0x3c1a5e04	0.009421829
165	0xbdf8e5e4	-0.12153223
166	0xbc80b607	-0.015711797
167	0xbdaecabb	-0.085347615
168	0xbe88658a	-0.26639968
169	0xbdcab50b	-0.098978125
170	0xbdac8eb6	-0.084256575
171	0x3e19172b	0.14950244
172	0xbe2f339b	-0.1710953
173	0x3c987c8b	0.018614074
174	0xbd6870a3	-0.056748044
175	0xbd73569b	-0.059408765
176	0x3e729d47	0.23692809
177	0xbc298ebc	-0.010348972
178	0x3ca95673	0.020671105
179	0x3e506174	0.20349675
180	0xbe20dcbe	-0.15709206
181	0x3cf99713	0.030467546
182	0xbd03f93e	-0.032220118
183	0x3e808077	0.2509801
184	0xbdde6335	-0.10858766
185	0xbd7ccd71	-0.06171936
186	0x3dc36d1b	0.095422946
187	0xbcd72eae	-0.026267376
188	0x3d2d9197	0.042375173
189	0x3e3ab40f	0.1823275
190	0x3cc3a409	0.023881929
191	0x3e1ffdfe	0.15624234
192	0xbdaf5dd4	-0.08562818
193	0xbd0cfc3d	-0.03442024
194	0x3e307ff7	0.17236315
195	0xbd42bef4	-0.04754539
196	0x3d188068	0.037231833
197	0x3e1d0467	0.1533371
198	0x3d299740	0.04140401
199	0xbdd4c660	-0.103893995
200	0x3b248136	0.002510143
201	0x3e270a6c	0.1631257
202	0x3d207bd9	0.03918061
203	0x3de1d004	0.11026004
204	0xbe19eb69	-0.15031208
205	0x3e538e78	0.20659816
206	0x3d39dfaf	0.045379337
207	0x3df3660a	0.11884697
208	0x3db1e7c4	0.08686784
209	0xbab81f49	-0.001404741
210	0x3a9a9184	0.0011792635
211	0xbd937b85	-0.07201294
212	0x3d81ccec	0.06337914
213	0x3e21f9b4	0.1581791
214	0x3d8018ee	0.06254755
215	0x3cc0d3d7	0.023538513
216	0xbd127e5f	-0.035765048
217	0x3d5bf338	0.05369875
218	0xbceeee3b	-0.029166332
219	0xbe00077d	-0.12502857
220	0x3d33ce49	0.0438979
221	0xbd4dc71b	-0.05023871
222	0x3da9b7ea	0.08287032
223	0xbe07f079	-0.13275327
224	0xbe234dda	-0.15947667
225	0x3da87aa4	0.08226517
226	0xbda0c15e	-0.07849382
227	0xbc8a7e34	-0.016905881
228	0x3d750a0c	0.059824035
229	0x3de31a0d	0.11088953
230	0xbdcc2c91	-0.09969438
231	0x3cb5f836	0.022213083
232	0x3e304c28	0.17216551
233	0xbc4c3d68	-0.012465812
234	0xbdb84a80	-0.08998585
235	0xbda262da	-0.07929011
236	0x3d4297e2	0.047508128
237	0x3d556710	0.05210024
238	0x3d9ade85	0.075619735
239	0xbd23edea	-0.040021814
240	0x3d5b381b	0.053520303
241	0x3db7fcf1	0.089837916
242	0xbdc9b345	-0.09848646
243	0x3e346f3d	0.17620559
244	0x3d628f3b	0.055312376
245	0xbe0c3c82	-0.13694957
246	0xbd423bc5	-0.047420282
247	0x3c9a571a	0.018840361
248	0xbd4e2e2c	-0.050337
249	0xbcee7920	-0.029110491
250	0xbd277316	-0.04088124
251	0xbe4f388c	-0.20236415
252	0xbce89e47	-0.028395785
253	0x3dd8d1c2	0.10586883
254	0xbbb2564a	-0.0054424154
255	0x3d679b90	0.05654484

network_body._body_endoder.seq_layers.2.bias f4 [128]
0	0xbc179a59	-0.009253108
1	0x3cbc8049	0.02301039
2	0xba85852b	-0.0010186782
3	0x3c1d38aa	0.009596029
4	0x3a7a75db	0.0009554305
5	0xbc31d77e	-0.0108546
6	0xbcae9c17	-0.021314664
7	0x3ab8533a	0.0014062889
8	0xbcaad5fb	-0.020853987
9	0x3cba9d64	0.022780128
10	0x3c8050e1	0.015663566
11	0xbc87b33d	-0.01656496
12	0x3c7ae11f	0.015312462
13	0xbbc5cb2f	-0.0060361843
14	0xbcc61e40	-0.024184346
15	0x3c2fff27	0.010741985
16	0xbcbecac4	-0.023290046
17	0xbc98712d	-0.018608654
18	0x3c15a4c3	0.009133521
19	0x3ad13636	0.0015961591
20	0xbc533ec9	-0.012893387
21	0xbc4766b9	-0.012170487
22	0x3c05e8cf	0.008173182
23	0x3b01e986	0.0019823029
24	0x3cbe440f	0.023225812
25	0x3bdc8cc9	0.00673065
26	0x3c03d1ff	0.008045672
27	0xbbd5c999	-0.0065242765
28	0x3b8134b9	0.0039430526
29	0xbc6450ff	-0.013935327
30	0xbaac5cd9	-0.0013150229
31	0x3a202e3d	0.00061104057
32	0xbcac49d3	-0.021031296
33	0xbad25886	-0.001604811
34	0xbb4d175e	-0.0031294446
35	0x3a8c92e2	0.0010724927
36	0x3b8187c6	0.003952953
37	0x3d01b9a4	0.03167118
38	0xbaf913d8	-0.0019003106
39	0x3b9dba69	0.0048134816
40	0xbc10228c	-0.008797299
41	0xbc5956c6	-0.013265317
42	0xbc8a0228	-0.016846731
43	0xb9c07949	-0.00036711458
44	0xbc4186ee	-0.011811955
45	0x3c1916d6	0.009343823
46	0x3b710df4	0.0036781998
47	0x3be01ed0	0.0068396106
48	0x3c6062f7	0.01369547
49	0x3c2206da	0.009889329
50	0xbca4dda5	-0.02012522
51	0x3bb87bad	0.0056299777
52	0x3c7ad06a	0.015308479
53	0x3bc7100e	0.006074912
54	0xbcf2127a	-0.029549826
55	0xbc3808e1	-0.011232586
56	0x3c461560	0.012090057
57	0xbc288dfe	-0.01028776
58	0xbca54169	-0.020172792
59	0x3c0af535	0.0084813135
60	0xbbc6d8f9	-0.0060683456
61	0x3bc750b6	0.0060826195
62	0x3bcc03ef	0.006226055
63	0xbc4cb876	-0.012495151
64	0xbc2077b5	-0.009794165
65	0xbc8f121d	-0.017464692
66	0x3b110270	0.0022126697
67	0x3c41fbee	0.01183985
68	0xbcc04f3c	-0.023475282
69	0x3bad63da	0.0052914442
70	0xbc64a3ff	-0.013955115
71	0xbc9bc2e3	-0.019013828
72	0xbb708607	-0.003670098
73	0x3b1b14b3	0.002366346
74	0xbc001414	-0.007817287
75	0xbc17e686	-0.00927127
76	0x3c8bb542	0.017054204
77	0x3bd55dde	0.006511434
78	0xbbef365e	-0.0073001822
79	0x3b9f8dbe	0.004869192
80	0xbcf559ab	-0.029949984
81	0xbc7b55c6	-0.015340274
82	0xbc245383	-0.010029676
83	0x38266c23	3.9678194e-05
84	0xbc292560	-0.010323852
85	0x3b24b61f	0.0025132967
86	0xbb573043	-0.0032835163
87	0x3c8dca41	0.017308356
88	0x3c40292d	0.011728567
89	0xbaa32d7d	-0.001244947
90	0xbca42c13	-0.020040547
91	0xbce77e44	-0.02825845
92	0x3b96fa75	0.0046074935
93	0x3cb115ba	0.021616805
94	0x3bb3bcf0	0.0054851696
95	0xbb71bb98	-0.0036885496
96	0x38bf5659	9.123673e-05
97	0x3cc5557a	0.02408861
98	0x3b66f68b	0.0035242166
99	0x3c890024	0.0167237
100	0xbd3d8b07	-0.046275165
101	0xb9cfcb1f	-0.00039633454
102	0xbae4cbef	-0.0017455796
103	0x3bee5885	0.007273736
104	0xbbeb4b38	-0.0071805976
105	0xbbaa51ff	-0.005197763
106	0x3c008f28	0.007846631
107	0xbc4d616e	-0.012535436
108	0xbb768fe0	-0.0037622377
109	0x3c8516dd	0.016246254
110	0xbc62b44e	-0.013836933
111	0xbbcf1385	-0.0063194656
112	0x3c8483c8	0.01617612
113	0x3c2f428f	0.010697021
114	0x3cc4f4b8	0.024042472
115	0x3bdf14cf	0.0068079005
116	0x39a07edd	0.000306121
117	0xbc8fa7dd	-0.017536098
118	0xbc469412	-0.012120264
119	0x3cc4173f	0.023936866
120	0xbc11ef8a	-0.008907208
121	0x3c651fc4	0.013984624
122	0xbc144b31	-0.00905113
123	0x3a9bb279	0.001187875
124	0xbc67345c	-0.014111605
125	0xbccdae67	-0.025107576
126	0x3bc9d726	0.006159681
127	0x3adffe56	0.0017089348

action_model._continuous_distribution.log_sigma f4 [1, 2]
0	0xbf19bc00	-0.6005249
1	0xbfde339e	-1.7359502

action_model._continuous_distribution.mu.weight f4 [2, 128]
0	0x3d2b9b19	0.04189596
1	0x3d4c0bfc	0.049816117
2	0x3cf8512c	0.030312143
3	0x3db22cb2	0.08699931
4	0x3cb020a4	0.02149994
5	0xbc91b990	-0.017788678
6	0xbc3c182a	-0.011480371
7	0xbdaff6cd	-0.085919954
8	0x3c8561c9	0.01628198
9	0xbc58db3a	-0.013235861
10	0x3dc48399	0.09595413
11	0x3c93e974	0.018055655
12	0xbdeea4af	-0.11652505
13	0x3d2a2452	0.041538544
14	0x3c4255c5	0.011861269
15	0xbd2115be	-0.039327376
16	0x3c79e2c1	0.015251816
17	0xbc8f5933	-0.017498588
18	0xbd9d8603	-0.07691576
19	0x3cf5c750	0.030002266
20	0xbd0f99a3	-0.03505863
21	0x3beb720a	0.0071852254
22	0xbd267079	-0.040634606
23	0x3d0d3935	0.034478385
24	0x3d1b27c0	0.037879705
25	0xbdfaf9b7	-0.122546606
26	0xbcf6f414	-0.030145682
27	0x3d1c8acf	0.038218316
28	0xbcb13da8	-0.021635845
29	0x3d0a7b66	0.03380909
30	0xbd8d133a	-0.06888433
31	0xbdc6615b	-0.09686538
32	0x3d0fd662	0.03511656
33	0xbcc3de6f	-0.023909776
34	0x3b79905e	0.0038080434
35	0x3d319d6e	0.043363027
36	0xba8ec54a	-0.0010892537
37	0x3da4715c	0.08029434
38	0x3cec2e27	0.0288306
39	0xbd991bc4	-0.07475999
40	0x3df8e753	0.121534966
41	0x3b9549ab	0.004555901
42	0xbc8cc959	-0.017185854
43	0xb96ad5d4	-0.00022395636
44	0xba96c172	-0.0011501743
45	0xbdcd6d70	-0.10030639
46	0x3caf67e9	0.021411853
47	0xbb8dccec	-0.004327407
48	0xbdb4987e	-0.08818148
49	0xbced5200	-0.028969765
50	0x3a815fa2	0.000987042
51	0xbc96fd03	-0.018431192
52	0xbdc793e2	-0.09745003
53	0x3dd2783c	0.10276839
54	0x3c0562e5	0.008141254
55	0x3c8588f8	0.016300663
56	0xbc6eccc3	-0.014575186
57	0x3d9982de	0.07495664
58	0xbc7f7af0	-0.015593275
59	0xbdae576e	-0.0851277
60	0x3c835fd3	0.016036903
61	0x3ca19a90	0.019727021
62	0xbd077583	-0.033071052
63	0x3ca5cd1e	0.020239409
64	0x3d10a639	0.035314772
65	0x3d130b7d	0.035899628
66	0xbd36e989	-0.04465631
67	0x3da9867c	0.08277604
68	0x3cf2df57	0.029647512
69	0x3d5bb2a7	0.053637173
70	0xbc1fab45	-0.009745424
71	0xbcb87d49	-0.022520678
72	0xbd40f6bb	-0.0471103
73	0xbcd0dbfb	-0.02549552
74	0x3cdc0536	0.026857954
75	0xbb6fdd18	-0.0036600288
76	0x3da04e09	0.07827384
77	0xbb039403	-0.0020077236
78	0xbd8cdc5d	-0.068779685
79	0x3d4f757e	0.05064916
80	0x3b0b5338	0.002125932
81	0xbd770d7c	-0.060315594
82	0x3c1e1d8d	0.0096506
83	0xbc0a1d15	-0.008429785
84	0xb8e8962b	-0.00011090593
85	0x3da3f2ea	0.080053166
86	0xbb4b2ea3	-0.003100314
87	0x3d41f548	0.04735306
88	0xbd5c8f66	-0.053847693
89	0x3c190338	0.009339146
90	0x3c1178b4	0.0088788755
91	0xbcbf90c0	-0.023384452
92	0xbda2525b	-0.07925864
93	0x3d44de89	0.04806379
94	0xbdaf48a7	-0.08558779
95	0x3dc9cece	0.09853898
96	0x3d02d6c8	0.031943113
97	0xbd00f8ce	-0.03148728
98	0xbd1f5df9	-0.03890798
99	0x3d92410a	0.071413115
100	0xba619316	-0.00086049864
101	0x3c5f95eb	0.013646583
102	0xbbe9e0d9	-0.0071373996
103	0x3af31a02	0.001854718
104	0xbd2f4d91	-0.042798582
105	0xbda260e1	-0.079286344
106	0xbddcc0ae	-0.10778938
107	0xb99d687a	-0.00030023215
108	0xbbfdd224	-0.007745998
109	0x3d30c4c6	0.043156408
110	0x3c81e08b	0.01585414
111	0xbd37785a	-0.04479251
112	0xbdc925bc	-0.098216504
113	0x3d843b2e	0.064566
114	0xbd863d3e	-0.0655465
115	0x3caac37c	0.020845167
116	0xbdbb9549	-0.09159333
117	0xbcad0e6d	-0.021125043
118	0xbd286ad0	-0.04111749
119	0x3df9f82d	0.12205539
120	0x3d50ed13	0.05100734
121	0xbd30aac9	-0.043131623
122	0x3d0bb122	0.034104474
123	0x3d5f58a8	0.05452791
124	0xbc90a008	-0.017654434
125	0xbd5f45a4	-0.054509774
126	0x3d9f07ee	0.07765184
127	0xbd38d23c	-0.04512237
128	0x3d937c9a	0.072015
129	0xbdd8ab0d	-0.105795
130	0x3c1fe8a5	0.009760057
131	0xb673c042	-3.632173e-06
132	0xbd10126d	-0.035173822
133	0x3ab7e905	0.0014031237
134	0x3c90ce35	0.017676452
135	0xbbfcb5d3	-0.007712105
136	0x3cbaf994	0.022824086
137	0xbd7f63c0	-0.06235099
138	0xbd2aac1a	-0.041668035
139	0xbada2166	-0.0016642034
140	0xbc8bbf5b	-0.017059019
141	0x3d461f31	0.04836959
142	0x3c253257	0.010082803
143	0xbd1530a7	-0.03642335
144	0x3b18dc29	0.0023324585
145	0x3b689894	0.0035491334
146	0xbc512d67	-0.012767172
147	0xbcaf329a	-0.021386433
148	0x3d1378fc	0.03600405
149	0xbc51eb3e	-0.012812434
150	0x3ca742e9	0.020417647
151	0x3d06c593	0.032903265
152	0xbded56d5	-0.115888275
153	0x3c2382dd	0.009979931
154	0x3d218f80	0.039443493
155	0x3d03ecab	0.032208126
156	0x3cddf25b	0.027093103
157	0x3c6b01ce	0.014343692
158	0x3cf465b3	0.02983365
159	0x3d632fb8	0.05546543
160	0x3d0629e5	0.032754797
161	0xbc7368b1	-0.014856503
162	0x3d8c9743	0.068647884
163	0xbc2caa7a	-0.010538692
164	0xbd543fe0	-0.05181873
165	0xbdb6df9b	-0.08929368
166	0x3b75fe16	0.003753548
167	0xbcd6e138	-0.02623044
168	0x3d69170b	0.05690674
169	0xbacdb458	-0.0015694005
170	0xbbeb0f04	-0.007173421
171	0x3d588b95	0.05286749
172	0x3c326b2b	0.010889809
173	0xbcde00d6	-0.027100008
174	0xbd107cda	-0.035275318
175	0xbd19f1f4	-0.03758426
176	0x3d61d8e6	0.05513849
177	0xbd091e57	-0.0334762
178	0x3cc511bf	0.024056314
179	0xbcb23463	-0.021753496
180	0xbd323f0e	-0.043517165
181	0x3cfa60f5	0.03056381
182	0x3be413c0	0.006960362
183	0x3d270256	0.040773712
184	0xbd15b76f	-0.03655189
185	0x3d92095f	0.07130694
186	0x3c9584bb	0.018251767
187	0xbca5dc22	-0.020246569
188	0xbc6153a2	-0.01375285
189	0x3d3a9a4c	0.045557305
190	0xbc6c4685	-0.01442111
191	0x3af9b0c9	0.0019049878
192	0x3adb5b65	0.0016735612
193	0x3ba74c44	0.005105527
194	0xbcf282b2	-0.029603336
195	0x3aa30645	0.0012437782
196	0x3be7d221	0.00707461
197	0x3d5fce1d	0.054639924
198	0x3d95a8bd	0.07307575
199	0x3c5229ff	0.012827395
200	0xbb30307f	-0.0026884375
201	0xbc904131	-0.01760921
202	0xbb3338b9	-0.0027347042
203	0x3ccb51ed	0.024819339
204	0xbbb73530	-0.0055910572
205	0x3d4b97a1	0.04970515
206	0x3d088308	0.033328086
207	0x3c1397b4	0.009008337
208	0x3c23abab	0.009989659
209	0xbaa8c5e5	-0.001287636
210	0x3a4653e7	0.0007565603
211	0xbcf844e6	-0.03030629
212	0xbabaaa45	-0.0014241418
213	0xbb911964	-0.0044280756
214	0x3ca4dccf	0.020124821
215	0x3b197324	0.0023414576
216	0xbd05e5eb	-0.03268997
217	0x3c1c63ee	0.0095453095
218	0x3b201582	0.0024426882
219	0x3c8d4f4f	0.017249731
220	0x3cd5a603	0.026080137
221	0xbd4320b6	-0.047638617
222	0xbcf9c069	-0.030487256
223	0x3d44a965	0.04801311
224	0xbbb38a2b	-0.0054791174
225	0xbdd0d11b	-0.10196134
226	0xbc5b80b9	-0.013397389
227	0xbbb1a4e9	-0.00542127
228	0xba748aac	-0.0009328525
229	0x3c883304	0.016625889
230	0x3d7a644d	0.06113081
231	0xbce4e94a	-0.027943272
232	0xbc140e65	-0.009036635
233	0x3d404b75	0.04694696
234	0xbd36b840	-0.04460931
235	0xba16ae08	-0.00057479786
236	0xbc665294	-0.014057774
237	0xbcf6709d	-0.030082995
238	0x3d26f926	0.04076495
239	0x3b57b73f	0.003291562
240	0x3bd9d898	0.0066481344
241	0x3d53300e	0.0515595
242	0xbdffdc89	-0.124932356
243	0xbd1cdabb	-0.038294535
244	0x3d2a2086	0.041534923
245	0x3ba41cc1	0.0050083105
246	0x3cb7caaa	0.022435505
247	0xbca2059b	-0.019778064
248	0x3cc2bb39	0.023770915
249	0x3d014008	0.031555206
250	0x3bf2d477	0.0074105817
251	0xbc11a11a	-0.008888507
252	0x3ca95ac1	0.020673158
253	0xba1e23e9	-0.0006032573
254	0x3c7d2c0c	0.015452396
255	0xbce39b7f	-0.027784107

action_model._continuous_distribution.mu.bias f4 [2]
0	0xbae2760a	-0.001727761
1	0xbc3564f7	-0.011071435
