results/move_test_1/Boss/Boss-651256.pt (torch, 445345 bytes, 36 tensors)

network_body._body_endoder.seq_layers.0.weight f4 [128, 7]
00000000: 7944 8f3e afc9 b13e 46ed 49bf a246 033e
00000010: c47b 5dbd 7bb8 2fbe 222e 9ebf 725d 153e
00000020: f7a6 03be 18c4 f1be c94d 3fbe 0e0c efbe
00000030: b640 23bc 0b95 ec3d 61a2 933e d0cf 6e3e
00000040: c2b1 5b3e 16c8 933c bcab 093e c402 e13d
00000050: a8b5 333d 7495 0c3f d10e 98bc a258 4d3d
00000060: b5be b7be e482 a83e 7cbf a4bd e2b1 c3bd
00000070: d6a9 a73e de5a 3bbd 475d 2a3e 089b 8d3f
00000080: 6eb0 64bf f0e9 b73e 4a04 a7bd 4400 8b3d
00000090: 4e9f 1d3d 04b9 283e 5c92 0a3f 95e2 9d3b
000000a0: 2655 e73d e9d0 b53e e3fd b73e b515 e93c
000000b0: b78f 17bf 4623 58bd 5abb 3b3e 91e6 26bf
000000c0: a4af 0abf e76f 633e 56c9 aebe 5bfe 6cbe
000000d0: cab2 51bc aa41 aa3e 6d23 0abe 8f05 143f
000000e0: 961d b2be c815 9e3e 5e78 ed3d a9c5 a13d
000000f0: 3f56 863e 1ddf 84bf bc1e 1a3d 199e f13d
00000100: 81e8 2fbf 45d8 a83d df3d 73be 51a7 d1bd
00000110: 5150 823d c725 a6be b07c 493d d3db cebd
00000120: 83ce 703e b6be fcbd 2128 c6bd b322 2b3e
00000130: aaef babe 1880 c2be 7d25 193e b290 e7be
00000140: 0da9 ef3c 3db8 943e 312f 24be 38f4 a5be
00000150: 7ff8 f5bd 7168 c3bd 8979 e03e c697 923e
00000160: 0821 e03e 53a5 ba3e 8b3f c0bf ac15 b63e
00000170: 038d bcbe aba5 453f 8634 1ebd a752 45bc
00000180: 0488 073f 9292 c7be 2cdf fa3e 00dd 2fbf
00000190: ded5 2dbf 96e0 b5be 7639 a8be d4cf a3bd
000001a0: 83e5 85be ff7f bb3e a2b0 aabd dc54 bdbe
000001b0: 4e49 203e def3 34be 801b b93e 4fdd 713e
000001c0: 4ad9 8c3e 1109 1bbf 6fbe 143e 01cc 493e
000001d0: 2bf7 da3d 6984 c2be 10c5 06bf b28d 553e
000001e0: b0f8 9ebe 8c45 8b3e 2f5f d83e 3bf4 b5bc
000001f0: 09ab 223f b094 f03e 6161 243e 635d 253f
00000200: 3895 65bc da4a af3c ea01 88be 59af 82be
00000210: aa0e 4abe 081c 2f3c ffb8 ebbd c331 98be
00000220: 47db 00bd 2152 2c3e 0873 33bd ae88 7b3e
00000230: ebad ba3e 4f69 283e fa0c 383f 261a 89be
00000240: 4832 013f 236f 02be 6730 aabe ca6d 0ebe
00000250: ec82 413d 6782 cd3e 6868 083e 0014 8abe
00000260: b652 cbbe b227 5d3e e6d7 74be 9d2b 3b3f
00000270: e146 99bd 722e ebbe faa2 d8be 4a0b 6d3e
00000280: 04fa 98be 2112 0d3f 9e54 37be d55a 24be
00000290: 9f6d abbe 94be 32be cfd7 b1be 1e1a b3be
000002a0: 603e e13e a7ef c7bd b24b 8cbe c5dc ac3d
000002b0: afb1 f0be 5fe6 56bd 2210 a23d 91e6 9e3e
000002c0: 3f48 263f 498b 0d3e 6e1a babe 628a 8ebe
000002d0: 9f50 123f bc16 b73e c4fd dfbd ccbf a33e
000002e0: 693a f3be 8f35 443f a43c 1a3f 79bf 07be
000002f0: b6df 33bf fced c23e 211c b83a e708 f3be
00000300: 565e 10bf 1755 a53e 5dfc f2be a323 793e
00000310: 4292 143e ca77 143f ad91 803e 1e20 89be
00000320: 0c0c 963e 0c89 a43e d678 b5be 2d2c 143d
00000330: 2563 36bf 29e4 4e3e ccd4 1bbf 8995 c53e
00000340: 87ee 03bb afce 543f 2848 6e3e c4fe bd3d
00000350: 3271 0c3f 42fa 02bf 9484 2dbe 2d3d 91be
00000360: fdb6 c2be 6c4f 67be 803b b13f c986 c33e
00000370: fa85 02be 1080 d83e e3a2 c93e 834b 2b3f
00000380: 4092 b3be 73e9 8a3e 8426 2a3f 3ce6 123e
00000390: 2df4 afbe 481c 9f3e f4e4 d0be 43c2 a2be
000003a0: 1d2f 5cbc 0004 fcbd d9fe 823e 691c 42bf
000003b0: fca8 993e f854 e63d 2de7 1c3e 3a9d 85be
000003c0: 0f0a 40bf 039a 283f 6753 a5be 7d96 113f
000003d0: e736 c53e 6c7f 52bf a4c1 793c 452e 02bf
000003e0: 9ed6 f3be 8858 2dbd 411f c03e 0742 453d
000003f0: f21b 30bf 2054 9f3e 3b97 fe3e 0a50 b93d
0.27981928 0.34724185 -0.78877676 0.12819913 -0.05407311 -0.17160217 -1.2357829 0.14586428
-0.12856661 -0.4721992 -0.18682016 -0.46688884 -0.009964159 0.11551865 0.28834823 0.23321462
0.21454528 0.018039744 0.13444418 0.109868556 0.043874413 0.5491555 -0.018561753 0.050133355
-0.35887685 0.32912362 -0.08044335 -0.09555413 0.32746762 -0.045740955 0.16637145 1.1062937
-0.8933171 0.35920668 -0.08155115 0.0678716 0.038482003 0.16476828 0.54129577 0.0048182704
0.11295538 0.35510948 0.35935888 0.028452734 -0.59203666 -0.052768014 0.18333188 -0.65195566
-0.54174256 0.22210656 -0.34137982 -0.23143904 -0.012798974 0.33253223 -0.13490076 0.5782098
-0.34788197 0.30875993 0.11595224 0.07899029 0.26237676 -1.0380589 0.037626967 0.11797733
-0.6871415 0.08244375 -0.2375407 -0.10236991 0.063629754 -0.32450697 0.049191177 -0.10100522
0.23516278 -0.12341063 -0.09675623 0.16712455 -0.36510974 -0.37988353 0.14955707 -0.4522758
0.029255414 0.29046813 -0.16033627 -0.32412887 -0.120102875 -0.09541405 0.43842724 0.2863142
0.437752 0.36454257 -1.5019392 0.3556341 -0.36826333 0.77205914 -0.03862431 -0.012043632
0.5294192 -0.38979012 0.48998392 -0.68696594 -0.6790446 -0.35522908 -0.3285634 -0.079986244
-0.26151666 0.3662109 -0.08334471 -0.36978805 0.15652964 -0.17671153 0.36153793 0.23619579
0.27509528 -0.6056071 0.1452577 0.19706728 0.10691675 -0.37991646 -0.52644444 0.20854834
-0.31049109 0.27201498 0.4226012 -0.022211185 0.6354223 0.4698844 0.16052772 0.6459562
-0.014012627 0.021397997 -0.2656396 -0.25524405 -0.19732156 0.0106878355 -0.115098946 -0.29725465
-0.03145912 0.16828205 -0.043810874 0.24563858 0.36460814 0.16446422 0.718948 -0.26777762
0.5046735 -0.12737708 -0.33240053 -0.13909069 0.047243997 0.40138552 0.13321078 -0.26968384
-0.3971154 0.21597174 -0.23910484 0.73113424 -0.07484222 -0.45933872 -0.4231184 0.23148838
-0.29878247 0.5510579 -0.17903373 -0.16050275 -0.33482072 -0.17455512 -0.3473496 -0.34980863
0.439929 -0.09762507 -0.274015 0.08440546 -0.47010562 -0.052465793 0.07913233 0.31035283
0.6495399 0.13822664 -0.3634829 -0.27839953 0.5715427 0.35759532 -0.10937074 0.31982267
-0.475055 0.76644224 0.6024878 -0.13256635 -0.7026323 0.38072193 0.0014046469 -0.4746773
-0.56393945 0.3229148 -0.47458163 0.2433 0.14508918 0.57995284 0.25111142 -0.26782316
0.29306066 0.32135808 -0.35443753 0.03617494 -0.7124503 0.20204224 -0.6087158 0.3859065
-0.0020131187 0.83127874 0.23269713 0.09277108 0.5486022 -0.51163113 -0.16945106 -0.28366986
-0.38030234 -0.22588891 1.3846283 0.3818877 -0.1274642 0.42285204 0.39382085 0.66912097
-0.35072517 0.27131233 0.6646502 0.1434564 -0.3436598 0.31076264 -0.40799677 -0.31788835
-0.013438967 -0.123054504 0.25585058 -0.758246 0.30011737 0.11246675 0.15322562 -0.26096517
-0.7501535 0.65860003 -0.32290193 0.5687025 0.3851845 -0.8222568 0.015243921 -0.5085185
-0.47624677 -0.042320758 0.37523845 0.04815867 -0.6879264 0.3111887 0.49724755 0.09048469

network_body._body_endoder.seq_layers.0.bias f4 [128]
00000000: 2ed8 ca3d 2a48 83bc 62b6 ecbb 46e1 50bc
00000010: 45cf 943c 08c4 d23a bd26 a33b 88b6 713c
00000020: 7862 93bc 6031 e0bb b2df 353c c216 abbb
00000030: 5dbc 803d 0979 38bd 41b1 a9bc 4c84 6abc
00000040: 94e6 2a3c 4c5b a63c 985a 8a3b 1620 b13a
00000050: f1cc 09ba 3a7c 11bd 61d5 8aba 71ce 743c
00000060: fb41 92bb c46a afbb 24a8 263c 1310 78bb
00000070: 70de 35bc 42cd 053c ae02 8f3b 851b 03bd
00000080: 28b8 04bc 8c7e 933c b657 0c3d f51a a33a
00000090: 459b 1abb 005f a03c 7c6b 18bc a6ed 173c
000000a0: fb2e 173d 1df4 05bc 9a97 e73c 88fe f63c
000000b0: 71c7 62bb 0076 5cbc fce0 03bc c6b2 83bb
000000c0: de73 393c 2516 f03a 5baf 453b 8fbc 9a3b
000000d0: 970a 01bc 76d9 2cbb 9f00 543c e7c8 433b
000000e0: 88f3 feba 6c8f 1c3c 4f60 d1bb d49b 513c
000000f0: 1900 26ba 9998 bd3b 0b4b 0e3d 69d8 53bb
00000100: 4a15 603c 8547 843c 77eb f5ba 3358 7abc
00000110: df53 ccbb 8600 2f3c 1210 983c 177a 6dbb
00000120: 6022 d23c f2e5 9bbc 8442 50bc bfba 653d
00000130: d163 50bb a706 b63c 0dd6 00bc 916e 88bb
00000140: 8d29 17ba e3cf 0e3d 3740 a6b9 388f 383c
00000150: 3765 debc 90fd 1ebc 3eae 2dbd c1a2 243a
00000160: c96b beba df93 243d cfe4 83bb 4605 69bc
00000170: 385d eabb 1b4d 203b e770 f9bc b17d ba3c
00000180: ba11 0d3d d996 44bd 9aad d33d 92b8 153c
00000190: e624 273b 835d a3bc 3dcf 903d e937 253a
000001a0: a8e0 8b3b b317 51bb 9504 be3c 5f8a b6b9
000001b0: 0335 903c c12e c8bb 32d7 8ebb 728e b23c
000001c0: b035 f5bb 2ff1 65bb 3fe6 b3bc e924 ca3b
000001d0: c881 10bc 834f ea3c 2cf1 6c3b e31c 80bc
000001e0: 7ff2 ccba 2940 05bc cdf4 e83b 79c6 bc3c
000001f0: 7221 fb3a fffa 06bc e246 f6bb f45f 473c
0.09904514 -0.016025621 -0.00722389 -0.012749022 0.01816524 0.001608015 0.004978983 0.0147529915
-0.01799129 -0.0068418235 0.011100696 -0.005221219 0.062859274 -0.045037303 -0.020714404 -0.014313769
0.010430951 0.020307206 0.0042222254 0.0013513591 -0.0005256674 -0.035518862 -0.0010592156 0.014941798
-0.004463432 -0.0053533036 0.010171924 -0.0037851378 -0.0111003965 0.008166613 0.004364333 -0.032008667
-0.008100547 0.018004678 0.034263335 0.0012443947 -0.0023591083 0.01957655 -0.00930297 0.009272968
0.03691004 -0.008175877 0.028270531 0.030150667 -0.003460374 -0.013455868 -0.008049246 -0.004019114
0.011319129 0.0018317146 0.0030164334 0.004722185 -0.00787606 -0.0026374734 0.012939601 0.0029874386
-0.001945124 0.009555679 -0.0063896547 0.0127935 -0.0006332412 0.0057860133 0.034739535 -0.0032325035
0.013676951 0.016147384 -0.0018762191 -0.015279817 -0.006235584 0.010681277 0.01856235 -0.0036236101
0.025651157 -0.019030545 -0.012711171 0.056086298 -0.0031797776 0.022219969 -0.007863534 -0.004163571
-0.00057663844 0.034866225 -0.0003170983 0.011264615 -0.027147872 -0.009704009 -0.0424025 0.0006280356
-0.0014527972 0.040180083 -0.004025079 -0.014222449 -0.007152226 0.002446002 -0.030449344 0.022765012
0.034440733 -0.047995422 0.10335846 0.009138243 0.002550417 -0.01994205 0.070707776 0.0006302582
0.0042687245 -0.0031904995 0.023195544 -0.0003481684 0.017603403 -0.006109089 -0.0043591494 0.021796439
-0.0074832067 -0.0035086384 -0.021960376 0.006168951 -0.008820005 0.028602367 0.0036154492 -0.015638774
-0.0015636234 -0.008132973 0.0071092607 0.023043858 0.0019159748 -0.008238553 -0.007515774 0.012168873

network_body._body_endoder.seq_layers.2.weight f4 [128, 128]
00000000: 4e6f e7bd 9e0a 27bc e67e f6bc 2b97 b83c
00000010: 0c34 4abd 08b8 013e 7084 1ebd 9985 ec3d
00000020: 9b01 67bd 34a8 c43c d524 633d 8a7c 0dbe
00000030: b934 09be 1ecc 6ebd dd13 473e 9f84 38be
00000040: 008e 7ebd ba1f 253c 4e8a 12be 02de 7d3d
00000050: 431a e73c 9f80 9c3c 3e37 7b3d 1307 ee3b
00000060: 18e0 0f3d b2a1 1e3d b2da 2cbe cbfa af3d
00000070: b910 74bc 7727 ae3d c340 71bd fbde c9bd
00000080: a099 3a3c bc54 953c 8c2a 93bd 475d ab3d
00000090: cf4b 2bbe 967b ccbb a77c 5dbd 6cd0 b8bd
000000a0: 3573 243d 4707 d3bd 183a 943d 9672 2b3d
000000b0: 60b4 873d 2e05 85bd b87f 02be 926e 133e
000000c0: 0cd5 bdbd 8770 6bbd d5a7 463d 730c b93d
000000d0: e4a6 7cbd e52c 8abc 5e5a 13bd b8ca 1cbe
000000e0: 7225 083e c674 df3c cd5b a0bd 8a64 983d
000000f0: db66 f3bc d6a8 5d3c 071c 8f3d 3d5f ec3d
00000100: 6fd6 023e e1b1 c53d cbff 4e3e 54ee 9cbd
00000110: 1069 45bc 99eb 35be 7466 1b3d a3f8 68bd
00000120: b460 e43d 1899 f8bc 27f4 cd3b 5249 493e
00000130: 5a0b 253e e9ce ad3d b840 a83d 490a 35bd
00000140: 06f1 97bd 1db7 e83d fe79 13bd 3c38 fa3c
00000150: 2f19 643d b149 a03a 20e6 afbc ac46 2b3d
00000160: 3134 823e ab38 313e dd63 143b f671 c7bb
00000170: 1e50 efbd 8536 74bc e34a 37bd a1a2 823d
00000180: 6a60 e0bb f945 a33d 9d67 84bd 1721 933d
00000190: d2da f0bd c654 ff3b e28c e3bd b71c 1e3c
000001a0: fc47 aa3d 262a 763c 238f 293e ccd8 25bd
000001b0: cdb0 8d3b bfe3 25bd 4330 e4bd 79a8 52bd
000001c0: 2c5a 263e 1e51 ba3d fbad 2f3d 6e71 d03c
000001d0: 47cd 08bc f97f 443e 1f39 873d 7319 f33c
000001e0: ec6c 9cbb 23dd 0f3d cf49 ac3d 014a 2a3e
000001f0: 18ca 8ebc fc6e 3a3c cd71 0b3d d9d1 933d
00000200: b4d2 4bbd 4f38 b8bd 775a 9b3c c3f0 1abd
00000210: 9f9e 01bc 1642 e3bd 6277 ce3d 5a9e 21be
00000220: 5280 b7bd 7e0a a23d 1de5 3bbe b0e5 89ba
00000230: bb49 cc3c 9c0c 073c 5508 493d d79c d33a
00000240: 29f7 da3d c5b2 38bd 9341 f93d 4bef d33d
00000250: 803c 86be 0404 bb3d 7c06 ef3d 96eb f8bb
00000260: 472e 313d 03d5 2e3e 815d 0abd 4c36 e6bc
00000270: 1ce9 bf3d f153 62bc 81f7 0ebd 52d4 c6bd
00000280: ae35 a4bd 31c1 693d 6381 2fbd 8752 d4bc
00000290: 4225 113c 812d 0ebe a341 ae3c eb4f d8bd
000002a0: 905f 4cbe a620 8dbd 06c6 03bd 526d bd3d
000002b0: 7f2e 01be 69e9 353d 25d7 0abe 8861 36bd
000002c0: 10eb 293e 27e1 d6bc 3e5d 873c e1fb 473e
000002d0: f9a9 e7bd 29dc 103d 7f39 2d3d 36ca 6d3e
000002e0: 17ac 98bd a46a 61bb f66f 603d c969 353d
000002f0: deb7 853d d9c2 373e a69b 5d3d 5220 173e
00000300: 176b 8fbd 9b14 92bd d08c 293e 1514 06bd
00000310: c216 b63c 8bb9 113e dac0 2d3d b2cb b3bd
00000320: 5c43 bf3d 64fa 243e eacf 733d 53f9 323c
00000330: 1b81 16be 8d46 b73d 7834 413d fc57 f73d
00000340: ef58 b33b 9a11 59bd 8eec 913c 9732 12bd
00000350: 1d1b 6e3d 3546 2a3e c696 8e3d a958 c63c
00000360: 9b74 12bd a19c 8a3d 886a 0bbd c7db f6bd
00000370: e17c 2d3d 33c3 46bd 8945 a83d 8f7c 3bbe
00000380: f539 06be 303a 013d eb4a d5bd b580 b43c
00000390: 337a 023d c1de 0e3e d39c f5bd 4c55 dfbc
000003a0: 42ee 2c3e c677 cebc 4468 0ebe 8d25 56bd
000003b0: 198d 3c3c 11ce 3c3d 72e7 813d 92cf 63bd
000003c0: 725c 1f3d 789d a73d 70b4 64bd d5d7 353e
000003d0: 270e 953d 81ec 573c bc50 5abd 047b 053d
000003e0: d77d 80bc 7a1e 2fbd 11e5 1cbd 8810 2fbe
000003f0: 4e1a 3c3d 8f24 ea3d e3b8 2ebc e863 693d
-0.113005266 -0.010195402 -0.030089807 0.02253302 -0.049366042 0.12667859 -0.03870052 0.11548919
-0.056398015 0.024005987 0.055455048 -0.13817039 -0.13399018 -0.05830013 0.19441171 -0.18019341
-0.06214714 0.010078365 -0.14310572 0.0619793 0.028210765 0.0191043 0.06133198 0.007264027
0.03512582 0.038728423 -0.168803 0.08592757 -0.014896565 0.08503621 -0.058899652 -0.09856983
0.011389166 0.018228881 -0.071858495 0.083674006 -0.16728137 -0.0062403185 -0.054073956 -0.09024128
0.040148932 -0.103041224 0.07237643 0.041857325 0.06626201 -0.064951286 -0.12744033 0.14397648
-0.09269151 -0.05748036 0.0484999 0.090355776 -0.061682597 -0.01686711 -0.035974853 -0.15311706
0.13295534 0.027277362 -0.078300096 0.07441051 -0.029712131 0.013529023 0.06987768 0.11541603
0.12777112 0.09653068 0.20214765 -0.07662645 -0.012048975 -0.17765655 0.037939504 -0.056877743
0.11151257 -0.030346438 0.0062852087 0.19656876 0.16117612 0.084867306 0.08215469 -0.04419926
-0.074190184 0.11363051 -0.036005013 0.030544393 0.05568808 0.0012228993 -0.021472037 0.041815445
0.25430444 0.17306773 0.002264253 -0.0060865832 -0.11685203 -0.014905577 -0.044749152 0.06378675
-0.006847431 0.079723306 -0.06465075 0.07184046 -0.11760487 0.007792088 -0.11110856 0.009650401
0.08314511 0.015024697 0.16558509 -0.040489957 0.004324055 -0.0405004 -0.11142018 -0.0514302
0.16245335 0.09097503 0.04289053 0.025444712 -0.008349723 0.19189443 0.06602692 0.029675221
-0.0047737267 0.035123 0.08412515 0.16629793 -0.01743035 0.011379 0.034044076 0.0721776
-0.04976149 -0.08995115 0.018964035 -0.037827265 -0.007911353 -0.11096589 0.10081364 -0.15783063
-0.08960022 0.079121575 -0.18349119 -0.0010520723 0.024937501 0.008242752 0.04908021 0.0016144764
0.10691673 -0.045092363 0.121707104 0.10348376 -0.26218033 0.09131625 0.11671159 -0.0075964434
0.043257024 0.17073445 -0.03378058 -0.028102063 0.09370634 -0.0138139585 -0.034904007 -0.09708466
-0.08018051 0.057069007 -0.042848002 -0.025918258 0.008858981 -0.13884546 0.021271532 -0.10562118
-0.19958329 -0.06890993 -0.03217127 0.09249367 -0.12615393 0.04441205 -0.13558634 -0.044526607
0.16593575 -0.026230408 0.016523954 0.19529678 -0.113117166 0.03536621 0.04229116 0.23221669
-0.074546985 -0.0034395838 0.054794274 0.044290338 0.065292105 0.17945422 0.054103516 0.14758423
-0.07002848 -0.071328364 0.16557622 -0.032733995 0.022227649 0.14230935 0.042420246 -0.08779086
0.0933902 0.16111141 0.059524454 0.010923701 -0.14697687 0.08949003 0.04716918 0.120773286
0.005473248 -0.0529953 0.017812993 -0.035692777 0.058131326 0.16628344 0.069623515 0.024212198
-0.035755735 0.06768156 -0.034037143 -0.12053638 0.042355422 -0.048526 0.08216388 -0.18309234
-0.13108046 0.031549633 -0.1041468 0.022034029 0.03185482 0.13952161 -0.119928025 -0.027262352
0.16887763 -0.025203597 -0.13906962 -0.052281905 0.01150825 0.046094958 0.06342973 -0.055617876
0.038906522 0.08184332 -0.05583614 0.17758115 0.0727809 0.0131789455 -0.05329965 0.03258802
-0.015685005 -0.042753674 -0.038304392 -0.1709615 0.045923524 0.11432754 -0.010664198 0.056980044

network_body._body_endoder.seq_layers.2.bias f4 [128]
00000000: 30ef 2bb8 5623 833c 09de b03a e974 c93b
00000010: da8f 0a37 2eba 9ab8 8073 cabb ea05 c5bb
00000020: 0316 1ebc 4e76 293c 228d 50bb 3fac debb
00000030: 6430 3e3c f866 6aba a788 f7bb 501e 72ba
00000040: 9179 1abc 62e1 edb9 27cb c4ba 005a 3dba
00000050: 41e8 cdb8 0755 d5bb 6ed8 d83b e6d6 5f3c
00000060: a283 a43c 56b9 0a3c c02c 9d3a ab16 e0b9
00000070: a7c1 7a3b 292c 9bbb be70 82bb 9718 cf3b
00000080: b81a e8bb 1b25 5a3b b594 363b f613 3f3a
00000090: c88c 283b d560 27bc 5755 633b 89cc 023c
000000a0: a989 49bc c31a 28bc 8746 06ba cf01 623c
000000b0: 8d4b a2bb ed8a aa3b 7e79 7139 2a15 383b
000000c0: ea6c 2c3c 15ce e83a 947e efbb 4ce5 3abb
000000d0: 9363 173c 9cde bc3b 9188 3dbc 491b eaba
000000e0: de1d 213b 8e4b 723b 951c e5bb 7c57 bbba
000000f0: efc8 89bb 32ec 3a3c cb97 463c a430 223a
00000100: fa9d 61bb 5648 42bb cfbc f73b 39a7 7d3c
00000110: 2415 2abc 5de8 3c3a bdab 0cbb 56e5 03bb
00000120: b494 d33a 125b b6ba f447 24bb a6c2 e6bb
00000130: 3c9a 803c dc2b 5fbb 073b 863a 69a6 363c
00000140: 5cfc 32bc 2132 22ba cb25 debb e1ea 963b
00000150: 7801 813b da57 26bb 0406 9abb eeb1 c6bb
00000160: 2ce4 e63b dfc4 2fbb 6748 08bc ba8a 3abb
00000170: 9763 e63b 727e eabb 8cc5 90bb 2d91 c3bb
00000180: b077 943b 3249 7d3c b9b6 24ba a8a0 5dba
00000190: 1146 4bbc 8a23 a5bb 1bbf a03b 6681 51bc
000001a0: 83f0 f7bb b0e5 3f3a 7848 bbba 323e c6bb
000001b0: de50 bc3a 3e8d 153c faab 32bb d4a0 143b
000001c0: 7b43 873c dca2 433c d907 ad3c fb53 6a3b
000001d0: 998b ba3b 6809 86bb d9df 9739 0928 44bb
000001e0: 40fc 2abc 9cc9 f7ba 6227 30bb 1452 0c3b
000001f0: 41c2 883c 3ac6 f4bb 582c ae3a a6c3 893b
-4.0992338e-05 0.01600806 0.0013493906 0.00614797 8.258934e-06 -7.377971e-05 -0.0061783195 -0.006012668
-0.009648803 0.010343147 -0.0031822403 -0.0067954357 0.011608217 -0.0008941735 -0.007554132 -0.00092360843
-0.009428398 -0.00045372086 -0.0015014157 -0.0007223189 -9.8184224e-05 -0.00651038 0.0066175973 0.013662076
0.020082299 0.008467039 0.0011991486 -0.00042741498 0.0038262398 -0.004735489 -0.003980725 0.00632007
-0.0070832632 0.0033286277 0.0027859632 0.0007289046 0.0025718678 -0.010215958 0.0034688318 0.007983335
-0.012300887 -0.010260287 -0.0005122204 0.0137943765 -0.004952854 0.0052045495 0.0002302881 0.0028088787
0.010524014 0.0017761613 -0.0073087905 -0.002851802 0.009240049 0.005763842 -0.0115682045 -0.0017860915
0.0024584453 0.0036971304 -0.0069919326 -0.001429304 -0.0042048614 0.011408852 0.012121151 0.00061870576
-0.0034426437 -0.0029645166 0.0075603495 0.0154817635 -0.010381017 0.00072062557 -0.0021464669 -0.0020125709
0.001614234 -0.0013912639 -0.0025067301 -0.007042247 0.015698545 -0.0034053242 0.001024098 0.011148074
-0.010924425 -0.00061872794 -0.0067794076 0.0046056365 0.0039369427 -0.0025381953 -0.004700424 -0.0060636913
0.007046243 -0.0026820225 -0.008318043 -0.0028464035 0.007030915 -0.0071561867 -0.0044180807 -0.005968234
0.0045308694 0.015459346 -0.00062833313 -0.00084544206 -0.012406842 -0.005039637 0.004905594 -0.012787199
-0.007566513 0.0007320298 -0.0014288565 -0.0060498947 0.0014367362 0.009127913 -0.002726315 0.002267887
0.01651167 0.011940684 0.021121906 0.0035755623 0.005692911 -0.004090477 0.00028967744 -0.002993109
-0.010436118 -0.0018904689 -0.0026878943 0.0021411227 0.01669419 -0.0074699195 0.0013288362 0.0042042313

action_model._continuous_distribution.log_sigma f4 [1, 2]
00000000: 02b5 0bbe 1d09 c9be
-0.13643268 -0.39264765

action_model._continuous_distribution.mu.weight f4 [2, 128]
00000000: cf54 64bd 7bea 1a3c ce92 413d 9331 613d
00000010: 96c8 ee3c 3f84 26bd c378 61bc 2089 0abc
00000020: 3a96 ed3b d85a 33b9 b0c8 aa3c 69a8 cd3c
00000030: cc6f 92bd f3a0 8c3c fbe9 6e3b 1c8a 80bc
00000040: fa53 953c c5ea 03bd 4e01 abbc fbeb 163d
00000050: 3159 eebc c675 c93b f71f f9bc 5ad7 253d
00000060: 922f a1bd 322c 18bd 43c6 8ebc fa06 f83c
00000070: 0890 3cbc c484 223d 455d d5bc 9cdf 93bd
00000080: b56a 963c 5d78 b5bc 4bf7 a53c 2c80 403d
00000090: 5654 29bb 5826 bbba bd25 2b3d 1b84 69bd
000000a0: 2d78 693c 0c5a 653c cbb9 9fbc b39d 3fbd
000000b0: fac6 ccbc a395 c4bc d496 923c a45b aeba
000000c0: 86a4 9cbd b64c 90bc 63b7 0e3b 61d0 1abc
000000d0: 3c1b 73bd 6c9e 8b3d 4cf8 043c b088 5ebc
000000e0: 8173 4bbc 51ad 81bc d597 afb8 a3ca 5fbc
000000f0: a427 ae3c 65a5 623d 6936 80bd 7d55 233d
00000100: 1557 223d 097d 233d ce31 5ebd 1f85 803d
00000110: 164d 1c3d 5666 7d3d e4ed 11bb 5c06 d8bc
00000120: f03f 32bd d95d 43bc 5267 0c3d 5d8d 2a3a
00000130: 1efd 4f3d d4ac 0cbc dd3d 46bd af9d 843d
00000140: 887f 963b 3b97 90bc bcb1 9b3c 5823 d3bc
00000150: 457a 15bd 6fe0 803c d9ff 9ebc 22e6 313c
00000160: 1b8e 04bd d16b 943c a952 593c aa8d 71bc
00000170: 1dae 09bc 5a60 a7bc c3e7 e0bc 548b e43c
00000180: a394 863d 171c 14bc 7b2a 88bc aa35 2c3d
00000190: 5da1 b3bb d3d9 753c 83d4 7a3c 322d e6bb
000001a0: e8ad 8fbc d5ad 43bd 2840 21bd 8254 b53c
000001b0: ad3e 38bc e64e 3a3d c61c 033d 57ad 2bbd
000001c0: f228 94bd 2a4d 5f3d d46f b7bd e36c 963c
000001d0: 9095 7cbd c44a 82bc 2fcf 1cbd 8369 1b3d
000001e0: 4db2 1b3d 9547 abbb 84bb d03c cd93 173d
000001f0: 3362 52bd 334c 30bd ae44 473d c7bc 18bd
00000200: 3a5b 2b3d 763c 98bd 227c ce3b 8b29 05bb
00000210: 18c8 3fbc 84a1 103c 33a7 dc3c 344e ae3b
00000220: 5646 c23c abd0 50bd b355 933c 6272 af3b
00000230: b04a 28bc 0abe 623a abcd b33c 75c1 73bc
00000240: 3402 cb3b ce18 8a3c 2a6c 8c3b 8f74 bebc
00000250: 6397 983c 469c 23bc 188f 383c 5a4f 723c
00000260: 81e1 3bbb e279 db3c 05be 853c f7e9 233b
00000270: e500 983c 0aba 043c e5fe db3c 8a4a 263d
00000280: 4e7d e13c 4d2d a1bc ed0c 203d 9eb3 31bc
00000290: 484c 4ebd c885 a5bc d86b 96bb 5077 49bc
000002a0: c2bc c53c 8303 ef3a 4191 76ba 8a7c 0b3d
000002b0: db3f 103c ed56 453c d967 25bd 32d8 15bd
000002c0: a0b2 413d fafb d9bc 7211 d13c 2fb4 71bb
000002d0: bfe8 4abc 1865 dc3b 7711 353c 9b56 133d
000002e0: 52e1 15bd 7b7f 593d 5b07 e83c d3d9 2c3c
000002f0: b437 08bc a10c d53c bbdb 34bd 2792 173b
00000300: 9fed 6fbc 2487 39bc 4a7c 10bd 90c3 043c
00000310: 4300 1cbb 863a ae3c 07be 213d 21e1 983c
00000320: 5ff6 7fbb 90c8 5abc 2eb0 e3bb 46a3 e13c
00000330: 71a2 2dbc d146 843c ef4a 063d 2f83 d4bb
00000340: 63c3 803c 3795 f83b 7a68 353b c7bd e8bc
00000350: 0655 c6bb dc29 f53c 0c9b 353c 21f4 b63b
00000360: f69d 2dbd 56e8 2f3c 3b29 9d3c 530d ee3c
00000370: 7ae4 e73c dc6d ffbb 8242 36bc 9cc8 d43c
00000380: e015 19bc 9448 47bd d8ad 3ebc b207 e23b
00000390: 689f 8bb9 2781 0c3c d34c 1f3d d165 51bc
000003a0: 95cc 55bc fb34 843c 72f4 1aba cffc 903b
000003b0: 6ac5 5cbc 450c 5ebc 90ef fb3c c8b0 3e3b
000003c0: 7bca 813a e786 ae3c a40d 50bc f128 1dbd
000003d0: cdf9 fe3c edd6 483c 4e44 b93c f163 d3ba
000003e0: 7d8e e63b 6e0a a33c 3d6e 47bb 3698 8bbc
000003f0: ec6c a8bb 43b2 c4bc 34d0 803b d8c9 c1bc
-0.055744942 0.009455319 0.047259144 0.05497892 0.029148381 -0.040653463 -0.013761702 -0.008455545
0.0072505744 -0.00017104612 0.020847648 0.025104718 -0.0715023 0.01716659 0.0036455381 -0.015690856
0.01822852 -0.032206316 -0.020874646 0.036846142 -0.029095264 0.006148073 -0.03041075 0.04048858
-0.078704014 -0.037151523 -0.017428523 0.030276764 -0.011508949 0.039677396 -0.026045451 -0.072203845
0.018361429 -0.02215212 0.02025952 0.046997234 -0.0025837622 -0.0014278395 0.041784037 -0.05701075
0.014249844 0.01399852 -0.019497773 -0.046781253 -0.024997223 -0.023997134 0.017894186 -0.0013302458
-0.07648568 -0.017614704 0.0021776787 -0.009449095 -0.059352145 0.06817326 0.008115839 -0.0135823935
-0.012417675 -0.015829714 -8.372931e-05 -0.013659152 0.021259136 0.055333514 -0.06260378 0.03987645
0.03963383 0.039914165 -0.054246716 0.06275391 0.038159452 0.061865173 -0.0022267038 -0.02637022
-0.043518007 -0.0119242305 0.03427822 0.000650605 0.0507785 -0.008586127 -0.04839884 0.06475388
0.0045928396 -0.017650237 0.019005649 -0.02577369 -0.03649356 0.015732018 -0.019409107 0.010858091
-0.032362085 0.018117817 0.013264337 -0.014743248 -0.008403328 -0.020431686 -0.027454263 0.027898468
0.06571319 -0.0090399 -0.016621819 0.042043366 -0.0054818825 0.015005547 0.015309456 -0.0070244307
-0.01753898 -0.0477732 -0.039367825 0.022135023 -0.011245412 0.0454854 0.032009862 -0.041913357
-0.07234372 0.05451695 -0.089568764 0.018362468 -0.06166607 -0.015904792 -0.038283523 0.03794242
0.038011838 -0.005227039 0.02548004 0.03700619 -0.05136318 -0.04304142 0.048649482 -0.037289407
0.041835047 -0.07433407 0.006301419 -0.002031895 -0.011705421 0.008827571 0.026935196 0.005319381
0.02371518 -0.05098025 0.0179852 0.0053542117 -0.010271713 0.0008649534 0.021948656 -0.014877667
0.006195331 0.01685753 0.004285355 -0.023248939 0.018626874 -0.009985989 0.011264585 0.014789427
-0.0028668346 0.026791517 0.01632596 0.002501128 0.018555114 0.008100996 0.026854942 0.04059843
0.02752557 -0.019674921 0.039074827 -0.010846047 -0.050365716 -0.020205393 -0.0045904927 -0.012296513
0.024137858 0.00182353 -0.00094058 0.034054317 0.008804287 0.0120446505 -0.04038224 -0.036583133
0.04728949 -0.02660941 0.025521014 -0.003688108 -0.012384593 0.0067259185 0.011051527 0.035971265
-0.036591835 0.05310009 0.02832382 0.01054998 -0.008314062 0.026006998 -0.044154864 0.0023127885
-0.014644056 -0.011323724 -0.03527478 0.008103266 -0.0023803867 0.02126814 0.039487865 0.018662037
-0.003905676 -0.013353482 -0.0069484925 0.027543675 -0.010597811 0.01614705 0.032786306 -0.006485365
0.015718168 0.007586147 0.002768068 -0.028410805 -0.006052616 0.029927187 0.011084329 0.0055833017
-0.04238697 0.010736546 0.0191847 0.029059088 0.028307188 -0.0077950787 -0.011124255 0.025974564
-0.009343594 -0.0486532 -0.011638127 0.00689789 -0.00026630913 0.008575714 0.038891625 -0.012780623
-0.013049264 0.016138544 -0.0005911059 0.0044246684 -0.013474802 -0.01355273 0.03075388 0.002909707
0.0009902263 0.02130456 -0.012698565 -0.038369123 0.031124974 0.012258274 0.022615578 -0.0016127807
0.007036029 0.019902434 -0.0030430697 -0.017040353 -0.0051399376 -0.024010783 0.0039310697 -0.023655817

action_model._continuous_distribution.mu.bias f4 [2]
00000000: e75b 93bb 43fe 72bb
-0.0044970396 -0.0037077821

exp_avg f4 [128, 7]
00000000: 922f e838 e80d 6c3b 0000 0000 fb64 81bb
00000010: ff92 d03b 0000 0000 b478 5439 6a59 55b6
00000020: b4e7 d8b8 0000 0000 a4cb ed38 94d8 1ab9
00000030: 0000 0000 bb54 ea35 8fd3 0137 cafd 8339
00000040: 0000 0000 3bb4 90b9 e9e2 033a 0000 0000
00000050: 3ded 05b7 310d 5ab5 5db1 ddb7 0000 0000
00000060: 4b0b f337 de02 f837 0000 0000 e072 56b7
00000070: da2d 6231 bbf0 e533 0000 0000 1316 fcb3
00000080: cd84 1c34 0000 0000 05fa cf33 aee5 2d36
00000090: 63cb b038 0000 0000 5ed2 c1b8 5dad ed38
000000a0: 0000 0000 5ac5 2637 25cd 7738 40ee fb3a
000000b0: 0000 0000 de18 0abb e433 483b 0000 0000
000000c0: b81d fd38 1a01 41b9 6c38 c4bb 0000 0000
000000d0: 601e d73b 9e40 09bc 0000 0000 2713 e7b9
000000e0: a995 9d35 af37 2038 0000 0000 42a6 2fb8
000000f0: 98fd 2bb8 0000 0000 fcca a0b6 80be 1a36
00000100: 9c52 9d38 0000 0000 8379 acb8 37ac d938
00000110: 0000 0000 e038 0137 48ab ad36 f28f 3039
00000120: 0000 0000 3991 41b9 e19a 8c39 0000 0000
00000130: 6e42 b337 938e a9b7 7d61 2cba 0000 0000
00000140: b7fb 3c3a 0588 63ba 0000 0000 d9c8 bbb8
00000150: 1255 3339 0c52 b63b 0000 0000 4ae1 c7bb
00000160: 952c 133c 0000 0000 1656 7b38 ac38 0b35
00000170: b28a 8d37 0000 0000 742c 9bb7 2504 e937
00000180: 0000 0000 3833 b135 a5da 0336 170d 8638
00000190: 0000 0000 3bf6 92b8 c49e b638 0000 0000
000001a0: cc64 ed36 31f3 a3b5 81ae 26b8 0000 0000
000001b0: 2ebc 3638 d221 97b8 0000 0000 f4c1 05b6
000001c0: 1246 6336 8c0f e738 0000 0000 8550 fdb8
000001d0: f6ca 3639 0000 0000 9240 eb36 01eb 64b6
000001e0: 87bb e8b8 0000 0000 b125 ff38 cfd1 20b9
000001f0: 0000 0000 6e41 64b7 ed2e 8338 6c5e 053b
00000200: 0000 0000 b636 12bb a23e 493b 0000 0000
00000210: 96a7 6439 84f7 5bb8 d2a1 dfba 0000 0000
00000220: a22b f53a 89aa 25bb 0000 0000 9d94 19b9
00000230: e53d d035 b0b6 5338 0000 0000 c11a 68b8
00000240: b6ea 2a39 0000 0000 f57f c1b7 aacb c4b5
00000250: 2013 48b8 0000 0000 2158 5b38 780a 9fb8
00000260: 0000 0000 b076 bfb5 b008 3738 5015 ba3a
00000270: 0000 0000 5201 ccba b5a6 0e3b 0000 0000
00000280: 48a0 1639 932c 0f38 1b8f 913a 0000 0000
00000290: f993 9fba cfc8 f13a 0000 0000 f6a9 3e39
000002a0: 6284 4235 89c1 c537 0000 0000 4ecd d8b7
000002b0: cb70 4138 0000 0000 d326 ea36 284d 4bb7
000002c0: d2b0 ceb9 0000 0000 f798 e239 d614 18ba
000002d0: 0000 0000 7b3f e6b6 0a4c 7d38 4fc2 003b
000002e0: 0000 0000 f128 0dbb 88a1 483b 0000 0000
000002f0: 666e 3d38 6049 3ab8 ef63 bdba 0000 0000
00000300: 7ca1 cf3a bf26 04bb 0000 0000 8fc5 30b9
00000310: 51c8 c436 0e10 4839 0000 0000 c754 5bb9
00000320: 5ca2 6339 0000 0000 7122 9c36 c08d b2b8
00000330: 5787 35bb 0000 0000 0803 473b b284 83bb
00000340: 0000 0000 99d8 a3b9 4298 0938 24e3 8b3a
00000350: 0000 0000 265c 99ba 4272 da3a 0000 0000
00000360: b74e a938 ec1e c136 f456 4439 0000 0000
00000370: d33f 57b9 024c 3c39 0000 0000 78d2 e936
00000380: df54 2335 a70d a637 0000 0000 d70b b6b7
00000390: 95e7 8537 0000 0000 e4b4 31b4 eac8 a034
000003a0: 8f76 2337 0000 0000 ca34 33b7 0434 0f37
000003b0: 0000 0000 aa18 9435 a2d3 76b4 93f0 fab6
000003c0: 0000 0000 d28d 0937 f378 2fb7 0000 0000
000003d0: c279 09b6 f891 b5b6 e398 38b9 0000 0000
000003e0: 6b60 4a39 99e7 b6b9 0000 0000 8b0a eeb5
000003f0: 2f27 8e37 8485 103a 0000 0000 cb70 1eba
0.00011071483 0.003601903 0.0 -0.0039488054 0.0063651795 0.0 0.00020262861 -3.179152e-06
-0.00010342841 0.0 0.00011338972 -0.00014767266 0.0 1.7459018e-06 7.7382565e-06 0.00025175355
0.0 -0.00027600102 0.00050310657 0.0 -7.982654e-06 -8.1230525e-07 -2.6427844e-05 0.0
2.8973116e-05 2.9565239e-05 0.0 -1.278214e-05 3.2913392e-09 1.0707432e-07 0.0 -1.173868e-07
1.4576945e-07 0.0 9.684667e-08 2.59127e-06 8.430218e-05 0.0 -9.242141e-05 0.00011333332
0.0 9.9403205e-06 5.9080445e-05 0.0019220784 0.0 -0.002107195 0.0030548507 0.0
0.00012069516 -0.00018406325 -0.0059881713 0.0 0.0065649003 -0.008377222 0.0 -0.00044074023
1.1740968e-06 3.8198832e-05 0.0 -4.187809e-05 -4.1005755e-05 0.0 -4.792002e-06 2.3058674e-06
7.5017306e-05 0.0 -8.2242324e-05 0.00010379444 0.0 7.702241e-06 5.1757415e-06 0.00016838292
0.0 -0.00018460014 0.00026818275 0.0 2.1369397e-05 -2.0212761e-05 -0.0006575806 0.0
0.00072091393 -0.0008679631 0.0 -8.954266e-05 0.00017102461 0.00556398 0.0 -0.0060998546
0.008982797 0.0 5.9923237e-05 5.1864004e-07 1.6873095e-05 0.0 -1.849814e-05 2.7777694e-05
0.0 1.3202434e-06 1.964779e-06 6.392056e-05 0.0 -7.0076865e-05 8.708009e-05 0.0
7.0748847e-06 -1.2215224e-06 -3.9740004e-05 0.0 4.3567437e-05 -7.2065406e-05 0.0 -1.993144e-06
3.3866422e-06 0.00011017834 0.0 -0.00012078978 0.00017432481 0.0 7.0110627e-06 -3.4111438e-06
-0.00011097552 0.0 0.00012166368 -0.00015336949 0.0 -1.3605093e-05 6.2553074e-05 0.002035047
0.0 -0.0022310442 0.0030707498 0.0 0.00021806205 -5.2444186e-05 -0.0017061776 0.0
0.001870502 -0.0025278649 0.0 -0.0001464658 1.5515221e-06 5.047646e-05 0.0 -5.5338027e-05
0.000162999 0.0 -2.3066978e-05 -1.4662412e-06 -4.7701527e-05 0.0 5.2295745e-05 -7.583661e-05
0.0 -1.4265152e-06 4.363869e-05 0.0014197025 0.0 -0.0015564358 0.0021766846 0.0
0.00014364824 3.413537e-05 0.0011105271 0.0 -0.0012174837 0.0018446686 0.0 0.00018183127
7.2463274e-07 2.3574352e-05 0.0 -2.5844809e-05 4.6119832e-05 0.0 6.978263e-06 -1.2117707e-05
-0.00039423123 0.0 0.00043220047 -0.00058014446 0.0 -6.8619242e-06 6.0390717e-05 0.0019647067
0.0 -0.0021539296 0.0030613858 0.0 4.5163928e-05 -4.441419e-05 -0.0014449338 0.0
0.0015840973 -0.0020164696 0.0 -0.00016858264 5.864575e-06 0.00019079467 0.0 -0.0002091705
0.0002170889 0.0 4.653172e-06 -8.5141044e-05 -0.0027699077 0.0 0.0030366797 -0.0040136212
0.0 -0.0003125116 3.2805146e-05 0.0010672552 0.0 -0.0011700436 0.0016666132 0.0
8.07321e-05 5.755448e-06 0.00018724409 0.0 -0.00020527774 0.00017957392 0.0 6.968443e-06
6.0845736e-07 1.97951e-05 0.0 -2.1701604e-05 1.5962674e-05 0.0 -1.6550217e-07 2.9948507e-07
9.743161e-06 0.0 -1.0681522e-05 8.535575e-06 0.0 1.1034037e-06 -2.2987527e-07 -7.478587e-06
0.0 8.198856e-06 -1.04589735e-05 0.0 -2.0485463e-06 -5.4112134e-06 -0.00017604562 0.0
0.0001930014 -0.000348863 0.0 -1.773545e-06 1.6945965e-05 0.00055130594 0.0 -0.0006044029

exp_avg_sq f4 [128, 7]
00000000: 9deb 0235 c151 073a 0000 0000 e2a3 223a
00000010: 2bbb 463a 0000 0000 e78c d234 95b3 622f
00000020: c651 6a34 0000 0000 5ed0 8c34 4a17 d734
00000030: 0000 0000 937b ec30 7d9d 9533 6ea4 9a38
00000040: 0000 0000 4fdd b938 5d18 df38 0000 0000
00000050: 49b8 bd34 0ecd ec2f 15c2 f434 0000 0000
00000060: 4b16 1335 31ad 0835 0000 0000 0159 0132
00000070: ced1 8627 7e59 8b2c 0000 0000 e97b a72c
00000080: 8e58 082c 0000 0000 8879 f228 415c 0b2f
00000090: 010b 1034 0000 0000 0420 2d34 d2a2 5534
000000a0: 0000 0000 7255 5230 f03d e233 12d8 e938
000000b0: 0000 0000 4987 0c39 e76f 3739 0000 0000
000000c0: a19c d034 2c93 3734 51be 3d39 0000 0000
000000d0: 660d 6439 6530 b539 0000 0000 4cca ab35
000000e0: b0eb 1a32 5920 2037 0000 0000 9974 4037
000000f0: b02b 6137 0000 0000 9c3a 6f33 a22b c52e
00000100: c9cb cb33 0000 0000 16f1 f433 0849 1a34
00000110: 0000 0000 2dc5 3530 4442 842f f8b3 8834
00000120: 0000 0000 994d a434 8fd4 b934 0000 0000
00000130: c67f 8430 2dd9 8d33 649d 9238 0000 0000
00000140: 5637 b038 d4fa db38 0000 0000 25af b834
00000150: af08 8434 8778 8839 0000 0000 2206 a439
00000160: d132 0c3a 0000 0000 7a20 6034 ab9d df2e
00000170: 4821 e733 0000 0000 bce5 0a34 391d 2f34
00000180: 0000 0000 8d05 5430 6774 d12e 227e d833
00000190: 0000 0000 e119 0234 fd5a fc33 0000 0000
000001a0: ac4d 2930 3574 632e e518 6b33 0000 0000
000001b0: 0448 8d33 b2aa cd33 0000 0000 f3c0 1f2f
000001c0: c2da db2f fb3d e334 0000 0000 988f 0835
000001d0: b619 3f35 0000 0000 2ff5 9930 a576 7f2f
000001e0: 0f06 8434 0000 0000 e2ad 9e34 59b1 c034
000001f0: 0000 0000 5a4b 1c31 7928 0b33 94d5 0f38
00000200: 0000 0000 b7df 2c38 346f 4838 0000 0000
00000210: 405c 3a34 ffc0 1c33 6b05 2238 0000 0000
00000220: a1bb 4238 b661 8c38 0000 0000 3174 5f34
00000230: 3438 3931 7871 3f36 0000 0000 6618 6636
00000240: b705 a436 0000 0000 a3c7 f831 3fef 2d2e
00000250: 88c7 3333 0000 0000 9713 5833 d578 aa33
00000260: 0000 0000 2514 5d2f 485e 6a32 4c3e 7237
00000270: 0000 0000 7893 9137 6286 ae37 0000 0000
00000280: b1eb a033 ac1b 0933 18b7 0d38 0000 0000
00000290: ba53 2a38 4756 2738 0000 0000 d1e2 ee33
000002a0: 5612 0d2e c8cf 1133 0000 0000 3740 2f33
000002b0: beef 1233 0000 0000 4589 352f 500c 3633
000002c0: 3c2a 3c38 0000 0000 ca27 6238 e7a3 8c38
000002d0: 0000 0000 76bb 7634 b273 dd33 ade4 e438
000002e0: 0000 0000 a58d 0939 2c6b 6439 0000 0000
000002f0: cdbb c634 f160 0233 80c2 0638 0000 0000
00000300: bef7 2138 ee43 4d38 0000 0000 8239 2a34
00000310: 21e3 e331 648b eb36 0000 0000 e08c 0d37
00000320: ab7d 1137 0000 0000 a536 2833 30a9 6a33
00000330: b78b 7238 0000 0000 fdc1 9138 f33e b838
00000340: 0000 0000 80bf bf34 9432 2732 d3d0 2c37
00000350: 0000 0000 fbb4 4f37 9c77 8537 0000 0000
00000360: 1502 d632 7d23 2631 adb8 2b36 0000 0000
00000370: 4464 4e36 d20c 6e36 0000 0000 91bc 0232
00000380: 481f f32d 9e4a fb32 0000 0000 6603 1733
00000390: 3612 3d33 0000 0000 55e9 342f 84b4 972d
000003a0: 77cd 9c32 0000 0000 ef75 bc32 86ee 4e32
000003b0: 0000 0000 e05d da2e ac38 a62d 7fce ab32
000003c0: 0000 0000 7d7e ce32 2881 a932 0000 0000
000003d0: 74d6 392f 50d6 f532 2119 fe37 0000 0000
000003e0: 35b3 1838 bdad 3738 0000 0000 98ae 0134
000003f0: 644f 5431 b971 5b36 0000 0000 f6df 8336
4.8771636e-07 0.00051620236 0.0 0.000620423 0.0007580991 0.0 3.9218068e-07 2.061838e-10
2.1822697e-07 0.0 2.622864e-07 4.0063816e-07 0.0 1.7206382e-09 6.967e-08 7.37392e-05
0.0 8.8627094e-05 0.00010638007 0.0 3.5338078e-07 4.307385e-10 4.5589755e-07 0.0
5.479421e-07 5.0915975e-07 0.0 7.529025e-09 3.741994e-15 3.9605532e-12 0.0 4.7601823e-12
1.937592e-12 0.0 2.6920103e-14 1.2674752e-10 1.3415048e-07 0.0 1.6123528e-07 1.9896405e-07
0.0 7.651898e-10 1.05352115e-07 0.00011150552 0.0 0.00013401838 0.00017493927 0.0
3.8856982e-07 1.7096744e-07 0.00018095343 0.0 0.00021748766 0.00034559067 0.0 1.2799369e-06
9.017569e-09 9.544275e-06 0.0 1.1471239e-05 1.3421217e-05 0.0 5.569983e-08 8.9662736e-11
9.4899924e-08 0.0 1.1405989e-07 1.4368936e-07 0.0 6.612762e-10 2.4057745e-10 2.5462919e-07
0.0 3.060384e-07 3.4613592e-07 0.0 9.64058e-10 6.605328e-08 6.991139e-05 0.0
8.402641e-05 0.00010489454 0.0 3.4400105e-07 2.4593234e-07 0.0002602974 0.0 0.00031285087
0.00053481484 0.0 2.087344e-07 1.01688734e-10 1.07628296e-07 0.0 1.2935828e-07 1.6308776e-07
0.0 7.713304e-10 9.524897e-11 1.0081227e-07 0.0 1.2116608e-07 1.1751215e-07 0.0
6.159222e-10 5.1717037e-11 5.4737843e-08 0.0 6.578924e-08 9.577106e-08 0.0 1.4529515e-10
3.9991305e-10 4.2327142e-07 0.0 5.0872904e-07 7.119046e-07 0.0 1.12019e-09 2.3234266e-10
2.4591324e-07 0.0 2.955631e-07 3.5891824e-07 0.0 2.274382e-09 3.240027e-08 3.4292767e-05
0.0 4.1216346e-05 4.778728e-05 0.0 1.735616e-07 3.649711e-08 3.8628856e-05 0.0
4.6427947e-05 6.69392e-05 0.0 2.0810764e-07 2.695299e-09 2.8527265e-06 0.0 3.4286873e-06
4.888246e-06 0.0 7.240446e-09 3.954814e-11 4.1858158e-08 0.0 5.0309236e-08 7.938221e-08
0.0 2.010699e-10 1.364203e-08 1.4438829e-05 0.0 1.7354017e-05 2.0804993e-05 0.0
7.4934526e-08 3.1922966e-08 3.378754e-05 0.0 4.0609135e-05 3.9896255e-05 0.0 1.1123996e-07
3.2075974e-11 3.394942e-08 0.0 4.0803766e-08 3.4211318e-08 0.0 1.6510622e-10 4.2386375e-08
4.4862027e-05 0.0 5.3919655e-05 6.7062494e-05 0.0 2.2978733e-07 1.0312159e-07 0.000109144814
0.0 0.00013118105 0.00021783699 0.0 3.7017017e-07 3.035615e-08 3.2129232e-05 0.0
3.861612e-05 4.8939073e-05 0.0 1.5853405e-07 6.632391e-09 7.019773e-06 0.0 8.437055e-06
8.671933e-06 0.0 3.9165247e-08 5.4636246e-08 5.7827416e-05 0.0 6.950272e-05 8.785529e-05
0.0 3.5715857e-07 9.7321795e-09 1.030062e-05 0.0 1.2380299e-05 1.5910533e-05 0.0
2.4913826e-08 2.4176352e-09 2.558848e-06 0.0 3.0754754e-06 3.5472226e-06 0.0 7.609871e-09
2.7639793e-11 2.9254178e-08 0.0 3.5160518e-08 4.4021554e-08 0.0 1.6453801e-10 1.7246878e-11
1.8254225e-08 0.0 2.193971e-08 1.2045012e-08 0.0 9.930168e-11 1.8897182e-11 2.0000924e-08
0.0 2.4039077e-08 1.9732923e-08 0.0 1.6901841e-10 2.8619212e-08 3.0290861e-05 0.0
3.6406524e-05 4.3792406e-05 0.0 1.2077578e-07 3.0895189e-09 3.2699738e-06 0.0 3.9301767e-06

exp_avg f4 [128]
00000000: b47c 413a 82ca b1b7 1461 5838 25b7 b5b6
00000010: b879 bc32 d8e9 9037 1f80 ce39 1dd6 a0ba
00000020: 7653 0337 f9f3 8037 23b9 1038 c64b 0db9
00000030: 6871 953a 2009 6836 8cc1 5b37 d09f 08b7
00000040: e464 bd37 abc3 beb7 2ba3 da39 144e b7b9
00000050: 4589 2d37 e4fe 23b7 f886 9839 109f 6e39
00000060: 5918 a236 3a6b a9b8 9114 d339 ed3c 9bb9
00000070: 5dfc 2338 3fcb 14ba c952 6539 18ef 2038
00000080: ff1b 8836 68fc 0536 40b0 cdb5 2d4f 17b8
00000090: abeb ec38 040d fd39 8bfc 9536 91e1 4837
000000a0: 9dca d335 d5d3 d638 f34a 6e35 6cd1 3b38
000000b0: 735f d9b9 aab1 3e35 a769 4cb6 ae08 48ba
000000c0: f311 3eb8 d887 b6b7 5c8c b438 9e9d 9739
000000d0: e4d9 6db8 135a ef37 6f03 05ba e2c1 2c3a
000000e0: 2f0d fab8 c3ca c938 8d1b 13b8 72be 5eba
000000f0: 99f1 17b9 2467 89b7 66e0 17b5 6fea 4eb9
00000100: 3ff9 a1ba 65ea 99ba 0cab 8f39 51df 86b6
00000110: 9dbd b239 9741 3a3a 1cda 57b7 cc56 2ab9
00000120: 2fda 62ba 8389 f838 460e 0237 5440 e5b8
00000130: 45a1 b0b6 6820 63b6 7a33 20b8 ad3f 1f39
00000140: 7a7e 53b9 3ba2 fdb9 fa0b ccb5 692e 5937
00000150: 24c4 f6b8 f942 f5b4 b4d4 2038 9826 d336
00000160: bd20 a1b9 4219 09bb e7b4 81b8 ad92 b8b9
00000170: 02fc 0b3a 811e 73ba b373 f238 9b35 0e3a
00000180: d94a 8d35 5bcc fbb6 4b02 3e3a bb23 a435
00000190: e47c 5437 d59e 42b6 7550 3939 dca2 8e35
000001a0: 1cdb 8aba c4b8 7739 ce29 8f37 f0a2 f9b8
000001b0: c4e3 f8b8 111c 34b9 4731 253a ebf2 2e38
000001c0: 71a9 3fb4 8a1a e3b8 fa39 fcb3 f14a 40ba
000001d0: f1b6 fd39 a8c8 b9b8 f135 2e39 3d99 4d39
000001e0: d641 99b8 93dd ebb8 24d4 b1b9 58c8 6e37
000001f0: f0ea 3139 635d 30b8 1dde aa39 c5b9 bd39
0.0007380948 -2.1194344e-05 5.1588824e-05 -5.415541e-06 2.1941432e-08 1.727503e-05 0.0003938684 -0.0012270842
7.827641e-06 1.5372398e-05 3.4504697e-05 -0.00013475036 0.0011401596 3.4576005e-06 1.3098481e-05 -8.143441e-06
2.2577537e-05 -2.274088e-05 0.0004170177 -0.00034962653 1.0343564e-05 -9.774903e-06 0.0002909226 0.00022756704
4.8308107e-06 -8.0785205e-05 0.0004026038 -0.00029609297 3.909726e-05 -0.0005676038 0.00021869982 3.8369646e-05
4.056375e-06 1.9965464e-06 -1.5324986e-06 -3.6074944e-05 0.000112972535 0.00048265618 4.469946e-06 1.1973448e-05
1.5779693e-06 0.00010243772 8.8770975e-07 4.4779314e-05 -0.0004146058 7.103905e-07 -3.0459867e-06 -0.0007630688
-4.5316247e-05 -2.1759348e-05 8.609213e-05 0.00028918398 -5.670813e-05 2.8532964e-05 -0.0005074059 0.000659017
-0.000119233846 9.622194e-05 -3.507319e-05 -0.00084970065 -0.00014490484 -1.6379701e-05 -5.6578426e-07 -0.00019733024
-0.0012357606 -0.0011742829 0.00027402525 -4.0195087e-06 0.0003409208 0.00071051106 -1.2865781e-05 -0.00016244798
-0.0008653728 0.00011851175 7.751927e-06 -0.00010931553 -5.263983e-06 -3.3844499e-06 -3.8194914e-05 0.00015187143
-0.00020169644 -0.00048376792 -1.520267e-06 1.2945014e-05 -0.00011766728 -4.5683535e-07 3.8345068e-05 6.292783e-06
-0.00030732705 -0.0020919596 -6.184895e-05 -0.00035204497 0.0005339981 -0.000927426 0.0001156101 0.0005424858
1.0527102e-06 -7.504173e-06 0.00072482665 1.2229351e-06 1.2665263e-05 -2.9000705e-06 0.00017672947 1.0627223e-06
-0.0010593864 0.00023624586 1.7066395e-05 -0.00011903595 -0.00011867986 -0.00017176593 0.00063015934 4.1711068e-05
-1.7849904e-07 -0.00010829147 -1.174521e-07 -0.0007335386 0.00048392222 -8.8588626e-05 0.00016614028 0.00019607409
-7.3078714e-05 -0.000112469446 -0.00033918128 1.4232552e-05 0.00016967556 -4.2048643e-05 0.00032590414 0.00036187298

exp_avg_sq f4 [128]
00000000: 08d5 b537 276e 1d32 0dcc 4f36 9e71 a432
00000010: 583f 3b2a de8d c131 6c1c 9d36 90f6 fe36
00000020: 602a d734 38ec 8831 f1b0 3732 8202 4536
00000030: fb60 3737 a149 9b31 0f74 9131 e1f3 1d31
00000040: e2ac 9832 4f67 3132 0446 c135 46b6 d935
00000050: 979f 0034 e992 f130 1cc1 2235 1d6d be35
00000060: 55ee c330 96d7 fc35 e6c8 9936 7614 b535
00000070: f240 9e34 1cf5 2236 6a37 e834 0cbf e633
00000080: 55d5 a830 1eb3 5230 54dc 6630 fab7 aa35
00000090: b06f 1334 bb1e 2a37 c5cf d731 555f 7f31
000000a0: 63c8 db31 8a7c cb36 ee46 3331 a98b 2d36
000000b0: f618 1136 12c9 6c2e 876a 7a31 ca5d cc36
000000c0: 33b6 6a33 5d95 6131 6c46 3935 69f1 2035
000000d0: b9cd 2d35 f243 8b35 c788 b936 80fd a936
000000e0: 0708 7136 8224 8935 fdc7 0d33 6fa9 3737
000000f0: 6130 3335 44b9 4f32 8a90 b631 3d52 e834
00000100: a2b0 a237 9e8f 8037 2ec9 3e36 e560 822f
00000110: 3dce 4a35 406d 5137 e572 7036 f45c 0835
00000120: 397f c537 3173 eb33 24bc aa30 e042 b835
00000130: d64f 5932 b45d 2432 4c64 1832 beeb 5334
00000140: 37ba 0834 8a30 5236 95c6 3d31 06fd c431
00000150: 3370 3c34 5aa2 082f 1363 9e32 07e6 7e31
00000160: dfe7 3236 ade1 3038 db52 8e34 8c1b b835
00000170: 10fc 0f36 e8c4 1937 5236 2833 106f 8c37
00000180: 6828 8132 7dda ab31 4474 2d37 9df5 942f
00000190: 82ca 6532 0820 a630 2d94 8f35 5ccc a22f
000001a0: f229 a937 ad86 4336 8bd5 2b35 cd4b 8435
000001b0: bc41 4237 a71a c734 2518 4f36 a693 9d34
000001c0: 6e1d 3a31 2980 1836 d106 972e fd55 af37
000001d0: 0bd2 aa35 64bf ee36 653d 6835 5065 a035
000001e0: 1345 8f34 c14c f735 9d61 a735 47b7 b031
000001f0: 1ae7 0035 d2d0 d034 d6c2 b536 0e91 9536
2.1676082e-05 9.1636485e-09 3.0964177e-06 1.914378e-08 1.6630913e-13 5.6331677e-09 4.6822734e-06 7.5984935e-06
4.0077703e-07 3.984976e-09 1.0692234e-08 2.9356747e-06 1.093023e-05 4.5194644e-09 4.2332498e-09 2.2985136e-09
1.7773747e-08 1.0326246e-08 1.4399998e-06 1.6220808e-06 1.1978987e-07 1.7576812e-09 6.0630714e-07 1.4187859e-06
1.4255855e-09 1.8838207e-06 4.583143e-06 1.3491506e-06 2.9477047e-07 2.4282554e-06 4.3253686e-07 1.0744961e-07
1.2284241e-09 7.6652096e-10 8.398662e-10 1.2719531e-06 1.3731074e-07 1.0139945e-05 6.280944e-09 3.7161574e-09
6.39652e-09 6.0643697e-06 2.6088247e-09 2.5860302e-06 2.1621213e-06 5.3838774e-11 3.6440342e-09 6.0905923e-06
5.464808e-08 3.2826712e-09 6.902035e-07 5.995594e-07 6.474689e-07 1.0376082e-06 5.5293526e-06 5.0661038e-06
3.591647e-06 1.0217921e-06 3.301101e-08 1.0947099e-05 6.6753097e-07 1.209111e-08 5.3133293e-09 4.3273204e-07
1.9394156e-05 1.5325666e-05 2.8429308e-06 2.371571e-10 7.555098e-07 1.24828075e-05 3.5829664e-06 5.079921e-07
2.3543473e-05 1.09639934e-07 1.2422601e-09 1.3728531e-06 1.2649215e-08 9.567362e-09 8.870369e-09 1.9736669e-07
1.2733732e-07 3.1320692e-06 2.7616e-09 5.733116e-09 1.7549682e-07 1.2426807e-10 1.8438675e-08 3.709262e-09
2.6659034e-06 4.2171847e-05 2.6509846e-07 1.3717085e-06 2.145538e-06 9.1653565e-06 3.9164952e-08 1.6741018e-05
1.5035951e-08 5.0015942e-09 1.0338674e-05 2.7095562e-10 1.3375599e-08 1.2087193e-09 1.0697455e-06 2.9612834e-10
2.0165902e-05 2.9135656e-06 6.401321e-07 9.856827e-07 1.1578606e-05 3.708603e-07 3.0859458e-06 2.9350957e-07
2.7083291e-09 2.2724364e-06 6.867896e-11 2.0901667e-05 1.2727118e-06 7.1152335e-06 8.6516076e-07 1.1950415e-06
2.6686084e-07 1.8425272e-06 1.2470879e-06 5.1431104e-09 4.8020013e-07 3.8894956e-07 5.4169022e-06 4.4574326e-06
