results/move_test_1/Boss/Boss-10268.onnx (onnx, 75574 bytes, 7 tensors)

network_body._body_endoder.seq_layers.0.weight f4 [128, 7]
00000000: caa1 3b3e 3e51 803e 46ed 49bf 7537 663e
00000010: 0a57 26be 7bb8 2fbe 9a18 8ebf 6fa0 253e
00000020: 51a6 e6bd 18c4 f1be 7da1 4fbe 2410 ebbe
00000030: b640 23bc b8d9 a53c b91c 973e 75c4 753e
00000040: c2b1 5b3e 3645 383c 0b3a 053e c402 e13d
00000050: 3cce 483e 9db7 0f3f d5f5 cebb a258 4d3d
00000060: c903 bebe 8785 b73e 7cbf a4bd 8400 febd
00000070: e843 a03e cd12 82bd 475d 2a3e c3e1 8f3f
00000080: 8a9c 68bf f0e9 b73e 596d 22be 03e4 873d
00000090: 1468 173d 04b9 283e ccf5 0a3f a23c 9a3c
000000a0: 2655 e73d 8eef b43e cb33 b53e 9972 bc3c
000000b0: b78f 17bf b9d1 41bd 2e72 2f3e 91e6 26bf
000000c0: fa62 b2be 77b7 543e 9a25 b6be 5bfe 6cbe
000000d0: 0acd ce3a 6e72 a53e 6d23 0abe 0d97 c53e
000000e0: 2337 a9be 75fc a63e 5e78 ed3d 0756 7c3d
000000f0: aabe 893e 1ddf 84bf f90c 143e 71a9 ff3d
00000100: 7f26 2ebf 45d8 a83d fb45 7abe 127e bebd
00000110: 5150 823d 1b5a 80be b7fe 1a3d 5520 e6bd
00000120: 83ce 703e 2c7a e5bd 99ff e6bd b322 2b3e
00000130: 39b8 d0be 5ad5 bfbe 057b 1e3e b290 e7be
00000140: 57fc c43c f2a9 903e 312f 24be 403d 6fbe
00000150: 888d 3bbe 0e4b 22be 8979 e03e 40e3 b23e
00000160: 84ad bf3e 53a5 ba3e fa94 a8bf 05b8 cc3e
00000170: 92d9 a5be aba5 453f 07e8 a9bd a847 113c
00000180: 0488 073f 0edc 72be 7bba 023f 0a8f 2abf
00000190: ded5 2dbf 887c c0be 9a9e a2be d4cf a3bd
000001a0: 5209 dfbd 1149 c33e d861 8bbd dc54 bdbe
000001b0: dfa1 103e fcd2 24be 801b b93e 1fd8 313e
000001c0: 5d8b 873e 50b0 1dbf 6fbe 143e df68 543e
000001d0: 71e4 b53d 6984 c2be c407 b5be 9242 403e
000001e0: 26a4 a9be 8c45 8b3e a60a e33e 39c8 2dbd
000001f0: 09ab 223f 0cc9 a23e 379e 1f3e 8a2c 243f
00000200: 3895 65bc 5865 d53c 3d4e 83be 59af 82be
00000210: 69c2 52be 5c57 1e3c 80d1 edbd c331 98be
00000220: a054 f9bc f568 303e 0873 33bd 6cf6 9e3d
00000230: 3297 ba3e 963b 283e fa0c 383f 5a03 89be
00000240: f7db 023f 236f 02be 71a7 a6be f303 d8bd
00000250: 0bc3 a53d 6782 cd3e 2bcf cb3d b9da 73be
00000260: b652 cbbe d2c9 223e 66d9 73be 586b 3b3f
00000270: e146 99bd b9ad ebbe a3b0 d8be 4a0b 6d3e
00000280: 121c 47be a741 093f a497 46be d55a 24be
00000290: 26cc a3be bfdb 42be cfd7 b1be 7ae1 85be
000002a0: 585e e33e a26d bfbd b24b 8cbe c75a a43d
000002b0: 9b1d efbe 5fe6 56bd 2316 563e 3960 a13e
000002c0: 3485 273f 498b 0d3e 6594 bcbe 722d 85be
000002d0: 9f50 123f c27f 643e 4c0f f5bd 327b 9e3e
000002e0: 693a f3be ccd7 463f 043b 173f 79bf 07be
000002f0: f9af 10bf 39f3 c43e bb5e af3b e708 f3be
00000300: 0e61 11bf 2b29 a13e 5dfc f2be 7a5b 933e
00000310: 950c 203e 7d56 173f ad91 803e 92dd 8ebe
00000320: 7fb8 953e 0c89 a43e 19bc a4be b2a6 e13c
00000330: 3d99 38bf 29e4 4e3e b49e 19bf 5923 be3e
00000340: 87ee 03bb 0284 303f 306a 693e 6e41 b43d
00000350: 3271 0c3f 81c2 01bf 78cb 28be 2d3d 91be
00000360: 26e7 9fbe 6cb7 47be de2e b53f c986 c33e
00000370: 1321 22be 9e1e ed3e e3a2 c93e 1a13 143f
00000380: 1e9f aebe 09de 8f3e 8426 2a3f e3fc 083e
00000390: 9a2a b0be 481c 9f3e 71ba ebbe 2f02 acbe
000003a0: d957 01bd 0004 fcbd 5448 8c3e 0166 45bf
000003b0: fca8 993e 325d dbbc 7a8a f43d 2815 97be
000003c0: 0f0a 40bf 0356 313f c1b6 b2be 7d96 113f
000003d0: 225f 523e 8bc9 52bf 6e2d 673c 452e 02bf
000003e0: dc41 f3be 2af5 01bd 411f c03e 0495 eebd
000003f0: b981 2fbf 6388 a03e 3b97 fe3e b27e b43d
0.18323436 0.25061983 -0.78877676 0.22482093 -0.1624414 -0.17160217 -1.1101258 0.16174482
-0.11262191 -0.4721992 -0.20276447 -0.45910752 -0.009964159 0.020245418 0.295141 0.24000724
0.21454528 0.01124697 0.13010423 0.109868556 0.19609922 0.56139547 -0.0063159266 0.050133355
-0.37112263 0.3584406 -0.08044335 -0.12402442 0.31301808 -0.06351242 0.16637145 1.1240772
-0.9086386 0.35920668 -0.15862025 0.06635287 0.03696449 0.16476828 0.54281306 0.01882774
0.11295538 0.35339016 0.35391077 0.023003863 -0.59203666 -0.047319148 0.171334 -0.65195566
-0.34841138 0.20773111 -0.35575563 -0.23143904 0.0015777659 0.32313865 -0.13490076 0.38591805
-0.33049878 0.32614484 0.11595224 0.06160548 0.26903278 -1.0380589 0.14458074 0.1248349
-0.6802749 0.08244375 -0.24440758 -0.0930139 0.063629754 -0.25068745 0.03784057 -0.112366356
0.23516278 -0.11204943 -0.1127922 0.16712455 -0.4076555 -0.37467462 0.15476616 -0.4522758
0.024046106 0.28254658 -0.16033627 -0.23363209 -0.18315709 -0.15848944 0.43842724 0.34939003
0.3743707 0.36454257 -1.3170464 0.39984146 -0.32392555 0.77205914 -0.08296209 0.008867182
0.5294192 -0.23716757 0.51065797 -0.6662451 -0.6790446 -0.3759501 -0.31761628 -0.079986244
-0.108904496 0.38141683 -0.068057716 -0.36978805 0.14124249 -0.16096109 0.36153793 0.173676
0.26473513 -0.61597157 0.1452577 0.2074313 0.08881462 -0.37991646 -0.35357487 0.18775395
-0.33133048 0.27201498 0.44344062 -0.042427275 0.6354223 0.31794012 0.15587698 0.6413046
-0.014012627 0.026049301 -0.2564563 -0.25524405 -0.20581974 0.009664383 -0.116122246 -0.29725465
-0.03043586 0.17227538 -0.043810874 0.07761845 0.36443478 0.1642898 0.718948 -0.2676037
0.5111689 -0.12737708 -0.32549623 -0.10547628 0.08093842 0.40138552 0.099516235 -0.23813905
-0.3971154 0.15897301 -0.238134 0.7321067 -0.07484222 -0.46030977 -0.42322263 0.23148838
-0.19444302 0.536158 -0.19393784 -0.16050275 -0.3199169 -0.19029139 -0.3473496 -0.26148587
0.44407916 -0.09347083 -0.274015 0.08025127 -0.46702275 -0.052465793 0.20906882 0.31518725
0.65437627 0.13822664 -0.36831966 -0.26011235 0.5715427 0.2231436 -0.11965808 0.30953366
-0.475055 0.7767303 0.59074426 -0.13256635 -0.5651851 0.38466814 0.005351869 -0.4746773
-0.5678872 0.3147672 -0.47458163 0.2878073 0.156298 0.59116346 0.25111142 -0.2790342
0.29242322 0.32135808 -0.32174757 0.027545307 -0.72108823 0.20204224 -0.60007787 0.37136343
-0.0020131187 0.6895143 0.22794414 0.08801542 0.5486022 -0.50687414 -0.16483867 -0.28366986
-0.3123104 -0.19503564 1.4154928 0.3818877 -0.1583293 0.46312422 0.39382085 0.57841647
-0.34105772 0.28099087 0.6646502 0.13377719 -0.34407502 0.31076264 -0.4604068 -0.33595416
-0.03157792 -0.123054504 0.27398932 -0.7710877 0.30011737 -0.026777837 0.11940475 -0.29508328
-0.7501535 0.6927187 -0.34905055 0.5687025 0.20544103 -0.8233878 0.014109952 -0.5085185
-0.47511184 -0.031727947 0.37523845 -0.11649516 -0.68557316 0.31354055 0.49724755 0.08813228

network_body._body_endoder.seq_layers.0.bias f4 [128]
00000000: d81d 1f3b 95a7 bab8 080b e2b9 ac1a 04ba
00000010: 3b7a 683a 2e7c bd38 f356 f6b9 e05e c539
00000020: ab0e 1fba 6fcb c937 86ee 87b9 12a4 48b7
00000030: 12cb 5fb9 2cb7 3bba 80e9 d134 1e71 7c3a
00000040: 3e7d 8d38 5438 0aba 81e6 e0b9 a3f5 ab39
00000050: bb78 37ba fa6e f0ba e6c0 b8b8 0820 1f38
00000060: 6e6d a2b9 789c 07ba 19ac f4b8 e1e5 2939
00000070: d9ca e638 ef24 f7b9 9f09 cdb9 6e18 96ba
00000080: eeb4 ce3a 905b 03b9 edd3 3e39 3409 e838
00000090: 3d2b ddb6 90d7 5739 b7a8 77b9 ea4a 12b8
000000a0: 8e9d 8cb9 3948 a738 c3f7 9139 761b 3739
000000b0: 6a5c 68b9 c821 00ba 456f dcb9 2acd bc37
000000c0: ee6b 4039 0c39 7539 e451 2fb9 b9ff 0739
000000d0: 43a8 9239 0f4b cab9 76cf ee39 5560 f3b8
000000e0: 925b 0dba d92c ccb9 c8ee 05bb 6c18 073a
000000f0: 7df3 47b9 a732 963a cf5d 0d3a 2884 adb8
00000100: 6ac5 4cba 04d0 093a b4a2 80b8 3e8b c3b9
00000110: d22c 9cb9 e9ba 15b8 861b 22ba 0b89 2f39
00000120: 89b2 6b39 f72c 20ba df5d 5dba a876 94ba
00000130: cb76 6039 fc4e 0f3a 23bc ea39 bb88 63b9
00000140: f236 a7ba 3dee cc39 1e18 38b9 c46b a4b9
00000150: 3855 5eba 4838 d9ba b45e 8ebb 4a68 6bb8
00000160: b206 9039 8e37 a539 07a0 8139 fc0f 05b9
00000170: 02ef e2b9 46e1 a839 be48 1dba 1df2 7139
00000180: a1d3 10ba f680 17bb 230a 1d3b c0bf 30ba
00000190: 8fdb e1b9 32a1 97b9 e792 473b 59d2 9d38
000001a0: 24a4 3339 2cd1 d3ba d1b9 54ba 37e0 9fb9
000001b0: d52c 1a3a 34f3 e1ba d75b bdb9 6a3b 13bb
000001c0: ad68 b839 5846 d8b8 0dc3 feb8 2d29 b1b9
000001d0: ea31 a1b9 ba2d 7eba 4a9a d639 bb7a 0639
000001e0: d301 78b9 512e 5eba d86e 74b9 96f6 cfb8
000001f0: 9c77 48b9 c5c7 04b9 39c3 b6b9 d153 0038
0.0024279263 -8.900386e-05 -0.00043114298 -0.0005039375 0.00088683114 9.0353526e-05 -0.0004698556 0.00037645455
-0.00060675544 2.4055798e-05 -0.0002592692 -1.195913e-05 -0.00021342587 -0.00071607786 3.9099177e-07 0.0009629893
6.746732e-05 -0.0005272676 -0.00042896348 0.00032798675 -0.0006998886 -0.001834362 -8.809734e-05 3.7938386e-05
-0.0003098058 -0.0005173157 -0.00011666882 0.00016202733 0.00011005038 -0.0004713903 -0.00039107815 -0.0011451372
0.0015770474 -0.00012527243 0.0001819876 0.00011064336 -6.591347e-06 0.00020584301 -0.00023618607 -3.487888e-05
-0.00026820268 7.976633e-05 0.00027841152 0.0001746247 -0.00022159671 -0.00048878463 -0.00042044572 2.2506883e-05
0.00018350754 0.00023386272 -0.00016719807 0.00012969867 0.00027972655 -0.00038584365 0.00045549468 -0.00011605086
-0.0005392368 -0.00038943326 -0.0020436514 0.00051534805 -0.00019068825 0.0011459187 0.0005392702 -8.273899e-05
-0.00078113994 0.0005257132 -6.1338214e-05 -0.00037297042 -0.00029788032 -3.5698442e-05 -0.0006183911 0.00016740353
0.00022477856 -0.0006110216 -0.0008444469 -0.0011326866 0.00021406559 0.00054667867 0.0004477213 -0.00021699343
-0.0012757464 0.00039087413 -0.00017556592 -0.0003136081 -0.00084813265 -0.0016572559 -0.0043447856 -5.6125493e-05
0.0002747081 0.00031512644 0.00024724027 -0.00012689823 -0.00043284154 0.000322113 -0.0005999914 0.00023073745
-0.0005524699 -0.0023117638 0.002396234 -0.000674244 -0.00043078928 -0.00028921064 0.003045255 7.525524e-05
0.00017131917 -0.001616036 -0.0008114847 -0.00030493896 0.0005881314 -0.0017238618 -0.00036117315 -0.0022465833
0.00035173204 -0.00010312785 -0.00012147995 -0.0003379075 -0.00030745502 -0.0009696145 0.00040932215 0.00012824957
-0.00023651803 -0.00084755296 -0.00023310946 -9.9164594e-05 -0.00019118044 -0.00012662921 -0.00034859197 3.059564e-05

network_body._body_endoder.seq_layers.2.weight f4 [128, 128]
00000000: 7702 15bc 9cf9 55bc 3c15 1abd ead2 9a3c
00000010: df4a 9cbd 8302 0c3e a4d5 d4bc cddf 0d3d
00000020: 9b21 83bd 9ea3 703c e541 803d e534 0ebe
00000030: 834b b6bc a433 81bd 6c52 373e e39d 37be
00000040: 6707 99bd 1fd3 c33c 6c9e 00be daa5 f33c
00000050: f580 ce3c 1db3 a83c a569 943d 6270 733d
00000060: 8113 ae3c 7fb8 1c3d b50e 1fbe 54a9 a33d
00000070: 73ee 79bc ed93 633d 205a 3bbd 3270 d5bd
00000080: 84cd 8e3b 3581 1bbc d252 a4bd f8d8 ac3d
00000090: 8098 36be 04cf 633c 49f3 80bd 5a4c b2bd
000000a0: cf35 733c c2ed e2bd 5b62 303d e367 a83d
000000b0: a47d 6b3d a8e5 b4bd 3d97 f0bd a5e5 083e
000000c0: 5319 9abd e48d 48bd ff81 a23d 8b02 cb3d
000000d0: 7f37 85bd 31f8 a0bc 8558 8dbd 1b8c 01be
000000e0: ed52 003e 0751 8a3d ed3a 83bd 7b0c de3c
000000f0: ff49 18bd 2bd5 18bb c1b1 6b3d ae34 d03d
00000100: 8e45 883d 194d bb3c fa2e 543e 9690 a6bd
00000110: 76d3 0abc 1362 10be 13d8 563d 7beb 7cbd
00000120: 3054 5e3d d56e 01bd 3d87 cdbb d839 403e
00000130: 6f54 293e 3f2d 993d 8714 c93d ba4c 2dbd
00000140: 4c9f ccbd d277 8c3d 8f7e 4fbd b20d a93a
00000150: 7c7e 3f3d 3b52 d6bb 728b 26bd 0b33 e33c
00000160: a2d9 763e 5768 8b3d d41e b5bb bed6 2fbc
00000170: ce1c e8bd ee47 52bd c9ae 33bd 7aa3 af3d
00000180: 53dc 08bc 3851 ac3d cdfa ad3c 9e50 3e3d
00000190: b646 c4bd 5c6b 6bbc 5ed0 8abd 0f2e 5cbc
000001a0: d096 473d d46b d43c 93d9 363e 53e2 33bd
000001b0: cdfe 0f3c f314 5ebd ce12 cbbd 3375 60bd
000001c0: d271 343e 4545 b33d b090 cf3c cebb 77bc
000001d0: 5dec baba 4bb8 563e 5000 873d 753a 0d3d
000001e0: 8290 5abc 5d11 953c 5ee0 8a3d 5f1f 133e
000001f0: 5815 a93b ad10 fd3b c688 1b3d 9ae3 d23d
00000200: fe17 1cbd cfbb 93bd 85b1 e73b 792c 43bd
00000210: d53e 8b3c 220e c1bd 15ea c93d 770e e9bd
00000220: 02e5 cabd 80d2 c33d 1566 2bbe f223 a6bb
00000230: be08 9e3c 3eb8 c13c 57d4 903d 54fa 9e3c
00000240: 10cf f03d b71b cabc 2d18 cd3d 1278 e63d
00000250: a5f3 8abe 1d73 dd3d baf9 c53d 039e cfbc
00000260: e5c9 8e3d 15f3 1a3e d575 cabb 5ff6 27bd
00000270: 5d13 a63d 209b b2bc 3f71 58bd 0682 e3bd
00000280: ca11 6cbd 1e05 b53d 0f41 29bc 9878 2cbd
00000290: 4710 24ba dff1 fbbd 6faa 1d3d 320d bcbd
000002a0: 5f4b 24be 97e9 9bbd 5657 b0bb ec55 563d
000002b0: cfff 0bbe 4505 823d c044 ebbd cdbb 80bd
000002c0: ef3a 423e 5789 8cbc 1d2e b53c 7027 3a3e
000002d0: f2bf 01be 009a b23c b49d a53c adb0 5d3e
000002e0: 0c19 bbbd c246 14bd bb58 923d edd7 ec3c
000002f0: 924f 593d 4229 533e 23fb b23d 4805 113e
00000300: 740b b8bd 433b 68bd c45c 1e3e c322 76bc
00000310: b250 213c 4acb 0b3e c6b7 613c 5c8f ccbd
00000320: c39d 4e3d 385d 133e 3581 a43d fe40 1cbd
00000330: 9634 02be e7c5 f23d ea68 433d 768e e13d
00000340: 1187 863c 37f6 4cbd 707f 2f3d 8485 32bc
00000350: 6257 5f3d 4ba9 3c3e e6d6 ab3d cb9e 293d
00000360: f4ad 30bd 8e26 813d a695 4abd df49 07be
00000370: e3db c93c d06b 58bd 370b 8c3d 121b 2ebe
00000380: a793 cbbd 624d 433d 7d4f b7bd ce07 313d
00000390: 9510 483d 4f2b 243e e3a6 ddbd 180e a9bb
000003a0: 11de 1c3e a005 f1bb 9068 f4bd 358c 87bd
000003b0: 5ae3 a3bc 7ab2 343d 6834 433d 5dd6 01bd
000003c0: f1ca 4f3d 12f0 803d 8f08 12bd 4c9e 1d3e
000003d0: 1d9c 713d e836 27bd 9a07 86bd 80c8 8c3c
000003e0: e55e 03bd ace6 89bc 7c17 41bd e7c0 1dbe
000003f0: c3a3 a13c e61a cd3d 0414 9dbc 7b0e 893d
-0.009094826 -0.01306 -0.037617907 0.0188994 -0.07631468 0.13672833 -0.025980778 0.03463726
-0.06402894 0.014687447 0.062625684 -0.13887365 -0.022252804 -0.06308678 0.17902535 -0.17931323
-0.07472115 0.023904381 -0.12560433 0.02974217 0.025207976 0.02059322 0.072467126 0.05943335
0.021249535 0.038261887 -0.15532954 0.07991281 -0.015254605 0.055560995 -0.045740247 -0.1042179
0.0043579955 -0.009491255 -0.08023609 0.08439821 -0.17831612 0.013904337 -0.06296403 -0.08705969
0.014844372 -0.11080505 0.04306255 0.0822294 0.057492867 -0.08832866 -0.117475964 0.13368852
-0.075243615 -0.048963442 0.07934951 0.099125944 -0.06504726 -0.019649597 -0.069016494 -0.12651102
0.12531634 0.06753736 -0.064077236 0.02710556 -0.037179943 -0.0023320417 0.057542566 0.10166298
0.066538915 0.022863911 0.20721045 -0.08133046 -0.008473268 -0.14099912 0.05245216 -0.06174801
0.054279506 -0.03159984 -0.006272225 0.18772066 0.16536115 0.07479333 0.098183684 -0.0423095
-0.09991321 0.068587914 -0.050657805 0.0012897758 0.046751484 -0.0065405644 -0.04066033 0.0277343
0.24106458 0.068070106 -0.0055273566 -0.010732351 -0.11333619 -0.05133813 -0.04386786 0.085761026
-0.008353311 0.08413929 0.021237755 0.0464636 -0.095837995 -0.014368858 -0.06778024 -0.013438716
0.04872781 0.025930323 0.17856435 -0.04391701 0.008788777 -0.054219197 -0.09915696 -0.05479927
0.17621544 0.087534465 0.025337547 -0.01512046 -0.0014261116 0.2096874 0.065918565 0.034479577
-0.013340117 0.018196756 0.06781076 0.14367436 0.005160015 0.007722935 0.037972234 0.10297318
-0.03810882 -0.07213556 0.0070707225 -0.047649834 0.016997734 -0.09426524 0.09859101 -0.11379712
-0.09906961 0.09561634 -0.1673816 -0.005070203 0.019291278 0.023647424 0.070717506 0.019406475
0.11758244 -0.024671419 0.10014377 0.1125337 -0.2713901 0.10812972 0.09666772 -0.0253439
0.06972102 0.15131791 -0.0061785975 -0.041006442 0.08109162 -0.021802485 -0.052842375 -0.111087844
-0.057634152 0.08838867 -0.010330453 -0.042107195 -0.0006258529 -0.123019926 0.038492616 -0.09182204
-0.16044377 -0.07612913 -0.005381505 0.052328035 -0.13671802 0.06348661 -0.114877224 -0.0628582
0.18967794 -0.017155332 0.022116715 0.18179107 -0.12670878 0.021801949 0.0202168 0.21649428
-0.09135637 -0.036200292 0.0714583 0.028911555 0.0530544 0.20621207 0.08739307 0.14162171
-0.089865595 -0.05669714 0.15465075 -0.015022936 0.009845899 0.13651767 0.013776725 -0.09988281
0.050443422 0.14391029 0.08032457 -0.03814792 -0.12715372 0.11854153 0.047707476 0.110135004
0.016421827 -0.050039496 0.042846143 -0.01089609 0.054526694 0.18423955 0.08390598 0.041411202
-0.043134645 0.06306182 -0.049459122 -0.13211773 0.024640983 -0.052837193 0.068380766 -0.17002514
-0.09940272 0.04768122 -0.08950708 0.043220334 0.04884394 0.16032146 -0.10822847 -0.005159151
0.15319087 -0.007355407 -0.11934006 -0.06618539 -0.02000587 0.04411552 0.0476574 -0.031698573
0.05073065 0.0629579 -0.035652693 0.15392417 0.05898677 -0.040823847 -0.06544419 0.01718545
-0.03207292 -0.016833626 -0.047141537 -0.15405618 0.019731408 0.10014896 -0.019174583 0.06692215

network_body._body_endoder.seq_layers.2.bias f4 [128]
00000000: b725 88b9 101c c439 3c0b d8b9 a0b8 dcb9
00000010: 3692 95b9 deba 0c39 e0c7 7a37 e629 59ba
00000020: 3d16 3b36 0038 5038 6857 8ab9 331a 2c35
00000030: 28d8 2bba bc44 e139 92e3 1138 c396 a7b9
00000040: c299 06ba 9180 4639 ca32 c0b9 fbbf 87b9
00000050: 146a d5b9 f101 8eb9 850f 8ab9 4b99 443a
00000060: fa04 9e3a d9b6 6fb9 ccec d5b9 7914 da38
00000070: 76ee 39b9 c557 6839 ab31 80b9 a76c c839
00000080: bb41 28ba 4371 7db9 e646 a7b9 176e bbb9
00000090: e9f9 45b9 c38d 94b8 3f84 c6b9 5d97 25ba
000000a0: 224b a7b9 b5f3 b1b7 2c35 1b39 6737 cc3a
000000b0: 101d 0cbb 681a 69b9 a20b 55b9 d4f9 2eb9
000000c0: c4f3 383a 8913 74b9 0e8f d937 3642 15ba
000000d0: d5d9 69b9 d29a e5b9 a95d 4cb8 1920 6b38
000000e0: 3bca 65b9 7fcc 8e39 18b1 6438 43f5 42ba
000000f0: 1a68 98b9 6a49 f93a c57f c3b9 8981 22b6
00000100: b9b2 dbb9 7b2a c439 f7df 44b9 88b5 0a3b
00000110: 9832 8cba 3856 8938 19f4 4038 28b1 ab38
00000120: c707 1539 6c74 b8b9 545a afb9 b07e 9138
00000130: f7b5 5a3a d023 8038 da85 3339 159b d5b8
00000140: 922c 0bb8 0881 06ba 8335 21ba 04d7 a038
00000150: e29a 9c39 4b5e 0eb9 c1c1 f9ba f367 b238
00000160: 5ba8 8eb9 8b20 9539 7946 0538 2d03 c1b9
00000170: 488a bbb8 9b32 9db9 1ee5 31ba ea24 c7ba
00000180: 265a 93b9 1ce7 aa39 9d26 1339 6116 053a
00000190: 971b 32b8 8b8f 15ba 69c2 1eb9 687e 8aba
000001a0: 51e0 74b9 5b16 56b7 6a9d 12ba 2645 2eba
000001b0: dac2 9bb9 8c8b 89b9 b91f 28ba f071 ac39
000001c0: 9d94 853a a800 a938 113f f5b8 f5ed 4bb9
000001d0: b34b b439 a168 5a38 5bef 3839 58ee a239
000001e0: a666 67bb b46d dbb9 08e7 6438 f43c 5ab9
000001f0: c550 c6b9 6f68 2eba a42c 1bba 6706 23b9
-0.0002596804 0.0003740494 -0.000412071 -0.00042099226 -0.0002852843 0.00013421054 1.4947698e-05 -0.00082841364
2.7878116e-06 4.964322e-05 -0.00026386534 6.411312e-07 -0.0006555342 0.00042966555 3.4782635e-05 -0.00031965048
-0.0005134606 0.00018930646 -0.00036658935 -0.00025892243 -0.0004070556 -0.00027085797 -0.00026332974 0.0007499649
0.0012055926 -0.00022860932 -0.00040802953 0.000103988634 -0.00017731808 0.00022157941 -0.00024451068 0.00038227925
-0.0006418486 -0.00024170153 -0.00031905546 -0.00035749443 -0.00018880483 -7.083595e-05 -0.00037864034 -0.00063168054
-0.000319087 -2.121353e-05 0.0001480176 0.0015580476 -0.0021379627 -0.00022230449 -0.00020317596 -0.00016687001
0.0007055367 -0.00023276931 2.593503e-05 -0.0005693765 -0.0002230176 -0.00043793634 -4.8724618e-05 5.605826e-05
-0.00021914479 0.00027236712 5.4524367e-05 -0.00074370595 -0.0002906926 0.0019019071 -0.00037288494 -2.421528e-06
-0.00041904094 0.00037415684 -0.0001877545 0.002116533 -0.001069623 6.5487286e-05 4.60037e-05 8.186913e-05
0.00014212645 -0.00035181956 -0.000334459 6.937736e-05 0.0008343155 6.110186e-05 0.00017120634 -0.00010185518
-3.3181692e-05 -0.00051309215 -0.00061496365 7.669444e-05 0.00029870035 -0.00013577302 -0.0019054936 8.5070635e-05
-0.00027209785 0.0002844374 3.1775304e-05 -0.00036814195 -8.942612e-05 -0.00029983078 -0.0006786155 -0.0015193496
-0.0002810519 0.00032597117 0.00014033397 0.0005076882 -4.2464202e-05 -0.00057052885 -0.00015140478 -0.0010566236
-0.00023353218 -1.2760599e-05 -0.00055929145 -0.0006647877 -0.0002970908 -0.00026234647 -0.00064134185 0.00032891287
0.0010191385 8.05867e-05 -0.000116942574 -0.00019448235 0.00034388676 5.2072694e-05 0.00017636774 0.00031076628
-0.0035308986 -0.0004185267 5.45746e-05 -0.00020812807 -0.0003782568 -0.0006653135 -0.0005919433 -0.00015547276

action_model._continuous_distribution.log_sigma f4 [1, 2]
00000000: cfd6 8dba a92e f9ba
-0.0010821464 -0.0019011098

action_model._continuous_distribution.mu.weight f4 [2, 128]
00000000: 4a9a 7e3c 0dc7 a63c 92ca 9e3c 4d5c 1d3c
00000010: 5776 863b 3c76 2dbd dfc5 a8bb 3dad d5bb
00000020: 6efe ad3b bfc9 a2bb 549f 313c 160b 463c
00000030: cb92 16bd 89b8 2a3c f056 d73b 5706 ac3a
00000040: 54bb a13c 9125 d9bc 64d4 63bc d472 683c
00000050: 47ab edbc cb20 503c d6e9 86bc 5b8f 1b3c
00000060: 9a96 ccbb a282 c7bc 1e8d 84bc 3999 073c
00000070: 8ed6 13bc 4da7 aa3c 90af c4bc 8b07 3dbd
00000080: e514 ba3c 9ba8 35bc 01b9 3dbb 3f35 b63c
00000090: 1efb 5cbb be21 2fbc ea5e 313c 1369 b13b
000000a0: 9b2e 4d3c 80a4 273c e331 51bc 9195 8bbb
000000b0: 8e2d 5bbc 6b9e f9bb 6787 063b a020 d6bb
000000c0: f5bf 42b9 3dfb cfbb 7a53 383b 2013 4ebb
000000d0: 1fb5 74bc 9d8f 3639 83e6 2e3c 0cd2 20bc
000000e0: 2ce1 ecbb bb34 923b 7d03 7f3b bd75 44bb
000000f0: b99d 183c 018c 883c 5804 b03b 9216 323c
00000100: 2754 fe3c 3720 b43c 62cc 91bc 1e19 223c
00000110: bb7d db3c b3ce 2e3d 4ba1 b93b c785 72bc
00000120: 860e 2abd 4ae8 8abb e7e3 b73c 9e4e bfbb
00000130: b540 bd3c 3395 23bc 5488 b8bc c34d 483c
00000140: 4de0 e93a b5f8 11bc d701 af3c e295 bbbc
00000150: a10e 86bc 9f1f 413c 9366 f3ba 8065 f33a
00000160: 4573 113b 2294 103c 30ea 423c 374c cebc
00000170: bbff 2bbc 02c6 2bbc 9e22 d2bc 4aaa 883c
00000180: 13c1 fd3c 28da 0a3c 67dd 95bb a75c 163d
00000190: 23fc 72bb 5f0c 7f3c 3490 4cba 3c5f 20bc
000001a0: 9912 93bc ddf7 b8bb e070 91bc 2672 293c
000001b0: caf7 eebb 76db 233c 164b 263c d8d1 13bd
000001c0: f646 37bc d97d d73c 5af6 09bd 6442 883c
000001d0: 7373 9ebc 8c9c fabb 3c40 0cbd 7796 d83c
000001e0: c9fa e43b 30ce 1cbc 3d72 013c e90a f53b
000001f0: 6054 38bc 72f6 1ebd 2af6 a83c 54b8 d3bc
00000200: cdbb ad3c a9eb 28bd 3e41 303a f512 d33a
00000210: 0759 603c 8177 1bbb a252 a23c 47fc f8ba
00000220: 25b0 973c 3a8f e8bc ef14 053c 9394 883c
00000230: 2d93 23bd c72c 213c 25dd 943c 4671 11bc
00000240: 3f19 c73b 93ea ec3b 08b5 853b e415 48bc
00000250: 9133 023c ae37 fcbb a0fb 8e3b 9f86 1a3c
00000260: c451 1bbb 26d8 5f3c 2bb1 b83b 5c45 cbbb
00000270: 8a22 103c 4268 2a3a 1125 4d3c c93f 033c
00000280: 27ec 4d3c 54d0 afbc 558d d03c f1c6 e7ba
00000290: 4e1f 40bd bbed c8bc 3b98 cebb a79f afbb
000002a0: 4f40 bf3c c2f4 993c cd65 b53b c7a9 993b
000002b0: 469c d23b 4ac5 bc3b 9d8b 29bd 4283 22bd
000002c0: 88bb a83c 28a4 debc 18de 843c bc82 cdbb
000002d0: 7fde 91bc c62b f63c cae3 413c b918 ac3c
000002e0: df43 fbbc 2dbd cc3c b8bb da3c 4554 733a
000002f0: 1239 69bc 92b3 9a3c 8550 01bc 466d 733c
00000300: b275 c9bc a733 92bc 6a02 04bd 1feb 233c
00000310: 3c8a b9bb 703d b5ba 5315 9f3c 1e18 893c
00000320: 3f90 8f3b bab7 b8bc 3915 7bbc a688 ac3c
00000330: 958d 37bb c180 943c 88e0 953c 71ad 553b
00000340: 6fc6 623c db76 b2b9 379a fa3b adb0 84bb
00000350: 5003 63bc d2f5 ad3c bf7d 52b9 d5fb 0e3a
00000360: fc33 61bc a890 b13b 5589 a73c f814 953c
00000370: c4b9 583c aa7c 9cbc db56 8dbc 7419 b83c
00000380: 65a5 58bc 5fa2 30bc a44e 75bb 56da c4ba
00000390: 37b4 5239 bc28 35bc 1410 a43c 4971 80bc
000003a0: 701d 97bc f9de 023c b13d e9bb 7efa d23b
000003b0: 466d 6bbc d29d 59bc 36d1 8a3c 8b1d 93ba
000003c0: 06c1 bbba 1690 71b9 7032 98bc b72d c6bc
000003d0: 1555 7f3c 4e7c 8e3c 63a5 b03c 21c7 b9bb
000003e0: 9c01 9e3b d9c6 773c a4c9 bcbb bdd4 f9bb
000003f0: fabe 03bb d4f0 1dbd 6a0e 923c 47b2 e8bc
0.015539715 0.020358587 0.019383702 0.009604526 0.0041034627 -0.042349085 -0.005150541 -0.0065208958
0.0053098714 -0.0049678977 0.010841209 0.012087604 -0.036761086 0.010419973 0.006571643 0.0013124448
0.019742645 -0.02650717 -0.013905618 0.014187533 -0.029012335 0.012703131 -0.016468924 0.009494628
-0.006243539 -0.024354283 -0.016180571 0.008276277 -0.009023322 0.020831728 -0.024009496 -0.04614977
0.022715041 -0.011087562 -0.0028949382 0.022242187 -0.0033719013 -0.010689197 0.010825852 0.005414137
0.012523319 0.010232091 -0.012768242 -0.004259773 -0.01337756 -0.007617762 0.0020527483 -0.006534651
-0.00018572791 -0.0063470886 0.0028125928 -0.0031444505 -0.014935761 0.00017410373 0.010675075 -0.009815704
-0.007228991 0.0044618524 0.0038911991 -0.0029977404 0.009314948 0.016668322 0.0053716116 0.010869639
0.031045986 0.021988017 -0.017797653 0.009893684 0.026793351 0.042677592 0.0056649796 -0.014802403
-0.041517757 -0.004239117 0.02244754 -0.0058382293 0.023102144 -0.009984302 -0.022525944 0.012225571
0.0017843336 -0.008909394 0.021363182 -0.022898618 -0.016364397 0.011787324 -0.0018569998 0.0018569678
0.002219395 0.00882438 0.011896655 -0.025182826 -0.010497983 -0.01048422 -0.025651272 0.016682763
0.030975854 0.008474864 -0.0045735124 0.036709454 -0.0037076555 0.015566914 -0.00078034704 -0.009788331
-0.017953204 -0.005644782 -0.017754018 0.0103421565 -0.0072927224 0.010001054 0.010149738 -0.036088794
-0.011186352 0.026305126 -0.033682205 0.01663322 -0.01934216 -0.0076480564 -0.034240946 0.026438935
0.0069879037 -0.009570643 0.007900772 0.007478107 -0.011250585 -0.038809247 0.020625193 -0.02584473
0.021207714 -0.041240368 0.0006723589 0.0016103672 0.013693101 -0.0023722353 0.019814793 -0.0018996083
0.01851661 -0.028388608 0.008122667 0.016672408 -0.03993528 0.009837336 0.018171856 -0.008877104
0.0060760076 0.007230112 0.0040804185 -0.01221225 0.007946865 -0.007697067 0.004363492 0.00943151
-0.002369986 0.013662374 0.0056363544 -0.0062033366 0.008797297 0.0006500521 0.012521044 0.008010813
0.01256851 -0.021461643 0.025458017 -0.001768319 -0.046904854 -0.024527421 -0.0063047684 -0.005359608
0.023346094 0.018793467 0.0055358172 0.0046894285 0.0064273207 0.0057608234 -0.04139291 -0.03967596
0.020597234 -0.027177885 0.016219184 -0.0062716883 -0.01780629 0.03005017 0.011834094 0.021007882
-0.030672012 0.02499255 0.02670084 0.00092822715 -0.014234798 0.018884454 -0.0078927325 0.014857596
-0.024592254 -0.017846895 -0.032228865 0.010004788 -0.005662231 -0.0013827514 0.019419348 0.016735133
0.004381209 -0.022548545 -0.015324884 0.021061253 -0.0028007973 0.0181278 0.018295541 0.00326046
0.013841256 -0.0003403936 0.0076477784 -0.0040493817 -0.01385577 0.02123538 -0.00020074005 0.0005454396
-0.013745304 0.0054188557 0.020451227 0.018198475 0.013227884 -0.019102413 -0.01725333 0.022473074
-0.013223027 -0.0107809 -0.0037430907 -0.0015018682 0.00020094296 -0.011057075 0.020027198 -0.015679019
-0.018446654 0.007987731 -0.00711795 0.0064385524 -0.014369315 -0.013282256 0.016945463 -0.0011224014
-0.0014324493 -0.00023037227 -0.018578738 -0.02419172 0.01558425 0.017393257 0.021563238 -0.00566949
0.004821969 0.015123093 -0.005761342 -0.0076242373 -0.0020102845 -0.03855975 0.017829139 -0.028405322

action_model._continuous_distribution.mu.bias f4 [2]
00000000: bd3a b5b9 ab37 0b39
-0.00034566774 0.00013276811
