results/test_9/Boss/Boss-500042.pt (torch, 445345 bytes, 36 tensors)

network_body._body_endoder.seq_layers.0.weight f4 [128, 7]
0	0x3e8371ea	0.25672847
1	0x3ea5f996	0.3241698
2	0xbf49ed46	-0.78877676
3	0x3e1ae6a5	0.15127046
4	0xbdb7576d	-0.08952222
5	0xbe2fb87b	-0.17160217
6	0xbf90a168	-1.1299257
7	0x3e2a3ab3	0.16623954
8	0xbddd6778	-0.10810751
9	0xbef1c418	-0.4721992
10	0xbe544109	-0.20727934
11	0xbee8da49	-0.45479038
12	0xbc2340b6	-0.009964159
13	0x3d6f7f09	0.05847076
14	0x3e949c28	0.29025388
15	0x3e70c360	0.2351203
16	0x3e5bb1c2	0.21454528
17	0x3c842b03	0.01613379
18	0x3dffff0d	0.12499819
19	0x3de102c4	0.109868556
20	0x3e10a7f0	0.14126563
21	0x3f0d8d01	0.5529328
22	0xbc722f11	-0.014781729
23	0x3d4d58a2	0.050133355
24	0xbeb9ae2a	-0.3626569
25	0x3eb35674	0.35026896
26	0xbda4bf7c	-0.08044335
27	0xbdea1cfb	-0.11431309
28	0x3e9d037d	0.30666724
29	0xbd97cd97	-0.0741226
30	0x3e2a5d47	0.16637145
31	0x3f913e20	1.1347084
32	0xbf6b3319	-0.91874844
33	0x3eb7e9f0	0.35920668
34	0xbe3f086f	-0.18655561
35	0x3d8233c8	0.06357533
36	0x3d0c63b6	0.03427478
37	0x3e28b904	0.16476828
38	0x3f0ba611	0.5455027
39	0x3c87b057	0.016563578
40	0x3de75526	0.11295538
41	0x3eb0def7	0.3454511
42	0x3eb25c18	0.34835887
43	0x3c8ef2d4	0.017449774
44	0xbf178fb7	-0.59203666
45	0xbd2b11c6	-0.041764997
46	0x3e29bb1a	0.1657528
47	0xbf26e691	-0.65195566
48	0xbed80a51	-0.4219537
49	0x3e69dad1	0.22837378
50	0xbeab937a	-0.33510953
51	0xbe6cfe5b	-0.23143904
52	0xbc9c347d	-0.019067997
53	0x3eb030d1	0.34412244
54	0xbe0a236d	-0.13490076
55	0x3eebd40c	0.46060216
56	0xbead9838	-0.33905196
57	0x3ea29b2c	0.31759012
58	0x3ded785e	0.11595224
59	0x3d8fafe9	0.07015974
60	0x3e853b8a	0.26021987
61	0xbf84df1d	-1.0380589
62	0x3dda6b47	0.10664993
63	0x3df0d557	0.11759441
64	0xbf3001f7	-0.68753
65	0x3da8d845	0.08244375
66	0xbe72d833	-0.23715286
67	0xbdcc9e7d	-0.09991167
68	0x3d825051	0.063629754
69	0xbe8032d6	-0.25038785
70	0x3cb3e2e7	0.021958781
71	0xbe035a2f	-0.12827371
72	0x3e70ce83	0.23516278
73	0xbdc4e604	-0.096141845
74	0xbe03d6ed	-0.12874956
75	0x3e2b22b3	0.16712455
76	0xbec2f5f1	-0.38078263
77	0xbec00ac1	-0.37508205
78	0x3e1e1021	0.1543584
79	0xbee790b2	-0.4522758
80	0x3cc85376	0.02445386
81	0x3e9052f9	0.28188303
82	0xbe242f31	-0.16033627
83	0xbe65373f	-0.22384356
84	0xbe684136	-0.22681126
85	0xbe4f144e	-0.2022259
86	0x3ee07989	0.43842724
87	0x3ec947f7	0.39312717
88	0x3ea94676	0.3306157
89	0x3ebaa553	0.36454257
90	0xbfad6f7a	-1.3549645
91	0x3ebff6e4	0.3749305
92	0xbeb2a69f	-0.34892747
93	0x3f45a5ab	0.77205914
94	0xbd6d66ca	-0.057959355
95	0xbc87bbab	-0.01656898
96	0x3f078804	0.5294192
97	0xbe8d4885	-0.2759439
98	0x3f01acac	0.506541
99	0xbf2b9d51	-0.6703692
100	0xbf2dd5de	-0.6790446
101	0xbebe5ffc	-0.37182605
102	0xbea4e1cc	-0.3220352
103	0xbda3cfd4	-0.079986244
104	0xbe07e253	-0.1326993
105	0x3ebe7985	0.37202087
106	0xbd9ec643	-0.07752659
107	0xbebd54dc	-0.36978805
108	0x3e1a5412	0.15071133
109	0xbe2e7293	-0.17035894
110	0x3eb91b80	0.36153793
111	0x3e0588cf	0.1304047
112	0x3e861975	0.26191297
113	0xbf1e69df	-0.61880296
114	0x3e14be6f	0.1452577
115	0x3e574f6b	0.2102639
116	0x3daf3d6f	0.085566394
117	0xbec28469	-0.37991646
118	0xbecebb50	-0.40377283
119	0x3e47a872	0.1949785
120	0xbea5eed1	-0.32408765
121	0x3e8b458c	0.27201498
122	0x3edf554c	0.43619764
123	0xbd124dab	-0.0357186
124	0x3f22ab09	0.6354223
125	0x3eb2fe80	0.34959793
126	0x3e1b00d7	0.15137039
127	0x3f230516	0.63679636
128	0xbc659538	-0.014012627
129	0x3cfa517c	0.030556433
130	0xbe85554f	-0.26041648
131	0xbe82af59	-0.25524405
132	0xbe41b83a	-0.18917933
133	0x3c634044	0.013870303
134	0xbde533f8	-0.11191553
135	0xbe9831c3	-0.29725465
136	0xbd0de534	-0.034642413
137	0x3e34d49e	0.17659232
138	0xbd337308	-0.043810874
139	0x3e0d4fff	0.13800047
140	0x3ebaa80e	0.3645634
141	0x3e285d73	0.16441898
142	0x3f380cfa	0.718948
143	0xbe891441	-0.26773265
144	0x3f02fa70	0.5116339
145	0xbe026f23	-0.12737708
146	0xbe96913b	-0.29407677
147	0xbe071f06	-0.13195428
148	0x3d5eb859	0.054375026
149	0x3ecd8267	0.40138552
150	0x3e011af9	0.12607946
151	0xbe872917	-0.26398537
152	0xbecb52b6	-0.3971154
153	0x3e5ccaed	0.21561785
154	0xbe7b1e90	-0.24523377
155	0x3f3999ec	0.7250049
156	0xbd9946e1	-0.07484222
157	0xbee80b0c	-0.45320928
158	0xbedc94c8	-0.4308226
159	0x3e6d0b4a	0.23148838
160	0xbe72f4e2	-0.23726228
161	0x3f0916b0	0.53550243
162	0xbe474408	-0.19459546
163	0xbe245ad5	-0.16050275
164	0xbea37603	-0.31925973
165	0xbe438fea	-0.19097868
166	0xbeb1d7cf	-0.3473496
167	0xbe9c45eb	-0.30522093
168	0x3ee0bc98	0.43893886
169	0xbdc9f715	-0.0986158
170	0xbe8c4bb2	-0.274015
171	0x3daee445	0.08539633
172	0xbef1ae44	-0.47203267
173	0xbd56e65f	-0.052465793
174	0x3e20ff81	0.15722467
175	0x3e9e1380	0.30874252
176	0x3f25debc	0.6479299
177	0x3e0d8b49	0.13822664
178	0xbeb9476a	-0.36187297
179	0xbe885f0b	-0.26635012
180	0x3f12509f	0.5715427
181	0x3e7136d6	0.23556075
182	0xbddcadb7	-0.10775321
183	0x3ea493e7	0.3214409
184	0xbef33a69	-0.475055
185	0x3f43cb65	0.7648223
186	0x3f1a5515	0.60286075
187	0xbe07bf79	-0.13256635
188	0xbf1f0778	-0.6212077
189	0x3ec52349	0.38503483
190	0x3bbb6574	0.0057188813
191	0xbef308e7	-0.4746773
192	0xbf117938	-0.5682559
193	0x3ea116f7	0.31462833
194	0xbef2fc5d	-0.47458163
195	0x3e8b5f16	0.27220982
196	0x3e21d37e	0.15803334
197	0x3f17c83d	0.59289914
198	0x3e8091ad	0.25111142
199	0xbe8fc115	-0.28076997
200	0x3e967db8	0.2939279
201	0x3ea4890c	0.32135808
202	0xbe9add86	-0.30247134
203	0x3d204ac0	0.039133787
204	0xbf35a170	-0.7094946
205	0x3e4ee429	0.20204224
206	0xbf1c9682	-0.61167157
207	0x3ec40fc5	0.3829328
208	0xbb03ee87	-0.0020131187
209	0x3f4039b8	0.7508807
210	0x3e676c62	0.22599939
211	0x3db0459a	0.086070254
212	0x3f0c7132	0.5486022
213	0xbf0142f8	-0.5049281
214	0xbe2a5bd6	-0.16636595
215	0xbe913d2d	-0.28366986
216	0xbe9cac92	-0.3060041
217	0xbe6bc443	-0.23024087
218	0x3fb0ac70	1.3802624
219	0x3ec386c9	0.3818877
220	0xbdfc1a24	-0.123096734
221	0x3edae684	0.42753994
222	0x3ec9a2e3	0.39382085
223	0x3f1bd09c	0.6086519
224	0xbe96d990	-0.29462862
225	0x3ea7b957	0.3275859
226	0x3f2a2684	0.6646502
227	0x3db28c3b	0.08718153
228	0xbe980c3e	-0.2969684
229	0x3e9f1c48	0.31076264
230	0xbf02c33d	-0.5107916
231	0xbeac598e	-0.33662075
232	0xbd04193f	-0.03225064
233	0xbdfc0400	-0.123054504
234	0x3e8ca089	0.2746623
235	0xbf459dfe	-0.771942
236	0x3e99a8fc	0.30011737
237	0x3ce0174d	0.02735486
238	0x3e069e71	0.13146378
239	0xbe90d0fc	-0.28284442
240	0xbf400a0f	-0.7501535
241	0x3f2e33de	0.68047893
242	0xbeac990f	-0.33710524
243	0x3f11967d	0.5687025
244	0x3e8a6635	0.27031103
245	0xbf541179	-0.8283916
246	0x3c15301d	0.009105709
247	0xbf022e45	-0.5085185
248	0xbef0b1ed	-0.47010747
249	0xbd16550e	-0.03670221
250	0x3ec01f41	0.37523845
251	0xbd7b037b	-0.061282616
252	0xbf2f4fd0	-0.6848116
253	0x3ea0ec57	0.31430313
254	0x3efe973b	0.49724755
255	0x3db2ef0f	0.08737003

network_body._body_endoder.seq_layers.0.bias f4 [128]
0	0x3d9b96dd	0.07597134
1	0x3b90f0b1	0.004423224
2	0xbbae41fc	-0.0053179245
3	0xbc12f449	-0.008969375
4	0xbc11f6f1	-0.008908973
5	0xbb2b54d5	-0.0026143093
6	0xbbc562fb	-0.0060237623
7	0x3cac35f7	0.021021826
8	0xbc16179a	-0.0091609005
9	0xbbecdf39	-0.0072287587
10	0xbc846974	-0.016163565
11	0xb9dc0fc5	-0.0004197342
12	0xbd33fa66	-0.04393997
13	0xbcd297f7	-0.025707228
14	0xbb871ce0	-0.004123315
15	0xbc0b3485	-0.008496408
16	0xbb351f80	-0.0027637184
17	0x3bdbfcab	0.00671347
18	0xbba1be70	-0.004936032
19	0x3b94966f	0.0045345346
20	0xba15ac3d	-0.00057095644
21	0xbce8a498	-0.028398797
22	0xbbeb914a	-0.0071889507
23	0xba2262e1	-0.00061945437
24	0xbbb2ba7b	-0.005454359
25	0xbbe42df4	-0.006963486
26	0x3c412d49	0.011790582
27	0x3a0aaf2b	0.0005290384
28	0x3af1ed43	0.001845755
29	0x3c363689	0.011121401
30	0xbb191aa1	-0.002336182
31	0xbd14fcbc	-0.03637384
32	0x3d453abd	0.04815172
33	0xba50f714	-0.0007971388
34	0x3c4b22bd	0.012398419
35	0xbba058d7	-0.004893403
36	0x3a461c68	0.00075573334
37	0x3be37743	0.0069417073
38	0xbbf345e1	-0.0074241017
39	0xbb3f5fe7	-0.002920145
40	0x3c2700b2	0.010193037
41	0xbbb1ae28	-0.0054223724
42	0xbbb6fcbd	-0.005584328
43	0xbb52e315	-0.0032178808
44	0x3aaa94db	0.0013014333
45	0xbba0ab70	-0.0049032494
46	0xbc43af46	-0.011943644
47	0x3b8723ac	0.0041241255
48	0x3b82ef7b	0.0039958335
49	0x3b814c7b	0.0039458848
50	0x39dae5c7	0.00041751398
51	0xbb8b6aba	-0.004254666
52	0x3ae791d1	0.0017667358
53	0xbacd6107	-0.0015669175
54	0x3c1f99f3	0.009741294
55	0xbc1e8516	-0.009675285
56	0xbb2e5e74	-0.0026606591
57	0xbb9c8084	-0.0047760624
58	0xbbe24522	-0.006905214
59	0x3c3436f1	0.010999427
60	0x3aeda902	0.0018132033
61	0x3bc50530	0.0060125813
62	0x3c568796	0.01309385
63	0x3a9b2218	0.0011835722
64	0x3c1472c4	0.009060565
65	0x3c8d828b	0.017274162
66	0xbbeb60b8	-0.0071831606
67	0xbbf2587d	-0.0073958025
68	0xbc4a4e90	-0.012347832
69	0xbb519b22	-0.0031983336
70	0xbadd81d4	-0.0016899654
71	0x3bc2c8fd	0.00594437
72	0x3c7ce487	0.015435345
73	0xbc115b0b	-0.008871804
74	0xbc98eb74	-0.01866696
75	0x3d08d7d8	0.03340897
76	0x3b10adb1	0.0022076184
77	0x3c58d2ac	0.013233822
78	0x3c2169ae	0.009851856
79	0xbc186133	-0.009300518
80	0x3caec2ff	0.021333216
81	0x3ca30c07	0.019903196
82	0xbc13367a	-0.008985156
83	0x3aff303b	0.001946933
84	0xbc9f751d	-0.019465024
85	0x3c596e15	0.0132708745
86	0xbd225e9a	-0.039641
87	0xbaa854ce	-0.0012842657
88	0xbb1ffac5	-0.0024410945
89	0x3cf39928	0.029736117
90	0x398ce0fb	0.00026870504
91	0xba882c58	-0.0010389192
92	0xbc4f68e4	-0.012659285
93	0x3c039325	0.008030687
94	0xbc0ef6b0	-0.008725807
95	0x3c0936f9	0.008374923
96	0xbb7ee10c	-0.0038891463
97	0xbd06a0b2	-0.032868095
98	0x3d9b7a53	0.07591691
99	0xbbbd8026	-0.0057830987
100	0xbb87e0c9	-0.0041466695
101	0xba888b53	-0.0010417498
102	0x3d4bdd0b	0.04977135
103	0xbc5d723d	-0.013516006
104	0x3bd73062	0.006567047
105	0xbc924166	-0.01785345
106	0x3ccacb20	0.02475506
107	0x3842ca75	4.6441757e-05
108	0x3bf109a4	0.0073558856
109	0xba96f180	-0.0011516064
110	0xbc49f411	-0.012326256
111	0x3b006fe9	0.0019597954
112	0xbaa8d996	-0.0012882228
113	0xbc0b464e	-0.008500649
114	0xbbd5c9e6	-0.0065243123
115	0x3a168feb	0.00057434913
116	0xbcb78399	-0.022401618
117	0x3bc819f6	0.0061066104
118	0xbab4e623	-0.0013801496
119	0xbc26aaae	-0.010172529
120	0x3aefea5f	0.0018304101
121	0xbbe5dc24	-0.007014768
122	0x3c37e302	0.0112235565
123	0x3b2648e7	0.0025373043
124	0xbc5f7fab	-0.013641278
125	0xbb87ef68	-0.0041484125
126	0xbc46742f	-0.012112661
127	0xba852176	-0.0010157067

network_body._body_endoder.seq_layers.2.weight f4 [128, 128]
0	0xbbfd4e38	-0.0077302717
1	0xbc2956ad	-0.0103356065
2	0xbd280b2c	-0.04102628
3	0x3c7ccb81	0.0154293785
4	0xbd999612	-0.07499327
5	0x3e0f353f	0.13985156
6	0xbceb5054	-0.028724827
7	0x3cc1fd6c	0.023680411
8	0xbd8a7939	-0.06761403
9	0x3c8e1fd9	0.01734917
10	0x3d8638aa	0.065537766
11	0xbe121a00	-0.1426773
12	0xbc9eb189	-0.019371765
13	0xbd752615	-0.05985077
14	0x3e3a3f28	0.18188155
15	0xbe345f12	-0.17614391
16	0xbd92d33b	-0.07169195
17	0x3ce22367	0.027604772
18	0xbe032e08	-0.12810528
19	0x3cc82f85	0.024436722
20	0x3cb1ef5c	0.02172058
21	0x3cc43c82	0.023954634
22	0x3d8e7bef	0.06957232
23	0x3d84cf16	0.06484811
24	0x3cc56e72	0.024100516
25	0x3d0fd3aa	0.035113968
26	0xbe1894dc	-0.14900535
27	0x3d9c8123	0.076418184
28	0xbc98a193	-0.018631732
29	0x3d51b293	0.051195692
30	0xbd468d65	-0.048474688
31	0xbddc4e70	-0.10757148
32	0x3bd4d07f	0.0064945812
33	0xbbe0c425	-0.0068593198
34	0xbd9de059	-0.077088065
35	0x3da6631f	0.081243746
36	0xbe3a4e4d	-0.18193932
37	0x3c4c8201	0.012482167
38	0xbd75216d	-0.05984633
39	0xbdabbe61	-0.08385921
40	0x3c926dcd	0.017874623
41	0xbdea60f8	-0.114442766
42	0x3d38ef92	0.045150347
43	0x3dd4419c	0.103640765
44	0x3d5ccb83	0.05390502
45	0xbdb017ae	-0.085982665
46	0xbdea6b31	-0.114462264
47	0x3e0532e3	0.13007693
48	0xbd932fbf	-0.07186841
49	0xbd388449	-0.045048032
50	0x3da9f9c9	0.08299596
51	0x3dc4f69e	0.09617351
52	0xbd8c81c3	-0.068606876
53	0xbcbc2a01	-0.022969248
54	0xbd967635	-0.07346765
55	0xbe03a3bc	-0.12855428
56	0x3df9ddd1	0.12200511
57	0x3d851bc9	0.0649944
58	0xbd7817f1	-0.060569707
59	0x3cb94997	0.022618098
60	0xbd27296a	-0.04081098
61	0x3a6d7406	0.00090581214
62	0x3d78368d	0.0605989
63	0x3dc7e7c8	0.09761006
64	0x3d7fc58a	0.062444247
65	0x3c7da9eb	0.015482406
66	0x3e50e5cf	0.20400165
67	0xbd9ff34d	-0.07810078
68	0xbc3af65a	-0.011411274
69	0xbe114476	-0.14186272
70	0x3d4a9003	0.049453747
71	0xbd85a035	-0.06524698
72	0x3d3a8153	0.04553349
73	0xbd0ec55c	-0.034856185
74	0xbb72c6a1	-0.0037044662
75	0x3e4259a4	0.18979508
76	0x3e2cade8	0.16863215
77	0x3d9fa209	0.07794578
78	0x3dd21765	0.102583684
79	0xbd3a38f9	-0.04546449
80	0xbdd25ba4	-0.10271385
81	0x3d8ff69c	0.07029459
82	0xbd45a87c	-0.048256382
83	0x3b768638	0.0037616622
84	0x3d305456	0.04304918
85	0xbb61da03	-0.003446222
86	0xbd1b6a5e	-0.037943237
87	0x3cfb59e2	0.030682508
88	0x3e72fc59	0.23729075
89	0x3d786c0f	0.060649928
90	0xbc11711a	-0.008877063
91	0xbc695f63	-0.014243933
92	0xbdee19c7	-0.116260104
93	0xbd65342a	-0.05595795
94	0xbd4121be	-0.04715132
95	0x3daca61f	0.084301226
96	0xbbb49c6d	-0.0055118115
97	0x3db2dc7a	0.08733459
98	0x3cc7549c	0.024332337
99	0x3d47fba2	0.04882396
100	0xbdbd7290	-0.09250367
101	0xbc3ca92f	-0.011514946
102	0xbd84daeb	-0.06487068
103	0xbc33ec2c	-0.010981601
104	0x3d3722a7	0.04471078
105	0x3cb77ed0	0.022399336
106	0x3e38ea77	0.18058191
107	0xbd4176f5	-0.047232587
108	0x3bb55e09	0.0055348915
109	0xbd6f096b	-0.05835859
110	0xbdd0b0ec	-0.10189995
111	0xbd57c417	-0.05267724
112	0x3e382112	0.17981365
113	0x3dacddba	0.084407285
114	0x3ce70abb	0.028203359
115	0xbc984b00	-0.01859045
116	0xbb8e3bc9	-0.004340623
117	0x3e4ee393	0.20204
118	0x3d808970	0.06276214
119	0x3d009288	0.031389743
120	0xbc897d69	-0.016783433
121	0x3c630b5e	0.013857691
122	0x3d82b36a	0.06381877
123	0x3e157a53	0.14597444
124	0x3b6fa196	0.0036564819
125	0x3b8ea333	0.004352951
126	0x3d0e6b15	0.03477009
127	0x3dd3f4c2	0.10349418
128	0xbca85cb5	-0.020552019
129	0xbd924c06	-0.071434066
130	0x3b700a3f	0.00366272
131	0xbd43b188	-0.04777673
132	0x3c869975	0.016430596
133	0xbdb71eed	-0.089414455
134	0x3dd8a1cc	0.10577735
135	0xbe29232a	-0.1651732
136	0xbdcf11ba	-0.10110803
137	0x3dc114bf	0.09427785
138	0xbe252d74	-0.1613062
139	0xbb2a8823	-0.0026021085
140	0x3c6b966c	0.014379125
141	0x3ccd6a1f	0.025075017
142	0x3d90f036	0.070770666
143	0x3caf4b36	0.021398168
144	0x3de8db15	0.113699116
145	0xbc9a1ce9	-0.018812614
146	0x3dd049c9	0.101703234
147	0x3ddd83b5	0.10816137
148	0xbe8aa979	-0.27082422
149	0x3ddfcbc7	0.10927539
150	0x3dc5ae12	0.09652342
151	0xbbbfef8d	-0.005857414
152	0x3d96b1f9	0.07358164
153	0x3e18954d	0.14900704
154	0x3d4e04fe	0.05029773
155	0xbd30eefc	-0.043196663
156	0x3da655d3	0.081218384
157	0xbd02d033	-0.031936835
158	0xbd503ced	-0.050839353
159	0xbde7f5ad	-0.11326156
160	0xbd546138	-0.051850528
161	0x3db84b9d	0.08998797
162	0xbb9e2b1c	-0.0048269164
163	0xbd2c7422	-0.04210294
164	0xbb6a9625	-0.003579506
165	0xbdd29ab5	-0.10283414
166	0x3d1d13a6	0.038348816
167	0xbdb8f4a5	-0.09031037
168	0xbe1cbed6	-0.15307173
169	0xbd9e7d32	-0.07738723
170	0xbc09efcc	-0.008418988
171	0x3d5ddb70	0.05416435
172	0xbe0ddddd	-0.13854165
173	0x3d717d3c	0.058957323
174	0xbddd5c6e	-0.10808645
175	0xbd8a3148	-0.06747681
176	0x3e4b6bcd	0.19865341
177	0xbc8ad931	-0.016949268
178	0x3cf88428	0.030336455
179	0x3e3d5824	0.18490654
180	0xbe0389d3	-0.12845545
181	0x3caa780b	0.020809194
182	0x3c26542d	0.010151905
183	0x3e6371bd	0.22211356
184	0xbdc21d9b	-0.09478303
185	0xbd0c448a	-0.03424505
186	0x3d9c998c	0.07646474
187	0x3c524c87	0.012835628
188	0x3d516580	0.05112219
189	0x3e54fb4c	0.20798987
190	0x3dbfa216	0.09357087
191	0x3e0e2508	0.13881314
192	0xbde9b004	-0.114105254
193	0xbdb348ce	-0.08754121
194	0x3e208c79	0.15678586
195	0xbc6d5be1	-0.014487238
196	0x3c387b8d	0.011259926
197	0x3e1b2828	0.15152037
198	0x3c3f2465	0.011666392
199	0xbdcec3a0	-0.10095906
200	0x3943a4d9	0.0001865806
201	0x3e110d0a	0.1416513
202	0x3da32a09	0.07967002
203	0xbd3beccd	-0.045880128
204	0xbdfd7c85	-0.12377266
205	0x3dfdcb0d	0.123922445
206	0x3d4df4ac	0.050282165
207	0x3de5d454	0.11222139
208	0xbb886964	-0.004162954
209	0xbd5c7564	-0.05382289
210	0x3d2dc113	0.042420458
211	0xbc711aca	-0.01471586
212	0x3d5d2a25	0.05399527
213	0x3e3c7336	0.18403324
214	0x3da4c4c3	0.08045342
215	0x3d216be5	0.039409537
216	0xbd3b6144	-0.045747057
217	0x3c3067e4	0.010766957
218	0xbd583efa	-0.052794434
219	0xbe08472e	-0.13308403
220	0x3cbdfefb	0.023192873
221	0xbd8337e5	-0.064071454
222	0x3d8c594c	0.068529695
223	0xbe19ac83	-0.15007214
224	0xbdbc251d	-0.09186766
225	0x3d48c147	0.04901245
226	0xbdb79f06	-0.08965878
227	0x3d230e80	0.03980875
228	0x3d69a944	0.05704619
229	0x3e210d7e	0.15727803
230	0xbdd72c42	-0.105064884
231	0xbc0f6daf	-0.008754178
232	0x3e10db8d	0.14146252
233	0x3a0805ce	0.0005188853
234	0xbde70aee	-0.112813815
235	0xbd89f898	-0.067368686
236	0xbce8ca90	-0.028416902
237	0x3d313c54	0.043270424
238	0x3d4beab4	0.049784377
239	0xbcfc674c	-0.030810975
240	0x3d5e3aa2	0.054255135
241	0x3d74d83e	0.059776537
242	0xbd1e7f4a	-0.03869561
243	0x3e0d404a	0.13794056
244	0x3d796b59	0.06089339
245	0xbdc76ff6	-0.09738152
246	0xbd85f8e4	-0.06541613
247	0x3c8fbb0a	0.017545242
248	0xbd131ccc	-0.035916135
249	0xbc889c05	-0.016675958
250	0xbd50bf9d	-0.050963987
251	0xbe238c9a	-0.15971604
252	0x3c9d156a	0.01917525
253	0x3dca29a6	0.09871225
254	0xbc856e96	-0.016288083
255	0x3db2736b	0.087134205

network_body._body_endoder.seq_layers.2.bias f4 [128]
0	0xbb62d65c	-0.0034612631
1	0xba44d8b4	-0.0007509098
2	0xbbb82ace	-0.005620337
3	0xbaac306f	-0.0013136993
4	0xbb95b71b	-0.004568947
5	0x3b2f31b5	0.0026732509
6	0x3ace7270	0.0015750658
7	0xbc1bf915	-0.009519835
8	0xbb806e48	-0.0039193965
9	0xbb09745a	-0.0020973892
10	0x398c075a	0.00026708358
11	0xbbd1e6ce	-0.006405688
12	0x3c0eef2f	0.008724018
13	0x3bb494cb	0.0055109016
14	0xbb938f33	-0.0045031547
15	0xbb705b98	-0.0036675688
16	0xbc1bb881	-0.009504438
17	0x3ba1fb05	0.004943254
18	0xbbe9bd26	-0.007133144
19	0xbc0ca044	-0.008583132
20	0xbc029979	-0.007971161
21	0xbc1908f1	-0.009340511
22	0xbb957449	-0.0045609814
23	0x3b98e6a2	0.0046661654
24	0x3ca76949	0.020435946
25	0xbb9d5f22	-0.0048026005
26	0xbbe6256f	-0.0070235054
27	0x3bc02f89	0.0058650416
28	0xbbbb1ff8	-0.005710598
29	0x3a689b01	0.0008873195
30	0xbc1c2417	-0.009530089
31	0x3c3491a8	0.011021055
32	0xbc03a4d0	-0.0080349
33	0x3af2c7f2	0.0018522723
34	0xbb0b5b5c	-0.0021264171
35	0xbbb02947	-0.0053760144
36	0xbae3a753	-0.0017368592
37	0xbbb74f93	-0.005594203
38	0xbb936b44	-0.004498871
39	0xba4a5c26	-0.00077194197
40	0xba98f97e	-0.0011671034
41	0xbbb5c268	-0.0055468567
42	0x3b839b62	0.004016326
43	0x3c9638d2	0.01833764
44	0xbc368872	-0.01114093
45	0xbbaf19f5	-0.0053436705
46	0xbb7cf4b5	-0.0038598005
47	0xba3de719	-0.0007244214
48	0x3c53fcdb	0.012938703
49	0xba17735a	-0.00057773816
50	0xbb1dd32b	-0.0024082165
51	0xbbb8a0de	-0.0056344112
52	0x3af4526f	0.001864029
53	0x39ac1e78	0.00032829097
54	0xbc038ec3	-0.0080296425
55	0xba348b34	-0.0006887198
56	0xb98ec480	-0.00027230754
57	0xbb609189	-0.0034266433
58	0xbaaf431c	-0.001337144
59	0xbc515628	-0.012776889
60	0xbbe46a77	-0.0069706994
61	0x3b6d95e6	0.0036252677
62	0xba9b5a63	-0.0011852499
63	0xbb7dea46	-0.0038744374
64	0xbbff33b0	-0.007788144
65	0x3b918c31	0.004441761
66	0x3b0d4702	0.0021557217
67	0x3c04ea9c	0.008112576
68	0xbb93dc91	-0.0045123775
69	0x3c0e3de7	0.008681751
70	0xbb0365bb	-0.002004965
71	0x3b859c12	0.004077443
72	0x3b8f696d	0.0043765814
73	0xbb80e014	-0.003932962
74	0xbbe09a3c	-0.0068543237
75	0xb814b5a4	-3.5455116e-05
76	0x3bd23a92	0.0064156735
77	0xbbd68a80	-0.006547272
78	0x3bbdd838	0.0057935975
79	0x3b80de06	0.0039327173
80	0xbb799421	-0.0038082676
81	0xbbf1f43f	-0.0073838527
82	0xbc06f7be	-0.008237777
83	0xbb19b4b2	-0.002345365
84	0x3b1ff6e4	0.0024408633
85	0x3b1ebf59	0.0024222939
86	0xbc583dd7	-0.0131983375
87	0xbc318aab	-0.010836284
88	0xbaced0ef	-0.001577882
89	0xb9400d8a	-0.0001831559
90	0xbbb3c474	-0.0054860655
91	0xbc0eaf02	-0.008708717
92	0xbbcaac0d	-0.006185061
93	0xbb9b31c9	-0.0047361595
94	0xbbe6d43e	-0.007044344
95	0xbaf55032	-0.0018715917
96	0xbb5233f7	-0.003207443
97	0xba871dbd	-0.0010308545
98	0xba559412	-0.00081473694
99	0x3bd54b4c	0.00650922
100	0xbb3e69e3	-0.0029054813
101	0xbb91499c	-0.0044338237
102	0xbb9ad6ba	-0.0047253044
103	0xbb4ba02d	-0.0031070814
104	0x3b1c1191	0.0023814181
105	0x3bb218c7	0.0054350826
106	0xbb97e1a1	-0.0046350514
107	0xbc05cd7a	-0.008166665
108	0x39a62e18	0.0003169633
109	0xb9e7e3fa	-0.0004422961
110	0x3b287b5e	0.0025708298
111	0x3bc7640a	0.0060849236
112	0x3c7e2d3b	0.0155137135
113	0x3ba1fdd3	0.0049435883
114	0x3c7de80e	0.015497221
115	0xbbe1e47c	-0.0068936925
116	0x3c2453a8	0.010029711
117	0x3afb3b9f	0.0019167549
118	0x3bb8712c	0.0056287255
119	0x3addbba9	0.0016916889
120	0xbbc6bdcf	-0.0060651074
121	0xbbe9a459	-0.0071301875
122	0x3b066182	0.0020504897
123	0xbbb4c51f	-0.0055166627
124	0xbc40522e	-0.011738343
125	0xbb348324	-0.0027543986
126	0xbb56f45b	-0.0032799456
127	0x3b7669e6	0.0037599741

action_model._continuous_distribution.log_sigma f4 [1, 2]
0	0xbdd815f9	-0.10551066
1	0xbe2529b2	-0.16129187

action_model._continuous_distribution.mu.weight f4 [2, 128]
0	0xbc097c42	-0.008391442
1	0x3d24c7ca	0.040229596
2	0x3ced8b4d	0.028997088
3	0x3d2a607d	0.041595925
4	0x3bebaaf0	0.007192008
5	0xbd1a1dd7	-0.037626114
6	0xbc821fd4	-0.015884317
7	0xba9fa8b5	-0.0012181016
8	0xb9d030e9	-0.00039709292
9	0x3ce88e8f	0.02838829
10	0x3c8db674	0.017298914
11	0x3c40ea10	0.011774555
12	0xbd2c5980	-0.04207754
13	0x3cab2f76	0.020896655
14	0xba9d506e	-0.0012002119
15	0xbbffc7ce	-0.007805801
16	0x3c3d79b8	0.011564665
17	0xbcf87cf8	-0.030333027
18	0xbc39ced1	-0.011340813
19	0x3cb6ed79	0.022330033
20	0xbcbbd069	-0.022926526
21	0x3b4d076a	0.0031284937
22	0xbc82cf7a	-0.015968073
23	0x3c888e69	0.016669469
24	0xbd1f4d87	-0.038892295
25	0xbcbfe3ae	-0.023423996
26	0xbc4601c6	-0.012085384
27	0x3ca06bea	0.019582707
28	0xbc0f1bb3	-0.008734631
29	0x3d06b65b	0.03288875
30	0xbc9c16b9	-0.019053804
31	0xbd9c69a6	-0.07637338
32	0x3c16de84	0.009208325
33	0xbcae65c1	-0.021288754
34	0x3c1ef9f8	0.009703152
35	0x3cf2887a	0.029606093
36	0xbb9d5dc9	-0.00480244
37	0xb96793e0	-0.00022084964
38	0x3cc52939	0.024067508
39	0xbc510c30	-0.012759253
40	0xba450c9b	-0.0007516832
41	0x3be43f2a	0.0069655376
42	0xbc9fde72	-0.01951525
43	0xbcdb271d	-0.02675205
44	0xbc4e6464	-0.012597177
45	0xbc284263	-0.010269734
46	0x3bdc0f92	0.0067157233
47	0xbc140b6b	-0.009035925
48	0xbd1bbed7	-0.038023796
49	0xbc4e3e35	-0.0125880735
50	0xbba9d3fa	-0.0051827403
51	0xbb0b7fe8	-0.0021285955
52	0xbcb29106	-0.021797668
53	0x3d605cb6	0.054775916
54	0x3b592b73	0.003313747
55	0xbc42fb94	-0.011900801
56	0xbc4f26c2	-0.012643518
57	0x3c341d0d	0.010993254
58	0xbba1b29d	-0.0049346224
59	0xbb1d9177	-0.0024043003
60	0x3ba07265	0.0048964494
61	0x3ce9ca01	0.028538706
62	0xbb79ff72	-0.0038146642
63	0x3c93ac92	0.018026624
64	0x3cce3f04	0.025176533
65	0x3d0c3b1b	0.034236055
66	0xbce683fa	-0.028139103
67	0x3d3af998	0.045648187
68	0x3d09db4b	0.0336564
69	0x3d540857	0.051765766
70	0xbbf3d31b	-0.007440937
71	0xbcd0dac5	-0.025494942
72	0xbd20d59a	-0.039266206
73	0xbbade4c9	-0.0053068143
74	0x3cb2a3fe	0.021806713
75	0xbc054197	-0.008133314
76	0x3d012254	0.03152688
77	0xba798d62	-0.0009519664
78	0xbd12426c	-0.035707876
79	0x3d441c20	0.047878385
80	0xbb4e74d6	-0.0031502745
81	0xbc005528	-0.007832803
82	0x3c43ef63	0.01195893
83	0xbb89800c	-0.0041961726
84	0xbcb2059f	-0.021731196
85	0x3c9065d0	0.017626673
86	0xbbb0dfc2	-0.0053977678
87	0x3b9db85d	0.0048132376
88	0xb96ed54b	-0.00022776907
89	0x3c8a9c52	0.016920242
90	0x3bbf9ee9	0.005847801
91	0xbc892a48	-0.016743794
92	0xbc106538	-0.008813195
93	0xbc3ba7a0	-0.011453539
94	0xbc9a7997	-0.018856807
95	0x3cd8ab9a	0.026449014
96	0x3d4714d1	0.048603836
97	0x3caa37d6	0.020778578
98	0xbc3c2b44	-0.011484925
99	0x3d2e1225	0.042497773
100	0xbc1525ee	-0.009103281
101	0x3c5b39cc	0.013380479
102	0x3bc8512e	0.006113193
103	0xbb05e193	-0.0020428642
104	0xbc29e917	-0.010370514
105	0xbce7c3e1	-0.028291645
106	0xbcb91127	-0.022591187
107	0x3c1df9c5	0.009642069
108	0xbc5f3c75	-0.013625254
109	0x3cae0743	0.021243697
110	0x3cb33e3a	0.021880258
111	0xbd322293	-0.043490004
112	0xbd12ccfc	-0.03584002
113	0x3d090957	0.033456173
114	0xbd1f56ac	-0.038901016
115	0x3c6bf4fa	0.014401669
116	0xbd43c57e	-0.047795765
117	0xbc76a3bb	-0.015053685
118	0xbd265364	-0.04060687
119	0x3d0e3857	0.0347217
120	0x3cbf8a51	0.023381384
121	0xbb0e1bd4	-0.0021684067
122	0x3ca2a3e7	0.019853545
123	0x3cbc32a7	0.022973372
124	0xbbf331a3	-0.0074216886
125	0xbd17db1c	-0.037074193
126	0x3cf39349	0.029733317
127	0xbd15bcdc	-0.036557063
128	0x3bd31e67	0.006442833
129	0xbd0e8237	-0.03479215
130	0x3ba77ede	0.0051115593
131	0x3c5d2a82	0.013498904
132	0x3c4ba522	0.012429507
133	0xbb98ef4b	-0.004667198
134	0x3c9171c7	0.017754449
135	0xbb19d4a9	-0.0023472703
136	0x3c8ae714	0.01695589
137	0xbc97a444	-0.018510945
138	0x3c035328	0.008015431
139	0x3c88c8a3	0.016697234
140	0xbd35d9fb	-0.044397335
141	0x3c33cc44	0.010973994
142	0x3c654d7d	0.013995525
143	0xbbfaee3a	-0.0076577934
144	0x3bc94113	0.0061417907
145	0x3b96f61f	0.0046069766
146	0x3b0e24f7	0.0021689513
147	0xbbe52a18	-0.0069935434
148	0x3bb8a407	0.005634788
149	0xbbcedaf7	-0.0063127237
150	0x3accc495	0.0015622551
151	0x3c2efdc5	0.010680621
152	0xbb88b577	-0.004172023
153	0x3c205509	0.009785899
154	0x3b273399	0.0025512932
155	0xbb8cb660	-0.0042942017
156	0x3baff346	0.0053695766
157	0x3ae156da	0.0017192021
158	0x3c22afb9	0.009929591
159	0x3b897d9b	0.0041958815
160	0x3c34af53	0.011028129
161	0xbcacad35	-0.021078685
162	0x3cbe1769	0.023204522
163	0x3b76f478	0.0037682336
164	0xbd2d9760	-0.04238069
165	0xbcb59d03	-0.022169596
166	0x3b69466e	0.0035594958
167	0xbbf8a559	-0.0075880704
168	0xb8a2b4a9	-7.7584125e-05
169	0x3c9032d9	0.017602371
170	0x3b9da54a	0.0048109638
171	0xbb85ad0e	-0.0040794676
172	0x3b6a6971	0.0035768414
173	0x3b075cfc	0.0020654788
174	0xbd13f1cf	-0.03611928
175	0xbd1b89b8	-0.037973136
176	0x3c1c5712	0.009542244
177	0xbccce74c	-0.025012635
178	0x3c599c6b	0.013281922
179	0xbb154aca	-0.0022780173
180	0xbc868f99	-0.016425895
181	0x3cf2607d	0.029587025
182	0x3c3b0279	0.011414164
183	0x3c470a4f	0.012148454
184	0xbce9ea92	-0.028554235
185	0x3cc97879	0.024593579
186	0x3cc510a2	0.024055783
187	0xba80cebb	-0.0009827235
188	0xbc1d1ddd	-0.0095896395
189	0x3cbd0d99	0.023077773
190	0xbb7b9f1e	-0.0038394402
191	0x3c846705	0.016162405
192	0xbc9beebc	-0.019034736
193	0xbc864105	-0.016388426
194	0xbce6c589	-0.028170364
195	0x3ca439ec	0.02004715
196	0xbbb417d3	-0.005496004
197	0x3a438f03	0.000745997
198	0x3bf86458	0.0075803213
199	0x3c7a467b	0.015275593
200	0x3b0e7483	0.0021736927
201	0xbc85c51f	-0.016329346
202	0xbc1ac857	-0.009447179
203	0x3c9ed8bd	0.019390458
204	0xb9b6bc04	-0.00034853828
205	0x3c7f3cf3	0.015578496
206	0x3c64a4e2	0.013955327
207	0x3c9d5ba3	0.019208735
208	0x3c58f72f	0.013242527
209	0xbb1f2437	-0.002428306
210	0x3c06af9e	0.008220581
211	0xbb192bdf	-0.0023372096
212	0xbc6839c6	-0.0141739305
213	0x3caa329f	0.020776091
214	0xbb3db106	-0.0028944626
215	0x3a884230	0.0010395702
216	0xb9005ea7	-0.00012242292
217	0x3bc1fbb6	0.005919899
218	0x3c984f00	0.018592358
219	0x3c84660d	0.016161943
220	0x3c1d7824	0.009611163
221	0xbc9c369e	-0.019069012
222	0xbc8e477b	-0.017368069
223	0x3cb95e7e	0.022628065
224	0xbb2ffb44	-0.0026852647
225	0xbbca0153	-0.0061647086
226	0xbb880133	-0.0041505336
227	0xba938ed3	-0.0011257775
228	0xb8fb91af	-0.00011995748
229	0xbc25701b	-0.010097529
230	0x3c8871ee	0.016655888
231	0xbc806a9e	-0.015675839
232	0xbc950d1a	-0.018194724
233	0x3b963469	0.0045838845
234	0xbc1d8013	-0.009613055
235	0x3bfdc826	0.007744807
236	0xbc651d4a	-0.013984034
237	0xbc1e2912	-0.009653347
238	0x3c8b990c	0.017040752
239	0xbb10a9a7	-0.0022073777
240	0xbbbc3778	-0.005743917
241	0x3b10c245	0.002208845
242	0xbce13595	-0.02749137
243	0xbc98987b	-0.018627396
244	0x3c34d8dc	0.011038031
245	0x3c81c053	0.015838778
246	0x3ca62146	0.020279538
247	0xbba3d915	-0.0050002434
248	0x3be1490e	0.006875164
249	0x3c4feee2	0.012691231
250	0xbb83967b	-0.0040157414
251	0xba480753	-0.0007630486
252	0xbb62e91b	-0.0034623805
253	0xbd204222	-0.03912557
254	0x3caa30b5	0.020775178
255	0xbce9bc49	-0.028532164

action_model._continuous_distribution.mu.bias f4 [2]
0	0xbbf78e62	-0.007554815
1	0x391a0a4a	0.00014690417

exp_avg f4 [128, 7]
0	0xb7339864	-1.0704713e-05
1	0xb9b6965f	-0.0003482578
2	0x00000000	0.0
3	0x39c82c31	0.00038179898
4	0xb9b6965f	-0.0003482578
5	0x00000000	0.0
6	0xb8113b83	-3.462612e-05
7	0x354b37b3	7.5704446e-07
8	0x37ce9aab	2.4629137e-05
9	0x00000000	0.0
10	0xb7e280a1	-2.7001197e-05
11	0x37ce9aab	2.4629137e-05
12	0x00000000	0.0
13	0x36877f3d	4.038126e-06
14	0xb72e4630	-1.038755e-05
15	0xb9b12d2d	-0.0003379373
16	0x00000000	0.0
17	0x39c23d8e	0.00037048425
18	0xb9b12d2d	-0.0003379373
19	0x00000000	0.0
20	0xb862ec22	-5.4102515e-05
21	0x37325458	1.0629265e-05
22	0x39b54cb0	0.00034580147
23	0x00000000	0.0
24	0xb9c6c2be	-0.00037910597
25	0x39b54cb0	0.00034580147
26	0x00000000	0.0
27	0x38814c65	6.165429e-05
28	0xb0e5d6a1	-1.6722944e-09
29	0xb369ac16	-5.440605e-08
30	0x00000000	0.0
31	0x338016bd	5.9646005e-08
32	0xb369ac16	-5.440605e-08
33	0x00000000	0.0
34	0xb22dabd2	-1.0108993e-08
35	0xb4f36503	-4.5335773e-07
36	0xb777768a	-1.4749947e-05
37	0x00000000	0.0
38	0x3787a5f5	1.6170534e-05
39	0xb777768a	-1.4749947e-05
40	0x00000000	0.0
41	0xb63c1205	-2.8024672e-06
42	0xb7282f34	-1.0024571e-05
43	0xb9aafc50	-0.00032612914
44	0x00000000	0.0
45	0x39bb740f	0.0003575389
46	0xb9aafc50	-0.00032612914
47	0x00000000	0.0
48	0xb84dfed3	-4.9113132e-05
49	0x383a7d19	4.4462362e-05
50	0x3abd9891	0.0014465024
51	0x00000000	0.0
52	0xbacfdb2d	-0.0015858166
53	0x3abd9891	0.0014465024
54	0x00000000	0.0
55	0x397ed626	0.00024303104
56	0xb50fd252	-5.357771e-07
57	0xb7922e7e	-1.7426206e-05
58	0x00000000	0.0
59	0x37a04296	1.9104493e-05
60	0xb7922e7e	-1.7426206e-05
61	0x00000000	0.0
62	0xb697c093	-4.5225693e-06
63	0xb5533f41	-7.869567e-07
64	0xb7d6c50c	-2.5602545e-05
65	0x00000000	0.0
66	0x37eb7456	2.8068356e-05
67	0xb7d6c50c	-2.5602545e-05
68	0x00000000	0.0
69	0xb69ef8e3	-4.737741e-06
70	0xb4cd5adf	-3.8250343e-07
71	0xb750c6e0	-1.244407e-05
72	0x00000000	0.0
73	0x3764e268	1.3642573e-05
74	0xb750c6e0	-1.244407e-05
75	0x00000000	0.0
76	0xb5d320fe	-1.5730327e-06
77	0x36ecc4a4	7.05624e-06
78	0x3970b879	0.00022956905
79	0x00000000	0.0
80	0xb983f3cc	-0.0002516791
81	0x3970b879	0.00022956905
82	0x00000000	0.0
83	0x382b665f	4.0864918e-05
84	0xb57166ed	-8.9929273e-07
85	0xb7f56bf3	-2.9256544e-05
86	0x00000000	0.0
87	0x3806877b	3.2074266e-05
88	0xb7f56bf3	-2.9256544e-05
89	0x00000000	0.0
90	0xb6af2462	-5.219642e-06
91	0x3415634a	1.3912828e-07
92	0x3697e480	4.5267516e-06
93	0x00000000	0.0
94	0xb6a6858d	-4.962733e-06
95	0x3697e480	4.5267516e-06
96	0x00000000	0.0
97	0x358b174e	1.036309e-06
98	0xb4d887c7	-4.0331926e-07
99	0xb75c2135	-1.31207535e-05
100	0x00000000	0.0
101	0x37715494	1.4384412e-05
102	0xb75c2135	-1.31207535e-05
103	0x00000000	0.0
104	0xb6177397	-2.2568036e-06
105	0x3159a9d9	3.1674203e-09
106	0x33dd5fe9	1.03085604e-07
107	0x00000000	0.0
108	0xb3f2b323	-1.1301588e-07
109	0x33dd5fe9	1.03085604e-07
110	0x00000000	0.0
111	0xb3f3ed4b	-1.13587326e-07
112	0xb534ade3	-6.7308264e-07
113	0xb7b7b03b	-2.1897364e-05
114	0x00000000	0.0
115	0x37c9612e	2.400632e-05
116	0xb7b7b03b	-2.1897364e-05
117	0x00000000	0.0
118	0xb65db5f6	-3.3037481e-06
119	0x35de3595	1.6555883e-06
120	0x3861e998	5.386173e-05
121	0x00000000	0.0
122	0xb877ab9a	-5.9049205e-05
123	0x3861e998	5.386173e-05
124	0x00000000	0.0
125	0x371eae72	9.45815e-06
126	0x36cc6b35	6.0921543e-06
127	0x394fd18a	0.00019819118
128	0x00000000	0.0
129	0xb963d569	-0.00021727908
130	0x394fd18a	0.00019819118
131	0x00000000	0.0
132	0x380c836f	3.3501008e-05
133	0x37895d6c	1.6375176e-05
134	0x3a0ba764	0.00053273723
135	0x00000000	0.0
136	0xba191aa6	-0.0005840458
137	0x3a0ba764	0.00053273723
138	0x00000000	0.0
139	0x38b74f18	8.740852e-05
140	0x3784f71d	1.5850697e-05
141	0x3a072e2b	0.0005156721
142	0x00000000	0.0
143	0xba14331f	-0.00056533696
144	0x3a072e2b	0.0005156721
145	0x00000000	0.0
146	0x38c11eda	9.208704e-05
147	0x354a5ced	7.538609e-07
148	0x37cdbc1b	2.4525498e-05
149	0x00000000	0.0
150	0xb7e18c9f	-2.6887572e-05
151	0x37cdbc1b	2.4525498e-05
152	0x00000000	0.0
153	0x36670e13	3.4429875e-06
154	0x3499cd7d	2.8647983e-07
155	0x371c70e2	9.324607e-06
156	0x00000000	0.0
157	0xb72b8270	-1.0222764e-05
158	0x371c70e2	9.324607e-06
159	0x00000000	0.0
160	0x36edb871	7.084622e-06
161	0xb745909c	-1.17757845e-05
162	0xb9c8db60	-0.0003831042
163	0x00000000	0.0
164	0x39dc33a3	0.00042000142
165	0xb9c8db60	-0.0003831042
166	0x00000000	0.0
167	0xb86c152c	-5.6286503e-05
168	0xb5575492	-8.021681e-07
169	0xb7daeac7	-2.6096952e-05
170	0x00000000	0.0
171	0x37f00053	2.861038e-05
172	0xb7daeac7	-2.6096952e-05
173	0x00000000	0.0
174	0xb68ee9b2	-4.2591355e-06
175	0x37190037	9.119561e-06
176	0x399b8c9b	0.00029668663
177	0x00000000	0.0
178	0xb9aa87c5	-0.00032526083
179	0x399b8c9b	0.00029668663
180	0x00000000	0.0
181	0x38486e73	4.778658e-05
182	0xb7d86156	-2.5794532e-05
183	0xba5bfc3b	-0.0008391772
184	0x00000000	0.0
185	0x3a712c1c	0.0009199993
186	0xba5bfc3b	-0.0008391772
187	0x00000000	0.0
188	0xb8f11357	-0.00011495378
189	0x37246437	9.798495e-06
190	0x39a722bf	0.0003187861
191	0x00000000	0.0
192	0xb9b73b92	-0.00034948863
193	0x39a722bf	0.0003187861
194	0x00000000	0.0
195	0x387fb89d	6.0968672e-05
196	0x372b7048	1.0218537e-05
197	0x39ae4c64	0.00033244782
198	0x00000000	0.0
199	0xb9bf15d7	-0.0003644663
200	0x39ae4c64	0.00033244782
201	0x00000000	0.0
202	0x3877e27c	5.910032e-05
203	0x37b05ae9	2.1023168e-05
204	0x3a334b3f	0.00068395206
205	0x00000000	0.0
206	0xba448fdc	-0.00074982434
207	0x3a334b3f	0.00068395206
208	0x00000000	0.0
209	0x38f1bb9a	0.00011526719
210	0x370bfaf8	8.343479e-06
211	0x398e4efe	0.00027143204
212	0x00000000	0.0
213	0xb99c03b6	-0.00029757404
214	0x398e4efe	0.00027143204
215	0x00000000	0.0
216	0x38556ad9	5.0882667e-05
217	0x368edbfb	4.257539e-06
218	0x39113df3	0.00013851355
219	0x00000000	0.0
220	0xb91f3afd	-0.00015185396
221	0x39113df3	0.00013851355
222	0x00000000	0.0
223	0x37a7af9e	1.998973e-05
224	0xb632d054	-2.664533e-06
225	0xb8b5cb50	-8.6686225e-05
226	0x00000000	0.0
227	0x38c74d91	9.503507e-05
228	0xb8b5cb50	-8.6686225e-05
229	0x00000000	0.0
230	0xb73dd5f6	-1.13150945e-05
231	0x346439f5	2.125524e-07
232	0x36e80747	6.914986e-06
233	0x00000000	0.0
234	0xb6fe6011	-7.5809735e-06
235	0x36e80747	6.914986e-06
236	0x00000000	0.0
237	0x358fb7ff	1.070788e-06
238	0x348de017	2.6426343e-07
239	0x37103d3a	8.597324e-06
240	0x00000000	0.0
241	0xb71e218c	-9.425345e-06
242	0x37103d3a	8.597324e-06
243	0x00000000	0.0
244	0x35c4ead1	1.4671479e-06
245	0x36f6428f	7.3391197e-06
246	0x397a5ca5	0.0002387637
247	0x00000000	0.0
248	0xb9893cbb	-0.00026175924
249	0x397a5ca5	0.0002387637
250	0x00000000	0.0
251	0x3814cb6b	3.5475397e-05
252	0x36fb097b	7.4814866e-06
253	0x397f3785	0.00024339378
254	0x00000000	0.0
255	0xb98be608	-0.00026683533

exp_avg_sq f4 [128, 7]
0	0x3096af59	1.0963773e-09
1	0x359bbf72	1.1604118e-06
2	0x00000000	0.0
3	0x35bb3153	1.3946941e-06
4	0x359bbf72	1.1604118e-06
5	0x00000000	0.0
6	0x32bccc60	2.197902e-08
7	0x2d47b0b3	1.13510755e-11
8	0x324e6657	1.20140475e-08
9	0x00000000	0.0
10	0x3278124e	1.4439662e-08
11	0x324e6657	1.20140475e-08
12	0x00000000	0.0
13	0x2fe9706a	4.2462328e-10
14	0x319fbeb0	4.6491877e-09
15	0x36a51cc1	4.9207306e-06
16	0x00000000	0.0
17	0x36c672bc	5.9142167e-06
18	0x36a51cc1	4.9207306e-06
19	0x00000000	0.0
20	0x342e701a	1.6245795e-07
21	0x30ff07c2	1.8555897e-09
22	0x3603ccb9	1.9639685e-06
23	0x00000000	0.0
24	0x361e68e9	2.36049e-06
25	0x3603ccb9	1.9639685e-06
26	0x00000000	0.0
27	0x33a6e36c	7.771345e-08
28	0x24da8cc3	9.478089e-17
29	0x29e1e49d	1.0031665e-13
30	0x00000000	0.0
31	0x2a07c020	1.2057065e-13
32	0x29e1e49d	1.0031665e-13
33	0x00000000	0.0
34	0x2765aa19	3.1872344e-15
35	0x2dfa3a16	2.8447505e-11
36	0x33015121	3.010894e-08
37	0x00000000	0.0
38	0x331b6d15	3.618796e-08
39	0x33015121	3.010894e-08
40	0x00000000	0.0
41	0x308ec5b6	1.0388053e-09
42	0x31430498	2.8378846e-09
43	0x3649921b	3.0036379e-06
44	0x00000000	0.0
45	0x36724479	3.6100666e-06
46	0x3649921b	3.0036379e-06
47	0x00000000	0.0
48	0x33dc0612	1.02456525e-07
49	0x332f9df3	4.0889017e-08
50	0x38358496	4.3277243e-05
51	0x00000000	0.0
52	0x385a2a76	5.2014795e-05
53	0x38358496	4.3277243e-05
54	0x00000000	0.0
55	0x35d5968f	1.5913555e-06
56	0x31374f22	2.6674987e-09
57	0x363d7806	2.8233057e-06
58	0x00000000	0.0
59	0x3663b8ce	3.3933206e-06
60	0x363d7806	2.8233057e-06
61	0x00000000	0.0
62	0x33b64e36	8.489262e-08
63	0x2d63e8c5	1.2955141e-11
64	0x326b9133	1.3711815e-08
65	0x00000000	0.0
66	0x328d9057	1.6480199e-08
67	0x326b9133	1.3711815e-08
68	0x00000000	0.0
69	0x2ffee8a7	4.636764e-10
70	0x2d08ab70	7.768772e-12
71	0x320d4312	8.22253e-09
72	0x00000000	0.0
73	0x3229c85a	9.882649e-09
74	0x320d4312	8.22253e-09
75	0x00000000	0.0
76	0x2e587a53	4.922136e-11
77	0x311fd03c	2.3255913e-09
78	0x36252ee5	2.4614212e-06
79	0x00000000	0.0
80	0x3646888b	2.9583778e-06
81	0x36252ee5	2.4614212e-06
82	0x00000000	0.0
83	0x33b6f964	8.520399e-08
84	0x2e132ed2	3.3465515e-11
85	0x331820c6	3.5420065e-08
86	0x00000000	0.0
87	0x3336d7bf	4.2571397e-08
88	0x331820c6	3.5420065e-08
89	0x00000000	0.0
90	0x30c67b7b	1.4441491e-09
91	0x2d1efad6	9.036957e-12
92	0x32245250	9.564772e-09
93	0x00000000	0.0
94	0x32457f7e	1.1495898e-08
95	0x32245250	9.564772e-09
96	0x00000000	0.0
97	0x2fc29b9f	3.539897e-10
98	0x2dd000da	2.364724e-11
99	0x32d6fe09	2.50284e-08
100	0x00000000	0.0
101	0x3301330e	3.0081587e-08
102	0x32d6fe09	2.50284e-08
103	0x00000000	0.0
104	0x3075291b	8.9188895e-10
105	0x2c12ab64	2.0842989e-12
106	0x3117990a	2.2060385e-09
107	0x00000000	0.0
108	0x31363479	2.6514313e-09
109	0x3117990a	2.2060385e-09
110	0x00000000	0.0
111	0x2e6765a6	5.26136e-11
112	0x2d738338	1.3842087e-11
113	0x327bb1de	1.4650565e-08
114	0x00000000	0.0
115	0x3297417d	1.7608494e-08
116	0x327bb1de	1.4650565e-08
117	0x00000000	0.0
118	0x30053610	4.8461946e-10
119	0x2e2c3297	3.9153205e-11
120	0x3331fbba	4.1439968e-08
121	0x00000000	0.0
122	0x3355eae6	4.9806566e-08
123	0x3331fbba	4.1439968e-08
124	0x00000000	0.0
125	0x30dab73e	1.5913668e-09
126	0x315c7cbb	3.2085115e-09
127	0x3663e542	3.3959082e-06
128	0x00000000	0.0
129	0x3688f41b	4.0815335e-06
130	0x3663e542	3.3959082e-06
131	0x00000000	0.0
132	0x33fc1ccc	1.17399026e-07
133	0x31bd0b63	5.5019185e-09
134	0x36c36568	5.823258e-06
135	0x00000000	0.0
136	0x36ead8a8	6.9989655e-06
137	0x36c36568	5.823258e-06
138	0x00000000	0.0
139	0x345a155f	2.0310607e-07
140	0x317d3a1e	3.6849381e-09
141	0x3682de29	3.9001648e-06
142	0x00000000	0.0
143	0x369d4a34	4.687603e-06
144	0x3682de29	3.9001648e-06
145	0x00000000	0.0
146	0x34215d60	1.5028263e-07
147	0x2d401528	1.0918634e-11
148	0x32468974	1.155637e-08
149	0x00000000	0.0
150	0x326e9ef9	1.38895695e-08
151	0x32468974	1.155637e-08
152	0x00000000	0.0
153	0x2fb76767	3.3360978e-10
154	0x311031aa	2.0982989e-09
155	0x361509e5	2.220849e-06
156	0x00000000	0.0
157	0x36332118	2.6692342e-06
158	0x361509e5	2.220849e-06
159	0x00000000	0.0
160	0x339300d3	6.845371e-08
161	0x311771b4	2.2038025e-09
162	0x361c8860	2.3325192e-06
163	0x00000000	0.0
164	0x363c22ef	2.8034517e-06
165	0x361c8860	2.3325192e-06
166	0x00000000	0.0
167	0x33a36f3b	7.610512e-08
168	0x2dd6b0df	2.440753e-11
169	0x32dde791	2.583309e-08
170	0x00000000	0.0
171	0x33055a6d	3.1048717e-08
172	0x32dde791	2.583309e-08
173	0x00000000	0.0
174	0x30648411	8.3133594e-10
175	0x30d86337	1.5744267e-09
176	0x35dfa882	1.6663837e-06
177	0x00000000	0.0
178	0x3606683b	2.0028226e-06
179	0x35dfa882	1.6663837e-06
180	0x00000000	0.0
181	0x33828aaf	6.078823e-08
182	0x3226cce1	9.709056e-09
183	0x372c6796	1.0276117e-05
184	0x00000000	0.0
185	0x374f367b	1.2350846e-05
186	0x372c6796	1.0276117e-05
187	0x00000000	0.0
188	0x34ac65df	3.2111618e-07
189	0x31e6bd67	6.7154136e-09
190	0x36ee7e07	7.1076242e-06
191	0x00000000	0.0
192	0x370f5269	8.542652e-06
193	0x36ee7e07	7.1076242e-06
194	0x00000000	0.0
195	0x346a90a7	2.1845572e-07
196	0x31130d60	2.1398918e-09
197	0x3617fe36	2.2648724e-06
198	0x00000000	0.0
199	0x3636ae28	2.7221486e-06
200	0x3617fe36	2.2648724e-06
201	0x00000000	0.0
202	0x33af5183	8.1638994e-08
203	0x31e64047	6.7011885e-09
204	0x36edfcbb	7.092572e-06
205	0x00000000	0.0
206	0x370f04b2	8.524557e-06
207	0x36edfcbb	7.092572e-06
208	0x00000000	0.0
209	0x348c9637	2.6186328e-07
210	0x31864e0d	3.9087866e-09
211	0x368ad14b	4.1370854e-06
212	0x00000000	0.0
213	0x36a6d82d	4.9723517e-06
214	0x368ad14b	4.1370854e-06
215	0x00000000	0.0
216	0x34295982	1.5771914e-07
217	0x2fa40645	2.983588e-10
218	0x34a98921	3.1578477e-07
219	0x00000000	0.0
220	0x34cbc3c2	3.795413e-07
221	0x34a98921	3.1578477e-07
222	0x00000000	0.0
223	0x322a13b5	9.899783e-09
224	0x2eb56aac	8.249876e-11
225	0x33bb8327	8.7317225e-08
226	0x00000000	0.0
227	0x33e15edf	1.0494636e-07
228	0x33bb8327	8.7317225e-08
229	0x00000000	0.0
230	0x3112ace9	2.1344084e-09
231	0x2b8958af	9.75905e-13
232	0x308df60b	1.032903e-09
233	0x00000000	0.0
234	0x30aa9f72	1.2414445e-09
235	0x308df60b	1.032903e-09
236	0x00000000	0.0
237	0x2e1048ba	3.2806403e-11
238	0x2bbe24b5	1.35105e-12
239	0x30c48843	1.4299605e-09
240	0x00000000	0.0
241	0x30ec362d	1.7186658e-09
242	0x30c48843	1.4299605e-09
243	0x00000000	0.0
244	0x2e67cb57	5.270392e-11
245	0x3105450b	1.9393294e-09
246	0x3609bf5d	2.052598e-06
247	0x00000000	0.0
248	0x36258ef1	2.4670119e-06
249	0x3609bf5d	2.052598e-06
250	0x00000000	0.0
251	0x338d45a7	6.578494e-08
252	0x30d619ab	1.5577845e-09
253	0x35dd4b37	1.6487674e-06
254	0x00000000	0.0
255	0x3604fc85	1.9816518e-06

exp_avg f4 [128]
0	0xb895a96b	-7.13643e-05
1	0x36a95900	5.0469534e-06
2	0xb8913a02	-6.9249436e-05
3	0x38949b2d	7.086094e-05
4	0xb23f88dc	-1.11487815e-08
5	0xb64ad697	-3.0225253e-06
6	0xb88c26ee	-6.6829714e-05
7	0x399b680f	0.00029641434
8	0xb66fa48a	-3.570955e-06
9	0xb6b00a67	-5.2464197e-06
10	0xb62b20e9	-2.5500142e-06
11	0x38454fda	4.7042828e-05
12	0xb6c92a4f	-5.995192e-06
13	0x3579010a	9.276124e-07
14	0xb6346f23	-2.688678e-06
15	0x32b5745e	2.1124091e-08
16	0xb6969072	-4.487164e-06
17	0x37392c93	1.10372375e-05
18	0x382a57d0	4.061294e-05
19	0x38e4f0d2	0.000109167435
20	0x38dd9b68	0.00010567048
21	0x36a8a291	5.0257154e-06
22	0x36003ad3	1.9107727e-06
23	0xb8a4a304	-7.8504934e-05
24	0xb6b370b4	-5.347736e-06
25	0x387effab	6.079643e-05
26	0xb93450d4	-0.00017196249
27	0x3888ff13	6.5324966e-05
28	0x388ede17	6.812455e-05
29	0x3912f654	0.0001401541
30	0x38694b00	5.5621378e-05
31	0x37ee19fb	2.8383909e-05
32	0xb79502f7	-1.7763565e-05
33	0x35be2fec	1.417005e-06
34	0x35ec7528	1.7617467e-06
35	0x384d36f1	4.8926977e-05
36	0x385131b4	4.9875773e-05
37	0xb92e552a	-0.00016625659
38	0x35a0a45a	1.1968762e-06
39	0x35acfe4f	1.2889012e-06
40	0x36b3abd0	5.3546173e-06
41	0xb840162c	-4.5797016e-05
42	0xb517af81	-5.6507275e-07
43	0xb7fd5fec	-3.0204617e-05
44	0x392a7e65	0.00016259549
45	0xb4bbb56c	-3.4963466e-07
46	0xb69a66f9	-4.6015452e-06
47	0x3928228c	0.00016034598
48	0x363701ef	2.727025e-06
49	0x367cde97	3.768049e-06
50	0xb8418dbc	-4.6146786e-05
51	0x37c74d70	2.3758708e-05
52	0x378ebb51	1.7014945e-05
53	0x3907e58b	0.00012960115
54	0x39166111	0.00014341275
55	0xb8497b04	-4.80367e-05
56	0x38e76d11	0.000110352536
57	0xb7022a0a	-7.758392e-06
58	0x37502a56	1.2407623e-05
59	0x39687eb8	0.0002217245
60	0x38d788cf	0.000102774815
61	0x3764ba4f	1.3633237e-05
62	0x369eea02	4.736009e-06
63	0x38d5ca57	0.0001019432
64	0x394ee3cb	0.0001973055
65	0x39ae9f68	0.00033306633
66	0xb7614173	-1.3426284e-05
67	0x36035310	1.956887e-06
68	0xb78df1aa	-1.6921043e-05
69	0xb90b6fa4	-0.00013297662
70	0x391f1945	0.00015172835
71	0x391dc34d	0.00015045442
72	0x396ab921	0.00022384945
73	0x388c6e7c	6.6962995e-05
74	0xb5b6e8af	-1.3627777e-06
75	0x37f249a1	2.8882934e-05
76	0x372c1f5f	1.0259303e-05
77	0x371c8b44	9.33075e-06
78	0x3749937c	1.20148725e-05
79	0x37dfcebf	2.6679945e-05
80	0x38e13f48	0.00010740623
81	0x38bedfdb	9.101602e-05
82	0x35463bef	7.384796e-07
83	0xb67e220e	-3.7868772e-06
84	0x38016422	3.0849253e-05
85	0x360e5646	2.1209867e-06
86	0xb6a021b6	-4.772296e-06
87	0xb532f437	-6.6665547e-07
88	0x3901563d	0.00012334525
89	0x39b12aea	0.00033792044
90	0x38c0c090	9.191141e-05
91	0x390b6b26	0.00013295989
92	0xb899809f	-7.319566e-05
93	0x395a6c5e	0.0002083047
94	0x38c8da94	9.5774565e-05
95	0xb9264f72	-0.0001586059
96	0x3608a411	2.0361078e-06
97	0x369e36e1	4.7151557e-06
98	0xb7f9cf74	-2.9779716e-05
99	0xb501b5cb	-4.832079e-07
100	0x3640f711	2.875404e-06
101	0x359ca245	1.1670132e-06
102	0xb7d5f4ce	-2.5505575e-05
103	0x35e3713b	1.6945772e-06
104	0x3995008d	0.00028419905
105	0x368dcb2d	4.2257802e-06
106	0xb7bb2763	-2.2310478e-05
107	0x38c1a541	9.233738e-05
108	0x39499ce4	0.000192273
109	0x39160e04	0.00014310336
110	0xb88ae5e5	-6.623174e-05
111	0xb455fc95	-1.992906e-07
112	0x360a11eb	2.0574032e-06
113	0x37c42bdb	2.3385443e-05
114	0x358286c8	9.724981e-07
115	0x394ae44d	0.0001934927
116	0x37ae49dc	2.077681e-05
117	0x392c42d4	0.00016428094
118	0xb86e5b3a	-5.6828583e-05
119	0xb796fad5	-1.7998196e-05
120	0x383bdbc4	4.4788947e-05
121	0x38bc12d8	8.9680485e-05
122	0x3900197d	0.00012216526
123	0xb5c8a372	-1.494873e-06
124	0xb853ef1e	-5.0529015e-05
125	0x38b244aa	8.500491e-05
126	0xb8f898c7	-0.000118540185
127	0xb8cb13da	-9.683492e-05

exp_avg_sq f4 [128]
0	0x3351482d	4.8727248e-08
1	0x300aac1c	5.044869e-10
2	0x345ddd79	2.06628e-07
3	0x33b11a35	8.246972e-08
4	0x2797c4e1	4.2124376e-15
5	0x30adc43e	1.2643182e-09
6	0x34076d84	1.2612696e-07
7	0x35f3e8e5	1.8172692e-06
8	0x33fe97eb	1.18554304e-07
9	0x301e44cf	5.757785e-10
10	0x2fbdd138	3.4527559e-10
11	0x33ddf5ee	1.0335849e-07
12	0x30cc6b16	1.4873389e-09
13	0x2fdccd8d	4.016382e-10
14	0x309071f9	1.0509772e-09
15	0x2ecbb4a3	9.263459e-11
16	0x30291aa9	6.151973e-10
17	0x30ef2911	1.740121e-09
18	0x34191d4e	1.4259896e-07
19	0x34834781	2.4452677e-07
20	0x342fd9b2	1.6377342e-07
21	0x300563b0	4.852678e-10
22	0x33c84463	9.325665e-08
23	0x33d2563c	9.794573e-08
24	0x309516d7	1.0847668e-09
25	0x33964479	6.9973744e-08
26	0x34e7aa23	4.3150894e-07
27	0x34a03beb	2.9845918e-07
28	0x33cc3cab	9.510526e-08
29	0x349fe514	2.9782734e-07
30	0x343a884b	1.7372183e-07
31	0x3263cf36	1.3260253e-08
32	0x317bf6fe	3.6665706e-09
33	0x2e3ec1b5	4.3373045e-11
34	0x2e840af5	6.0046114e-11
35	0x33b9182d	8.6191314e-08
36	0x3394add5	6.923407e-08
37	0x35167dca	5.60624e-07
38	0x2f3c3ac2	1.7119375e-10
39	0x303aba7f	6.793143e-10
40	0x30035842	4.7782944e-10
41	0x34893e02	2.5563355e-07
42	0x2e08b7f4	3.1086203e-11
43	0x32fb0165	2.922088e-08
44	0x350e53bb	5.3020966e-07
45	0x2c88db9d	3.8897345e-12
46	0x307750c1	8.9972835e-10
47	0x352368b5	6.08746e-07
48	0x3058e35e	7.890345e-10
49	0x2f9dc3ee	2.869735e-10
50	0x336c89d0	5.507337e-08
51	0x3337bd91	4.2780417e-08
52	0x337e4fab	5.921144e-08
53	0x34ca7c63	3.7715935e-07
54	0x34d14d9d	3.8985755e-07
55	0x33c9cb49	9.396769e-08
56	0x34916bb6	2.7086725e-07
57	0x33013353	3.0081832e-08
58	0x31523041	3.0586451e-09
59	0x358d5f09	1.0532978e-06
60	0x341c269c	1.4542678e-07
61	0x31844856	3.8499293e-09
62	0x2ff000fd	4.3656448e-10
63	0x3498b142	2.8441178e-07
64	0x3539f28b	6.9270817e-07
65	0x36130ad6	2.1911014e-06
66	0x33d89c64	1.0086731e-07
67	0x2f542ad0	1.9296498e-10
68	0x333a0151	4.3307697e-08
69	0x34b6e194	3.406427e-07
70	0x34ca3868	3.7666473e-07
71	0x34c3543f	3.6382878e-07
72	0x357720d4	9.206244e-07
73	0x33a5e634	7.725285e-08
74	0x2e93a098	6.713313e-11
75	0x32801819	1.491212e-08
76	0x30ff522c	1.8577047e-09
77	0x30f76513	1.8000342e-09
78	0x31489a5e	2.9191578e-09
79	0x32fce064	2.9438702e-08
80	0x3439fcf5	1.7321493e-07
81	0x342378a0	1.5224441e-07
82	0x2fec14d0	4.2942938e-10
83	0x30249e74	5.988803e-10
84	0x32b0569f	2.0528487e-08
85	0x2f0dcf3d	1.2897501e-10
86	0x30848bc6	9.64399e-10
87	0x2ff208dc	4.4025839e-10
88	0x34bf73ee	3.5660872e-07
89	0x36174a95	2.2544166e-06
90	0x34a69428	3.1027707e-07
91	0x34b07e38	3.287439e-07
92	0x342334f2	1.519982e-07
93	0x3569e975	8.713899e-07
94	0x33dcd0ff	1.02825645e-07
95	0x35059ad6	4.9771677e-07
96	0x2f2f0ac9	1.5919989e-10
97	0x2fd9468b	3.9522194e-10
98	0x31f3a657	7.0911415e-09
99	0x2cee02da	6.7646834e-12
100	0x3078d7b7	9.0528424e-10
101	0x2fa5a29d	3.012887e-10
102	0x3239a922	1.0806874e-08
103	0x2e72bd78	5.519271e-11
104	0x35d14290	1.5591086e-06
105	0x30bb3c42	1.3623167e-09
106	0x31ef9ec6	6.973866e-09
107	0x34976847	2.8201814e-07
108	0x354f996f	7.7336784e-07
109	0x348c33e6	2.6114793e-07
110	0x34204351	1.4925651e-07
111	0x2d7b8039	1.4296169e-11
112	0x2f5ac73d	1.9897768e-10
113	0x33174110	3.52166e-08
114	0x2e19bb05	3.495428e-11
115	0x35433daa	7.2732894e-07
116	0x3204cb7f	7.729681e-09
117	0x3504ee8f	4.952098e-07
118	0x340bbc60	1.3013914e-07
119	0x341b85f3	1.448423e-07
120	0x32bfe8ab	2.2341132e-08
121	0x342850dc	1.5675636e-07
122	0x346e5f11	2.2200062e-07
123	0x2e988e77	6.9374666e-11
124	0x33718e39	5.6241536e-08
125	0x33d31d44	9.8307765e-08
126	0x34bdd7c9	3.5360998e-07
127	0x3435abeb	1.6919482e-07
