results/test_9/Boss/Boss-440671.onnx (onnx, 75574 bytes, 7 tensors)

network_body._body_endoder.seq_layers.0.weight f4 [128, 7]
0	0x3e82b715	0.25530306
1	0x3ea53eb9	0.32274416
2	0xbf49ed46	-0.78877676
3	0x3e1c5c6d	0.15269633
4	0xbdba42f8	-0.090948045
5	0xbe2fb87b	-0.17160217
6	0xbf905d0e	-1.1278398
7	0x3e29a0b4	0.1656521
8	0xbdde9c3f	-0.10869645
9	0xbef1c418	-0.4721992
10	0xbe53a6a1	-0.20669033
11	0xbee9277c	-0.45537937
12	0xbc2340b6	-0.009964159
13	0x3d68dfd9	0.056854103
14	0x3e9500e8	0.29102254
15	0x3e718cde	0.23588893
16	0x3e5bb1c2	0.21454528
17	0x3c7bbe37	0.015365175
18	0x3e00c906	0.12576684
19	0x3de102c4	0.109868556
20	0x3e120e16	0.14263186
21	0x3f0d9821	0.55310255
22	0xbc6f665a	-0.014611805
23	0x3d4d58a2	0.050133355
24	0xbeb9c46e	-0.36282676
25	0x3eb36cb8	0.35043883
26	0xbda4bf7c	-0.08044335
27	0xbdeadf37	-0.11468356
28	0x3e9d2152	0.30689484
29	0xbd96f153	-0.07370248
30	0x3e2a5d47	0.16637145
31	0x3f913052	1.1342871
32	0xbf6b178e	-0.91832817
33	0x3eb7e9f0	0.35920668
34	0xbe3dd3ab	-0.18537776
35	0x3d822b43	0.06355908
36	0x3d0c52a3	0.034258496
37	0x3e28b904	0.16476828
38	0x3f0ba720	0.5455189
39	0x3c878e29	0.01654728
40	0x3de75526	0.11295538
41	0x3eb12907	0.34601614
42	0x3eb2ceb5	0.3492333
43	0x3c961d48	0.01832451
44	0xbf178fb7	-0.59203666
45	0xbd2ea701	-0.042639736
46	0x3e2aa067	0.16662751
47	0xbf26e691	-0.65195566
48	0xbed72727	-0.42022058
49	0x3e690542	0.22755912
50	0xbeabfe45	-0.3359243
51	0xbe6cfe5b	-0.23143904
52	0xbc958801	-0.018253328
53	0x3eafc606	0.34330767
54	0xbe0a236d	-0.13490076
55	0x3eeb011b	0.4589928
56	0xbeace99e	-0.33771986
57	0x3ea349cd	0.31892243
58	0x3ded785e	0.11595224
59	0x3d8cf56f	0.0688275
60	0x3e85ea2b	0.26155218
61	0xbf84df1d	-1.0380589
62	0x3ddcda0e	0.10783778
63	0x3df10e1d	0.1177027
64	0xbf2ffadc	-0.68742156
65	0x3da8d845	0.08244375
66	0xbe72f4ae	-0.2372615
67	0xbdcc6597	-0.09980314
68	0x3d825051	0.063629754
69	0xbe7f53a6	-0.24934253
70	0x3caa3ed2	0.020781908
71	0xbe048f92	-0.12945393
72	0x3e70ce83	0.23516278
73	0xbdc27b3f	-0.094961636
74	0xbe050c50	-0.12992978
75	0x3e2b22b3	0.16712455
76	0xbec2c87b	-0.3804358
77	0xbebfd413	-0.37466487
78	0x3e1e7d7d	0.15477557
79	0xbee790b2	-0.4522758
80	0x3cc4e881	0.024036648
81	0x3e9089aa	0.2823003
82	0xbe242f31	-0.16033627
83	0xbe65a996	-0.22427973
84	0xbe66c683	-0.22536664
85	0xbe4d9911	-0.20077921
86	0x3ee07989	0.43842724
87	0x3ec88a53	0.39168033
88	0x3eaa041a	0.33206254
89	0x3ebaa553	0.36454257
90	0xbfad3745	-1.3532492
91	0x3ec05bce	0.3757004
92	0xbeb24177	-0.3481557
93	0x3f45a5ab	0.77205914
94	0xbd709051	-0.05873138
95	0xbc8168a8	-0.015796974
96	0x3f078804	0.5294192
97	0xbe8cf2be	-0.27528948
98	0x3f01e213	0.50735587
99	0xbf2b67d6	-0.66955316
100	0xbf2dd5de	-0.6790446
101	0xbebecaf0	-0.37264204
102	0xbea476da	-0.32121927
103	0xbda3cfd4	-0.079986244
104	0xbe0708c7	-0.13186942
105	0x3ebf9e51	0.37425473
106	0xbd9a2c98	-0.07528037
107	0xbebd54dc	-0.36978805
108	0x3e180734	0.14846498
109	0xbe2c25b8	-0.16811264
110	0x3eb91b80	0.36153793
111	0x3e07e1db	0.13269751
112	0x3e868d8a	0.2627986
113	0xbf1e2fb4	-0.6179154
114	0x3e14be6f	0.1452577
115	0x3e5666b7	0.2093762
116	0x3db10ed4	0.08645406
117	0xbec28469	-0.37991646
118	0xbecdda8d	-0.40205804
119	0x3e474533	0.19459991
120	0xbea62084	-0.32446682
121	0x3e8b458c	0.27201498
122	0x3edf86ff	0.4365768
123	0xbd13db4b	-0.036097806
124	0x3f22ab09	0.6354223
125	0x3eb25d14	0.34836638
126	0x3e1adffb	0.15124504
127	0x3f22fcdf	0.636671
128	0xbc659538	-0.014012627
129	0x3cfb589b	0.030681899
130	0xbe8565c7	-0.26054212
131	0xbe82af59	-0.25524405
132	0xbe41ebfc	-0.18937677
133	0x3c5b52f3	0.013386476
134	0xbde631b0	-0.11239946
135	0xbe9831c3	-0.29725465
136	0xbd0be9d0	-0.034158528
137	0x3e3455c2	0.17610839
138	0xbd337308	-0.043810874
139	0x3e0be5aa	0.13661829
140	0x3eba9f41	0.36449626
141	0x3e284bcd	0.16435166
142	0x3f380cfa	0.718948
143	0xbe890b6a	-0.2676652
144	0x3f02f609	0.5115667
145	0xbe026f23	-0.12737708
146	0xbe96eed3	-0.29479083
147	0xbe076ab4	-0.13224298
148	0x3d5d88d4	0.054085568
149	0x3ecd8267	0.40138552
150	0x3e0166e1	0.12636901
151	0xbe874f07	-0.2642748
152	0xbecb52b6	-0.3971154
153	0x3e5ae0db	0.21374838
154	0xbe79eb6b	-0.24406211
155	0x3f39e6b8	0.72617674
156	0xbd9946e1	-0.07484222
157	0xbee8a4a7	-0.4543812
158	0xbedbfb2d	-0.4296507
159	0x3e6d0b4a	0.23148838
160	0xbe719ffb	-0.23596184
161	0x3f092a01	0.5357972
162	0xbe46f6ab	-0.19430034
163	0xbe245ad5	-0.16050275
164	0xbea39cb1	-0.31955484
165	0xbe43428d	-0.19068356
166	0xbeb1d7cf	-0.3473496
167	0xbe9b5cda	-0.30344278
168	0x3ee125ca	0.43974143
169	0xbdc85180	-0.0978117
170	0xbe8c4bb2	-0.274015
171	0x3dad3eaf	0.084592216
172	0xbef144e1	-0.47122863
173	0xbd56e65f	-0.052465793
174	0x3e227e71	0.15868546
175	0x3e9e1e10	0.3088231
176	0x3f25e400	0.64801025
177	0x3e0d8b49	0.13822664
178	0xbeb951f6	-0.36195344
179	0xbe88547f	-0.26626965
180	0x3f12509f	0.5715427
181	0x3e7072a4	0.23481232
182	0xbddc65f1	-0.10761631
183	0x3ea4a5d8	0.3215778
184	0xbef33a69	-0.475055
185	0x3f43c26e	0.7646855
186	0x3f1a5e0c	0.60299754
187	0xbe07bf79	-0.13256635
188	0xbf1e8f8f	-0.61937803
189	0x3ec55806	0.3854372
190	0x3bc895df	0.0061213817
191	0xbef308e7	-0.4746773
192	0xbf119395	-0.5686582
193	0x3ea14bb7	0.31503078
194	0xbef2fc5d	-0.47458163
195	0x3e8b4756	0.27202863
196	0x3e22281a	0.1583561
197	0x3f17dd68	0.59322214
198	0x3e8091ad	0.25111142
199	0xbe8feb64	-0.28109276
200	0x3e96a807	0.2942507
201	0x3ea4890c	0.32135808
202	0xbe9b3aea	-0.30318385
203	0x3d1de4cf	0.038548287
204	0xbf35c7cd	-0.71007997
205	0x3e4ee429	0.20204224
206	0xbf1c7025	-0.6110862
207	0x3ec3c304	0.38234723
208	0xbb03ee87	-0.0020131187
209	0x3f3fd381	0.74932104
210	0x3e675d4f	0.22594188
211	0x3db02761	0.08601261
212	0x3f0c7132	0.5486022
213	0xbf013f31	-0.5048705
214	0xbe2a6af9	-0.1664237
215	0xbe913d2d	-0.28366986
216	0xbe9cad5d	-0.30601016
217	0xbe69c3ce	-0.228286
218	0x3fb0ec82	1.3822176
219	0x3ec386c9	0.3818877
220	0xbe000dc4	-0.12505251
221	0x3edbe6e0	0.4294958
222	0x3ec9a2e3	0.39382085
223	0x3f1beb29	0.609057
224	0xbe976aa9	-0.29573563
225	0x3ea72817	0.32647774
226	0x3f2a2684	0.6646502
227	0x3db4d12e	0.0882896
228	0xbe989d7e	-0.29807657
229	0x3e9f1c48	0.31076264
230	0xbf024f49	-0.5090223
231	0xbeac654b	-0.3367103
232	0xbd0477ea	-0.03234092
233	0xbdfc0400	-0.123054504
234	0x3e8cac5a	0.27475244
235	0xbf45a3ef	-0.7720327
236	0x3e99a8fc	0.30011737
237	0x3cd6de01	0.026228907
238	0x3e05f9db	0.13083594
239	0xbe9123e0	-0.28347683
240	0xbf400a0f	-0.7501535
241	0x3f2e5d4f	0.6811113
242	0xbeacebf3	-0.33773765
243	0x3f11967d	0.5687025
244	0x3e89ad7d	0.26890174
245	0xbf5426d9	-0.82871777
246	0x3c0fd7a7	0.008779443
247	0xbf022e45	-0.5085185
248	0xbef0872d	-0.4697813
249	0xbd17ab28	-0.03702846
250	0x3ec01f41	0.37523845
251	0xbd7f64e4	-0.062352076
252	0xbf2f6907	-0.68519634
253	0x3ea0b9eb	0.31391844
254	0x3efe973b	0.49724755
255	0x3db3b8c9	0.08775479

network_body._body_endoder.seq_layers.0.bias f4 [128]
0	0x3d98ab57	0.074545555
1	0x3b7b4b0d	0.0038344294
2	0xbb951265	-0.004549312
3	0xbc102b97	-0.008799455
4	0xbc0bbab8	-0.008528404
5	0xbb2c665c	-0.0026306128
6	0xbba8b948	-0.0051490404
7	0x3ca58981	0.020207169
8	0xbc0043d8	-0.007828675
9	0xbbe950d1	-0.00712023
10	0xbc8e13b3	-0.017343378
11	0xb629e3d1	-2.531557e-06
12	0xbd2e0da8	-0.042493492
13	0xbccc457c	-0.024935476
14	0xbb58bf99	-0.0033073185
15	0xbbccdaef	-0.006251685
16	0xbaf5edf7	-0.0018762936
17	0x3bcf9041	0.006334335
18	0xbba5dae2	-0.0050614933
19	0x3b84bb4d	0.0040506483
20	0xba275181	-0.00063826895
21	0xbceb0376	-0.028688174
22	0xbbc52ad2	-0.0060170675
23	0xb9aa12ce	-0.00032438937
24	0xbb9862b4	-0.004650438
25	0xbbe18a98	-0.0068829767
26	0x3c436b8a	0.011927495
27	0x3a743240	0.0009315349
28	0x3b0e1fcf	0.002168644
29	0x3c2c9e65	0.010535811
30	0xbb1ce246	-0.002393858
31	0xbd0cfa0d	-0.034418155
32	0x3d40b0f4	0.047043756
33	0xba689c90	-0.0008873427
34	0x3c40c896	0.011766573
35	0xbbab09ab	-0.0052196584
36	0x39c27d90	0.00037096115
37	0x3bf675b5	0.007521356
38	0xbbd0d6f1	-0.0063732793
39	0xbb3de379	-0.0028974696
40	0x3c200831	0.009767578
41	0xbb94bfdf	-0.0045394744
42	0xbba9e72c	-0.0051850285
43	0xbb3632de	-0.0027801315
44	0x3a65b106	0.0008762035
45	0xbb80581a	-0.0039167525
46	0xbc364264	-0.011124227
47	0x3b8187c7	0.0039529535
48	0x3b7de14b	0.0038739021
49	0x3b776b39	0.0037753119
50	0x3a83b99e	0.0010049825
51	0xbb7f9d3f	-0.0039003638
52	0x3b0fcc8b	0.0021941985
53	0xbb014da6	-0.001973012
54	0x3c15f52b	0.009152691
55	0xbc1063ef	-0.0088128885
56	0xbb41a8d1	-0.0029550085
57	0xbb7a504a	-0.0038194829
58	0xbbed288c	-0.0072374996
59	0x3c299722	0.010350974
60	0x3b00746f	0.001960065
61	0x3bb88e2f	0.005632184
62	0x3c4cb23e	0.012493668
63	0x3ab1674f	0.0013534817
64	0x3c09441d	0.008378056
65	0x3c872b5a	0.016500164
66	0xbbbf2188	-0.0058328547
67	0xbbd87c06	-0.0066065816
68	0xbc37294a	-0.011179278
69	0xbb29074d	-0.0025791705
70	0xbb07302c	-0.0020628078
71	0x3bb7d1ee	0.0056097424
72	0x3c710f97	0.01471319
73	0xbc04d6ed	-0.008107883
74	0xbc89ed43	-0.016836768
75	0x3d024367	0.03180256
76	0x3af37478	0.0018574139
77	0x3c4d11f5	0.012516488
78	0x3c195412	0.009358423
79	0xbc115183	-0.008869532
80	0x3ca5c7db	0.0202369
81	0x3c9caf77	0.019126637
82	0xbbffab6a	-0.0078024166
83	0x3b2cb39c	0.0026352173
84	0xbc94fde2	-0.018187467
85	0x3c4c8da8	0.012484945
86	0xbd1d32ff	-0.03837871
87	0xb8c26ff1	-9.2714916e-05
88	0xbb391423	-0.0028240762
89	0x3ceb70ce	0.028740313
90	0xb970e909	-0.00022974996
91	0xba4da045	-0.00078440114
92	0xbc405f45	-0.011741464
93	0x3bf60f83	0.0075091734
94	0xbc0553ee	-0.008137686
95	0x3c11728e	0.00887741
96	0xbb897252	-0.0041945362
97	0xbd07a85b	-0.03311954
98	0x3d992f76	0.074797556
99	0xbb9d876a	-0.0048074024
100	0xbb9020d9	-0.004398447
101	0xb9c1340d	-0.0003685061
102	0x3d4cba08	0.0499821
103	0xbc5cf54c	-0.013486218
104	0x3bc718e4	0.0060759652
105	0xbc8808c6	-0.016605746
106	0x3cc9b5bb	0.024622789
107	0xb993f0db	-0.00028217476
108	0x3bde9762	0.0067929486
109	0xbab80607	-0.0014039882
110	0xbc38c0b1	-0.01127641
111	0x3aa0a52a	0.0012256254
112	0xbaad6641	-0.0013229327
113	0xbc061463	-0.0081835715
114	0xbbc40f08	-0.005983237
115	0xb6692edc	-3.4746981e-06
116	0xbca41788	-0.020030752
117	0x3bafc639	0.005364206
118	0xba944f03	-0.0011315051
119	0xbc180ede	-0.009280888
120	0x3b0e465e	0.0021709423
121	0xbbe232c9	-0.0069030267
122	0x3c2ea8c1	0.010660351
123	0x3b4d474a	0.003132301
124	0xbc4f9d1e	-0.012671737
125	0xbb77bd42	-0.0037802015
126	0xbc3766ab	-0.011193912
127	0xba01f8be	-0.0004958025

network_body._body_endoder.seq_layers.2.weight f4 [128, 128]
0	0xbbe5ae91	-0.0070093353
1	0xbc2b3c36	-0.010451367
2	0xbd27d73b	-0.040976744
3	0x3c7f08b7	0.015566043
4	0xbd99cdae	-0.075099334
5	0x3e0f2cdc	0.13981956
6	0xbce916ce	-0.028453257
7	0x3cc0d4e3	0.023539012
8	0xbd8a4c90	-0.067528844
9	0x3c8d0ae0	0.0172171
10	0x3d861592	0.06547083
11	0xbe11e728	-0.14248335
12	0xbca13ae7	-0.019681407
13	0xbd75ae41	-0.059980635
14	0x3e3a1e0b	0.18175523
15	0xbe347628	-0.17623198
16	0xbd933a70	-0.071888804
17	0x3ce195c3	0.027537232
18	0xbe02fedc	-0.12792534
19	0x3cc91dfd	0.024550432
20	0x3cb325e8	0.021868661
21	0x3cc36e0a	0.023856182
22	0x3d8ec25a	0.06970663
23	0x3d84fff1	0.064941294
24	0x3cc5070d	0.024051214
25	0x3d103900	0.03521061
26	0xbe177c0e	-0.14793417
27	0x3d9cb25d	0.076512076
28	0xbc977c88	-0.018491998
29	0x3d51a8b0	0.051186264
30	0xbd45c6ed	-0.048285414
31	0xbddc1f8c	-0.107482046
32	0x3bd65d11	0.006541856
33	0xbbe53ca5	-0.006995755
34	0xbd9e08ca	-0.0771652
35	0x3da6ad22	0.08138491
36	0xbe3a3787	-0.18185245
37	0x3c57359d	0.013135341
38	0xbd75b840	-0.059990168
39	0xbdabf519	-0.08396358
40	0x3c91f5d5	0.017817417
41	0xbdea2de9	-0.11434538
42	0x3d38211a	0.044953443
43	0x3dd2f566	0.10300712
44	0x3d5d33d8	0.05400452
45	0xbdb089d9	-0.08620042
46	0xbdea6843	-0.114456676
47	0x3e05466d	0.13015147
48	0xbd932b54	-0.071859986
49	0xbd3925a2	-0.045201905
50	0x3da9e17f	0.08294963
51	0x3dc560d6	0.096376106
52	0xbd8c4b93	-0.06850352
53	0xbcbb3b05	-0.022855291
54	0xbd96510e	-0.07339679
55	0xbe036521	-0.12831546
56	0x3dfa0654	0.12208238
57	0x3d857492	0.06516375
58	0xbd784f93	-0.060622763
59	0x3cb8f4b2	0.022577617
60	0xbd26b833	-0.04070301
61	0x3a4e018e	0.0007858508
62	0x3d77f15e	0.06053292
63	0x3dc8173f	0.09770059
64	0x3d7f28d8	0.06229481
65	0x3c7c5906	0.015402084
66	0x3e511357	0.20417534
67	0xbda03c96	-0.07824056
68	0xbc38871b	-0.01126268
69	0xbe10c12e	-0.14136192
70	0x3d4b2c1e	0.04960262
71	0xbd8563e5	-0.06513194
72	0x3d3a8b5d	0.045543063
73	0xbd0e5d0a	-0.034756698
74	0xbb7b07da	-0.003830424
75	0x3e420d32	0.18950346
76	0x3e2c978e	0.16854689
77	0x3d9f7de1	0.07787681
78	0x3dd1e41a	0.10248585
79	0xbd397a1a	-0.04528246
80	0xbdd3b5f8	-0.10337442
81	0x3d8faa63	0.070149206
82	0xbd463db3	-0.048398685
83	0x3b681241	0.003541127
84	0x3d30cf7c	0.043166623
85	0xbb6a8c35	-0.0035789136
86	0xbd1c54ad	-0.03816669
87	0x3cf9e3ca	0.030504126
88	0x3e731188	0.23737156
89	0x3d7754db	0.06038366
90	0xbc103749	-0.0088022435
91	0xbc677407	-0.014126784
92	0xbdede8d9	-0.11616678
93	0xbd654fff	-0.055984493
94	0xbd408eb0	-0.047011077
95	0x3dae0792	0.08497538
96	0xbbb5a4d4	-0.0055433307
97	0x3db2a9d8	0.087238014
98	0x3cc81555	0.024424234
99	0x3d472b51	0.048625294
100	0xbdbd7125	-0.09250096
101	0xbc402f16	-0.011729976
102	0xbd84d359	-0.06485624
103	0xbc37adc4	-0.011210863
104	0x3d3703de	0.044681422
105	0x3cba3547	0.022730483
106	0x3e3910ee	0.18072864
107	0xbd41007a	-0.047119595
108	0x3bb66f68	0.00556748
109	0xbd6e7e2d	-0.0582258
110	0xbdd0589b	-0.1017315
111	0xbd583784	-0.05278732
112	0x3e380e8f	0.17974304
113	0x3dad04f9	0.08448214
114	0x3ce54e83	0.027991539
115	0xbc98f74c	-0.018672608
116	0xbb87f20e	-0.004148728
117	0x3e4eb09a	0.20184556
118	0x3d80c868	0.062882245
119	0x3d0120be	0.031525366
120	0xbc88dcc5	-0.016706834
121	0x3c652c7c	0.013987657
122	0x3d82ddc9	0.063899584
123	0x3e153676	0.14571556
124	0x3b72d2e4	0.003705197
125	0x3b92340a	0.00446177
126	0x3d0f2b64	0.03495349
127	0x3dd51c60	0.10405803
128	0xbcb535ed	-0.02212044
129	0xbd9145ba	-0.070933774
130	0x3b546003	0.003240586
131	0xbd45c8ea	-0.04828731
132	0x3c8a1529	0.016855793
133	0xbdb64dc3	-0.089015506
134	0x3dd732a9	0.105077095
135	0xbe28f1f2	-0.16498545
136	0xbdcffcfc	-0.10155675
137	0x3dc23500	0.09482765
138	0xbe24b694	-0.16085273
139	0xbb503bf0	-0.0031774007
140	0x3c776b56	0.0151012745
141	0x3cd1a441	0.025591018
142	0x3d91ff95	0.071288265
143	0x3cb30b58	0.021855995
144	0x3dea218b	0.11432179
145	0xbc96e728	-0.01842077
146	0x3dcf2036	0.101135656
147	0x3ddcae6a	0.10775454
148	0xbe8aefd5	-0.27136102
149	0x3de0c0d2	0.109742776
150	0x3dc49d7a	0.09600349
151	0xbbc2b3ba	-0.005941835
152	0x3d978f74	0.074004084
153	0x3e181c82	0.14854625
154	0x3d45e76b	0.0483164
155	0xbd32d932	-0.043664165
156	0x3da54127	0.080690674
157	0xbd03f4cd	-0.032215882
158	0xbd52a3dd	-0.051425803
159	0xbde8e3f0	-0.11371601
160	0xbd53bb63	-0.051692378
161	0x3db950e1	0.090486296
162	0xbb9064f7	-0.004406567
163	0xbd2e9097	-0.04261836
164	0xbb83f618	-0.0040271394
165	0xbdd4c305	-0.103887595
166	0x3d1f2238	0.038850993
167	0xbdb7f78a	-0.08982761
168	0xbe1c5db2	-0.15270117
169	0xbd9f78b3	-0.077866934
170	0xbc000047	-0.007812566
171	0x3d5ee23c	0.054414973
172	0xbe0e5a5a	-0.13901654
173	0x3d742519	0.05960569
174	0xbddcb028	-0.10775787
175	0xbd8b0aff	-0.06789207
176	0x3e4bbaa0	0.1989541
177	0xbc8694ec	-0.016428433
178	0x3cfae939	0.030628787
179	0x3e3cb9de	0.18430278
180	0xbe040658	-0.12893045
181	0x3ca65f27	0.020309044
182	0x3c20a343	0.00980455
183	0x3e62c92a	0.2214705
184	0xbdc301ef	-0.09521853
185	0xbd0e784d	-0.034782697
186	0x3d9d65b8	0.07685417
187	0x3c4f6184	0.012657527
188	0x3d4f7393	0.05064733
189	0x3e557c76	0.2084826
190	0x3dc077e4	0.09397867
191	0x3e0db13a	0.13837138
192	0xbde99ad4	-0.11406484
193	0xbdb34ef8	-0.087552965
194	0x3e1ff71b	0.15621607
195	0xbc6535ed	-0.013989908
196	0x3c2fa312	0.010720031
197	0x3e1a34ea	0.15059248
198	0x3c370410	0.011170402
199	0xbdcfc8d5	-0.101457275
200	0x3900d49c	0.00012286234
201	0x3e1093fd	0.14118953
202	0x3da434b0	0.08017862
203	0xbd38e727	-0.04514232
204	0xbdfc94f4	-0.12333098
205	0x3dfea8d8	0.12434548
206	0x3d4fd795	0.050742704
207	0x3de4ae33	0.11166038
208	0xbb453103	-0.0030089028
209	0xbd5a08f0	-0.05323118
210	0x3d2fe258	0.042940468
211	0xbc665d67	-0.014060355
212	0x3d5b3463	0.053516757
213	0x3e3cfda6	0.18456134
214	0x3da60d44	0.08107999
215	0x3d23cdb5	0.0399911
216	0xbd3d3590	-0.04619366
217	0x3c37d547	0.011220283
218	0xbd5a0e1f	-0.053236123
219	0xbe08c927	-0.13357984
220	0x3cba0eec	0.022712193
221	0xbd83b5c9	-0.06431157
222	0x3d8b4553	0.06800332
223	0xbe1ac590	-0.15114427
224	0xbdbb6a02	-0.09151079
225	0x3d4aa86d	0.04947703
226	0xbdb78184	-0.0896025
227	0x3d259bf8	0.040431947
228	0x3d6af0b1	0.057358447
229	0x3e21aefc	0.15789407
230	0xbdd6bd50	-0.10485327
231	0xbc05f1cc	-0.008175325
232	0x3e109e13	0.141228
233	0x38981aca	7.252915e-05
234	0xbde724f5	-0.11286346
235	0xbd8afd2a	-0.067865685
236	0xbceb954a	-0.02875771
237	0x3d2f3784	0.042777553
238	0x3d4990cd	0.04921036
239	0xbcf85698	-0.030314729
240	0x3d5ff9bc	0.054681525
241	0x3d730f96	0.059341036
242	0xbd1c1a1d	-0.03811084
243	0x3e0d1ef2	0.13781336
244	0x3d773dec	0.060361788
245	0xbdc61f5f	-0.09673952
246	0xbd870b9f	-0.065940134
247	0x3c8b79b8	0.017025813
248	0xbd14e0f9	-0.036347363
249	0xbc8c897a	-0.017155398
250	0xbd528d2d	-0.051404167
251	0xbe22d59a	-0.15901795
252	0x3c997369	0.01873179
253	0x3dc92b65	0.0982273
254	0xbc8a4d02	-0.016882423
255	0x3db06a85	0.08614067

network_body._body_endoder.seq_layers.2.bias f4 [128]
0	0xbb5ba515	-0.0033515145
1	0xbaa3d415	-0.0012499118
2	0xbb9f525d	-0.0048621134
3	0xba2972f2	-0.00064639666
4	0xbb779c8b	-0.0037782516
5	0x3b1337cb	0.0022463675
6	0x3adfbc91	0.0017069747
7	0xbc0e863f	-0.008698999
8	0xbb4932a5	-0.0030700353
9	0xbb26dd38	-0.0025461446
10	0x3a896f93	0.0010485522
11	0xbbafcb64	-0.005364822
12	0x3c051e66	0.008124923
13	0x3b93d505	0.004511478
14	0xbb7725b1	-0.0037711675
15	0xbb78f308	-0.0037986655
16	0xbc08e2dc	-0.008354869
17	0x3b92e5ad	0.004482946
18	0xbbd286c5	-0.006424757
19	0xbc039eb9	-0.008033448
20	0xbbee83ec	-0.00727891
21	0xbc0d4bea	-0.008624056
22	0xbb7cd67f	-0.0038579998
23	0x3ba61049	0.0050678593
24	0x3ca1dabe	0.019757625
25	0xbb8dbb47	-0.0043253037
26	0xbbd0ef4f	-0.006376184
27	0x3bc0b28e	0.0058806604
28	0xbbab7766	-0.0052327393
29	0x3aa91409	0.0012899648
30	0xbc1114e2	-0.0088550765
31	0x3c291bcc	0.010321569
32	0xbbe7172c	-0.007052323
33	0x3a9c7bcf	0.0011938753
34	0xbb16cc48	-0.0023009945
35	0xbb9937cb	-0.0046758405
36	0xbb04f652	-0.002028842
37	0xbb9fb19b	-0.004873467
38	0xbb843388	-0.0040344633
39	0xba676e59	-0.0008828394
40	0xba9c4c50	-0.0011924598
41	0xbb966027	-0.004589099
42	0x3b74757b	0.003730147
43	0x3c917344	0.017755158
44	0xbc2c053a	-0.010499293
45	0xbb9a8824	-0.0047159363
46	0xbb7fee12	-0.0039051813
47	0xba98d86c	-0.0011661178
48	0x3c4b6faa	0.0124167595
49	0xba87bc67	-0.0010355831
50	0xbae9276a	-0.0017788236
51	0xbbb4636d	-0.0055050165
52	0x3ad4710a	0.0016208005
53	0x3a907d40	0.0011023656
54	0xbbdf9f35	-0.006824399
55	0xb9c1bb4d	-0.0003695138
56	0xba4b4abf	-0.00077549735
57	0xbb5ee11a	-0.0034008683
58	0xba433c22	-0.000744762
59	0xbc4196ed	-0.011815769
60	0xbbdd7a4a	-0.0067589628
61	0x3b95e20c	0.004574066
62	0xbaa564de	-0.0012618562
63	0xbb49cb86	-0.0030791475
64	0xbbf3e6f7	-0.0074433046
65	0x3ba7cc17	0.005120765
66	0x3adf7265	0.0017047642
67	0x3c11876e	0.008882387
68	0xbb923475	-0.00446182
69	0x3bf7def7	0.0075644213
70	0xbaed4749	-0.001810291
71	0x3b7e2072	0.0038776663
72	0x3b7bf20d	0.0038443834
73	0xbb81be6d	-0.003959468
74	0xbbd46fbd	-0.006483047
75	0x39d712a7	0.00041021893
76	0x3bbf4a29	0.005837698
77	0xbbce7ff4	-0.0063018743
78	0x3bb0f7d6	0.005400638
79	0x3b9609fd	0.0045788274
80	0xbb4227ae	-0.0029625702
81	0xbbd5458a	-0.006508534
82	0xbbf61ef3	-0.0075110137
83	0xbb169a24	-0.0022980059
84	0x3b0131bf	0.001971349
85	0x3b25bdf4	0.0025290223
86	0xbc45db60	-0.012076229
87	0xbc25b427	-0.010113752
88	0xbad45664	-0.0016200063
89	0xb7fb8917	-2.998537e-05
90	0xbb94f3f3	-0.0045456826
91	0xbc05eec6	-0.008174604
92	0xbbbd4c4b	-0.005776917
93	0xbb70bedb	-0.0036734852
94	0xbbc91131	-0.0061360826
95	0xbafd894b	-0.0019343285
96	0xbb36f8de	-0.0027919332
97	0xbaa9a1b5	-0.0012941869
98	0xba8facd1	-0.0010961537
99	0x3bd08fba	0.00636479
100	0xbb37ae8c	-0.0028027622
101	0xbb80a8ff	-0.003926396
102	0xbb99226a	-0.004673292
103	0xbb4a9948	-0.0030914117
104	0x3b1190a7	0.0022211464
105	0x3ba35fcd	0.0049857856
106	0xbb759f1d	-0.0037478872
107	0xbbed52fc	-0.0072425585
108	0xb94239e0	-0.00018522842
109	0xba8ac03d	-0.0010585856
110	0x3b14f023	0.002272614
111	0x3bb24995	0.0054409006
112	0x3c732c49	0.014842101
113	0x3ba0d9b2	0.004908764
114	0x3c72da5f	0.014822572
115	0xbbd6c7d9	-0.0065545854
116	0x3c1b6656	0.009484848
117	0x3b055a1a	0.0020347894
118	0x3bac6179	0.005260643
119	0x3b074fd6	0.002064695
120	0xbbbdb2b6	-0.0057891263
121	0xbbe1d707	-0.0068920883
122	0x3b2ae71b	0.002607769
123	0xbba4f991	-0.0050346334
124	0xbc2fad65	-0.010722493
125	0xbaee3c43	-0.0018175918
126	0xbb1f2449	-0.0024283102
127	0x3b43f235	0.0029899005

action_model._continuous_distribution.log_sigma f4 [1, 2]
0	0xbdd354d6	-0.103189155
1	0xbe1d9250	-0.15387845

action_model._continuous_distribution.mu.weight f4 [2, 128]
0	0xbc1d7801	-0.009611131
1	0x3d20afe5	0.039230246
2	0x3cec0441	0.028810622
3	0x3d2555b3	0.040364932
4	0x3be6d767	0.007044721
5	0xbd1ae540	-0.037816286
6	0xbc78ddef	-0.015189632
7	0xbad8e299	-0.0016547024
8	0x391fba73	0.0001523288
9	0x3cdf57a7	0.027263476
10	0x3c8ce6fd	0.017199988
11	0x3c46119a	0.0120891575
12	0xbd2bb817	-0.04192361
13	0x3ca32e8e	0.01991966
14	0xba680db3	-0.0008852139
15	0xbbf3713b	-0.0074292696
16	0x3c4a4976	0.012346616
17	0xbcf51524	-0.029917307
18	0xbc42fcb7	-0.011901072
19	0x3cb5e136	0.022202116
20	0xbcc15370	-0.023599356
21	0x3b801009	0.0039081615
22	0xbc87727d	-0.016534084
23	0x3c811d02	0.015760902
24	0xbd1c250f	-0.03812128
25	0xbcc42710	-0.023944408
26	0xbc4fd7dd	-0.012685743
27	0x3c98a37e	0.018632647
28	0xbc16f8f2	-0.009214627
29	0x3d02dffd	0.031951893
30	0xbca10661	-0.019656362
31	0xbd9b1230	-0.07571828
32	0x3c23b720	0.009992391
33	0xbca8d172	-0.020607684
34	0x3c120c0d	0.008914006
35	0x3cf16f9d	0.029472167
36	0xbb8aeebb	-0.0042398847
37	0xba5f90b1	-0.00085283356
38	0x3cbd7a66	0.023129653
39	0xbc51db15	-0.012808581
40	0xb9e5c64c	-0.00043826026
41	0x3bf02a85	0.0073292875
42	0xbc9ad57f	-0.018900631
43	0xbcd5f500	-0.026117802
44	0xbc558df2	-0.013034331
45	0xbc2ed8ce	-0.010671807
46	0x3be7b651	0.0070712944
47	0xbc09f342	-0.008419814
48	0xbd1949e6	-0.03742399
49	0xbc44df75	-0.012016167
50	0xbb9a4c34	-0.004708791
51	0xbb257879	-0.002524881
52	0xbcb49db0	-0.022047848
53	0x3d5b03f3	0.053470563
54	0x3b83cac7	0.0040219757
55	0xbc499d4b	-0.012305568
56	0xbc44a582	-0.012002351
57	0x3c273f25	0.010207926
58	0xbb8e789b	-0.0043478734
59	0xbb317822	-0.0027079661
60	0x3bab4f62	0.005227969
61	0x3ce07357	0.027398748
62	0xbb9e9a8b	-0.0048402003
63	0x3c8fb3ee	0.017541852
64	0x3cc98688	0.024600282
65	0x3d086984	0.033303753
66	0xbce5bcf4	-0.028044201
67	0x3d356aa1	0.044291142
68	0x3d06a368	0.03287068
69	0x3d505310	0.050860465
70	0xbc07f636	-0.008298447
71	0xbccad18f	-0.024758128
72	0xbd1faf75	-0.03898569
73	0xbbab4faa	-0.0052280026
74	0x3cb18321	0.021668972
75	0xbbfc6ed5	-0.007703642
76	0x3cfa908d	0.030586505
77	0xbadd8ec5	-0.001690351
78	0xbd0fe1f7	-0.035127606
79	0x3d3d4be3	0.04621495
80	0xbb27f652	-0.0025628996
81	0xbc07b4bd	-0.008282837
82	0x3c48f340	0.012265027
83	0xbbb91a1f	-0.005648866
84	0xbcb0a991	-0.02156523
85	0x3c89d5fe	0.016825672
86	0xbbb88f46	-0.005632314
87	0x3b99c295	0.0046923854
88	0xb83c1fb3	-4.4852215e-05
89	0x3c83a43d	0.016069526
90	0x3bcef923	0.0063163205
91	0xbc8f4cb5	-0.017492631
92	0xbc19ab14	-0.009379167
93	0xbc42c2c3	-0.011887255
94	0xbc9fca6a	-0.019505698
95	0x3cd16f8e	0.025565889
96	0x3d437c95	0.047726233
97	0x3ca285fe	0.019839283
98	0xbc347f07	-0.011016614
99	0x3d2ad098	0.041702837
100	0xbc0b6047	-0.008506841
101	0x3c59dbeb	0.013297061
102	0x3bb72e49	0.0055902344
103	0xbb39711c	-0.0028296178
104	0xbc36f47c	-0.011166688
105	0xbce14e61	-0.027503194
106	0xbcbbcc3e	-0.022924539
107	0x3c205d62	0.009787889
108	0xbc546134	-0.012962628
109	0x3ca66bd3	0.020315086
110	0x3cab55e6	0.020914983
111	0xbd2f8b90	-0.042857707
112	0xbd105cd3	-0.035244774
113	0x3d0851a6	0.03328099
114	0xbd1e66ba	-0.038672186
115	0x3c729c66	0.014807796
116	0xbd412f22	-0.04716409
117	0xbc6ca834	-0.0144444
118	0xbd23b70f	-0.0399695
119	0x3d0ac1b4	0.033876136
120	0x3cb6e2c6	0.02232493
121	0xbb3880c4	-0.0028152922
122	0x3c9b0023	0.018920964
123	0x3cb8165f	0.022471605
124	0xbc01ac3a	-0.007914597
125	0xbd1a3170	-0.037644804
126	0x3cf12511	0.02943662
127	0xbd12caf4	-0.035838082
128	0x3bdb80a9	0.006698687
129	0xbd107475	-0.035267312
130	0x3bbc6830	0.005749725
131	0x3c6ae754	0.0143373795
132	0x3c557bda	0.013030017
133	0xbb8cb82d	-0.0042944164
134	0x3c958414	0.018251456
135	0xbb33ce22	-0.0027436097
136	0x3c8ff6a1	0.017573657
137	0xbc9af162	-0.018913928
138	0x3bf95d0b	0.0076099685
139	0x3c8e10ce	0.017341997
140	0xbd375c7f	-0.044765946
141	0x3c2c8526	0.010529792
142	0x3c703346	0.014660662
143	0xbbf7dd3c	-0.007564215
144	0x3bd89ffd	0.006610869
145	0x3ba73757	0.0051030326
146	0x3ae578f4	0.001750736
147	0xbbd684a4	-0.0065465737
148	0x3bac7971	0.0052635004
149	0xbbc706ec	-0.006073823
150	0x3a8dd929	0.0010822165
151	0x3c2a1da6	0.010383045
152	0xbb805f9a	-0.0039176466
153	0x3c190df0	0.009341702
154	0x3b0c417b	0.0021401334
155	0xbb9bfb1d	-0.0047601596
156	0x3ba3b1c0	0.0049955547
157	0x3aa99271	0.001293732
158	0x3c1d06f6	0.009584179
159	0x3b9668b1	0.004590117
160	0x3c3addb1	0.011405394
161	0xbcaa6db5	-0.020804266
162	0x3cbdc7c2	0.023166541
163	0x3b8c16e5	0.00427519
164	0xbd2d5886	-0.04232075
165	0xbcba0695	-0.022708217
166	0x3b76dbd3	0.0037667647
167	0xbbfd93e5	-0.0077385777
168	0xbafdae71	-0.0019354356
169	0x3c9570db	0.01824229
170	0x3bad4885	0.005288186
171	0xbb7bc45f	-0.0038416607
172	0x3b4f5a1d	0.0031639405
173	0x3acab996	0.0015466686
174	0xbd131c75	-0.03591581
175	0xbd19fe76	-0.03759619
176	0x3c21deca	0.009879777
177	0xbccbee62	-0.024893943
178	0x3c636520	0.013879091
179	0xbb273d5e	-0.0025518755
180	0xbc892d42	-0.016745213
181	0x3cfc6b2a	0.030812819
182	0x3c433549	0.01191456
183	0x3c51ed08	0.01281286
184	0xbce7ea7e	-0.028310057
185	0x3cc595a4	0.024119206
186	0x3cca7b18	0.024716899
187	0xbab11857	-0.0013511282
188	0xbc1ec718	-0.009691022
189	0x3cbfa6e9	0.023395019
190	0xbbc2ccef	-0.00594484
191	0x3c87e3b4	0.01658807
192	0xbca07868	-0.019588664
193	0xbc89fcb0	-0.016844124
194	0xbce92147	-0.02845825
195	0x3caf2f36	0.021384817
196	0xbbc3b3bd	-0.005972354
197	0x39826f61	0.00024878516
198	0x3c02fbb3	0.00799458
199	0x3c80ef7c	0.015739195
200	0x3b303331	0.0026885981
201	0xbc88cf3f	-0.016700385
202	0xbc1bdce3	-0.009513113
203	0x3ca4381a	0.020046283
204	0xba4007f6	-0.0007325405
205	0x3c7cff8b	0.015441786
206	0x3c6c5fca	0.014427135
207	0x3ca50ddc	0.02014821
208	0x3c61f73e	0.013791857
209	0xbb3d49b6	-0.0028883046
210	0x3c0a1511	0.008427874
211	0xbb24b7e7	-0.0025134028
212	0xbc669c75	-0.014075388
213	0x3ca62e53	0.020285761
214	0xbb63e6a3	-0.0034774921
215	0x3a55b7dc	0.00081527024
216	0xba1f6cdd	-0.00060815905
217	0x3bb35d1f	0.0054737474
218	0x3c9d6a4a	0.019215722
219	0x3c82c1f9	0.015961634
220	0x3c188dad	0.009311122
221	0xbca1c551	-0.019747408
222	0xbc9229db	-0.017842224
223	0x3cb5dab5	0.022199014
224	0xbb175d95	-0.002309655
225	0xbbd90a4b	-0.0066235415
226	0xbb7adfc8	-0.0038280357
227	0xbad24b31	-0.0016044137
228	0x39af1197	0.00033391707
229	0xbc2ee13d	-0.010673818
230	0x3c8790ec	0.016548596
231	0xbc845df2	-0.016158078
232	0xbc98fcd7	-0.018675251
233	0x3ba13a30	0.0049202666
234	0xbc28bff8	-0.010299675
235	0x3c069295	0.008213659
236	0xbc5e77c2	-0.013578357
237	0xbc257691	-0.010099069
238	0x3c88002d	0.016601646
239	0xbae7ef00	-0.0017695129
240	0xbbb39745	-0.005480679
241	0x3af7584f	0.0018870923
242	0xbce204db	-0.027590206
243	0xbc98dee8	-0.018660977
244	0x3c3babee	0.011454565
245	0x3c862654	0.016375698
246	0x3caa64b8	0.02079998
247	0xbbb2bee7	-0.0054548862
248	0x3bd617da	0.006533605
249	0x3c4d2707	0.012521512
250	0xbb91ef2c	-0.0044535603
251	0xb9313403	-0.00016899411
252	0xbb7ee675	-0.0038894687
253	0xbd22d566	-0.039754294
254	0x3caf9ed2	0.021438036
255	0xbce711ca	-0.028206725

action_model._continuous_distribution.mu.bias f4 [2]
0	0xbbde20bb	-0.006778804
1	0x3a22c7d2	0.0006209585
