results/test_4/Boss/Boss-6128.pt (torch, 150666 bytes, 12 tensors)

network_body._body_endoder.seq_layers.0.weight f4 [128, 7]
0.81984633 0.25495303 0.19653893 -0.22515003 -0.23261839 -0.31251273 -0.1945361 0.5025178
-0.13910857 0.1266244 0.40280122 0.48184612 -0.55155593 0.07618474 -0.20770597 -0.09826603
0.6053305 -0.86880463 0.00570375 -0.8821493 -0.62874246 -0.1683275 -0.32516086 0.10539978
0.65981823 0.038201112 -0.083896756 -0.077395745 -0.19269566 -0.19659206 0.04732929 0.6976936
0.28726533 0.6451223 0.347921 -0.035414245 -0.30504808 0.11195331 -0.48684654 0.17095928
-0.15186836 0.5855378 -0.4365885 -0.022526482 -0.039731685 0.5325298 -0.16249299 0.21858124
-1.1165166 -0.3316626 0.50325936 0.09856684 -0.7965732 0.39748627 0.39521232 0.41635928
0.49738497 0.15034997 0.7014158 -0.044602714 0.032706555 -0.7399491 0.5750994 0.28706765
0.40322298 -0.28901732 0.20846643 -0.08823725 0.17477435 -0.23459911 0.06065754 0.8569875
0.24632291 -0.30288526 -0.3268034 -0.19404013 0.48247272 0.29900372 -0.2316735 -0.073162645
-0.22838902 0.019018551 -0.09232086 0.5217798 -0.14761227 0.5271005 -0.043048695 -0.55982524
-0.026410602 -0.43503612 -0.078215756 -0.052076302 0.20762405 -0.13693006 0.16920117 -0.17229092
0.57428324 -0.49962798 0.23134626 0.2469297 0.1542773 0.2839806 -0.38577995 0.033528958
0.23472105 -0.16332318 0.29215848 0.51683784 -0.71629775 -0.1123715 0.014866782 -0.46876737
0.80177176 0.0061339852 -0.22191487 -0.3001452 0.05514542 -0.42003843 -0.33272013 0.32430106
-0.59629244 -0.3151666 -0.31913674 0.3454048 -0.090543315 0.53415364 -0.112845294 -0.098045856
0.80016977 -0.2981227 -0.029125646 0.13097869 0.03494288 -0.120776236 -0.9643295 0.0390954
0.2790822 0.050642908 0.018012514 0.45310894 -0.1468183 -0.61053616 0.15722683 -0.4394917
-0.008162788 -0.38712788 -0.12569351 -0.0780345 -0.088068314 0.74034315 -0.024963032 0.25161254
-0.35944462 0.021181758 0.1061453 -0.059198167 -0.060782783 -0.33116853 -0.20155333 0.34754467
0.19034141 0.5261039 -0.028486514 0.088900045 0.44448215 0.4069389 -0.13066952 0.13056327
0.16340142 -0.24801221 -0.104394235 0.28937045 -0.13062334 -0.055608418 0.16804296 -0.20926619
-0.19301356 0.56111056 -0.27648455 -0.17905979 0.29111555 -0.01544224 -0.26915446 0.7968732
-0.20855969 0.312167 0.79134357 0.036059316 0.31034192 -0.11279791 0.25677553 0.30128175
0.7235352 0.08394687 -0.3887931 -0.18809156 0.65500426 -0.21524863 -0.5098748 0.15765469
-0.018052813 -0.4959668 -0.36417156 -0.23007329 0.417612 0.2685561 -0.8562791 0.18614854
-0.5082979 0.30448553 -0.05884342 -0.3106349 0.421208 0.64335716 0.16583794 0.6855437
0.35887122 -0.43354943 -0.59609735 0.45007256 -0.0350599 0.40027612 0.43527547 0.6922358
0.7718659 -0.683883 -0.037528664 0.61263156 0.019193618 -0.46881926 -0.44478065 -0.40487677
0.6702038 -0.087545775 -0.19986151 -0.24255857 -0.22928783 0.38228485 -0.42860407 0.09190827
-0.014867803 0.56344897 -0.22648436 -0.4270865 -0.17017612 0.750251 -0.20120299 -0.43237308
0.34246615 -0.32332736 -0.133634 -0.46649304 0.53637266 0.8626358 0.26527226 0.2593115
00000000: 73e1 513f 3489 823e 8041 493e bb8d 66be
00000010: 8433 6ebe ab01 a0be 7934 47be 02a5 003f
00000020: 7a72 0ebe d4a9 013e f63b ce3e 89b4 f63e
00000030: c532 0dbf bf06 9c3d e0b0 54be b33f c9bd
00000040: f1f6 1a3f fb69 5ebf 86e6 ba3b 89d4 61bf
00000050: 44f5 20bf 0b5e 2cbe 7c7b a6be d7db d73d
00000060: d9e9 283f c578 1c3d 10d2 abbd a981 9ebd
00000070: 0352 45be 6e4f 49be 5cdc 413d 0c9c 323f
00000080: 7114 933e bc26 253f b422 b23e 870e 11bd
00000090: 432f 9cbe c747 e53d f343 f9be f30f 2f3e
000000a0: 6183 1bbe cee5 153f 8788 dfbe 7589 b8bc
000000b0: b1bd 22bd df53 083f 9064 26be c3d3 5f3e
000000c0: 04ea 8ebf aecf a9be 9bd5 003f 69dd c93d
000000d0: 39ec 4bbf 5283 cb3e 4559 ca3e 0b2d d53e
000000e0: 3ea9 fe3e 58f5 193e fc8f 333f 56b1 36bd
000000f0: 4ff7 053d 4e6d 3dbf b739 133f 88fa 923e
00000100: 3e73 ce3e 14fa 93be 3978 553e bbb5 b4bd
00000110: 0cf8 323e c03a 70be 0a74 783d 8863 5b3f
00000120: 133c 7c3e c713 9bbe c652 a7be 75b2 46be
00000130: aa06 f73e 0417 993e d13b 6dbe 4cd6 95bd
00000140: d0de 69be cbcc 9b3c b812 bdbd 5c93 053f
00000150: ac27 17be 0ff0 063f d453 30bd b550 0fbf
00000160: 0c5b d8bc 0ebd debe 952f a0bd f64d 55bd
00000170: 669b 543e 6537 0cbe 1243 2d3e 086d 30be
00000180: 3a04 133f 3dcf ffbe 09e6 6c3e 24db 7c3e
00000190: defa 1d3e e865 913e f384 c5be a955 093d
000001a0: b75a 703e 313e 27be cc95 953e 7c4f 043f
000001b0: 4a5f 37bf 0723 e6bd ce93 733c 4702 f0be
000001c0: ea40 4d3f 99ff c83b a73d 63be a2ac 99be
000001d0: 2ae0 613d 470f d7be 4b5a aabe ca0a a63e
000001e0: 9fa6 18bf 845d a1be e465 a3be e6d8 b03e
000001f0: c66e b9bd 4bbe 083f 6f1b e7bd 44cc c8bd
00000200: edd7 4c3f 8aa3 98be e898 eebc 471f 063e
00000210: 4420 0f3d 8859 f7bd 4cde 76bf 8022 203d
00000220: dde3 8e3e f06e 4f3d fb8e 933c e5fd e73e
00000230: 8957 16be 194c 1cbf 1200 213e 0e05 e1be
00000240: 37bd 05bc a035 c6be cdb5 00be 8dd0 9fbd
00000250: 295d b4bd 2187 3d3f 467f ccbc 5cd3 803e
00000260: 2009 b8be 5e85 ad3c b562 d93d c779 72bd
00000270: 5ef7 78bd ec8e a9be ff63 4ebe 60f1 b13e
00000280: dce8 423e bfae 063f 8d5c e9bc 3a11 b63d
00000290: 2a93 e33e 4c5a d03e 3bce 05be 61b2 053e
000002a0: b452 273e eaf6 7dbe a5cc d5bd 5d28 943e
000002b0: 20c2 05be a7c5 63bd 7413 2c3e e049 56be
000002c0: 59a5 45be f1a4 0f3f 628f 8dbe 735b 37be
000002d0: 190d 953e 7301 7dbc 9dce 89be e2ff 4b3f
000002e0: ac90 55be 5ad4 9f3e 7e95 4a3f efb2 133d
000002f0: 23e5 9e3e 9702 e7bd 1578 833e 9a41 9a3e
00000300: 9a39 393f 56ec ab3d e40f c7be 139b 40be
00000310: 5cae 273f 236a 5cbe 2887 02bf 3b70 213e
00000320: 7ee3 93bc 5cef fdbe b274 babe 5598 6bbe
00000330: 3dd1 d53e 2f80 893e 1b35 5bbf b99d 3e3e
00000340: d01f 02bf 87e5 9b3e cc05 71bd 8a0b 9fbe
00000350: 93a8 d73e 0eb3 243f 6cd1 293e cb7f 2f3f
00000360: f8bd b73e 31fa ddbe d699 18bf e96f e63e
00000370: f89a 0fbd fef0 cc3e 6ddc de3e 5e36 313f
00000380: 0199 453f f512 2fbf a8b7 19bd 6cd5 1c3f
00000390: ef3b 9d3c 1409 f0be 4aba e3be 024c cfbe
000003a0: 7a92 2b3f 334b b3bd 7fa8 4cbe 4661 78be
000003b0: 6eca 6abe d7ba c33e fe71 dbbe 673a bc3d
000003c0: 1698 73bc 313e 103f 84eb 67be 15ab dabe
000003d0: a642 2ebe 7310 403f 2808 4ebe 0160 ddbe
000003e0: b957 af3e 2a8b a5be 5ad7 08be 2dd8 eebe
000003f0: b84f 093f b3d5 5c3f c4d1 873e 7ac4 843e

network_body._body_endoder.seq_layers.0.bias f4 [128]
0.0 0.0 0.0 0.0 0.0 0.0 0.0 0.0
0.0 0.0 0.0 0.0 0.0 0.0 0.0 0.0
0.0 0.0 0.0 0.0 0.0 0.0 0.0 0.0
0.0 0.0 0.0 0.0 0.0 0.0 0.0 0.0
0.0 0.0 0.0 0.0 0.0 0.0 0.0 0.0
0.0 0.0 0.0 0.0 0.0 0.0 0.0 0.0
0.0 0.0 0.0 0.0 0.0 0.0 0.0 0.0
0.0 0.0 0.0 0.0 0.0 0.0 0.0 0.0
0.0 0.0 0.0 0.0 0.0 0.0 0.0 0.0
0.0 0.0 0.0 0.0 0.0 0.0 0.0 0.0
0.0 0.0 0.0 0.0 0.0 0.0 0.0 0.0
0.0 0.0 0.0 0.0 0.0 0.0 0.0 0.0
0.0 0.0 0.0 0.0 0.0 0.0 0.0 0.0
0.0 0.0 0.0 0.0 0.0 0.0 0.0 0.0
0.0 0.0 0.0 0.0 0.0 0.0 0.0 0.0
0.0 0.0 0.0 0.0 0.0 0.0 0.0 0.0
00000000: 0000 0000 0000 0000 0000 0000 0000 0000
00000010: 0000 0000 0000 0000 0000 0000 0000 0000
00000020: 0000 0000 0000 0000 0000 0000 0000 0000
00000030: 0000 0000 0000 0000 0000 0000 0000 0000
00000040: 0000 0000 0000 0000 0000 0000 0000 0000
00000050: 0000 0000 0000 0000 0000 0000 0000 0000
00000060: 0000 0000 0000 0000 0000 0000 0000 0000
00000070: 0000 0000 0000 0000 0000 0000 0000 0000
00000080: 0000 0000 0000 0000 0000 0000 0000 0000
00000090: 0000 0000 0000 0000 0000 0000 0000 0000
000000a0: 0000 0000 0000 0000 0000 0000 0000 0000
000000b0: 0000 0000 0000 0000 0000 0000 0000 0000
000000c0: 0000 0000 0000 0000 0000 0000 0000 0000
000000d0: 0000 0000 0000 0000 0000 0000 0000 0000
000000e0: 0000 0000 0000 0000 0000 0000 0000 0000
000000f0: 0000 0000 0000 0000 0000 0000 0000 0000
00000100: 0000 0000 0000 0000 0000 0000 0000 0000
00000110: 0000 0000 0000 0000 0000 0000 0000 0000
00000120: 0000 0000 0000 0000 0000 0000 0000 0000
00000130: 0000 0000 0000 0000 0000 0000 0000 0000
00000140: 0000 0000 0000 0000 0000 0000 0000 0000
00000150: 0000 0000 0000 0000 0000 0000 0000 0000
00000160: 0000 0000 0000 0000 0000 0000 0000 0000
00000170: 0000 0000 0000 0000 0000 0000 0000 0000
00000180: 0000 0000 0000 0000 0000 0000 0000 0000
00000190: 0000 0000 0000 0000 0000 0000 0000 0000
000001a0: 0000 0000 0000 0000 0000 0000 0000 0000
000001b0: 0000 0000 0000 0000 0000 0000 0000 0000
000001c0: 0000 0000 0000 0000 0000 0000 0000 0000
000001d0: 0000 0000 0000 0000 0000 0000 0000 0000
000001e0: 0000 0000 0000 0000 0000 0000 0000 0000
000001f0: 0000 0000 0000 0000 0000 0000 0000 0000

network_body._body_endoder.seq_layers.2.weight f4 [128, 128]
0.11080397 -0.107847355 -0.023162609 0.15177889 0.00075967767 -0.1880296 0.12548764 -0.05557152
-0.013997824 -0.027045842 0.075976916 0.049106102 -0.034921136 -0.08847499 0.04100255 -0.07268468
-0.053224597 0.098398335 0.094869085 -0.023633523 0.22831275 -0.20722145 -0.045780502 -0.11202125
-0.012243779 -0.1302692 0.017048523 0.07343263 0.05928635 -0.024452869 0.03763289 0.1739836
-0.014547469 0.20289677 -0.012490938 -0.0066258204 -0.0014857352 -0.032492183 -0.15007325 -0.0681643
-0.105629146 0.09411929 -0.12168507 -0.024469327 -0.081575625 -0.10294642 -0.06135951 -0.13512157
-0.113193505 -0.028338395 -0.22932637 0.015337445 -0.059227332 -0.12132663 0.051646568 -0.076831445
-0.031831484 0.05587682 0.15076533 -0.011337811 0.010602484 0.1108254 0.021200728 0.12149071
-0.14987937 0.21093558 -0.11405232 -0.033823606 0.046012405 -0.010790937 0.03363226 -0.060442664
0.014942746 -0.023753123 0.088338144 0.054721113 0.034502637 -0.040064078 -0.079076394 -0.053167813
0.052384686 0.12016789 -0.058610965 0.055873934 -0.009622055 0.087912105 0.079876944 0.09838717
0.045168694 0.019665789 -0.12995638 -0.0882588 0.0028541263 0.15624475 0.050720777 -0.059478257
0.061415 -0.08108382 0.018179188 0.1656896 0.0946041 0.00035857724 -0.03485462 0.12129485
-0.05300983 0.14365049 -0.060847435 -0.13528162 0.09939981 0.08342003 0.0421413 0.03707828
0.018324582 0.100154765 -0.09213797 -0.07674548 -0.060760427 -0.011437247 0.084439844 -0.032442827
-0.060968425 -0.0147246905 0.041606482 -0.013645645 0.14706056 -0.04800844 0.033970177 0.07571497
0.06608924 0.05707119 -0.004787343 0.041735727 0.14374916 -0.07970871 0.049161673 0.13254689
-0.02525572 -0.018260283 0.02399642 -0.06063929 -0.08348322 0.106079824 -0.097703926 0.13023308
0.11213529 0.1325067 0.0688734 -0.026480272 0.06569014 -0.02311188 -0.039978407 0.03548572
-0.006228608 0.13981943 0.0082568 0.011979003 -0.059802856 0.10362863 -0.021286994 -0.023103775
-0.07052976 0.07419759 -0.049060617 -0.0615076 0.024390394 0.06286988 0.20184323 0.09070619
-0.045781907 0.10931303 -0.0638648 0.11345647 0.01403452 0.18546766 0.1110784 0.2331223
0.07438721 -0.07996667 -0.040350337 -0.097854085 0.02578855 0.10332776 -0.09801304 0.020459061
-0.046407737 -0.07726446 -0.03989454 -0.008301343 -0.02608453 -0.018077513 -0.18113834 -0.10565087
0.010904807 -0.053601943 0.09623483 -0.151982 0.035616912 -0.026690243 0.15577844 -0.10476127
0.10054147 -0.056798704 -0.1606851 -0.102130726 -0.08886394 0.04229974 -0.0039920616 0.039055943
-0.016207946 -0.04073694 0.09369538 -0.017150683 -0.00878981 0.27690446 -0.037267126 -0.19906606
-0.17044666 0.0177506 -0.0062083523 -0.013141581 0.022958443 0.03090604 0.032097783 -0.014240797
0.06062539 -0.0740177 0.0036161141 -0.09213509 -0.07588346 0.04957444 -0.13779798 0.11684674
-0.05096272 0.046274275 -0.0045539807 0.09589298 -0.1849977 0.0011660955 0.17603007 -0.06151712
0.06151176 0.1521543 0.034006335 0.10979066 -0.04971414 0.039579432 -0.013243571 0.12751742
0.14159903 0.03538528 0.079464555 0.06860389 -0.07452912 -0.25747186 0.18731809 -0.12862545
00000000: 31ed e23d 13df dcbd 83bf bdbc ed6b 1b3e
00000010: 1b25 473a d58a 40be d57f 003e f69e 63bd
00000020: 2157 65bc 3e8f ddbc c999 9b3d 7b23 493d
00000030: 7709 0fbd 6032 b5bd 4af2 273d b5db 94bd
00000040: 0902 5abd 1185 c93d b94a c23d 179b c1bc
00000050: d1ca 693e dc31 54be 5684 3bbd 666b e5bd
00000060: 229a 48bc 4a65 05be 58a9 8b3c d963 963d
00000070: 3ed6 723d 6251 c8bc f224 1a3d c228 323e
00000080: 8258 6ebc 2cc4 4f3e cba6 4cbc 691d d9bb
00000090: 00bd c2ba 8616 05bd cdac 19be b999 8bbd
000000a0: 1854 d8bd 9dc1 c03d 0636 f9bd e673 c8bc
000000b0: 1f11 a7bd 93d5 d2bd 1c54 7bbd 4f5d 0abe
000000c0: ffd1 e7bd ec25 e8bc 88d4 6abe e849 7b3c
000000d0: 5c98 72bd 197a f8bd 5a8b 533d ce59 9dbd
000000e0: bb61 02bd 18df 643d 3a62 1a3e 3ac2 39bc
000000f0: 0bb6 2d3c 6df8 e23d 26ad ad3c 1fd0 f83d
00000100: fa79 19be 7fff 573e 4394 e9bd 9f8a 0abd
00000110: 8177 3c3d 78cc 30bc fbc1 093d ba92 77bd
00000120: 6bd2 743c e995 c2bc a1ea b43d 3f23 603d
00000130: a352 0d3d 3b1a 24bd cef2 a1bd 7ec6 59bd
00000140: 5391 563d 951a f63d 0d12 70bd 11dc 643d
00000150: d3a5 1dbc 430b b43d 8696 a33d 367f c93d
00000160: cf02 393d 261a a13c 4913 05be 08c1 b4bd
00000170: 4b0c 3b3b a0fe 1f3e 97c0 4f3d 799f 73bd
00000180: 4c8e 7b3d 460f a6bd 85ec 943c 89aa 293e
00000190: cbbf c13d 6cff bb39 b8c3 0ebd 6f69 f83d
000001a0: d620 59bd 1d19 133e 293b 79bd 4487 0abe
000001b0: 2192 cb3d 1fd8 aa3d 5b9c 2c3d 65df 173d
000001c0: 6f1d 963c f11d cd3d d5b2 bcbd bc2c 9dbd
000001d0: eddf 78bd 4a63 3bbc ccee ac3d c5e2 04bd
000001e0: 07ba 79bd d43f 71bc 8f6b 2a3d fc91 5fbc
000001f0: 0b97 163e 7fa4 44bd 5024 0b3d 7310 9b3d
00000200: cc59 873d 7bc3 693d 25df 9cbb 15f3 2a3d
00000210: fb32 133e 523e a3bd c05d 493d 5fba 073e
00000220: 15e5 cebc 9796 95bc 2494 c43c e760 78bd
00000230: 40f9 aabd 6140 d93d ff18 c8bd d25b 053e
00000240: 30a7 e53d d6af 073e 7f0d 8d3d 28ed d8bc
00000250: 8d88 863d 2055 bdbc 66c0 23bd 7959 113d
00000260: 5a19 ccbb d32c 0f3e 8747 073c 9543 443c
00000270: d7f3 74bd 3f3b d43d 1062 aebc 2144 bdbc
00000280: e871 90bd e8f4 973d c9f3 48bd 65ef 7bbd
00000290: 5dce c73c ecc1 803d feaf 4e3e 2bc4 b93d
000002a0: cf85 3bbd 83df df3d 8ccb 82bd de5b e83d
000002b0: 0bf1 653c 3ceb 3d3e 127d e33d 9db7 6e3e
000002c0: 5258 983d 91c5 a3bd 6546 25bd b967 c8bd
000002d0: 8242 d33c 819d d33d 10bb c8bd c399 a73c
000002e0: 0a16 3ebd d43c 9ebd 7568 23bd 5b02 08bc
000002f0: 39af d5bc 4b17 94bc 547c 39be 7c5f d8bd
00000300: 13aa 323c b68d 5bbd c416 c53d 2ba1 1bbe
00000310: 0ae3 113d 7fa5 dabc 6284 1f3e 148d d6bd
00000320: b0e8 cd3d c2a5 68bd a38a 24be ea29 d1bd
00000330: 4cfe b5bd 7e42 2d3d d7cf 82bb 20f9 1f3d
00000340: 87c6 84bc c7db 26bd 5de3 bf3d 977f 8cbc
00000350: 2303 10bc 6cc6 8d3e 6aa5 18bd f9d7 4bbe
00000360: 9289 2ebe b569 913c 6f6f cbbb c94f 57bc
00000370: 5813 bc3c aa2e fd3c f778 033d 3b52 69bc
00000380: 5452 783d 9896 97bd 54fc 6c3b 52b1 bcbd
00000390: ca68 9bbd 910e 4b3d ea1a 0dbe 584d ef3d
000003a0: 49be 50bd 188a 3d3d 8f39 95bb 8a63 c43d
000003b0: 0970 3dbe acd7 983a 3a41 343e 60f9 7bbd
000003c0: c1f3 7b3d 56ce 1b3e 3a4a 0b3d edd9 e03d
000003d0: 0ea1 4bbd 0b1e 223d 90fb 58bc ed93 023e
000003e0: 56ff 103e 28f0 103d 50be a23d 3280 8c3d
000003f0: b9a2 98bd 5ad3 83be 50d0 3f3e 64b6 03be

network_body._body_endoder.seq_layers.2.bias f4 [128]
0.0 0.0 0.0 0.0 0.0 0.0 0.0 0.0
0.0 0.0 0.0 0.0 0.0 0.0 0.0 0.0
0.0 0.0 0.0 0.0 0.0 0.0 0.0 0.0
0.0 0.0 0.0 0.0 0.0 0.0 0.0 0.0
0.0 0.0 0.0 0.0 0.0 0.0 0.0 0.0
0.0 0.0 0.0 0.0 0.0 0.0 0.0 0.0
0.0 0.0 0.0 0.0 0.0 0.0 0.0 0.0
0.0 0.0 0.0 0.0 0.0 0.0 0.0 0.0
0.0 0.0 0.0 0.0 0.0 0.0 0.0 0.0
0.0 0.0 0.0 0.0 0.0 0.0 0.0 0.0
0.0 0.0 0.0 0.0 0.0 0.0 0.0 0.0
0.0 0.0 0.0 0.0 0.0 0.0 0.0 0.0
0.0 0.0 0.0 0.0 0.0 0.0 0.0 0.0
0.0 0.0 0.0 0.0 0.0 0.0 0.0 0.0
0.0 0.0 0.0 0.0 0.0 0.0 0.0 0.0
0.0 0.0 0.0 0.0 0.0 0.0 0.0 0.0
00000000: 0000 0000 0000 0000 0000 0000 0000 0000
00000010: 0000 0000 0000 0000 0000 0000 0000 0000
00000020: 0000 0000 0000 0000 0000 0000 0000 0000
00000030: 0000 0000 0000 0000 0000 0000 0000 0000
00000040: 0000 0000 0000 0000 0000 0000 0000 0000
00000050: 0000 0000 0000 0000 0000 0000 0000 0000
00000060: 0000 0000 0000 0000 0000 0000 0000 0000
00000070: 0000 0000 0000 0000 0000 0000 0000 0000
00000080: 0000 0000 0000 0000 0000 0000 0000 0000
00000090: 0000 0000 0000 0000 0000 0000 0000 0000
000000a0: 0000 0000 0000 0000 0000 0000 0000 0000
000000b0: 0000 0000 0000 0000 0000 0000 0000 0000
000000c0: 0000 0000 0000 0000 0000 0000 0000 0000
000000d0: 0000 0000 0000 0000 0000 0000 0000 0000
000000e0: 0000 0000 0000 0000 0000 0000 0000 0000
000000f0: 0000 0000 0000 0000 0000 0000 0000 0000
00000100: 0000 0000 0000 0000 0000 0000 0000 0000
00000110: 0000 0000 0000 0000 0000 0000 0000 0000
00000120: 0000 0000 0000 0000 0000 0000 0000 0000
00000130: 0000 0000 0000 0000 0000 0000 0000 0000
00000140: 0000 0000 0000 0000 0000 0000 0000 0000
00000150: 0000 0000 0000 0000 0000 0000 0000 0000
00000160: 0000 0000 0000 0000 0000 0000 0000 0000
00000170: 0000 0000 0000 0000 0000 0000 0000 0000
00000180: 0000 0000 0000 0000 0000 0000 0000 0000
00000190: 0000 0000 0000 0000 0000 0000 0000 0000
000001a0: 0000 0000 0000 0000 0000 0000 0000 0000
000001b0: 0000 0000 0000 0000 0000 0000 0000 0000
000001c0: 0000 0000 0000 0000 0000 0000 0000 0000
000001d0: 0000 0000 0000 0000 0000 0000 0000 0000
000001e0: 0000 0000 0000 0000 0000 0000 0000 0000
000001f0: 0000 0000 0000 0000 0000 0000 0000 0000

action_model._continuous_distribution.log_sigma f4 [1, 2]
0.0 0.0
00000000: 0000 0000 0000 0000

action_model._continuous_distribution.mu.weight f4 [2, 128]
-0.004352718 0.01167512 0.018623328 0.016930573 -0.035487514 0.023020307 -0.03092443 0.041422606
-0.015860708 0.0072187493 0.011725324 -0.0153515935 -0.02218346 0.0082698995 0.007342612 0.00947257
-0.0031402607 0.016324764 -0.0028597647 -0.019031346 0.00039760163 -0.008528932 -0.009704972 0.008395529
0.017540723 0.025272487 -0.0057874653 -0.01378069 -0.0046290085 0.034504946 -0.0051780217 -0.015084681
0.05142641 0.00019860515 0.016165063 0.012514171 -0.0032295343 -0.005683593 -0.0053769234 0.014918819
-0.0073163076 -0.0028389653 0.0061869347 -0.018488541 -0.016880928 0.014791014 -0.020229287 0.014115158
-0.0039298264 0.009218262 -0.03893122 -0.01595095 -0.028464887 0.03233814 0.0010233646 -0.0010050233
0.010720876 0.011637754 -0.003389613 0.0026176914 0.0074820616 -0.009553064 -0.0017173513 0.02668647
-0.001162278 -0.018097343 -0.022970606 0.0064447755 -0.00027436684 -0.011555665 -0.017150857 0.013795884
-0.0066576335 0.0034415019 0.044474646 -0.0017255759 0.016511207 0.01148241 0.033402752 0.003221937
-0.0012508667 0.018861873 0.014955314 -0.0067752725 -0.00051474804 -0.020933958 -0.022773115 0.0031658558
0.02458991 -0.0028442673 0.020074425 0.019006213 -0.005441953 0.0027423785 0.006339788 0.0027106113
-0.0044020945 0.021810155 -0.01741518 0.0018567601 0.015571189 -0.015169217 -0.0075558983 -0.010129837
-0.031035913 -0.0028271363 0.014289719 0.019382108 -0.022871934 0.017230133 0.00076782977 0.0022245774
-0.009147375 0.002579748 -0.014579706 0.011644327 -0.0132920025 -0.0011150358 -0.022234136 0.0039505954
0.0037059959 -1.5972968e-05 -0.021009669 -0.001106925 0.02076302 0.011518506 0.008341544 0.018704183
0.044815157 0.032575052 8.9953115e-05 0.0143598495 0.0047161095 -0.009601126 -0.006333057 -0.012398277
0.005462327 -0.0043483144 -0.014633496 -0.0073375455 0.01745528 -0.008145749 -0.02415491 -0.0033526204
0.021954259 -0.025901143 -0.0042523355 0.0012942393 -0.0144020235 -0.023332814 0.013587124 -0.023595393
-0.014881307 -0.009302589 -0.0059034554 0.01051518 0.023713091 0.0030428597 -0.002698802 -0.007813987
0.0012464044 0.030876279 0.0025655495 0.009462689 0.015089804 0.018661475 0.013149929 -0.027552834
0.015828663 -0.023557588 0.00013184178 0.00732333 0.025176456 -0.009981321 -0.021274751 -0.0050219684
0.0007640145 -0.014285865 0.0201525 -0.024463985 0.0015036046 -0.02252798 0.003772163 0.008609895
0.027862078 0.016356327 0.02017396 -0.029242167 0.016982533 -0.023715178 0.0066966387 0.03304268
0.0012778364 0.018824903 0.009625348 -0.037460525 0.0140109835 -0.022199504 -0.017988017 -0.005135405
-0.014323346 -0.023220135 0.021422816 -0.0053893905 -0.00630235 -0.0034007689 0.012845925 -0.024535645
-0.020691484 -0.0022854663 -0.019113816 0.0005707391 -0.0019698043 0.0025843617 0.020211484 0.012728366
-0.014678265 -0.033677652 -0.00037094398 -0.007976576 0.012750782 -0.015360546 -0.0032401017 -0.010173283
0.014087337 0.0039702724 0.040314633 0.0073955455 0.008800701 0.011188473 -0.011683114 -0.015603031
0.0072666653 0.0064324 -0.009797301 -0.0140268905 -0.02372522 0.018704606 0.016133748 0.008072176
-0.006665206 -0.036555838 -0.0154324835 -0.015685482 -6.2156e-05 0.015066347 -0.006222707 -0.015073977
0.003912194 -0.0108278915 0.009145356 0.023984013 -0.0055568544 0.0016901091 -0.007259807 -0.012171048
00000000: 3fa1 8ebb 0149 3f3c f38f 983c fcb1 8a3c
00000010: 5b5b 11bd 1595 bc3c 3b55 fdbc c0aa 293d
00000020: 51ee 81bc 428b ec3b 931b 403c 4085 7bbc
00000030: 16ba b5bc 797e 073c 4b9a f03b d732 1b3c
00000040: d5cc 4dbb 83bb 853c e46a 3bbb a0e7 9bbc
00000050: 3075 d039 efbc 0bbc 9a01 1fbc 678d 093c
00000060: 90b1 8f3c 3f08 cf3c c7a4 bdbb 67c8 61bc
00000070: f0ae 97bb 0f55 0d3d 65ac a9bb bd25 77bc
00000080: 80a4 523d aa40 5039 986c 843c 3d08 4d3c
00000090: 98a6 53bb 6f3d babb e730 b0bb 106e 743c
000000a0: a3bd efbb ef0d 3abb c5bb ca3b 4875 97bc
000000b0: df49 8abc 0256 723c e4b7 a5bc 4343 673c
000000c0: c6c5 80bb 3108 173c 5876 1fbd 91ab 82bc
000000d0: 322f e9bc ff74 043d 6b22 863a fcba 83ba
000000e0: 9da6 2f3c 47ac 3e3c 4524 5ebb 938d 2b3b
000000f0: 152c f53b 7484 1cbc bf18 e1ba 959d da3c
00000100: 9457 98ba e140 94bc da2c bcbc b22e d33b
00000110: e5d8 8fb9 f953 3dbc f47f 8cbc 2208 623c
00000120: 4728 dabb d28a 613b 0c2b 363d b82c e2ba
00000130: 8342 873c b820 3c3c 53d1 083d 2227 533b
00000140: 1ff4 a3ba 3784 9a3c 2207 753c 1b03 debb
00000150: 28f0 06ba b17d abbc af8e babc 3f7a 4f3b
00000160: c770 c93c e366 3abb 1f73 a43c ebb2 9b3c
00000170: 6952 b2bb 7ab9 333b ffbd cf3b 83a4 313b
00000180: 723f 90bb 36ab b23c 48aa 8ebc 885e f33a
00000190: 4d1e 7f3c 4f88 78bc 7897 f7bb 9ef7 25bc
000001a0: 073f febc 7a47 39bb 6d1f 6a3c 3ac7 9e3c
000001b0: ec5d bbbc 3526 8d3c 2f48 493a 37ca 113b
000001c0: dfde 15bc fd10 293b b8df 6ebc d9c7 3e3c
000001d0: b3c6 59bc 6526 92ba 5d24 b6bc ff73 813b
000001e0: 4be0 723b b0fd 85b7 781c acbc 3d16 91ba
000001f0: 3517 aa3c 1eb8 3c3c f9aa 083c 8439 993c
00000200: 1990 373d 6b6d 053d 36a5 bc38 9345 6b3c
00000210: 9889 9a3b 0b4e 1dbc 8885 cfbb 2522 4bbc
00000220: 52fd b23b 4e7c 8ebb 55c1 6fbc cb6f f0bb
00000230: 60fe 8e3c bf75 05bc 85e0 c5bc a3b7 5bbb
00000240: 6bd9 b33c a22e d4bc 2d57 8bbb 77a3 a93a
00000250: 77f6 6bbc 7524 bfbc 879c 5e3c 204b c1bc
00000260: bad0 73bc e369 18bc c671 c1bb dd47 2c3c
00000270: f541 c23c b76a 473b 62de 30bb 3d06 00bc
00000280: 645e a33a 40f0 fc3c c722 283b 6509 1b3c
00000290: 3a3b 773c f3df 983c cd72 573c 7bb6 e1bc
000002a0: 1dab 813c d8fb c0bc 023f 0a39 8bf8 ef3b
000002b0: db3e ce3c b288 23bc 6348 aebc 538f a4bb
000002c0: 2548 483a 430f 6abc db16 a53c b268 c8bc
000002d0: 9914 c53a 998c b8bc 6536 773b 8410 0d3c
000002e0: 033f e43c b4fd 853c dc43 a53c 458d efbc
000002f0: f41e 8b3c 5546 c2bc 7a6f db3b c357 073d
00000300: 137d a73a af36 9a3c a3b3 1d3c 3570 19bd
00000310: 538e 653c bcdb b5bc 9b5b 93bc e646 a8bb
00000320: 78ac 6abc 2738 bebc e77e af3c 7c99 b0bb
00000330: f283 cebb 6fdf 5ebb b777 523c fafe c8bc
00000340: 3081 a9bc c3c7 15bb 9494 9cbc a79d 153a
00000350: d517 01bb 655e 293b 8e92 a53c a38a 503c
00000360: 1b7d 70bc 94f1 09bd 427b c2b9 2fb0 02bc
00000370: a8e8 503c cdaa 7bbc e357 54bb d7ad 26bc
00000380: 93ce 663c 0f19 823b f520 253d 5556 f23b
00000390: d130 103c db4f 373c 886a 3fbc dba3 7fbc
000003a0: 351d ee3b e2c6 d23b dc84 20bc 0bd1 65bc
000003b0: 645b c2bc 673a 993c ec2a 843c 2941 043c
000003c0: cd67 dabb 93bb 15bd 87d8 7cbc d77e 80bc
000003d0: c059 82b8 d7d8 763c dae7 cbbb d8f8 76bc
000003e0: dd31 803b 7867 31bc 67d6 153c 1f7a c43c
000003f0: 4616 b6bb a786 dd3a ade3 edbb 1369 47bc

action_model._continuous_distribution.mu.bias f4 [2]
0.0 0.0
00000000: 0000 0000 0000 0000

network_body._body_endoder.seq_layers.0.weight f4 [128, 7]
0.34300035 -0.7541665 0.12823531 0.3759728 0.116012976 0.3921235 0.30875722 -0.029496498
0.02534753 -0.05122942 -0.325269 -0.02820668 0.20092638 0.10642145 0.4925319 -0.31160453
0.22673059 0.12247322 0.04348983 0.032037746 -0.55441487 -0.54158884 -0.18910155 0.38059503
0.0150534175 -0.055989724 -0.15539302 0.23634289 0.051407013 -0.18145646 -0.059139628 0.6712313
0.2483822 -0.058360763 -0.14340107 0.056018837 0.3378799 -0.19262639 -0.36550716 -0.070713475
0.0988332 -0.22406021 0.08071314 0.0013016608 -0.32416075 -0.105702765 -0.124116376 -0.43872717
-0.19160916 -0.5792302 0.24521412 -0.09619574 0.35675547 -0.474808 0.5996376 0.3638744
-0.2326112 0.11115057 0.015760165 0.14033836 0.11074168 0.36485595 -0.13284178 0.7022138
0.23287675 0.19426887 0.79110575 -0.38937435 0.6562157 0.15050307 -0.2090463 -0.6950402
-0.61370623 0.15288463 -0.35647285 -0.18619171 0.5345698 0.06303391 0.14452113 -0.28900367
0.27108878 -0.42842993 0.41546288 0.9041171 -0.16485012 -0.014624991 0.41340426 -0.63990825
-0.39029118 -0.5264612 0.17605226 -0.58825856 -0.5151884 -0.34296265 0.4416284 -0.24716069
-0.5933864 -0.0601039 -0.099121474 -0.14281192 0.00016496243 0.21561502 -0.1300939 -0.12871492
-0.09831498 -0.038040947 0.31198123 -0.3743948 -0.20564115 -0.15506089 -0.2718087 0.07701644
0.32642612 -0.3868781 -0.2909358 -0.27104813 -0.19658487 0.06515071 -0.33830425 -0.96201825
-0.23336145 -0.52721447 -0.18522401 -0.04506769 -0.14469115 -0.22972286 -0.09429173 0.2180835
1.1620784 0.66679025 0.28139618 0.2929002 0.043740265 0.102957316 -0.52058136 0.59639996
0.2530832 0.27450916 0.0058884015 -0.8052546 -0.22502965 0.37302756 0.012761439 -0.24916501
0.73781574 -0.0664196 0.7051012 -0.43655246 0.3174304 -0.22045721 -0.21855648 -0.23717801
-0.74011034 -0.7692007 0.3878595 0.075687185 0.25004855 -0.77789956 -0.29228893 0.22220744
0.08470593 0.048935376 -0.5732798 0.4643152 -0.5720817 -0.25578728 -0.53539354 -0.0028506499
0.17805262 -0.7676248 -0.68718594 -0.0063237324 0.20310397 0.3873748 -0.04842953 0.314441
-0.3548281 0.23506339 -0.5623652 -0.3250357 0.3586964 -0.26223418 -0.099942885 -0.32306883
-0.6699782 -0.28430018 -0.48679125 -0.45498857 -0.14881901 0.03685241 0.23720947 -0.03510093
0.082880154 -0.106408894 -0.3602804 -0.01876285 0.12612426 0.16940956 -0.31519312 -0.2262729
0.016647095 0.35874358 -0.07962164 -0.44402668 0.38981307 -0.25585413 -0.21136133 -0.14450052
-0.55062133 0.1685528 0.037866533 0.3209742 0.7674792 -0.3251698 -0.23071592 0.24787046
-0.8411387 -0.3417306 -0.11916929 0.2792789 0.13104624 -0.080051884 0.30634144 -0.043440077
-0.3576001 0.07268367 -0.21571656 -0.3428708 -0.40824422 -0.38270572 0.48721194 0.7399849
0.22926202 0.8021745 -0.5163885 0.3798771 0.28856993 -0.321634 0.09902231 0.27828142
-0.2267689 -0.21277232 -0.67037547 0.14334433 0.046283226 0.3620425 -0.39175764 0.06846843
-0.19240738 -0.05957559 -0.10962517 1.0120687 0.109073445 -0.23272577 -0.28783178 0.61915386
00000000: be9d af3e 0e11 41bf 1e50 033e 827f c03e
00000010: 3698 ed3d 69c4 c83e 6d15 9e3e a4a2 f1bc
00000020: a0a5 cf3c f1d5 51bd a989 a6be b211 e7bc
00000030: a5bf 4d3e 7df3 d93d 242d fc3e a18a 9fbe
00000040: 102c 683e 3dd3 fa3d 6422 323d 033a 033d
00000050: 22ee 0dbf 91a5 0abf d6a3 41be 5add c23e
00000060: 9ca2 763c 7b55 65bd 591f 1fbe df03 723e
00000070: 2990 523d b9cf 39be 653c 72bd d1d5 2b3f
00000080: e757 7e3e b20b 6fbd bbd7 12be 0274 653d
00000090: 98fe ac3e da3f 45be c123 bbbe 3ad2 90bd
000000a0: 1069 ca3d 0a70 65be ee4c a53d 7d9c aa3a
000000b0: 66f8 a5be b17a d8bd ba30 febd d9a0 e0be
000000c0: 3135 44be 6e48 14bf 6919 7b3e 4602 c5bd
000000d0: a7a8 b63e 091a f3be da81 193f bf4d ba3e
000000e0: a131 6ebe e9a2 e33d 761b 813c dcb4 0f3e
000000f0: 89cc e23d 66ce ba3e ad07 08be 49c4 333f
00000100: 3e77 6e3e 6bee 463e e885 4a3f 135c c7be
00000110: c1fd 273f 7a1d 1a3e 3c10 56be 28ee 31bf
00000120: da1b 1dbf ca8d 1c3e 9c83 b6be 0aa9 3ebe
00000130: 91d9 083f ec17 813d 59fd 133e 4af8 93be
00000140: 26cc 8a3e 2b5b dbbe 8db7 d43e 3874 673f
00000150: 78ce 28be a99d 6fbc b9a9 d33e 07d1 23bf
00000160: 3fd4 c7be 29c6 06bf 0b47 343e 1d98 16bf
00000170: 63e3 03bf cd98 afbe 1e1d e23e b117 7dbe
00000180: 2ce8 17bf 822f 76bd 3300 cbbd 4a3d 12be
00000190: c4f9 2c39 2fca 5c3e 5637 05be d8cd 03be
000001a0: 5d59 c9bd d3d0 1bbd 01bc 9f3e adb0 bfbe
000001b0: 9893 52be 48c8 1ebe 832a 8bbe ccba 9d3d
000001c0: 5321 a73e e314 c6be 8af5 94be d2c6 8abe
000001d0: 8b4d 49be bc6d 853d 3736 adbe d446 76bf
000001e0: 4ef6 6ebe 87f7 06bf 5dab 3dbe e698 38bd
000001f0: eb29 14be 783c 6bbe 061c c1bd 4851 5f3e
00000200: fcbe 943f c4b2 2a3f 2913 903e 04f7 953e
00000210: fe28 333d 49db d23d d244 05bf abad 183f
00000220: 1f94 813e 778c 8c3e 7ef3 c03b 2a25 4ebf
00000230: 2c6e 66be 78fd be3e 5b15 513c 1d25 7fbe
00000240: 7ee1 3c3f 0007 88bd 8381 343f ce83 dfbe
00000250: 3d86 a23e 89bf 61be 45cd 5fbe cbde 72be
00000260: df77 3dbf 56ea 44bf 8595 c63e e201 9b3d
00000270: 5d06 803e 6d24 47bf e5a6 95be 598a 633e
00000280: 4d7a ad3d 7670 483d 77c2 12bf b9ba ed3e
00000290: f273 12bf 8df6 82be 8d0f 09bf f8d1 3abb
000002a0: 6d53 363e 0f83 44bf 6beb 2fbf 5037 cfbb
000002b0: 7dfa 4f3e fd55 c63e 0b5e 46bd 69fe a03e
000002c0: 07ac b5be 75b4 703e 2af7 0fbf 146b a6be
000002d0: 0ea7 b73e 8f43 86be dbae ccbd 4769 a5be
000002e0: b183 2bbf cb8f 91be b43c f9be 43f4 e8be
000002f0: 0364 18be 8df2 163d 0ae7 723e fec5 0fbd
00000300: 12bd a93d e8ec d9bd ac76 b8be 8cb4 99bc
00000310: b826 013e b379 2d3e fe60 a1be 15b4 67be
00000320: 7d5f 883c 3dad b73e ac10 a3bd 7757 e3be
00000330: 9495 c73e 50ff 82be 1b6f 58be f2f7 13be
00000340: 85f5 0cbf 1b99 2c3e f019 1b3d bb56 a43e
00000350: 8479 443f a87c a6be cb40 6cbe c1d1 7d3e
00000360: de54 57bf 50f7 aebe 070f f4bd a5fd 8e3e
00000370: fc30 063e 3ef2 a3bd c9d8 9c3e 39ee 31bd
00000380: 5c17 b7be 2ddb 943d cde4 5cbe c38c afbe
00000390: 6305 d1be 01f2 c3be d873 f93e a76f 3d3f
000003a0: aac3 6a3e 4f5b 4d3f 0932 04bf 407f c23e
000003b0: 70bf 933e 36ad a4be 35cc ca3d e77a 8e3e
000003c0: 1b36 68be fde0 59be ba9d 2bbf dbc8 123e
000003d0: 7b93 3d3d a25d b93e 7594 c8be 2d39 8c3d
000003e0: 7106 45be 8905 74bd 2983 e0bd 788b 813f
000003f0: e661 df3d aa4f 6ebe b05e 93be de80 1e3f

network_body._body_endoder.seq_layers.0.bias f4 [128]
0.0 0.0 0.0 0.0 0.0 0.0 0.0 0.0
0.0 0.0 0.0 0.0 0.0 0.0 0.0 0.0
0.0 0.0 0.0 0.0 0.0 0.0 0.0 0.0
0.0 0.0 0.0 0.0 0.0 0.0 0.0 0.0
0.0 0.0 0.0 0.0 0.0 0.0 0.0 0.0
0.0 0.0 0.0 0.0 0.0 0.0 0.0 0.0
0.0 0.0 0.0 0.0 0.0 0.0 0.0 0.0
0.0 0.0 0.0 0.0 0.0 0.0 0.0 0.0
0.0 0.0 0.0 0.0 0.0 0.0 0.0 0.0
0.0 0.0 0.0 0.0 0.0 0.0 0.0 0.0
0.0 0.0 0.0 0.0 0.0 0.0 0.0 0.0
0.0 0.0 0.0 0.0 0.0 0.0 0.0 0.0
0.0 0.0 0.0 0.0 0.0 0.0 0.0 0.0
0.0 0.0 0.0 0.0 0.0 0.0 0.0 0.0
0.0 0.0 0.0 0.0 0.0 0.0 0.0 0.0
0.0 0.0 0.0 0.0 0.0 0.0 0.0 0.0
00000000: 0000 0000 0000 0000 0000 0000 0000 0000
00000010: 0000 0000 0000 0000 0000 0000 0000 0000
00000020: 0000 0000 0000 0000 0000 0000 0000 0000
00000030: 0000 0000 0000 0000 0000 0000 0000 0000
00000040: 0000 0000 0000 0000 0000 0000 0000 0000
00000050: 0000 0000 0000 0000 0000 0000 0000 0000
00000060: 0000 0000 0000 0000 0000 0000 0000 0000
00000070: 0000 0000 0000 0000 0000 0000 0000 0000
00000080: 0000 0000 0000 0000 0000 0000 0000 0000
00000090: 0000 0000 0000 0000 0000 0000 0000 0000
000000a0: 0000 0000 0000 0000 0000 0000 0000 0000
000000b0: 0000 0000 0000 0000 0000 0000 0000 0000
000000c0: 0000 0000 0000 0000 0000 0000 0000 0000
000000d0: 0000 0000 0000 0000 0000 0000 0000 0000
000000e0: 0000 0000 0000 0000 0000 0000 0000 0000
000000f0: 0000 0000 0000 0000 0000 0000 0000 0000
00000100: 0000 0000 0000 0000 0000 0000 0000 0000
00000110: 0000 0000 0000 0000 0000 0000 0000 0000
00000120: 0000 0000 0000 0000 0000 0000 0000 0000
00000130: 0000 0000 0000 0000 0000 0000 0000 0000
00000140: 0000 0000 0000 0000 0000 0000 0000 0000
00000150: 0000 0000 0000 0000 0000 0000 0000 0000
00000160: 0000 0000 0000 0000 0000 0000 0000 0000
00000170: 0000 0000 0000 0000 0000 0000 0000 0000
00000180: 0000 0000 0000 0000 0000 0000 0000 0000
00000190: 0000 0000 0000 0000 0000 0000 0000 0000
000001a0: 0000 0000 0000 0000 0000 0000 0000 0000
000001b0: 0000 0000 0000 0000 0000 0000 0000 0000
000001c0: 0000 0000 0000 0000 0000 0000 0000 0000
000001d0: 0000 0000 0000 0000 0000 0000 0000 0000
000001e0: 0000 0000 0000 0000 0000 0000 0000 0000
000001f0: 0000 0000 0000 0000 0000 0000 0000 0000

network_body._body_endoder.seq_layers.2.weight f4 [128, 128]
0.059983835 -0.07939396 0.13902178 0.1364361 0.0760815 -0.042257775 0.0065144803 -0.089975744
-0.09825387 0.09765859 -0.053213365 -0.0922895 0.0617059 0.13651507 0.025336087 0.09117156
0.11704188 0.034765553 -0.07798448 0.011869401 -0.018210057 -0.014157614 0.01878426 0.03378601
-0.004991356 0.054196805 0.1354253 -0.06018927 -0.05459959 -0.10918352 -0.11645121 -0.07883746
-0.06981508 -0.071886085 -0.042797178 0.092500046 0.09057777 0.070583545 0.05778198 0.18165886
0.15587898 0.09871536 -0.13827638 0.1422638 0.08495795 0.048663583 -0.008408525 0.1328283
-0.12228787 0.12516512 0.13015114 -0.10869122 -0.17085327 0.07289508 0.1749594 -0.02178109
0.09909721 0.1326129 0.118592694 -0.14683153 0.004420455 -0.16118482 0.021722512 0.013525142
-0.0077263047 -0.08335445 0.15146905 -0.025172513 -0.05018754 -0.047620386 0.08357978 -0.058230832
-0.009111119 0.06901739 0.111876 0.020318005 0.1213811 -0.09749228 0.091569014 0.0043783807
0.10330795 0.01159614 0.036265735 -0.08657183 -0.13173702 0.1629934 0.04544138 0.004863409
0.07425475 -0.032190453 -0.040873103 -0.1464264 0.028087854 -0.18599829 0.02254768 -0.21059442
-0.1004695 0.07138947 -0.19949125 -0.20277797 -0.052673124 -0.09538687 -0.06791743 0.026459593
0.10329145 -0.16297111 0.08547472 0.0051263813 0.020474683 -0.004963781 -0.070514575 0.07914761
-0.015062582 -0.16258234 -0.023227112 -0.22792158 -0.052294154 -0.049337544 -0.008399084 -0.012408298
0.14962073 0.01702316 0.058426782 -0.04999113 0.10333536 0.14865312 0.071410835 -0.16780339
0.031803355 0.02377948 -0.011676937 0.115717806 -0.10005617 -0.076794304 -0.021838035 0.027396532
0.030665785 -0.042047814 0.0776944 -0.005908182 -0.02383899 0.011882873 -0.012177981 -0.09440868
-0.020073622 0.10548631 -0.020308733 0.13154045 0.029824242 -0.07548213 0.10100286 0.081435196
0.009441761 0.14989388 -0.038793225 0.03390996 -0.15057532 -0.040799547 -0.14788866 0.084333435
-0.05338527 -0.049433585 0.00157767 -0.03383741 -0.088093095 0.1938014 0.1414464 -0.13389783
0.08808038 -0.04399642 0.043274466 0.18091716 0.1302381 -0.028468713 0.029596051 -0.096326
0.24450198 0.045209754 -0.045554556 -0.021262405 0.053843327 -0.070497826 -0.03348806 0.008437927
-0.06927907 0.107405074 0.18177228 -0.2335344 -0.06887511 0.04784879 0.014662218 0.106696755
0.0036520092 -0.020670513 0.10819235 0.12735781 -0.16034164 0.12648112 -0.05628268 -0.013556835
-0.10291457 -0.035659514 -0.03996291 -0.09756284 0.014904763 -0.066545635 0.057836223 -0.051317606
-0.10710573 -0.0008827598 -0.048687655 -0.15811835 -0.12487648 -0.1114289 0.10510372 -0.015782678
-0.05386956 -0.044969115 0.042216204 0.073625654 0.0038000813 -0.08959428 -0.06914058 -0.20131245
0.15835793 0.03938096 0.18902834 0.09315731 0.0033411765 -0.13159856 0.06565958 -0.13204566
0.10860245 0.07639139 -0.008936448 0.12149338 0.030914621 0.11571493 0.04752305 -0.030878741
0.11321559 0.10387653 -0.052401576 0.06575921 0.03424864 0.11225156 0.035650067 0.07151863
0.06183543 -0.03397309 0.025326096 0.044216495 -0.034312584 -0.045940228 -0.08641547 0.016757306
00000000: 9cb1 753d 4d99 a2bd ba5b 0e3e e8b5 0b3e
00000010: 9ed0 9b3d 7d16 2dbd 6c77 d53b 3445 b8bd
00000020: 5339 c9bd 3a01 c83d 42f6 59bd 4702 bdbd
00000030: 53bf 7c3d 9bca 0b3e a08d cf3c 28b8 ba3d
00000040: a7b3 ef3d 5366 0e3d 54b6 9fbd e077 423c
00000050: 422d 95bc 56f5 67bc 73e1 993c 3363 0a3d
00000060: 878e a3bb 78fd 5d3d eeac 0a3e 0689 76bd
00000070: d2a3 5fbd 9c9b dfbd f97d eebd 8975 a1bd
00000080: 35fb 8ebd 0339 93bd 184c 2fbd aa70 bd3d
00000090: d680 b93d 1b8e 903d ccac 6c3d c804 3a3e
000000a0: bd9e 1f3e 472b ca3d 5398 0dbe 9aad 113e
000000b0: 6ffe ad3d 7753 473d e9c3 09bc 2404 083e
000000c0: 1072 fabd 492b 003e 5746 053e 8199 debd
000000d0: 29f4 2ebe 044a 953d 8f28 333e 426e b2bc
000000e0: 7af3 ca3d adcb 073e bae0 f23d 015b 16be
000000f0: 77d9 903b a20d 25be 69f3 b13c 8f98 5d3c
00000100: f12c fdbb bdb5 aabd b41a 1b3e 9636 cebc
00000110: 7391 4dbd 980d 43bd e02b ab3d 7483 6ebd
00000120: ce46 15bc fd58 8d3d 3f1f e53d f271 a63c
00000130: a796 f83d 08aa c7bd 8988 bb3d 8578 8f3b
00000140: 1e93 d33d bdfd 3d3c 618b 143d 924c b1bd
00000150: 12e6 06be bee7 263e be20 3a3d 3b5d 9f3b
00000160: e012 983d 23da 03bd 8e6a 27bd cdf0 15be
00000170: 8018 e63c 5676 3ebe eab5 b83c 10a6 57be
00000180: f4c2 cdbd a434 923d 6f47 4cbe 07a5 4fbe
00000190: c6bf 57bd 315a c3bd 4b18 8bbd cac1 d83c
000001a0: 788a d33d e6e1 26be 5f0d af3d 34fb a73b
000001b0: 86ba a73c 37a7 a2bb f269 90bd 2418 a23d
000001c0: 0cc9 76bc fc7b 26be c946 bebc 4664 69be
000001d0: 6532 56bd 2a16 4abd 509c 09bc 2d4c 4bbc
000001e0: 2d36 193e 2774 8b3c ec50 6f3d 80c3 4cbd
000001f0: 7da1 d33d 8638 183e d83f 923d a7d4 2bbe
00000200: 3c44 023d 2fcd c23c a050 3fbc 75fd ec3d
00000210: 40ea ccbd 5546 9dbd aee5 b2bc b16e e03c
00000220: d036 fb3c 543a 2cbd 3e1e 9f3d 6c99 c1bb
00000230: fc49 c3bc 62b0 423c 2886 47bc 5759 c1bd
00000240: 7071 a4bc 3509 d83d 805e a6bc 8ab2 063e
00000250: f851 f43c 6096 9abd 96da ce3d 7fc7 a63d
00000260: 9eb1 1a3c c87d 193e a5e5 1ebd 2ce5 0a3d
00000270: 6b30 1abe 6d1d 27bd 2070 17be 02b7 ac3d
00000280: 83aa 5abd df7a 4abd d2c9 ce3a 1999 0abd
00000290: 276a b4bd e073 463e 53d7 103e 831c 09be
000002a0: 7c63 b43d 9735 34bd 9140 313d 5942 393e
000002b0: 235d 053e 3837 e9bc 6b73 f23c 9146 c5bd
000002c0: ba5e 7a3e dd2d 393d 6a97 3abd 7f2e aebc
000002d0: d28a 5c3d 2a61 90bd c72a 09bd 3b3f 0a3c
000002e0: 2fe2 8dbd 31f7 db3d 8322 3a3e a423 6fbe
000002f0: 650e 8dbd 18fd 433d cd39 703c d483 da3d
00000300: 8c56 6f3b 3555 a9bc f393 dd3d 166a 023e
00000310: 9930 24be 4484 013e ab88 66bd 7d1d 5ebc
00000320: e0c4 d2bd b60f 12bd 26b0 23bd 07cf c7bd
00000330: 1b33 743c 1449 88bd ade5 6c3d 6932 52bd
00000340: 405a dbbd 0269 67ba b56c 47bd c7e9 21be
00000350: 3dbf ffbd d634 e4bd 9f40 d73d ad4a 81bc
00000360: 54a6 5cbd 8931 38bd e6ea 2c3d 0cc9 963d
00000370: c90a 793b 357d b7bd 9499 8dbd da24 4ebe
00000380: 9528 223e ee4d 213d a590 413e 42c9 be3d
00000390: a4f7 5a3b c6c1 06be 8878 863d fa36 07be
000003a0: f66a de3d 1773 9c3d 2e6a 12bc 85d1 f83d
000003b0: a940 fd3c f3fb ec3d 88a7 423d 6af5 fcbc
000003c0: 93dd e73d 38bd d43d 09a3 56bd c4ac 863d
000003d0: 4d48 0c3d 25e4 e53d ce05 123d 5c78 923d
000003e0: 2647 7d3d 5e27 0bbd ac78 cf3c 5b1c 353d
000003f0: 5a8b 0cbd d22b 3cbd 98fa b0bd 9e46 893c

network_body._body_endoder.seq_layers.2.bias f4 [128]
0.0 0.0 0.0 0.0 0.0 0.0 0.0 0.0
0.0 0.0 0.0 0.0 0.0 0.0 0.0 0.0
0.0 0.0 0.0 0.0 0.0 0.0 0.0 0.0
0.0 0.0 0.0 0.0 0.0 0.0 0.0 0.0
0.0 0.0 0.0 0.0 0.0 0.0 0.0 0.0
0.0 0.0 0.0 0.0 0.0 0.0 0.0 0.0
0.0 0.0 0.0 0.0 0.0 0.0 0.0 0.0
0.0 0.0 0.0 0.0 0.0 0.0 0.0 0.0
0.0 0.0 0.0 0.0 0.0 0.0 0.0 0.0
0.0 0.0 0.0 0.0 0.0 0.0 0.0 0.0
0.0 0.0 0.0 0.0 0.0 0.0 0.0 0.0
0.0 0.0 0.0 0.0 0.0 0.0 0.0 0.0
0.0 0.0 0.0 0.0 0.0 0.0 0.0 0.0
0.0 0.0 0.0 0.0 0.0 0.0 0.0 0.0
0.0 0.0 0.0 0.0 0.0 0.0 0.0 0.0
0.0 0.0 0.0 0.0 0.0 0.0 0.0 0.0
00000000: 0000 0000 0000 0000 0000 0000 0000 0000
00000010: 0000 0000 0000 0000 0000 0000 0000 0000
00000020: 0000 0000 0000 0000 0000 0000 0000 0000
00000030: 0000 0000 0000 0000 0000 0000 0000 0000
00000040: 0000 0000 0000 0000 0000 0000 0000 0000
00000050: 0000 0000 0000 0000 0000 0000 0000 0000
00000060: 0000 0000 0000 0000 0000 0000 0000 0000
00000070: 0000 0000 0000 0000 0000 0000 0000 0000
00000080: 0000 0000 0000 0000 0000 0000 0000 0000
00000090: 0000 0000 0000 0000 0000 0000 0000 0000
000000a0: 0000 0000 0000 0000 0000 0000 0000 0000
000000b0: 0000 0000 0000 0000 0000 0000 0000 0000
000000c0: 0000 0000 0000 0000 0000 0000 0000 0000
000000d0: 0000 0000 0000 0000 0000 0000 0000 0000
000000e0: 0000 0000 0000 0000 0000 0000 0000 0000
000000f0: 0000 0000 0000 0000 0000 0000 0000 0000
00000100: 0000 0000 0000 0000 0000 0000 0000 0000
00000110: 0000 0000 0000 0000 0000 0000 0000 0000
00000120: 0000 0000 0000 0000 0000 0000 0000 0000
00000130: 0000 0000 0000 0000 0000 0000 0000 0000
00000140: 0000 0000 0000 0000 0000 0000 0000 0000
00000150: 0000 0000 0000 0000 0000 0000 0000 0000
00000160: 0000 0000 0000 0000 0000 0000 0000 0000
00000170: 0000 0000 0000 0000 0000 0000 0000 0000
00000180: 0000 0000 0000 0000 0000 0000 0000 0000
00000190: 0000 0000 0000 0000 0000 0000 0000 0000
000001a0: 0000 0000 0000 0000 0000 0000 0000 0000
000001b0: 0000 0000 0000 0000 0000 0000 0000 0000
000001c0: 0000 0000 0000 0000 0000 0000 0000 0000
000001d0: 0000 0000 0000 0000 0000 0000 0000 0000
000001e0: 0000 0000 0000 0000 0000 0000 0000 0000
000001f0: 0000 0000 0000 0000 0000 0000 0000 0000

value_heads.value_heads.extrinsic.weight f4 [1, 128]
0.13412952 0.16287713 0.07983914 -0.15438992 -0.100417994 0.10755396 0.13756508 0.13303952
0.10329672 -0.028688176 -0.18613711 -0.063180126 -0.06868391 0.033316858 -0.057431225 0.12662329
-0.09157616 -0.113234304 -0.17497094 0.15531977 0.18296027 -0.18086514 -0.14067155 0.0905371
-0.08428561 -0.18453923 0.038261842 -0.004442843 0.1413396 0.18676877 -0.16151096 -0.007991735
0.0892053 0.075154096 0.037142355 0.040290054 0.09649923 0.15850233 0.011844266 0.099949315
-0.029565288 -0.029706882 -0.1722949 -0.08706841 0.17993927 -0.16463137 0.015530136 0.1427337
-0.0148587115 -0.04775471 0.044035185 -0.13939628 -0.16061272 -0.05683589 -0.2002879 -0.06315666
-0.046570573 -0.16442685 -0.021504948 0.2098926 0.117129505 -0.05205453 0.1924866 -0.01868493
0.071179874 0.07704911 -0.004126991 -0.16343132 -0.17118172 0.09886986 0.14100651 -0.13773875
-0.12899022 -0.09552488 0.15056643 -0.08061995 0.040515985 0.14904778 -0.056113534 -0.02751106
0.012014462 0.07715192 -0.06690657 -0.08474431 0.06867519 -0.1960546 -0.05181457 0.20444477
0.20226417 -0.119792834 0.028560579 0.12351475 -0.15336268 0.00473422 -0.10631756 -0.20941141
-0.10537964 -0.01051436 -0.04697191 -0.10727105 -0.004475507 0.06680736 -0.15491758 -0.074617416
-0.0064903223 -0.18855764 -0.13583414 0.10498251 -0.13439089 0.1823771 0.044037808 0.113584004
0.026602788 -0.12839065 0.19747758 0.21498299 -0.06580958 0.11131724 -0.03939786 0.17438473
-0.16836229 -0.19011456 -0.04158205 0.085357495 0.12635157 0.029803703 -0.14068836 -0.20963278
00000000: 4059 093e 43c9 263e b482 a33d 6418 1ebe
00000010: f3a7 cdbd 4045 dc3d dcdd 0c3e 833b 083e
00000020: 3b8d d33d 7703 ebbc ba9a 3ebe 9564 81bd
00000030: 26aa 8cbd 4277 083d 013d 6bbd 89a9 013e
00000040: 488c bbbd 63e7 e7bd 952b 33be 250c 1f3e
00000050: f059 3b3e b634 39be 340c 10be 846b b93d
00000060: ef9d acbd daf7 3cbe 73b8 1c3d 4595 91bb
00000070: 54bb 103e 5040 3f3e 2163 25be c4ef 02bc
00000080: 45b1 b63d 64ea 993d 9522 183d 2f07 253d
00000090: 63a1 c53d 6f4e 223e 740e 423c 3ab2 cc3d
000000a0: e732 f2bc d95b f3bc 136e 30be ec50 b2bd
000000b0: 0042 383e 2095 28be 1d72 7e3c c828 123e
000000c0: f471 73bc 719a 43bd 3d5e 343d e6bd 0ebe
000000d0: a977 24be c0cc 68bd 4518 4dbe 4758 81bd
000000e0: c9c0 3ebd 835f 28be 252b b0bc 16ee 563e
000000f0: 98e1 ef3d 2137 55bd 351b 453e 2311 99bc
00000100: c1c6 913d eccb 9d3d b63b 87bb 8a5a 27be
00000110: 434a 2fbe 487c ca3d 0364 103e 630b 0dbe
00000120: 0316 04be 8ca2 c3bd 162e 1a3e 131c a5bd
00000130: 17f4 253d fb9f 183e 4ed7 65bd e05e e1bc
00000140: 4ed8 443c d301 9e3d 5006 89bd 6d8e adbd
00000150: 94a5 8c3d 89c2 48be 843b 54bd f859 513e
00000160: 571e 4f3e f255 f5bd e0f7 e93c 4df5 fc3d
00000170: 1b0b 1dbe 8421 9b3b 05bd d9bd f26f 56be
00000180: 48d1 d7bd 6c44 2cbc 9e65 40bd edb0 dbbd
00000190: 46a7 92bb 4cd2 883d b7a2 1ebe 04d1 98bd
000001a0: c5ac d4bb 4115 41be 1b18 0bbe 1201 d73d
000001b0: c49d 09be 10c1 3a3e fd60 343d bb9e e83d
000001c0: 17ee d93c d778 03be 9037 4a3e 8024 5c3e
000001d0: 2cc7 86bd 4bfa e33d a75f 21bd e991 323e
000001e0: 2a67 2cbe 64ad 42be f151 2abd e9cf ae3d
000001f0: 4e62 013e e526 f43c 9c10 10be faa9 56be
