results/test_4/Boss/Boss-6999964.onnx (onnx, 75574 bytes, 7 tensors)

network_body._body_endoder.seq_layers.0.weight f4 [128, 7]
0.22474076 -0.5321351 0.27058125 -0.7050697 -0.5920788 -0.37603307 0.63337016 0.23876877
-0.30245426 -0.10960452 0.71733034 -0.10534972 0.7273475 -0.49795213 0.071892954 0.20900707
-0.04891731 -0.2930355 -0.16104122 0.37162265 0.000659671 0.5192108 -0.141832 0.22499004
0.07290739 -0.4760951 0.035399575 0.089779705 0.16007295 -0.47480762 0.16460429 -0.21368223
-0.006190907 -0.13091043 0.35571584 1.0451301 -0.099262826 0.53605974 0.08182843 0.42871207
0.06079683 0.07108113 -0.3340707 -0.28687054 -0.65118146 -0.06698175 0.36262316 0.11047237
0.35811892 0.3062102 -0.23261335 0.31622294 0.22764559 0.023444356 -0.26996726 -0.5525919
0.0077941157 0.002312933 -0.0070597106 -0.08565595 0.35102907 0.0891174 0.13205409 -0.22020164
-0.13966262 -0.043371003 0.14397725 0.27090612 -0.43195343 -0.2935673 -0.08468523 0.5591231
-0.18211006 0.3467984 0.50882185 -1.0667406 -0.45968583 -0.064330086 -0.5173777 0.41858283
-0.05099221 -0.9159869 0.17840463 -0.098069414 -0.58131653 -0.32584152 -0.5271616 0.0980269
-0.16363472 0.34604493 -0.5915298 -0.28310204 0.3066087 0.7370351 0.06400576 0.18282121
0.07746101 0.25465888 -0.3573693 0.23479825 -0.746122 0.59818065 0.19811557 -0.24787433
0.45595804 0.5793861 -0.08842806 -0.15518735 -0.5424352 0.52514815 0.042398836 0.42083004
0.48145458 -0.048567597 -0.39946774 0.5526723 0.20053855 -0.26659337 -0.30028564 0.4737402
-0.22774334 0.32198423 -0.124742515 -0.20111117 0.48831034 -0.8346347 -0.034160133 -0.14755847
0.10645997 0.17722383 0.04344196 0.8988758 0.048590995 -0.10124871 0.78776234 0.5300187
-0.06333076 0.24235329 -0.38098106 0.47703552 -0.23824027 -0.19296797 0.014749923 -0.18630512
-0.41161156 0.39944947 -0.005385192 0.1621984 0.76724523 -0.022652458 0.5422855 0.1481124
-0.4601588 -0.2616819 0.3717758 0.14409488 0.31483346 0.19529015 0.29107654 -0.47889152
0.18371995 0.056410197 0.18150066 1.1897906 -0.53800577 0.34655422 -0.20937942 0.36596185
-0.2572838 0.061731126 0.3641684 -0.10046476 0.251429 0.38366088 -1.0225178 0.27988923
0.21908367 -0.14795771 -0.122729026 0.38456577 -0.15571883 0.16001976 0.13923804 -0.012898886
-0.07598738 -0.76102215 0.062487002 0.9348088 0.08271363 -0.13320415 -0.44573313 -0.3631891
-0.8152406 0.36800507 0.6886141 -0.13416101 0.16426271 0.74158317 -0.33107415 0.17444292
-0.86669946 0.19027717 0.088544644 -0.54163873 0.4330855 0.7353276 -0.19196807 -0.3450722
0.842424 0.32806882 0.3719326 -0.38033915 -0.45598915 0.12677799 0.41761488 0.8401832
-0.026555186 -0.6394292 -0.08729503 -0.14121719 0.12507717 -0.112872586 -0.16422307 -0.17371047
-0.15840115 0.1577608 -0.3984271 0.23554985 -0.54733527 0.13474269 0.49773973 0.61120605
-0.22086325 -0.15414453 -0.7360325 0.06859975 0.21637426 0.5705116 -0.08661962 0.22994941
-0.0062141037 -0.290923 -0.2587679 -0.29344285 0.24839431 -0.049173396 -0.04428816 0.46753144
0.17229322 -1.1196675 -0.07823322 -0.17207173 -0.03599628 0.08925877 -0.18645133 -0.80262804
00000000: 7122 663e 023a 08bf a089 8a3e 737f 34bf
00000010: 7a92 17bf 6887 c0be 8c24 223f cd7f 743e
00000020: 49db 9abe 5678 e0bd f6a2 373f 98c1 d7bd
00000030: 7233 3a3f 95f3 febe 9d3c 933d f305 563e
00000040: 845d 48bd c008 96be fde7 24be 5345 be3e
00000050: c5ed 2c3a 00eb 043f 683c 11be ca63 663e
00000060: 7850 953d bdc2 f3be 25ff 103d 6cde b73d
00000070: 2aea 233e fc19 f3be 078e 283e 84cf 5abe
00000080: 18dd cabb 620d 06be 6320 b63e d3c6 853f
00000090: 4f4a cbbd 363b 093f aa95 a73d 2680 db3e
000000a0: 1906 793d fc92 913d 510b abbe b2e0 92be
000000b0: d4b3 26bf ba2d 89bd bea9 b93e 573f e23d
000000c0: 5d5b b73e 95c7 9c3e 3232 6ebe f9e7 a13e
000000d0: ed1b 693e 610e c03c 2639 8abe aa76 0dbf
000000e0: c865 ff3b 9494 173b 2555 e7bb 636c afbd
000000f0: 15ba b33e 2f83 b63d 3039 073e 8a7c 61be
00000100: b803 0fbe cba5 31bd c66e 133e 35b4 8a3e
00000110: 0029 ddbe 744e 96be 736f adbd b122 0f3f
00000120: 0f7b 3abe 8f8f b13e 2642 023f f58a 88bf
00000130: f15b ebbe 7ebf 83bd dd72 04bf 7d50 d63e
00000140: 35dd 50bd 1e7e 6abf b4af 363e 9ed8 c8bd
00000150: 29d1 14bf b3d4 a6be 10f4 06bf 54c2 c83d
00000160: dc8f 27be cd2c b13e 7f6e 17bf c0f2 90be
00000170: d1fb 9c3e 55ae 3c3f 7415 833d 7c35 3b3e
00000180: e1a3 9e3d a662 823e 1cf9 b6be f46e 703e
00000190: da01 3fbf 5e22 193f cfde 4a3e c5d2 7dbe
000001a0: 5573 e93e a652 143f c519 b5bd 6fe9 1ebe
000001b0: 09dd 0abf 1c70 063f 67aa 2d3d 0977 d73e
000001c0: 3781 f63e d1ee 46bd 0987 ccbe ef7b 0d3f
000001d0: fa59 4d3e ed7e 88be 0abf 99be 138e f23e
000001e0: 8d35 69be 1edb a43e 0179 ffbd 16f0 4dbe
000001f0: d003 fa3e 9faa 55bf 7feb 0bbd 9119 17be
00000200: af07 da3d 2a7a 353e 32f0 313d b91c 663f
00000210: 5a07 473d 7c5b cfbd cbaa 493f 4eaf 073f
00000220: 8fb3 81bd 762b 783e f30f c3be 003e f43e
00000230: 42f5 73be 6599 45be a9a9 713c c5c6 3ebe
00000240: c0be d2be a484 cc3e 4476 b0bb 5617 263e
00000250: 2f6a 443f a691 b9bc 39d3 0a3f c7aa 173e
00000260: ef99 ebbe 2cfb 85be 6659 be3e 9c8d 133e
00000270: da31 a13e 24fa 473e fc07 953e 4531 f5be
00000280: 1521 3c3e 610e 673d 4fdb 393e 0f4b 983f
00000290: bfba 09bf 8e6f b13e 8f67 56be 5a5f bb3e
000002a0: b4ba 83be c7d9 7c3d 4874 ba3e 78c0 cdbd
000002b0: 4dbb 803e 336f c43e dde1 82bf a44d 8f3e
000002c0: 7857 603e 3a82 17be 5b59 fbbd cee5 c43e
000002d0: c274 1fbe 38dc 233e 6b94 0e3e d955 53bc
000002e0: 469f 9bbd 59d2 42bf 5ff2 7f3d a14f 6f3f
000002f0: c365 a93d ab66 08be 2237 e4be ecf3 b9be
00000300: 9cb3 50bf 296b bc3e 0349 303f 8161 09be
00000310: 7c34 283e 65d8 3d3f 8d82 a9be 2aa1 323e
00000320: 04e0 5dbf 05d8 423e e556 b53d d6a8 0abf
00000330: 62bd dd3e 6e3e 3c3f 4793 44be 4ead b0be
00000340: 19a9 573f a3f8 a73e f36d be3e d0bb c2be
00000350: 6977 e9be 17d2 013e 9ed1 d53e 3f16 573f
00000360: 438a d9bc a2b1 23bf bdc7 b2bd 3d9b 10be
00000370: 3b14 003e be29 e7bd 182a 28be 28e1 31be
00000380: e933 22be 0c8c 213e a3fe cbbe fb33 713e
00000390: 2a1e 0cbf fdf9 093e bed7 fe3e 0078 1c3f
000003a0: fa29 62be 10d8 1dbe a06c 3cbf 077e 8c3d
000003b0: 3791 5d3e 0c0d 123f a165 b1bd dc77 6b3e
000003c0: ae9f cbbb dcf3 94be 3a7d 84be 243e 96be
000003d0: 145b 7e3e 0b6a 49bd 8067 35bd 4860 ef3e
000003e0: a26d 303e 4451 8fbf bd38 a0bd 9233 30be
000003f0: d670 13bd 4dcd b63d 19ed 3ebe 0879 4dbf

network_body._body_endoder.seq_layers.0.bias f4 [128]
-0.005572841 -0.017922092 -0.043817785 -0.003234485 0.0064815218 -0.03702571 -0.040562265 -0.046842188
-0.07798535 -0.001286549 -0.021810813 -0.053044003 0.03968873 -0.01149388 -0.012273987 -0.035691336
-0.017811775 -0.01470697 -0.017804898 -0.049480334 0.0247447 -0.04026261 -0.01791559 0.005943828
-0.03427045 -0.020433666 -0.0024225984 0.03274583 -0.01382702 -0.060466085 -0.03209816 0.031041315
-0.012996983 0.0072928537 0.022165269 -0.0232025 -0.08463578 0.019607738 -0.030103961 -0.014700791
-0.023401074 -0.015724774 0.009554812 -0.032918792 -0.014700439 -0.045224722 0.0051247585 0.012146382
-0.0119582955 -0.026150165 -0.0155518865 -0.04950183 0.027143154 -0.023421187 -0.026389584 -0.050080843
0.010138916 -0.0060719596 -0.017550468 -0.051872075 -0.005365119 -0.013552881 -0.07718596 0.008753217
0.010108691 -0.009906432 -0.017673932 0.03305283 0.018836245 0.006441826 -0.06874489 -0.0400777
-0.030375086 -0.05067092 -0.056806944 0.01905758 0.01075588 -0.020675877 0.010619198 -0.0072785206
0.024114775 0.01961342 -0.0102192145 -0.05395485 -0.040951423 -0.015838064 -0.021469722 -0.086462356
-0.014186355 -0.05294208 -0.06666883 -0.085822456 -0.07839248 -0.007745825 -0.005426265 -0.054593626
-0.0027407426 -0.03366372 -0.01265861 -0.024051351 -0.022023605 -0.007843513 -0.08769898 -0.008247628
-0.024672298 0.022401506 -0.046166126 -0.08282185 -0.035202667 -0.028425368 -0.018032275 0.018699368
-0.0273346 0.0044966936 0.012192335 0.04338088 -0.025474183 -0.05344548 -0.020020291 -0.02784199
-0.018368898 0.040873192 -0.047812175 0.036257327 -0.017362675 -0.049348563 -0.00013318223 0.044981305
00000000: 619c b6bb 5ad1 92bc 477a 33bd a7f9 53bb
00000010: f262 d43b 45a8 17bd 9e24 26bd 98dd 3fbd
00000020: c8b6 9fbd 6ca1 a8ba 97ac b2bc ab44 59bd
00000030: a690 223d d450 3cbc d518 49bc 1431 12bd
00000040: 00ea 91bc 81f5 70bc 94db 91bc e4ab 4abd
00000050: 66b5 ca3c 68ea 24bd b7c3 92bc 71c4 c23b
00000060: 2c5f 0cbd 8164 a7bc 75c4 1ebb 7e20 063d
00000070: ba8a 62bc 49ab 77bd 5c79 03bd 5b4a fe3c
00000080: 4cf1 54bc e4f8 ee3b f093 b53c 2b13 bebc
00000090: 8655 adbd 68a0 a03c 959c f6bc 96db 70bc
000000a0: 9cb3 bfbc 3ed1 80bc c98b 1c3c dbd5 06bd
000000b0: 1cda 70bc 8f3d 39bd 97ed a73b 9e01 473c
000000c0: baec 43bc df38 d6bc 57cd 7ebc 6ec2 4abd
000000d0: 525b de3c cadd bfbc f82e d8bc 9221 4dbd
000000e0: b21d 263c 4af7 c6bb 00c6 8fbc d077 54bd
000000f0: e1cd afbb e70c 5ebc ac13 9ebd a769 0f3c
00000100: ec9e 253c 964e 22bc ecc8 90bc 6762 073d
00000110: 784e 9a3c f415 d33b 1fca 8cbd 8428 24bd
00000120: 2cd5 f8bc 508c 4fbd 66ae 68bd a41e 9c3c
00000130: 6e39 303c 7560 a9bc 25fc 2d3c a880 eebb
00000140: 598c c53c 53ac a03c 7e6e 27bc c3ff 5cbd
00000150: aebc 27bd d4be 81bc 45e1 afbc 2d13 b1bd
00000160: e36d 68bc cbd9 58bd ab89 88bd afc3 afbd
00000170: 3d8c a0bd b1d0 fdbb cfce b1bb 919d 5fbd
00000180: 089e 33bb f8e2 09bd 0f66 4fbc 5707 c5bc
00000190: d96a b4bc 1482 00bc 869b b3bd 0f21 07bc
000001a0: 8f1d cabc 5d83 b73c b118 3dbd 819e a9bd
000001b0: ac30 10bd 51dc e8bc 6cb8 93bc 6b2f 993c
000001c0: d0ec dfbc 0059 933b 5cc2 473c 26b0 313d
000001d0: 3caf d0bc a6e9 5abd 9801 a4bc e314 e4bc
000001e0: 5f7a 96bc a66a 273d b3d6 43bd 9082 143d
000001f0: 2b3c 8ebc b821 4abd d5a6 0bb9 513e 383d

network_body._body_endoder.seq_layers.2.weight f4 [128, 128]
0.21658945 -0.025459846 0.011614227 -0.04667845 0.07056902 -0.14669472 0.019742655 0.024434194
-0.080451235 0.024451027 -0.06327558 0.0724722 0.021543892 -0.08321201 -0.0006089582 -0.07269897
0.038361974 0.116066985 -0.07111885 -0.07050925 -0.058932643 0.016727103 -0.13489021 -0.071535334
-0.14480641 -0.1227177 0.044451907 0.07535661 -0.095550194 0.037081115 -0.08863203 0.06197552
-0.08229063 0.15085709 -0.0026454711 -0.088874504 -0.037084013 -0.10202931 -0.12441874 -0.12392913
0.17193137 0.11948689 -0.12509121 -0.21872602 0.043376137 -0.09075543 0.038818218 -0.10602154
-0.050670084 -0.13896123 0.08537693 -0.045004338 -0.19258516 0.035721894 0.01663688 -0.048227396
0.061561383 -0.12025853 -0.0028510042 0.02556098 0.010148584 0.06808292 -0.018115336 0.116286114
0.020665849 -0.047658514 -0.0024877312 0.060694057 -0.03254137 -0.043059915 -0.14557548 -0.14038488
0.05987701 -0.10003979 -0.17572479 0.15034355 0.012656532 -0.08796782 0.020410549 -0.038247492
-0.035875354 0.099414915 0.020057779 -0.06403167 -0.062699184 0.13502254 -0.09571747 0.051402472
-0.026045272 0.009650657 -0.030353138 -0.12323505 -0.043679845 0.15329023 0.048138235 -0.11907441
-0.07483755 -0.14312492 0.05557725 0.13974701 0.0076327804 0.08821063 0.07828767 0.12716058
-0.07949051 -0.049730323 -0.09952943 -0.15953766 0.13935238 -0.010244859 0.010179575 0.1601143
0.06936476 -0.019326646 -0.1344951 -0.055742748 -0.01101962 -0.13875455 0.049756628 -0.055956155
-0.06605404 0.08111206 -0.1308095 0.012141663 0.02485363 0.07203494 0.07025599 -0.198915
0.009075848 -0.005582954 0.0034064837 0.00456381 0.07025001 0.034713283 0.061938565 0.001649154
-0.043200187 0.017539686 -0.19958588 -0.09101694 -0.0822673 -0.12380728 -0.03273679 -0.12129666
-0.04735945 -0.04876042 0.05477411 -0.085770555 -0.0032688312 -0.029700179 -0.050199553 -0.15230179
-0.13949333 0.082945555 -0.11011863 0.051981796 -0.08465192 -0.010813737 -0.032559156 -0.10860352
0.077822335 -0.061888125 0.06567024 0.20088759 0.20731468 0.11342634 -0.0027952243 0.08131458
-0.004827547 -0.08042188 0.073996715 0.10949745 -0.0034347437 0.008257805 0.006140368 -0.08390035
0.0029540479 0.13642114 0.069084376 0.14126861 -0.1392477 0.1831085 -0.014370865 -0.07850165
0.01593949 0.017295055 -0.1532959 -0.21756156 -0.007885318 0.089654595 -0.09020388 0.095999725
-0.18232346 -0.24397664 0.082818896 -0.00742448 0.09564192 -0.13203913 0.022361793 -0.12502934
0.04999981 -0.19295055 -0.04565417 0.08512268 -0.013198921 0.035344522 -0.06783171 0.12254239
-0.097464405 0.008338424 0.010828124 -0.03862344 0.09086831 -0.0148738045 -0.001139559 0.0053546787
0.06429495 0.11906916 -0.155987 -0.04133153 0.08079491 0.01010809 -0.094674 0.151288
-0.14019348 -0.014957639 -0.09405604 0.044728465 0.04224789 0.11353444 -0.14816508 -0.040546577
-0.05872454 0.06750797 -0.062076103 0.08353614 -0.12971711 -0.13359769 0.0015438648 0.1444331
-0.14077295 -0.034030672 -0.08851777 0.008019366 -0.0023692453 -0.1149399 -0.0851141 0.022483598
0.025688715 0.0779181 0.12990214 0.12009785 0.06304068 0.22464666 -0.21578197 -0.0526031
00000000: a0c9 5d3e 2b91 d0bc 9949 3e3c e731 3fbd
00000010: 7e86 903d 2437 16be 59bb a13c 382a c83c
00000020: 9ec3 a4bd 854d c83c a196 81bd 4e6c 943d
00000030: d17c b03c 0f6b aabd 7ea2 1fba 33e3 94bd
00000040: 7221 1d3d 87b4 ed3d c2a6 91bd 2767 90bd
00000050: 5b63 71bd 4707 893c a920 0abe 1e81 92bd
00000060: 2248 14be 6b53 fbbd 3413 363d 9154 9a3d
00000070: d2af c3bd 5ee2 173d b684 b5bd 0bda 7d3d
00000080: fd87 a8bd 487a 1a3e a45f 2dbb d603 b6bd
00000090: 68e5 17bd bef4 d0bd 41cf febd 8ece fdbd
000000a0: c70e 303e 8bb5 f43d e917 00be b7f9 5fbe
000000b0: 2dab 313d fcdd b9bd daff 1e3d d221 d9bd
000000c0: 6f8b 4fbd da4b 0ebe 1ada ae3d 7856 38bd
000000d0: 0b35 45be 1f51 123d 114a 883c 178a 45bd
000000e0: ca27 7c3d 1b4a f6bd ead7 3abb 4365 d13c
000000f0: 3f46 263c 0f6f 8b3d 9d66 94bc 6a27 ee3d
00000100: 6d4b a93c 9335 43bd 3409 23bb 559a 783d
00000110: 194a 05bd 985f 30bd bd11 15be 0ec1 0fbe
00000120: 9841 753d a9e1 ccbd 33f1 33be a9f3 193e
00000130: 585d 4f3c 7928 b4bd 0634 a73c 67a9 1cbd
00000140: 09f2 12bd 0c9a cb3d 3650 a43c 0923 83bd
00000150: 6e68 80bd 5943 0a3e 8507 c4bd 668b 523d
00000160: e55c d5bc ca1d 1e3c 25a7 f8bc a862 fcbd
00000170: a3e9 32bd 1df8 1c3e 992c 453d 49dd f3bd
00000180: 6e44 99bd 578f 12be f8a4 633d d719 0f3e
00000190: 671c fa3b c6a7 b43d 4955 a03d 6236 023e
000001a0: eccb a2bd 06b2 4bbd 16d6 cbbd d75d 23be
000001b0: 64b2 0e3e 0eda 27bc 3bc8 263c 01f5 233e
000001c0: 1c0f 8e3d ea52 9ebc 15b9 09be 8252 64bd
000001d0: a38b 34bc ac15 0ebe 9bcd 4b3d 4832 65bd
000001e0: 5747 87bd 141e a63d edf2 05be d3ed 463c
000001f0: d799 cb3c 0e87 933d 5fe2 8f3d 60b0 4bbe
00000200: deb2 143c 36f1 b6bb 503f 5f3b 038c 953b
00000210: 3ddf 8f3d 842f 0e3d 4bb3 7d3d 6d28 d83a
00000220: aef2 30bd 63af 8f3c 3e60 4cbe 1767 babd
00000230: c27b a8bd ac8e fdbd 0317 06bd 626a f8bd
00000240: fcfb 41bd 02b9 47bd d15a 603d 79a8 afbd
00000250: e339 56bb ca4d f3bc 0c9e 4dbd 00f5 1bbe
00000260: 57d7 0ebe 5cdf a93d e085 e1bd ddea 543d
00000270: fc5d adbd 1a2c 31bc c05c 05bd 866b debd
00000280: 5161 9f3d 677e 7dbd 1e7e 863d 7ab5 4d3e
00000290: 4d4a 543e 124c e83d 1530 37bb 4288 a63d
000002a0: 6630 9ebb 3ab4 a4bd 978b 973d 3340 e03d
000002b0: 7019 61bb bf4b 073c 2435 c93b f2d3 abbd
000002c0: b398 413b fcb1 0b3e 1c7c 8d3d b8a8 103e
000002d0: f396 0ebe cb80 3b3e c773 6bbc 79c5 a0bd
000002e0: 8993 823c 5cae 8d3c 9af9 1cbe 75c8 5ebe
000002f0: 6c31 01bc d49c b73d d0bc b8bd 819b c43d
00000300: 00b3 3abe 03d5 79be f49c a93d 0d49 f3bb
00000310: e9df c33d 4435 07be 1430 b73c b107 00be
00000320: 9acc 4c3d d494 45be deff 3abd cd54 ae3d
00000330: 4a40 58bc 6bc5 103d 5aeb 8abd 81f7 fa3d
00000340: 6b9b c7bd e39d 083c 7268 313c 9d33 1ebd
00000350: 2a19 ba3d 42b1 73bc 415d 95ba 4d76 af3b
00000360: 12ad 833d 88da f33d 0ebb 1fbe 404b 29bd
00000370: cd77 a53d 679c 253c 71e4 c1bd 3eeb 1a3e
00000380: e18e 0fbe e310 75bc 74a0 c0bd 3235 373d
00000390: 200c 2d3d bf84 e83d 96b8 17be 2b14 26bd
000003a0: 2589 70bd 9e41 8a3d 8343 7ebd ff14 ab3d
000003b0: 90d4 04be d5cd 08be 825b ca3a 45e6 133e
000003c0: c926 10be bf63 0bbd ce48 b5bd a963 033c
000003d0: 5745 1bbb 9c65 ebbd 4d50 aebd 862f b83c
000003e0: 2471 d23c 8693 9f3d 1105 053e ddf5 f53d
000003f0: 791b 813d c609 663e f3f5 5cbe 5976 57bd

network_body._body_endoder.seq_layers.2.bias f4 [128]
0.010706924 -0.007986358 -0.01835607 -0.016758151 0.0045737545 -0.030752793 -0.0032996705 -0.016711649
-0.019897286 -0.015631815 -0.030542884 0.020438615 -0.02502113 -0.023804184 -0.02706126 -0.0077889045
0.03533754 0.0048170034 -0.0102345655 -0.019315831 -0.019521123 0.015023464 -0.026681868 0.0010368379
-0.02806674 -0.024561055 0.0074197548 -0.007267242 -0.00991919 -0.023031214 -0.008177646 -0.02631788
-0.016397903 -0.018239623 -0.013062215 -0.017168019 -0.061384894 -0.038366884 -0.021556757 -0.01758684
0.03357495 -0.004652456 -0.01387078 -0.02030504 -0.0025044132 -0.0055355555 -0.023703542 -0.035031993
-0.020564366 0.028335124 -0.004804686 0.0023294664 -0.035398744 0.036324143 -0.008916739 -0.005575765
0.010714234 0.04425835 -0.020103142 -0.026584478 -0.050996684 -0.01117905 -0.0021692205 -0.021501925
-0.040102586 -0.031547844 -0.018283809 -0.031036388 -0.02093929 -0.039897785 -0.0058644637 -0.020146085
-0.010733855 -0.0048950394 -0.018969176 -0.02480331 -0.0229602 -0.016226197 -0.029300781 -0.009797029
-0.035211932 -0.017444074 -0.008887722 -0.028728869 0.012011773 0.013011558 -0.0036579636 -0.02821476
-0.011843811 -0.034253206 -0.013862965 -0.018858911 0.02650029 -0.0036561524 -0.018833257 -0.02422889
-0.011284805 -0.0026673854 -0.00671581 -0.019437242 -0.012320176 -0.028688973 -0.025843453 -0.0046089487
-0.030711731 0.0017719887 -0.028304586 -0.034406923 -0.025338318 -0.008159356 -0.017168915 -0.020550469
0.040114626 0.0001824568 -0.006154738 -0.018299725 -0.021417066 -0.024860905 -0.03784439 -0.011850043
-0.014743545 -0.004194423 -0.010316823 0.0076379683 -0.014645924 -0.020871786 -0.021434106 -0.03553885
00000000: 186c 2f3c 37d9 02bc 785f 96bc 6448 89bc
00000010: 6fdf 953b 48ed fbbc 493f 58bb dee6 88bc
00000020: a2ff a2bc 4b0e 80bc 1235 fabc e26e a73c
00000030: 1df9 ccbc fe00 c3bc 93af ddbc 113a ffbb
00000040: 19be 103d f4d7 9d3b e1ae 27bc 3c3c 9ebc
00000050: c3ea 9fbc fa24 763c ef93 dabc 82e6 873a
00000060: 38ec e5bc 4434 c9bc 6a21 f33b 0b22 eebb
00000070: 1984 22bc f5ab bcbc 89fb 05bc 9898 d7bc
00000080: e554 86bc 436b 95bc e702 56bc f2a3 8cbc
00000090: ba6e 7bbd 9826 1dbd cc97 b0bc 4712 90bc
000000a0: e385 093d a173 98bb 4542 63bc c156 a6bc
000000b0: 1521 24bb 9b63 b5bb ee2d c2bc b57d 0fbd
000000c0: 9a76 a8bc 101f e83c a170 9dbb f6a9 183b
000000d0: 46fe 10bd a0c8 143d 8417 12bc e8b4 b6bb
000000e0: c18a 2f3c 3e48 353d 58af a4bc b1c7 d9bc
000000f0: e6e1 50bd 5628 37bc 7b29 0ebb ce24 b0bc
00000100: 9c42 24bd 5038 01bd edc7 95bc 0640 febc
00000110: e088 abbc dc6b 23bd b02a c0bb 6709 a5bc
00000120: 0ddd 2fbc 9166 a0bb 3f65 9bbc 5030 cbbc
00000130: 0817 bcbc cdec 84bc 3108 f0bc b883 20bc
00000140: 633a 10bd e0e6 8ebc cf9d 11bc ce58 ebbc
00000150: 07cd 443c 6e2e 553c 72ba 6fbb a422 e7bc
00000160: 8b0c 42bc 174d 0cbd 7d21 63bc 017e 9abc
00000170: 2317 d93c 0f9c 6fbb 3448 9abc aa7b c6bc
00000180: e7e3 38bc 4dcf 2ebb 4c10 dcbb da3a 9fbc
00000190: 90da 49bc 2305 ebbc a6b5 d3bc aa06 97bb
000001a0: 2b97 fbbc 1342 e83a 05df e7bc 46ee 0cbd
000001b0: 4e92 cfbc d2ae 05bc d3a5 8cbc 7559 a8bc
000001c0: 3c4f 243d e051 3f39 afad c9bb 4ee9 95bc
000001d0: d872 afbc 19a9 cbbc b802 1bbd af26 42bc
000001e0: e98e 71bc 5f71 89bb e407 29bc ec47 fa3b
000001f0: 75f5 6fbc 4ffb aabc 9496 afbc 2f91 11bd

action_model._continuous_distribution.log_sigma f4 [1, 2]
0.33664155 0.31343806
00000000: 485c ac3e f47a a03e

action_model._continuous_distribution.mu.weight f4 [2, 128]
-0.02301398 -0.007848179 0.06226779 -0.011782847 0.017067108 -0.0027001793 0.041181564 0.0038517844
-0.005119634 -0.0019897143 0.010254126 -0.027372962 -0.0002277168 0.0015928342 -0.0013977529 -0.0015555285
-0.051245097 0.010683089 -0.0029626954 -0.004458601 0.009060698 -0.026760353 0.0012413453 -0.01545223
0.001409529 0.033180144 -0.015140466 -0.0011668769 0.0033156483 0.0029209189 -0.0086058695 -0.0038620613
0.001152043 -0.00592994 -0.00012453937 -0.0020443462 0.01913587 -0.009751286 -0.012847627 -0.0052843182
0.039081085 -0.009828623 -0.008810592 -0.0052198954 0.0064061014 0.0045882566 0.02407418 -0.009038232
-0.0007264507 -0.047474954 0.039781734 0.03283667 0.0010362053 -0.04614645 -0.005534079 -0.0042466484
0.096130595 -0.071524784 -0.0012002188 0.044935655 0.0004085689 0.014101593 0.039309703 -0.0003431167
0.015468714 0.012376537 0.0014857303 -0.0042486107 0.0211078 0.018174283 0.031922415 -5.218981e-05
-0.0007236866 0.04112431 -0.0001320243 0.0011432264 0.00444199 -0.0029790204 -0.003746331 -0.00979105
0.01988652 0.0050634514 0.0026650126 0.04164553 0.05443638 -0.030949755 -0.0070567946 1.0253844e-05
-0.0052247643 -0.0072225113 0.004673292 -0.01092576 -0.046043325 0.05456623 0.0054090344 0.014406459
0.01265593 0.026367132 0.03005313 -0.011607431 -0.0096437065 -0.011803541 -0.0056264764 0.033635028
0.017582934 0.004427082 -0.0036038607 0.01657326 -0.004153222 0.027566997 -0.0006323323 -0.006802896
-0.05742983 0.029079655 -0.012217286 -0.022628788 0.0067333123 0.018314019 0.008609569 0.006827017
0.026392253 -0.0034353454 -0.0044355653 -0.033461552 -0.0043692817 -0.015822975 0.00093217875 -0.0063153678
0.059381243 -0.004803379 0.0031929172 0.0019246943 0.0021843244 -0.007555646 -0.05844479 0.0033558793
0.0011279342 0.005400311 -0.0013580277 0.016265642 -0.0010756083 0.004207156 0.0019240129 0.0075200875
0.03185604 -0.007236882 0.018261181 0.0068557966 -0.006079226 0.0035141713 0.0031050404 0.0020781145
0.0013890843 -0.006396715 0.016472083 -0.0024751725 0.0054541915 -0.04169739 -0.0067516635 0.0063827666
0.003708901 -0.0013112683 -0.0024089986 -0.002032511 -0.0034456148 0.0036491107 0.003915088 0.0017736704
-0.050645217 0.034343313 -0.024827883 -0.002148423 0.03962051 0.028242875 0.010915985 0.0028283868
-0.0025471693 0.033186004 -0.04534298 -0.020073263 0.00052009965 0.00057635177 -0.0028678863 0.009094787
-0.040881712 0.036153603 -0.0050112964 -0.0212299 -0.0008895741 -0.037775002 -0.014320956 -0.0011109267
-0.016072722 0.010035427 -0.0012363241 0.0012009324 -0.011708349 0.0004580084 -0.0108168805 -0.0026869471
-0.00050238543 -0.0362525 0.00032803975 0.0017634269 -0.0025549214 -0.0016448513 0.0007647269 -0.0022678254
-0.012365551 -0.004287903 0.0079937605 -0.012952464 -0.02964519 0.010927427 0.030067401 9.3235736e-05
0.019520847 0.0010725618 -0.0024544292 0.0063726557 0.022365188 0.0034075014 -0.0044142 0.0016575534
-0.019727191 -0.037227057 -0.015182323 0.005035071 -0.012140789 0.015104552 0.00038605565 -0.011351547
0.0072406754 0.004564518 -0.00039320032 -0.0077388207 -0.00023971984 -0.014086827 -0.0065150023 -0.0040418208
0.0391246 0.0201506 0.029659744 -5.9968937e-05 -5.2350315e-05 -0.03243115 0.00028253725 -0.02558167
0.009271747 0.0013852197 0.018468179 0.013094973 -0.0010258341 0.0073382943 -0.001910427 -0.0002661802
00000000: d087 bcbc a695 00bc 830c 7f3d d80c 41bc
00000010: 52d0 8b3c 7ef5 30bb 00ae 283d 386e 7c3b
00000020: 9ac2 a7bb de65 02bb ec00 283c 433d e0bc
00000030: 43c7 6eb9 a6c6 d03a ce34 b7ba e0e2 cbba
00000040: 61e6 51bd 1f08 2f3c c829 42bb 7519 92bb
00000050: 5273 143c 8738 dbbc a3b4 a23a 5a2b 7dbc
00000060: f2bf b83a e7e7 073d b80f 78bc e4f1 98ba
00000070: 594b 593b e36c 3f3b a2ff 0cbc a31a 7dbb
00000080: 2600 973a f14f c2bb c896 02b9 70fa 05bb
00000090: d4c2 9c3c dcc3 1fbc da7e 52bc 1328 adbb
000000a0: 7d13 203d 3c08 21bc 4d5a 10bc a80b abbb
000000b0: 46ea d13b 1659 963b 3737 c53c 1815 14bc
000000c0: 486f 3eba 1975 42bd 2cf2 223d be7f 063d
000000d0: 48d1 873a 0f04 3dbd 3857 b5bb 7827 8bbb
000000e0: 1ee0 c43d 967b 92bd a950 9dba 730e 383d
000000f0: 3135 d639 5e0a 673c 3603 213d 58e4 b3b9
00000100: 7d70 7d3c f5c6 4a3c d6bc c23a ee37 8bbb
00000110: 44ea ac3c 3ce2 943c 14c1 023d 62e6 5ab8
00000120: c9b5 3dba f771 283d 0170 0ab9 50d8 953a
00000130: 1d8e 913b ab3b 43bb 0185 75bb a46a 20bc
00000140: 0ee9 a23c 4feb a53b 7ea7 2e3b 8194 2a3d
00000150: aef8 5e3d 578a fdbc af3c e7bb ed07 2c37
00000160: 8034 abbb d1aa ecbb 6a22 993b f501 33bc
00000170: ed97 3cbd d780 5f3d 453e b13b 1209 6c3c
00000180: d15a 4f3c e2ff d73c fb31 f63c 182d 3ebc
00000190: a300 1ebc a463 41bc 4e5e b8bb e2c4 093d
000001a0: 160a 903c 0e11 913b c02e 6cbb a5c4 873c
000001b0: c017 88bb 2fd4 e13c 1ac3 25ba d4ea debb
000001c0: 8b3b 6bbd 7538 ee3c 032b 48bc 0260 b9bc
000001d0: 1ea3 dc3b 4807 963c 260f 0d3c 2bb5 df3b
000001e0: 9134 d83c 8823 61bb 3858 91bb fb0e 09bd
000001f0: 312c 8fbb 2f9f 81bc 755d 743a 25f1 cebb
00000200: bf39 733d aa65 9dbb 4340 513b 0646 fc3a
00000210: e226 0f3b 5a95 f7bb ce63 6fbd 50ee 5b3b
00000220: 31d7 933a 18f5 b03b d9ff b1ba 863f 853c
00000230: 6dfb 8cba 2fdc 893b 292f fc3a 116b f63b
00000240: 7b7b 023d 5e23 edbb 7998 953c 97a6 e03b
00000250: 3e34 c7bb 034e 663b ef7d 4b3b fa30 083b
00000260: ef11 b63a 899b d1bb 76f0 863c 8136 22bb
00000270: 13b9 b23b e2ca 2abd 0f3d ddbb 8726 d13b
00000280: 0811 733b ddde abba 4ae0 1dbb e033 05bb
00000290: d3cf 61bb eb25 6f3b 234a 803b 817a e83a
000002a0: 5c71 4fbd 93ab 0c3d d863 cbbc 8fcc 0cbb
000002b0: 1e49 223d 9a5d e73c f6d8 323c 755c 393b
000002c0: 69ee 26bb 0cee 073d 90b9 39bd af70 a4bc
000002d0: 4c57 083a 5016 173a 26f3 3bbb 4d02 153c
000002e0: 9573 27bd cd15 143d cd35 a4bb 54ea adbc
000002f0: 4f32 69ba f6b9 1abd 71a2 6abc 849c 91ba
00000300: f1aa 83bc a26b 243c 270c a2ba 9b68 9d3a
00000310: 60d4 3fbc d920 f039 4939 31bc 7e17 30bb
00000320: 84b2 03ba 807d 14bd c0fc ab39 ca22 e73a
00000330: 7870 27bb 0d98 d7ba f477 483a cc9f 14bb
00000340: e198 4abc 8a81 8cbb 43f8 023c 9236 54bc
00000350: 78da f2bc f308 333c e94f f63c 8e87 c338
00000360: 2fea 9f3c 3495 8c3a 7dda 20bb b6d1 d03b
00000370: 3337 b73c 6350 5f3b fea4 90bb 4342 d93a
00000380: eb9a a1bc 667b 18bd 47bf 78bc 3dfd a43b
00000390: 29ea 46bc 1579 773c 8367 ca39 d7fb 39bc
000003a0: 3043 ed3b f491 953b 7426 ceb9 ef95 fdbb
000003b0: 4e5d 7bb9 6fcc 66bc cd7b d5bb 4071 84bb
000003c0: 1e41 203d df12 a53c fef8 f23c 2887 7bb8
000003d0: b992 5bb8 87d6 04bd 8221 9439 a790 d1bc
000003e0: 87e8 173c 4390 b53a 944a 973c 4c8c 563c
000003f0: 4875 86ba 1376 f03b 4b67 faba 1a8e 8bb9

action_model._continuous_distribution.mu.bias f4 [2]
-0.0056576803 0.022141462
00000000: 1064 b9bb 0362 b53c
