results/test_4/Boss/checkpoint.pt (torch, 445282 bytes, 36 tensors)

network_body._body_endoder.seq_layers.0.weight f4 [128, 7]
00000000: 5fb5 6a3e 574a 08bf a089 8a3e 98c6 35bf
00000010: cfa2 17bf 6887 c0be a675 253f 34bc 703e
00000020: 4b25 95be 5678 e0bd dab1 363f fde9 c0bd
00000030: 7233 3a3f 91fc 02bf 79ac a03d 6ba4 4a3e
00000040: 845d 48bd 8fb3 89be 8549 30be 5345 be3e
00000050: e75a d6bc 7501 033f 0015 1abe ca63 663e
00000060: 8de4 853d 252f f8be 25ff 103d 5cfd ce3d
00000070: 87c0 203e a8db febe 078e 283e 7c3e 5ebe
00000080: aad0 eebc 620d 06be 0e54 ab3e 091a 853f
00000090: a492 a6bd 363b 093f 24c0 9c3d 00ae e43e
000000a0: 1906 793d 8785 6f3d 9695 a8be 597d 90be
000000b0: d4b3 26bf f175 85bd 170d bc3e 573f e23d
000000c0: d6a7 c33e f6c0 9c3e 377d 84be f9e7 a13e
000000d0: 1e14 693e 0292 31bb 2639 8abe e376 0abf
000000e0: cd7b c73c 5e96 e23c 2555 e7bb 50d4 8ebd
000000f0: 4ab4 c03e 2f83 b63d c9da 1c3e ac97 6bbe
00000100: 5b16 0abe cba5 31bd b043 053e e92a 8d3e
00000110: 0029 ddbe 3636 8abe 512a b0bd 514c 093f
00000120: 0f7b 3abe b2e1 b03e 63d7 f83e f58a 88bf
00000130: 10f7 e4be 59e9 8cbd dd72 04bf 7d50 d63e
00000140: adef 5abd 1e7e 6abf b4af 363e 0cce a5bd
00000150: 08cf 14bf 6c10 a4be 10f4 06bf 0046 ec3d
00000160: 4807 22be cd2c b13e d652 0fbf 6ef5 86be
00000170: 20a3 a33e 55ae 3c3f f214 a93d 3a84 483e
00000180: e1a3 9e3d dd46 893e 04f3 babe ca0d 6b3e
00000190: da01 3fbf 3d22 173f a57d 453e c5d2 7dbe
000001a0: 1d4a ef3e 5e5b 143f 9eed 8bbd 6fe9 1ebe
000001b0: 64d6 0abf a295 0b3f 67aa 2d3d 62fa d03e
000001c0: 68a1 f63e 8e3e d3bc 0987 ccbe 7f8b 0d3f
000001d0: c4ad 643e ed7e 88be db1f a1be 9106 f23e
000001e0: 2a0e 6abe 1edb a43e 25d4 00be b3c8 4ebe
000001f0: d003 fa3e 8c22 53bf 5f72 17bd c400 18be
00000200: af07 da3d d099 323e 8b53 2e3d b91c 663f
00000210: 5b7c 0a3d d09f 08be 0205 433f 4eaf 073f
00000220: a62e c3bd 7e94 5d3e f30f c3be b9bd f43e
00000230: ec43 72be aaa2 4fbe a9a9 713c 9f84 40be
00000240: 6bc3 d7be a484 cc3e dded 42bd e47e 253e
00000250: eabc 463f a691 b9bc 08af 0a3f 48f5 203e
00000260: ef99 ebbe f361 8dbe b96a b63e b682 163e
00000270: da31 a13e a02b 383e 9282 963e 4531 f5be
00000280: 26a2 383e b73b ae3d 0c9a 433e 0f4b 983f
00000290: e942 03bf ca4e b63e 8f67 56be 9c8d be3e
000002a0: d2a2 9bbe f7e9 733d 4874 ba3e 716a e5bd
000002b0: 863a 7f3e 336f c43e bd0e 82bf 4d7b 8d3e
000002c0: 4a33 6e3e 3a82 17be 4e5c 01be a7d3 cb3e
000002d0: c274 1fbe 21e4 153e 2433 0f3e 0f3b 21bc
000002e0: 469f 9bbd 50d0 41bf 843c 863d a14f 6f3f
000002f0: 214e 1f3d ab66 08be f70c e4be ecf3 b9be
00000300: 9b79 53bf 5495 bc3e 0349 303f fa3b 1fbe
00000310: 062b 253e f5e7 413f 8d82 a9be 6496 2f3e
00000320: 74d0 59bf 05d8 423e f747 9b3d 9bcb 0abf
00000330: bad2 f13e 6e3e 3c3f 1ced 5bbe f697 9cbe
00000340: 19a9 573f 9c94 b43e dbd1 bc3e 3dc6 b6be
00000350: 6977 e9be d11c fd3d 31c7 e13e 3f16 573f
00000360: fae5 23bd 80ae 23bf a10b 9bbd 3d9b 10be
00000370: 0ff0 053e 9a6d cfbd 182a 28be eac9 00be
00000380: 5ecb 21be e0d5 113e a3fe cbbe ce9b 713e
00000390: a70b 10bf fdf9 093e 6a59 f73e aaf0 1a3f
000003a0: 95f8 70be 10d8 1dbe 3e5b 3ebf 15c2 5d3d
000003b0: 3791 5d3e a099 0c3f c3b3 aebd bca2 6c3e
000003c0: ae9f cbbb 4eb2 96be d3e7 83be 243e 96be
000003d0: 6b68 633e c6df a0bd 0802 33bd 4860 ef3e
000003e0: dc60 123e 113e 8fbf bd38 a0bd 7694 2cbe
000003f0: 37a3 03bd 0245 a13d 19ed 3ebe bf07 46bf
0.2292075 -0.53238434 0.27058125 -0.71006155 -0.592328 -0.37603307 0.6463264 0.23509294
-0.29130015 -0.10960452 0.7136513 -0.0941963 0.7273475 -0.51166636 0.078453965 0.19789283
-0.04891731 -0.26894805 -0.17215545 0.37162265 -0.026166392 0.511741 -0.15047073 0.22499004
0.06537733 -0.48473468 0.035399575 0.10106918 0.15698443 -0.4977696 0.16460429 -0.21703523
-0.029152233 -0.13091043 0.33462566 1.039857 -0.08133438 0.53605974 0.076538354 0.44664
0.06079683 0.05847695 -0.32926625 -0.28220633 -0.65118146 -0.06516636 0.36728737 0.11047237
0.38213986 0.30615968 -0.2587678 0.31622294 0.2276158 -0.0027095084 -0.26996726 -0.54087657
0.024351025 0.027659591 -0.0070597106 -0.06974089 0.3763755 0.0891174 0.15317835 -0.23007077
-0.1348509 -0.043371003 0.13014102 0.275718 -0.43195343 -0.26994485 -0.08601821 0.53632075
-0.18211006 0.34547192 0.48601827 -1.0667406 -0.44719744 -0.06880445 -0.5173777 0.41858283
-0.05345123 -0.9159869 0.17840463 -0.08095941 -0.58128405 -0.3204378 -0.5271616 0.11536789
-0.1582309 0.34604493 -0.5598577 -0.26359123 0.31960392 0.7370351 0.08255948 0.1958169
0.07746101 0.26811877 -0.3651353 0.22954479 -0.746122 0.5903662 0.19286211 -0.24787433
0.4673623 0.57951915 -0.06832431 -0.15518735 -0.54233384 0.54525197 0.042398836 0.40816027
0.48170018 -0.025786664 -0.39946774 0.5529098 0.22331911 -0.26659337 -0.31469616 0.47270635
-0.22856966 0.32198423 -0.12580927 -0.20193748 0.48831034 -0.8247459 -0.036974307 -0.14844042
0.10645997 0.17441487 0.04256014 0.8988758 0.03381 -0.13342214 0.76179516 0.5300187
-0.09530382 0.21638677 -0.38098106 0.47800997 -0.23658723 -0.20276895 0.014749923 -0.18800591
-0.4214128 0.39944947 -0.047590125 0.16161686 0.7763201 -0.022652458 0.54173326 0.15718567
-0.4601588 -0.27613792 0.35628298 0.146983 0.31483346 0.17985392 0.29396492 -0.47889152
0.18030605 0.085074835 0.19101733 1.1897906 -0.5127397 0.35606986 -0.20937942 0.37217414
-0.3039766 0.0595493 0.3641684 -0.11201943 0.24924669 0.38366088 -1.0160748 0.27633134
0.23261753 -0.14795771 -0.12632868 0.39809915 -0.15571883 0.14637806 0.13984352 -0.009840741
-0.07598738 -0.75708485 0.06554511 0.9348088 0.03889287 -0.13320415 -0.4454114 -0.3631891
-0.8260743 0.36832678 0.6886141 -0.15550223 0.16129693 0.75744563 -0.33107415 0.17147213
-0.850837 0.19027717 0.075820856 -0.5421693 0.47231084 0.7353276 -0.21477169 -0.30584687
0.842424 0.3526963 0.36878857 -0.3569812 -0.45598915 0.12359012 0.44097283 0.8401832
-0.040014245 -0.6393814 -0.075705774 -0.14121719 0.13079856 -0.10128327 -0.16422307 -0.12577024
-0.15800235 0.14241743 -0.3984271 0.23594591 -0.5626778 0.13474269 0.48310405 0.60523474
-0.23532327 -0.15414453 -0.74357975 0.05414017 0.21637426 0.54921913 -0.085303806 0.23108953
-0.0062141037 -0.2943291 -0.25762805 -0.29344285 0.22207801 -0.078551814 -0.04370311 0.46753144
0.14294761 -1.1190816 -0.07823322 -0.16853508 -0.032138076 0.0787449 -0.18645133 -0.7735557

network_body._body_endoder.seq_layers.0.bias f4 [128]
00000000: 68a7 19ba 87a4 b0bc 4b35 8abd df9e 20bc
00000010: 9076 e63b 8c1b 2cbd 4991 2dbd 424d 41bd
00000020: 33b8 6cbd 1a9d 603c eb6c bebc 52b8 56bd
00000030: 8f15 b83c 23d5 2b3c 762c 9ebc 50dc 0fbd
00000040: 2e5f 8fbc 740e 7abc fb8f a9bc b429 97bd
00000050: 33a0 d83c 9f16 29bd 2725 0cbd 23fb fe3c
00000060: e3f2 45bd 765c bfbc 90d6 cfbb ef73 323d
00000070: aef4 88bc afa8 1abd e7b9 0dbd 4607 d03c
00000080: abce 4dbc 868a 293c 4173 d13c 2a46 59bd
00000090: 6e5d fdbd 8eb3 723c c6e0 e0bc 6248 9dbc
000000a0: 5b45 d7bc 106c 82bc 089e 38bb 21ce 12bd
000000b0: 7e8b e63b 9462 57bd c199 2c3b 9727 103c
000000c0: db00 6ebb 06f9 e4bc cb87 95bc 9478 97bd
000000d0: 5308 cf3c 185d ccbc ba4f 73bc 6b03 73bd
000000e0: 73de 2a3c 653c a0bb 38d4 38bc 0496 5abd
000000f0: 2bf2 a0bb 3d3f 9ebc 9f06 b0bd e6d5 013c
00000100: fc57 a63c 4be4 273c 82a1 92bc cfad 163d
00000110: a687 b43c 47ff a73b dbc6 7ebd c115 2dbd
00000120: 242b d1bc 86d9 6ebd 027a 85bd 5432 cf3c
00000130: 13fe 3c3c 1758 95bc d1fa 9a3c 3147 2abc
00000140: e96d df3c 8c63 c83c ea77 06bc 9687 abbd
00000150: 2a6a 6abd a25d 9cbc fad1 b8bc 1627 81bd
00000160: 959b 7bbc 762c 91bd 7e69 9abd 68fe c1bd
00000170: 6651 61bd 4eec 0ebc 07c1 35bc f056 6fbd
00000180: e018 9ebb a6fc 28bd 6c69 a0bc a17d 0bbd
00000190: 5bfb 72bb 1ffb 453a 1c18 d2bd cca6 b4bc
000001a0: 9956 c0bc 0a50 c83c b976 5fbd 44ea bebd
000001b0: a8b5 fdbc 7de0 11bc 0cb3 debc 4c62 be3c
000001c0: e3da fdbc c2d4 57bc eb5b 4d3c 127e 0b3d
000001d0: 092a fcbc 595b 56bd 8327 12bc f8d7 1dbd
000001e0: 0cce b8bc 5087 4a3d 5cdb 97bd e5a4 253d
000001f0: 51d3 84bc 3c94 44bd 7faa 023d 3eac 923d
-0.00058614323 -0.021562828 -0.06748446 -0.009803503 0.0070331767 -0.04201846 -0.042374883 -0.04719282
-0.057792854 0.013709331 -0.023245296 -0.052421875 0.022471217 0.0104878275 -0.01930831 -0.035122216
-0.01750144 -0.015262235 -0.020698538 -0.07381001 0.026443576 -0.04128134 -0.03421512 0.03112561
-0.048327338 -0.023359518 -0.0063427165 0.043567594 -0.016718235 -0.037758525 -0.03460112 0.025394093
-0.0125614805 0.010347968 0.025567653 -0.05304543 -0.12371336 0.014813317 -0.02745093 -0.019199554
-0.026278188 -0.015920669 -0.0028170366 -0.03584111 0.0070356717 -0.052584246 0.0026336762 0.008798501
-0.0036316428 -0.027950775 -0.018253228 -0.07396045 0.025272524 -0.024946734 -0.014850551 -0.05932943
0.010429013 -0.004890012 -0.011281066 -0.053365722 -0.004911681 -0.019317264 -0.08595013 0.0079245325
0.020305626 0.0102473 -0.017899279 0.03678685 0.022037338 0.005126867 -0.062201362 -0.042257074
-0.025533266 -0.058312915 -0.06517412 0.025292553 0.011535185 -0.018230481 0.018918427 -0.01039295
0.027274089 0.02446153 -0.008207301 -0.0837547 -0.057230152 -0.019087616 -0.022561062 -0.06306283
-0.015356918 -0.070885584 -0.07539652 -0.09472352 -0.05500927 -0.008723332 -0.011093385 -0.05843252
-0.0048247427 -0.04125657 -0.019581519 -0.034055356 -0.003707609 0.00075523736 -0.10258505 -0.022052191
-0.023478793 0.024452228 -0.054556582 -0.09322026 -0.03097041 -0.00890362 -0.027184986 0.023240231
-0.030988162 -0.013173284 0.012534122 0.034055777 -0.030781763 -0.05233321 -0.008920553 -0.038536042
-0.022559188 0.04944545 -0.07414886 0.04044046 -0.016214045 -0.04799293 0.03190088 0.07161759

network_body._body_endoder.seq_layers.2.weight f4 [128, 128]
00000000: d84d 683e 76b2 14bd 746b b13c 32a7 6abd
00000010: ee1e a53d e739 21be 713b ec3c 2557 603c
00000020: 47c5 92bd 9196 673c 2e50 98bd 16f1 a73d
00000030: 6a21 3e3c 7172 c3bd dfb2 33bc 7c04 7fbd
00000040: 0c17 e23c ce2e 023e 3d66 a7bd 50ab 7bbd
00000050: ce19 47bd 6e2a b73b e024 15be cf2d 7bbd
00000060: 6a3c 09be f761 e6bd e04b 613d 5f08 b03d
00000070: e27c d9bd eddb 3e3d d52b cbbd fa37 533d
00000080: 6081 bebd f71f 253e 2881 f23b b56c cbbd
00000090: bb67 d8bc befb babd 5e9b e8bd 7ef3 e7bd
000000a0: c509 3b3e b227 053e ec72 03be 05c9 6abe
000000b0: 87e6 063d c50e a4bd 93a6 483d 19f6 c3bd
000000c0: e9e3 28bd f41e 19be 7e0b 993d d52e 0dbd
000000d0: c7f1 39be 5f1c cc3c 2313 e23c dc08 71bd
000000e0: ac51 923d 61f4 03be 6ae1 f23b 8d55 723c
000000f0: 1278 eeb9 fb69 9f3d cbf2 edbc a2a0 d73d
00000100: 6a42 003d 8f4d 1bbd 371e 5ebc 2d2b 8e3d
00000110: 32db b5bc 7e40 5bbd cb3a 0abe 17f2 04be
00000120: 8d30 8f3d a342 b7bd 92a1 3ebe 80ac 243e
00000130: 6caa bd3c 357b c9bd c514 e73c 4959 4abd
00000140: af4d 3ebd fb1d d93d 6ff4 1e3c 566b 98bd
00000150: 66a6 74bd 31f4 fe3d e893 dabd 4a44 763d
00000160: 188b 10bd 4a2d a33c e6e1 27bd 9c85 e6bd
00000170: bb96 08bd d4a5 233e 5274 1b3d a6d4 04be
00000180: 25c7 83bd c9ab 1dbe b252 863d 0bfb 033e
00000190: 5d30 20bb b67e c83d 400b 8a3d 6d4b 0d3e
000001a0: 4120 b9bd b457 20bd 801e e2bd 35a4 2dbe
000001b0: 6510 193e f7d5 2cba 7353 af3c afa6 2e3e
000001c0: 0de6 713d f4e4 f3bc 2a18 fdbd 0e96 7abd
000001d0: 117e b1bc 00a5 16be c2ce 763d 0bb4 88bd
000001e0: 8116 67bd 44c2 ba3d e0eb 0cbe 6546 bb3c
000001f0: 8d8a 693c 6cf7 7a3d 6048 a53d 3ed2 56be
00000200: a2ac 0c3c 7640 dfbb 88c0 023b f66b 543b
00000210: 3a32 903d 3702 093d f0e7 803d 610a 093a
00000220: 963e 2fbd bf0b 9a3c eeee 4cbe 1af4 b8bd
00000230: f737 a6bd 3626 fabd 2e2f 09bd 373e fabd
00000240: 97f4 46bd 16ee 51bd 9c37 5d3d d282 abbd
00000250: bd65 98bb 0497 fbbc 3335 52bd bbc2 1cbe
00000260: f527 17be e756 a83d 7846 e4bd a0e2 4e3d
00000270: a9cc afbd 8b47 1bbc 5759 0abd 52bd dbbd
00000280: 6e62 9f3d c964 80bd f29f 853d 3b33 4d3e
00000290: ce5d 523e d509 e43d be81 adbb e13a a23d
000002a0: c424 e2bb 3c79 a7bd 98b3 933d c0e6 dd3d
000002b0: ada8 aeba 813a d33b 2e7d af3b 0b31 babd
000002c0: 927b 733b e59c 0a3e ac68 8b3d 4ff3 0f3e
000002d0: 68a2 12be 0aac 3a3e 0140 a2bc 48e2 9cbd
000002e0: f8b3 823c ae23 7e3c 6c84 1fbe 0a13 60be
000002f0: c3e9 11bc da0e b63d 1b9e babd 34b8 c23d
00000300: e764 3cbe a40d 7abe b167 b43d a359 c4bb
00000310: ea10 c23d 0990 08be 2c01 9b3c 54b1 06be
00000320: 84b8 4c3d 543c 47be cec9 3fbd f167 ac3d
00000330: a9f3 72bc 7f6c 0d3d 37e2 85bd 4a06 f93d
00000340: a033 cabd f96e 3f3c 1934 2d3c 0796 1cbd
00000350: 297c af3d 04c5 54bc 62fd e3ba 67bb ac3b
00000360: 39b7 803d 92cb f13d f63c 20be e610 30bd
00000370: b752 a43d 6328 123c c8a5 c4bd d7f9 193e
00000380: df79 10be 5bc0 80bc 7c92 c2bd efd3 3e3d
00000390: 70f5 313d afeb e93d c77a 18be 7c59 2dbd
000003a0: 2081 75bd f151 873d c95a 7cbd e6d9 a83d
000003b0: dede 04be 6f6e 0abe e424 45bb 4e77 123e
000003c0: f611 11be fc04 05bd f89f bcbd ac75 dd3b
000003d0: 4f09 60bb 24ec ebbd 18b5 b0bd 8bca bd3c
000003e0: ade8 cd3c 3e7d 9f3d 5db4 033e bf15 f23d
000003f0: 7d88 803d 7fe1 643e face 5fbe 1627 52bd
0.22685945 -0.036303006 0.021657683 -0.057288356 0.0806254 -0.15744744 0.028836938 0.013692652
-0.07166534 0.014135019 -0.07437168 0.0820028 0.011604646 -0.09543312 -0.010967939 -0.062260136
0.02759888 0.12713167 -0.08173797 -0.061442673 -0.048608594 0.005589775 -0.14564848 -0.061322983
-0.13401952 -0.11249154 0.055004 0.08595347 -0.10619523 0.046596456 -0.0992047 0.051567055
-0.0930202 0.16125475 0.0074006505 -0.099328436 -0.02641665 -0.09130047 -0.11357759 -0.11325739
0.18265446 0.13003424 -0.12836808 -0.22928245 0.03293469 -0.080106296 0.048986983 -0.09568424
-0.041232977 -0.14953214 0.07472895 -0.03446849 -0.18158637 0.024915872 0.027597016 -0.05884634
0.07144484 -0.12886192 0.0074121254 0.014790905 -0.00045484357 0.07783886 -0.029046437 0.10528685
0.031313337 -0.037915763 -0.0135570085 0.06941829 -0.022199247 -0.0535283 -0.1349899 -0.12982975
0.06991682 -0.08948257 -0.18616322 0.16081429 0.023152553 -0.09837953 0.028208146 -0.049401555
-0.046460804 0.106014214 0.009701832 -0.07442348 -0.059729002 0.124489196 -0.10672742 0.06012372
-0.0352889 0.019919056 -0.040986918 -0.11255953 -0.033346873 0.15981227 0.03795273 -0.12971744
-0.06434468 -0.15397562 0.06558742 0.12888734 -0.002444289 0.09789793 0.06740427 0.13798304
-0.09039355 -0.03914614 -0.11040974 -0.16957171 0.1494766 -0.00065931625 0.021402096 0.17055772
0.059057284 -0.02977226 -0.123581246 -0.06117826 -0.021666558 -0.1471138 0.060255773 -0.066749655
-0.056417946 0.091190845 -0.13761854 0.022860715 0.0142542245 0.061271116 0.08070445 -0.20978639
0.008586081 -0.0068131043 0.0019951183 0.0032412983 0.0704083 0.033449378 0.062942386 0.0005227682
-0.042784296 0.01880443 -0.2001302 -0.09030934 -0.08116143 -0.122143194 -0.03349226 -0.12218898
-0.048573103 -0.051252447 0.05400811 -0.08374561 -0.0046508 -0.030711658 -0.051320266 -0.15308659
-0.14761336 0.082197 -0.11146253 0.050509095 -0.08583958 -0.009477506 -0.033776607 -0.10729469
0.07782446 -0.06269223 0.06524648 0.20039074 0.20543596 0.11134688 -0.0052950075 0.079213865
-0.0069013555 -0.081774205 0.07211989 0.10835028 -0.0013325416 0.006446183 0.0053554988 -0.090913855
0.003715251 0.13536413 0.06807074 0.14057659 -0.14319766 0.1822969 -0.01980591 -0.07660347
0.015954956 0.015511436 -0.15577859 -0.21882263 -0.008905831 0.088895515 -0.091121875 0.0950779
-0.18397866 -0.24419266 0.0880884 -0.005992131 0.09475882 -0.13336195 0.018921457 -0.13153583
0.049980655 -0.19456607 -0.046823315 0.08418263 -0.014828601 0.034527298 -0.06537288 0.12159403
-0.09873128 0.011684173 0.010571503 -0.038229015 0.085686035 -0.012986425 -0.001739424 0.0052713635
0.06284947 0.11806406 -0.15648255 -0.042984866 0.08023589 0.008920762 -0.09601933 0.15036713
-0.1410899 -0.015716722 -0.09500596 0.046588834 0.043446958 0.11421906 -0.14890586 -0.042321667
-0.059937596 0.06607426 -0.061610017 0.08244686 -0.12975642 -0.1351869 -0.0030081803 0.14303324
-0.14167008 -0.032475457 -0.09210199 0.0067584123 -0.0034185236 -0.115196496 -0.08628291 0.02316787
0.025135363 0.0778756 0.12861772 0.11820554 0.06276033 0.22351645 -0.21856299 -0.051306807

network_body._body_endoder.seq_layers.2.bias f4 [128]
00000000: 4fe5 ae3c 1d8f 22bc 952e 3dbc a381 d1bc
00000010: 5041 38bc 0e3a f7bc e246 953b 40f2 97bc
00000020: fe49 eebc 64a0 89bc 7586 18bd ccec c43c
00000030: bfe9 d4bc 9548 b0bc 1cd1 fabc 97ae 45bc
00000040: 0405 233d 4fc3 86bb 0691 93bc fce1 c3bc
00000050: c18c 8cbc e25b 2c3c f0dd c5bc 734a 96bb
00000060: 97b9 e6bc e643 d3bc a976 983b 2670 ddbb
00000070: e3bd d0bb 4012 993b e71b 1bbc 7381 fbbc
00000080: 0553 d7bc 6e5d c7bc 90e3 babc b1f2 b3bc
00000090: 88bf 81bd 02bd 34bd cbf3 cebc 7e4e d9bc
000000a0: a573 ca3c e190 403b 33fc 43bc ec9d 5bbc
000000b0: 24df 42b9 0b3d b6bb db3d a9bc 7af0 27bd
000000c0: f6f6 9cbc e484 093d ef8e d0bb 1419 94ba
000000d0: 9dc5 2bbd 52bc 0d3d 743b 4dbc 9990 d6bb
000000e0: b07b 253c 3396 3f3d d110 d2bc e8c8 c2bc
000000f0: d44c 68bd e028 33bc 6a06 91bb e6c3 86bc
00000100: 74fb 0cbd dddf 3bbd cd9f 9fbc 8f31 0fbd
00000110: 3d5a 7f3b eec0 2dbd 9e61 18bc 2f23 e1bc
00000120: 7dbd 6bbc e9a6 763b 81d0 94bc 76ee 0abd
00000130: c351 bdbc 027e a2bc 57e3 1abd b44f 4abc
00000140: 53c7 20bd fee8 afbc 934e 4bbc a202 aebc
00000150: db30 583c 2f45 6b3c a6c2 d3bb afce febc
00000160: 74bf 84bc 58ca 02bd be4f 71bc b554 acbc
00000170: b0b1 fa3c f38a 613b 2626 96bc 68c9 0ebd
00000180: 8b67 853b dc67 adba 9852 3d3d df6c cbbc
00000190: 4deb 05bc 5ad0 b3bc 7307 f0bc 8e5a 1ebc
000001a0: 3142 c8bc 2f6a 85bb b225 e8bc 36fe d7bc
000001b0: 723d 01bd 1eff 49bc e22a d0bc 4144 bcbc
000001c0: 94da 393d 450c 1cbc 922e 18bc 50f4 d0bc
000001d0: 7ed7 3cbc c6c3 cbbc 7b2e 9ebc 426e eb39
000001e0: 56c8 89bb 3f57 d1ba a78d 74bc 7867 283c
000001f0: e987 babc 07aa bfbc 0825 0ebd 2020 31bd
0.021349577 -0.009921816 -0.011546751 -0.02557451 -0.01124604 -0.03017905 0.004555569 -0.018548131
-0.029088017 -0.016800113 -0.037237603 0.024038695 -0.025990365 -0.021518985 -0.03061729 -0.012065551
0.039799705 -0.004112638 -0.018013489 -0.023911469 -0.01715696 0.010519953 -0.02415368 -0.0045865118
-0.028164668 -0.025789212 0.0046528173 -0.006757754 -0.0063702925 0.004671365 -0.009467102 -0.030701375
-0.026284704 -0.024336543 -0.022813588 -0.02196631 -0.0633536 -0.044125564 -0.025262734 -0.026526686
0.024713347 0.002938323 -0.011961984 -0.013404351 -0.00018584408 -0.005561476 -0.020659378 -0.04100082
-0.019160729 0.033574 -0.0063646953 -0.0011298978 -0.041936506 0.034603424 -0.012526382 -0.006547999
0.01010029 0.0467741 -0.025642784 -0.02377744 -0.056713894 -0.010935038 -0.0044258134 -0.016450834
-0.034419492 -0.04586779 -0.019485379 -0.034959372 0.0038963698 -0.04242032 -0.0093006175 -0.027482597
-0.014388439 0.0037636107 -0.018165829 -0.03391882 -0.023110276 -0.019835476 -0.037814464 -0.012348104
-0.03925259 -0.021473404 -0.01240887 -0.02124149 0.013195242 0.014359756 -0.006462413 -0.031104414
-0.016204573 -0.03193125 -0.014728485 -0.021036485 0.030602306 0.0034415096 -0.018328737 -0.034860045
0.004071181 -0.0013229805 0.046221346 -0.024832187 -0.008173776 -0.021949936 -0.029300427 -0.009665145
-0.024445625 -0.004071496 -0.028338287 -0.026366334 -0.03155274 -0.012328891 -0.025411073 -0.022981765
0.045374468 -0.00952441 -0.009288447 -0.025507122 -0.011525987 -0.024873625 -0.019309273 0.0004490484
-0.00420479 -0.0015971436 -0.014926351 0.010278575 -0.022769885 -0.023396505 -0.034703285 -0.043243527

action_model._continuous_distribution.log_sigma f4 [1, 2]
00000000: a003 be3e 17ad d73e
0.3711214 0.42124245

action_model._continuous_distribution.mu.weight f4 [2, 128]
00000000: 9014 58bc 40b6 8fba 512d 273d 5b27 8abb
00000010: 0505 c33c fa36 85ba d627 f33c 511f a33b
00000020: 0860 d5bb d845 37bb ccac f83b 03b2 bbbc
00000030: e4e1 253b 055c 89b9 c428 88bb 44ff 96bb
00000040: e210 46bd 162f 253c 1157 cdb6 a643 b8bb
00000050: f93b 3d3c dc17 abbc cb49 583a 7b1e 17bc
00000060: 209f a3bb 82ab 393d 2452 0abc 8c49 f3ba
00000070: 20ed 073b 50a4 39bc 84dc 843c d2a6 4b3b
00000080: 86ad 8d3b 63f0 e339 8015 833a 7503 4ebc
00000090: 3249 ab3c ed89 bdbb 0ebe 843b b653 f9ba
000000a0: 2370 293d 42c4 f8ba d82c 81bc c142 edbb
000000b0: 2475 7f3c aba9 523c de7d c23c 6c58 90b8
000000c0: 1cd9 3bba 9bcf 33bd 0393 253d 6c52 073d
000000d0: 6fd5 85b8 b93f 42bd d387 06bb 68d7 5b3a
000000e0: a3c8 bf3d ebfd 8cbd eb94 c93a 253b 373d
000000f0: 2e1d ff3a 1d35 803c 29b5 1f3d 503b 3dbb
00000100: 9b73 b73b 35c4 483c 6d29 223b ad83 3abc
00000110: 1540 183c 43fc 9e3c 9e85 fa3c 378d e2ba
00000120: 09ff 6a3a 874e 143d 435a a7ba 38a9 8b3a
00000130: ae2e e73b e918 50bb 25f0 38bb 899f 343c
00000140: ba2f 143c 5a90 b63b 3db7 7439 2f3c 273d
00000150: 4408 4e3d fc3b dfbc edae 633b 4858 43bb
00000160: dcca 643b ee71 38bb 3b09 fc3b 3e73 ebbc
00000170: 6163 33bd 47b1 193d 53d9 bb3b ddad 253c
00000180: 2a62 4f3c fe9b 5d3c c4d1 1c3d 586b 8ebb
00000190: 2296 e1bb ae52 9bbc 04a4 9aba b6a9 0f3d
000001a0: 5ed6 453c 12a4 0aba 35f6 45bc b15a 163c
000001b0: 5eb8 d6ba 0b12 db3c 7e3a dcbb 147b 153a
000001c0: 0e95 62bd ca5c de3c 5e58 cbba a96f b7bc
000001d0: c78e 9b3b 4041 9a3c a44e 0fbb da0a 823b
000001e0: 7799 dd3c 4e13 703c 1061 693b cb57 f4bc
000001f0: 382a eabb 9748 233b 2477 63bb 80ea 7cbb
00000200: 8683 943d 8182 17bc 32fd 23bc 9670 393c
00000210: 2309 aabb 8fb0 26bc 8a6e 9dbd 8076 99ba
00000220: f902 db3a f189 593c 3b7b 41bc c0a5 e93c
00000230: 641d a8bb 4f9f 933b c079 663a 5682 d63a
00000240: 125f 373d c592 b9bc fd3c 2a3c 81f7 303c
00000250: 64b0 b5bc bb05 b83b c2b8 053b 9811 3c3c
00000260: 498f 323a 8594 1ebc 16ef 823c d15b 16bc
00000270: 04aa db3b c1b0 83bd 1cb1 a4bc a305 81bb
00000280: 39b7 e53a 4134 1f3b 8109 90bb adb9 19bb
00000290: 84df a1bb 835a 5e3c be80 393b dc3d 013c
000002a0: ecf4 77bd edd0 313d 3ccb 42bd 093c 21bc
000002b0: 6589 243d c2cc ca3c 295b 053b 7ae1 313c
000002c0: e002 d33a aa93 3d3d 1224 6dbd 8aa5 06bd
000002d0: 6e3a fcba d299 5c3c 3281 4abc 73fa 853a
000002e0: 77e7 5bbd df4c 433d 8816 2dbc 33d8 e2bc
000002f0: 6406 8cbb cbda 50bd d32b f2bc 30b2 ccbb
00000300: 99f7 94bc 0d67 41bb 3937 37bb e258 02bb
00000310: 2c35 04bd 3e94 2cbc 39b5 c4bc 804a aebb
00000320: 2920 ab39 a42e 4bbd 579e 9a3a a3df af3b
00000330: 6e28 21ba ee19 82bb e315 ef3b b278 62bc
00000340: f281 bcbc 8710 12bc bebb 973a e023 88bc
00000350: 30d1 32bd 2c3d bd3c 2c11 d93c 5c4c 64bb
00000360: 170f 513c e2f8 cf3a 0713 69bb e5bf b33c
00000370: 0a02 113d 75d1 1a3b f86a ccbb 7004 29bb
00000380: eb57 1abd 7b38 42bd b5d0 733c e93c 173c
00000390: 89ce b3bc 10fc d23c a049 51bc 4072 bebc
000003a0: a64e 47bc 4f2c f1bb 7c7c 2a3c accc bebc
000003b0: 3e59 813b c97d debc 4fb8 07bc 302c 8bbc
000003c0: 4dde 553d 0118 e53b d186 f53c 51a0 073c
000003d0: 3302 60bc 7064 39bd 8cc9 4ebc 157f 19bd
000003e0: 6d42 68bc 1415 8a3b 0ae2 393c 6840 d63c
000003f0: 8355 a73b fad9 473c f837 aebb 46cf 053a
-0.013188496 -0.0010964349 0.0408147 -0.0042161173 0.023806104 -0.0010163479 0.029682081 0.0049780984
-0.006511692 -0.0027965214 0.0075889584 -0.022912031 0.0025311643 -0.00026199236 -0.0041552503 -0.0046080668
-0.048355944 0.010082027 -6.119612e-06 -0.0056232987 0.011549943 -0.0208854 0.0008250742 -0.009223576
-0.0049933344 0.04532958 -0.008442435 -0.0018561347 0.0020740703 -0.011330679 0.016218431 0.0031074774
0.004323664 0.00043475916 0.0010000914 -0.012574066 0.020908926 -0.0057842643 0.0040509766 -0.001902214
0.041366708 -0.0018979388 -0.015768453 -0.0072406237 0.015591893 0.012857835 0.023741659 -6.882925e-05
-0.00071658357 -0.04389916 0.040423404 0.033037588 -6.381689e-05 -0.047424052 -0.0020527735 0.0008386285
0.0936444 -0.068843685 0.0015379464 0.04473414 0.0019463652 0.015650326 0.038991127 -0.0028874464
0.005598498 0.012253811 0.002474393 -0.011383933 0.009292622 0.019407397 0.030581292 -0.0017284517
0.0008964395 0.036207702 -0.0012767989 0.001065529 0.007055125 -0.003175313 -0.002821931 0.011024364
0.009044582 0.0055714073 0.00023337915 0.04082888 0.05030085 -0.027250282 0.0034741715 -0.0029807258
0.0034910953 -0.002814408 0.00769153 -0.028741475 -0.043795947 0.03752258 0.005732694 0.010112253
0.0126576815 0.013525961 0.038285986 -0.0043462925 -0.0068843523 -0.018960323 -0.0011798148 0.03507396
0.012075035 -0.00052887306 -0.012082626 0.009176896 -0.001638185 0.026742002 -0.00672084 0.0005702239
-0.05531793 0.027143855 -0.0015514006 -0.02239211 0.004747245 0.018829942 -0.0021866942 0.0039685788
0.027050717 0.01465304 0.0035610832 -0.02982702 -0.007146146 0.0024915093 -0.0034708465 -0.0038591921
0.072516486 -0.009247423 -0.010009097 0.0113183465 -0.0051890775 -0.010173931 -0.07687099 -0.0011708289
0.001670926 0.013277517 -0.011809166 0.028521419 -0.0051304568 0.004505075 0.0008791946 0.0016365747
0.0447684 -0.022652993 0.010390517 0.010801197 -0.022178836 0.0056159175 0.0020404314 0.011478804
0.0006811512 -0.0096789645 0.015983146 -0.009177164 0.006703617 -0.064301975 -0.020103984 -0.0039374395
0.0017525918 0.002429262 -0.004395664 -0.0023456619 -0.004939975 0.013571384 0.0028305496 0.007888284
-0.06053631 0.043412138 -0.0475571 -0.009840974 0.040170092 0.02475584 0.0020348525 0.01085698
0.0016098879 0.0462834 -0.057895727 -0.032872714 -0.0019243488 0.013464408 -0.012359904 0.0010221734
-0.05368754 0.047680732 -0.010564454 -0.027690982 -0.0042732228 -0.050989907 -0.029561913 -0.0062468275
-0.01818447 -0.0029510886 -0.00279565 -0.0019889404 -0.03227727 -0.010533391 -0.024012195 -0.0053189397
0.00032639623 -0.049605027 0.0011796457 0.0053672357 -0.0006147687 -0.003970376 0.0072963103 -0.013822721
-0.023011182 -0.008915073 0.0011576337 -0.016618669 -0.043656528 0.023100458 0.026497446 -0.0034835553
0.012759945 0.001586702 -0.003556432 0.021942088 0.035402335 0.0023623381 -0.0062383376 -0.0025789998
-0.0376815 -0.047417145 0.014881303 0.009230831 -0.02194907 0.025754958 -0.012773901 -0.023247838
-0.012164747 -0.0073600183 0.010405656 -0.023290955 0.003947406 -0.027159588 -0.008283689 -0.016988844
0.052213956 0.006991387 0.029971512 0.0082779685 -0.013672399 -0.0452618 -0.012621295 -0.03747471
-0.014175993 0.0042139385 0.011345396 0.026153758 0.0051066293 0.012197966 -0.0053167306 0.00051044335

action_model._continuous_distribution.mu.bias f4 [2]
00000000: 4dba 863b ecbf de3c
0.0041115643 0.027191125

exp_avg f4 [128, 7]
00000000: f57e 1f31 ffbe 2cad 0000 0000 11c6 a035
00000010: ffbe 2cad 0000 0000 6f4e 2d33 ccb2 393b
00000020: 7cf3 4637 0000 0000 e1dd 2d3b 7cf3 4637
00000030: 0000 0000 5616 0e38 5752 8235 3a1c bf37
00000040: 0000 0000 ce6a 15b6 3a1c bf37 0000 0000
00000050: 624c 2d34 865c 2aba 142d 6137 0000 0000
00000060: c844 1fba 142d 6137 0000 0000 4e68 a0b6
00000070: 67f4 c8b7 6054 3a31 0000 0000 5480 b4b7
00000080: 6054 3a31 0000 0000 0ebe 57b4 6d0c 033b
00000090: 1ac1 40b8 0000 0000 4bd6 f53a 1ac1 40b8
000000a0: 0000 0000 f54d d537 ff64 a0b2 d101 6e38
000000b0: 0000 0000 a326 cfb6 d101 6e38 0000 0000
000000c0: fe6a e5b3 3a18 adba 2795 ed34 0000 0000
000000d0: 4ff7 a1ba 2795 ed34 0000 0000 3d0b 93b7
000000e0: 5d49 0cb9 b66e bcb8 0000 0000 c119 f3b8
000000f0: b66e bcb8 0000 0000 fa84 04b6 2e42 8536
00000100: 2150 a6b6 0000 0000 d997 a836 2150 a6b6
00000110: 0000 0000 5b08 16b3 9a65 08bb 3fc9 2a36
00000120: 0000 0000 c596 ffba 3fc9 2a36 0000 0000
00000130: a3fb d9b7 feb2 56b4 6e88 5624 0000 0000
00000140: a7f2 bab3 6e88 5624 0000 0000 f557 0c33
00000150: 827f 8b2d 66d1 ff30 0000 0000 e159 0fb4
00000160: 66d1 ff30 0000 0000 bfdd abb1 aa97 5ab8
00000170: 4cb4 1db9 0000 0000 817f 0fb8 4cb4 1db9
00000180: 0000 0000 4e90 98b4 f73d e1ba 21cd 4337
00000190: 0000 0000 a23c d3ba 21cd 4337 0000 0000
000001a0: 12ff 79b7 9c17 6d3b effc e8b8 0000 0000
000001b0: 97e0 5e3b effc e8b8 0000 0000 6f32 3d38
000001c0: c9d2 863a 61b3 1cb8 0000 0000 5461 7d3a
000001d0: 61b3 1cb8 0000 0000 4adb 4537 0d6c 44ba
000001e0: 44ab 6537 0000 0000 3c81 37ba 44ab 6537
000001f0: 0000 0000 af40 1eb7 2041 963a 176d e5b4
00000200: 0000 0000 5ed7 8c3a 176d e5b4 0000 0000
00000210: 4362 3437 55f8 ad37 b370 3438 0000 0000
00000220: 2aec 8837 b370 3438 0000 0000 d333 8cb3
00000230: 5ecf 112f 7bab 2fb0 0000 0000 0b65 c1b4
00000240: 7bab 2fb0 0000 0000 9521 6034 a237 063b
00000250: 438e bab8 0000 0000 bdfe fb3a 438e bab8
00000260: 0000 0000 20a0 ae37 807e 69b9 d299 47b8
00000270: 0000 0000 32b9 58b9 d299 47b8 0000 0000
00000280: bf7b 0936 d58f 9cb5 a9a2 53b8 0000 0000
00000290: 8f55 cb36 a9a2 53b8 0000 0000 db79 1ab4
000002a0: 5d84 89b6 19b1 fc37 0000 0000 d5b6 20b7
000002b0: 19b1 fc37 0000 0000 c462 e433 4bd0 953a
000002c0: 80da 14b8 0000 0000 72f7 8c3a 80da 14b8
000002d0: 0000 0000 0ed2 6f37 aa56 7eaf e401 76b7
000002e0: 0000 0000 e80b cf35 e401 76b7 0000 0000
000002f0: 4c2f bc33 1865 95a6 6da3 4fb8 0000 0000
00000300: bf88 0337 6da3 4fb8 0000 0000 3d11 c533
00000310: c13d 4c3b e4c7 e2b5 0000 0000 c84b 3f3b
00000320: e4c7 e2b5 0000 0000 f167 4138 e4f0 e3af
00000330: d214 89b7 0000 0000 a74a 4a36 d214 89b7
00000340: 0000 0000 7c97 4bb4 64af e53a 176c 3438
00000350: 0000 0000 24cd d63a 176c 3438 0000 0000
00000360: eec7 a937 06df b82c 810a cd32 0000 0000
00000370: 6c6c b9b2 810a cd32 0000 0000 cb25 a6b2
00000380: 1df7 c03a f14b 1034 0000 0000 25c4 b43a
00000390: f14b 1034 0000 0000 8766 7e37 26ae c0b6
000003a0: c02e 4435 0000 0000 f1b1 afb6 c02e 4435
000003b0: 0000 0000 ecbc 4f34 780f 63b0 9524 f6b6
000003c0: 0000 0000 6e4f b335 9524 f6b6 0000 0000
000003d0: e678 5b34 13f7 e8b9 740d 23ad 0000 0000
000003e0: b546 dab9 740d 23ad 0000 0000 69e0 f0b6
000003f0: fa5f 5db6 fdce 5f38 0000 0000 5f19 39b7
2.3209712e-09 -9.819478e-12 0.0 1.1978574e-06 -9.819478e-12 0.0 4.0351036e-08 0.002833533
1.185841e-05 0.0 0.0026529955 1.185841e-05 0.0 3.387624e-05 9.709719e-07 2.2782118e-05
0.0 -2.2264899e-06 2.2782118e-05 0.0 1.6139668e-07 -0.00064987724 1.3421541e-05 0.0
-0.0006075618 1.3421541e-05 0.0 -4.7805142e-06 -2.3955667e-05 2.7114524e-09 0.0 -2.151743e-05
2.7114524e-09 0.0 -2.0092577e-07 0.001999642 -4.5956207e-05 0.0 0.0018755881 -4.5956207e-05
0.0 2.542788e-05 -1.867238e-08 5.6745313e-05 0.0 -6.1735786e-06 5.6745313e-05 0.0
-1.0683105e-07 -0.0013206073 4.4253213e-07 0.0 -0.0012357029 4.4253213e-07 0.0 -1.7528999e-05
-0.0001337877 -8.98516e-05 0.0 -0.0001159194 -8.98516e-05 0.0 -1.9746935e-06 3.971413e-06
-4.9565137e-06 0.0 5.0244676e-06 -4.9565137e-06 0.0 -3.4932196e-08 -0.0020812512 2.5449115e-06
0.0 -0.0019499889 2.5449115e-06 0.0 -2.5985593e-05 -1.999542e-07 4.6519413e-17 0.0
-8.705438e-08 4.6519413e-17 0.0 3.2676287e-08 1.5859095e-11 1.8613207e-09 0.0 -1.335061e-07
1.8613207e-09 0.0 -5.0019646e-09 -5.21165e-05 -0.00015039853 0.0 -3.4212604e-05 -0.00015039853
0.0 -2.8417202e-07 -0.0017184605 1.1670666e-05 0.0 -0.0016116092 1.1670666e-05 0.0
-1.4900945e-05 0.0036177402 -0.000111097346 0.0 0.0034008378 -0.000111097346 0.0 4.510808e-05
0.0010286208 -3.7360358e-05 0.0 0.0009665687 -3.7360358e-05 0.0 1.1793172e-05 -0.00074929075
1.36893395e-05 0.0 -0.00070001534 1.36893395e-05 0.0 -9.432594e-06 0.00114635 -4.2733947e-07
0.0 0.0010745337 -4.2733947e-07 0.0 1.0751714e-05 2.0738846e-05 4.3020304e-05 0.0
1.6322436e-05 4.3020304e-05 0.0 -6.528685e-08 1.3261345e-10 -6.390832e-10 0.0 -3.602257e-07
-6.390832e-10 0.0 2.0873843e-07 0.0020479937 -8.8956695e-05 0.0 0.0019225698 -8.8956695e-05
0.0 2.081698e-05 -0.00022267736 -4.7588554e-05 0.0 -0.00020668356 -4.7588554e-05 0.0
2.048662e-06 -1.1664766e-06 -5.045781e-05 0.0 6.059832e-06 -5.045781e-05 0.0 -1.4386698e-07
-4.0983273e-06 3.0123208e-05 0.0 -9.579312e-06 3.0123208e-05 0.0 1.0635043e-07 0.0011429874
-3.5489444e-05 0.0 0.0010754897 -3.5489444e-05 0.0 1.4294417e-05 -2.3131955e-10 -1.4663183e-05
0.0 1.5426167e-06 -1.4663183e-05 0.0 8.7630355e-08 -1.0366353e-15 -4.9504848e-05 0.0
7.840047e-06 -4.9504848e-05 0.0 9.176663e-08 0.0031164738 -1.6896488e-06 0.0 0.0029189456
-1.6896488e-06 0.0 4.611159e-05 -4.1462223e-10 -1.6341368e-05 0.0 3.01438e-06 -1.6341368e-05
0.0 -1.8960958e-07 0.0017523584 4.301601e-05 0.0 0.0016388041 4.301601e-05 0.0
2.023947e-05 5.254355e-12 2.3869918e-08 0.0 -2.1586139e-08 2.3869918e-08 0.0 -1.934213e-08
0.0014722083 1.3438672e-07 0.0 0.0013791366 1.3438672e-07 0.0 1.5163451e-05 -5.7423194e-06
7.308372e-07 0.0 -5.2361215e-06 7.308372e-07 0.0 1.9347107e-07 -8.26041e-10 -7.33563e-06
0.0 1.3359656e-06 -7.33563e-06 0.0 2.0439947e-07 -0.00044434573 -9.2684645e-12 0.0
-0.0004163288 -9.2684645e-12 0.0 -7.178682e-06 -3.2987432e-06 5.3360116e-05 0.0 -1.1032766e-05

exp_avg_sq f4 [128, 7]
00000000: b0ea 6624 e34a b51d 0000 0000 e643 c12f
00000010: e34a b51d 0000 0000 a761 d72b 223d e038
00000020: c7dc 1332 0000 0000 50bf c438 c7dc 1332
00000030: 0000 0000 fbed 0931 d9af 262c be91 1231
00000040: 0000 0000 faf1 b12e be91 1231 0000 0000
00000050: 6e43 262b 5098 3e36 fa6a 9731 0000 0000
00000060: 213d 2736 fa6a 9731 0000 0000 068f 812e
00000070: 32d1 d732 f1db 6727 0000 0000 1269 c532
00000080: f1db 6727 0000 0000 b066 cf2c 921d 8338
00000090: 7494 7332 0000 0000 0116 6638 7494 7332
000000a0: 0000 0000 5541 9f30 91f7 f127 dd96 9131
000000b0: 0000 0000 af01 0f30 dd96 9131 0000 0000
000000c0: b828 b12c 27d0 fc37 65c7 3e32 0000 0000
000000d0: 11cc dd37 65c7 3e32 0000 0000 c483 1930
000000e0: e7bb 6c34 c614 b232 0000 0000 1695 4e34
000000f0: c614 b232 0000 0000 64a4 e92c 6198 cf30
00000100: e71c 7a31 0000 0000 58f9 a430 e71c 7a31
00000110: 0000 0000 30df a12a e223 8038 cec8 aa31
00000120: 0000 0000 6cdc 6038 cec8 aa31 0000 0000
00000130: b540 9e30 889a 932d 8a1d e20f 0000 0000
00000140: bfc1 072e 8a1d e20f 0000 0000 102a c529
00000150: 87c6 791e cd22 5825 0000 0000 06d0 e82d
00000160: cd22 5825 0000 0000 0f4a 5d27 f119 9f33
00000170: 29f6 9833 0000 0000 903a 8333 29f6 9833
00000180: 0000 0000 a50f c02c 71fa ac37 0d1b 1731
00000190: 0000 0000 d8c7 9737 0d1b 1731 0000 0000
000001a0: 8f65 e82f 5644 3139 66c4 4733 0000 0000
000001b0: 708b 1b39 66c4 4733 0000 0000 bf57 5c31
000001c0: a45f 2737 2256 2b31 0000 0000 19dc 1237
000001d0: 2256 2b31 0000 0000 17c2 592f 4a0f 0e37
000001e0: d9e4 c831 0000 0000 3a4d f936 d9e4 c831
000001f0: 0000 0000 91e4 2d2f a79f 2837 6adf 1331
00000200: 0000 0000 76f3 1337 6adf 1331 0000 0000
00000210: 232f 5c2f da5e f731 3136 c031 0000 0000
00000220: d914 d631 3136 c031 0000 0000 bc62 912b
00000230: a894 6821 3295 be23 0000 0000 d677 0e30
00000240: 3295 be23 0000 0000 1995 602c 2bdc 1438
00000250: ad80 1a33 0000 0000 c09d 0238 ad80 1a33
00000260: 0000 0000 efe0 4130 da31 6136 d4ff 0132
00000270: 0000 0000 718e 4536 d4ff 0132 0000 0000
00000280: 5190 8a2e 54dc 8c31 4879 8132 0000 0000
00000290: d9f3 5331 4879 8132 0000 0000 7227 d32b
000002a0: e117 412f aa85 2731 0000 0000 df7c ca2f
000002b0: aa85 2731 0000 0000 1ec6 ef2a 1e0e a037
000002c0: ce80 4d32 0000 0000 1872 8c37 ce80 4d32
000002d0: 0000 0000 5131 c42f 1c56 9620 5600 8d2f
000002e0: 0000 0000 19d6 342f 5600 8d2f 0000 0000
000002f0: fc06 a72b d34b 0211 be27 b231 0000 0000
00000300: abdd a730 be27 b231 0000 0000 cbe9 f92c
00000310: 121e 4e39 58e7 8a32 0000 0000 01d9 3439
00000320: 58e7 8a32 0000 0000 7254 7931 0110 1221
00000330: 324a 1631 0000 0000 a569 a82e 324a 1631
00000340: 0000 0000 c260 272b f0d7 1838 7f2b 9f31
00000350: 0000 0000 0f1a 0638 7f2b 9f31 0000 0000
00000360: d885 3e30 d03a c91c 3a9e 812a 0000 0000
00000370: 14dc 0c2d 3a9e 812a 0000 0000 62e6 dc28
00000380: 35d8 a237 6048 732b 0000 0000 90e4 8e37
00000390: 6048 732b 0000 0000 f59d d12f feb0 0030
000003a0: 1233 782f 0000 0000 4ceb f930 1233 782f
000003b0: 0000 0000 65d2 122d 7408 8c24 d5a7 4d30
000003c0: 0000 0000 cf9f 9630 d5a7 4d30 0000 0000
000003d0: c090 c32c 5957 6c36 ee34 5721 0000 0000
000003e0: 9263 4f36 ee34 5721 0000 0000 e93b 972e
000003f0: dc47 0b2f bfd7 8931 0000 0000 e966 2b2f
5.0072088e-17 4.7987732e-21 0.0 3.515474e-10 4.7987732e-21 0.0 1.5303773e-12 0.00010692539
8.606725e-09 0.0 9.381643e-05 8.606725e-09 0.0 2.00714e-09 2.3687634e-12 2.132864e-09
0.0 8.092012e-11 2.132864e-09 0.0 5.9068625e-13 2.8400864e-06 4.4068402e-09 0.0
2.492052e-06 4.4068402e-09 0.0 5.891647e-11 2.5124425e-08 3.217692e-15 0.0 2.2981599e-08
3.217692e-15 0.0 5.8946945e-12 6.252075e-05 1.4178216e-08 0.0 5.4856766e-05 1.4178216e-08
0.0 1.1587341e-09 6.715935e-15 4.2372066e-09 0.0 5.202549e-10 4.2372066e-09 0.0
5.0351633e-12 3.013767e-05 1.1104793e-08 0.0 2.6440279e-05 1.1104793e-08 0.0 5.5848326e-10
2.2047571e-07 2.0731374e-08 0.0 1.9239482e-07 2.0731374e-08 0.0 6.6405093e-12 1.5104541e-09
3.6396217e-09 0.0 1.2003438e-09 3.6396217e-09 0.0 2.8754213e-13 6.110199e-05 4.97048e-09
0.0 5.3611046e-05 4.97048e-09 0.0 1.1514404e-09 1.678059e-11 2.2296699e-29 0.0
3.0867527e-11 2.2296699e-29 0.0 8.755854e-14 1.3223005e-20 1.8746805e-16 0.0 2.6467727e-11
1.8746805e-16 0.0 3.0710058e-15 7.408733e-08 7.122828e-08 0.0 6.110815e-08 7.122828e-08
0.0 5.458705e-12 2.0620619e-05 2.1988769e-09 0.0 1.8093662e-05 2.1988769e-09 0.0
4.2272716e-10 0.00016905493 4.651192e-08 0.0 0.00014833896 4.651192e-08 0.0 3.2064091e-09
9.976244e-06 2.4932736e-09 0.0 8.753524e-06 2.4932736e-09 0.0 1.980499e-10 8.467419e-06
5.846783e-09 0.0 7.4297686e-06 5.846783e-09 0.0 1.5815461e-10 1.0050752e-05 2.1518312e-09
0.0 8.818568e-06 2.1518312e-09 0.0 2.002563e-10 7.1994295e-09 5.5940963e-09 0.0
6.23059e-09 5.5940963e-09 0.0 1.0330274e-12 7.88014e-19 2.0663028e-17 0.0 5.1829596e-10
2.0663028e-17 0.0 3.191508e-12 3.5490997e-05 3.597295e-08 0.0 3.114133e-05 3.597295e-08
0.0 7.053264e-10 3.355663e-06 7.566957e-09 0.0 2.94382e-06 7.566957e-09 0.0
6.301149e-11 4.0995847e-09 1.5072729e-08 0.0 3.0843152e-09 1.5072729e-08 0.0 1.50034e-12
1.7561731e-10 2.4377678e-09 0.0 3.6832312e-10 2.4377678e-09 0.0 4.25924e-13 1.908006e-05
1.1961857e-08 0.0 1.674243e-05 1.1961857e-08 0.0 3.5687234e-10 2.546797e-19 2.564799e-10
0.0 1.6446967e-10 2.564799e-10 0.0 1.1868002e-12 1.0278557e-28 5.185e-09 0.0
1.2213851e-09 5.185e-09 0.0 7.102962e-12 0.00019656893 1.6170517e-08 0.0 0.00017246978
1.6170517e-08 0.0 3.628227e-09 4.9487905e-19 2.1870048e-09 0.0 7.658522e-11 2.1870048e-09
0.0 5.9464597e-13 3.644073e-05 4.632454e-09 0.0 3.197236e-05 4.632454e-09 0.0
6.93118e-10 1.3316267e-21 2.3024795e-13 0.0 8.006946e-12 2.3024795e-13 0.0 2.452482e-14
1.9412584e-05 8.6431383e-13 0.0 1.7034152e-05 8.6431383e-13 0.0 3.8129114e-10 4.681765e-10
2.2573612e-10 0.0 1.818401e-09 2.2573612e-10 0.0 8.345856e-12 6.072964e-17 7.481707e-10
0.0 1.0959357e-09 7.481707e-10 0.0 5.558304e-12 3.5217583e-06 7.2914885e-19 0.0
3.0903361e-06 7.2914885e-19 0.0 6.877327e-11 1.2667506e-10 4.0117523e-09 0.0 1.558892e-10

exp_avg f4 [128]
00000000: 4a66 69b4 c4ad 0938 860e 1c35 4614 01b7
00000010: e800 eeb4 d134 bd37 1733 9635 167f 81b7
00000020: a905 5ab6 5e95 4db4 8333 c8b7 e053 b0b2
00000030: 1989 d032 d574 5ab6 46f8 a2b7 cb68 2538
00000040: c348 3d37 814f 16b7 7b11 5b37 848c 5735
00000050: d1b3 8c33 f64b bf37 7326 43b6 5e58 b0b5
00000060: f3c0 8535 6ee5 4d37 169a 96b4 8952 bfb5
00000070: baa2 1638 3324 13b5 7131 ad37 06e3 8631
00000080: cdf3 8d37 2aa5 c5b3 f17c 82b4 caec aab6
00000090: 2ebc bc35 8ac7 2434 f1dd 6fb7 60fa 8f33
000000a0: 6f4b 0738 814b b136 3795 b433 5400 f737
000000b0: 5069 36b4 69d1 d933 5c51 8ab3 575c 9833
000000c0: b0ba 8036 aae5 ec37 1650 89b7 7e2e 9cb6
000000d0: 79d7 b333 d4b0 87b7 b69b 05b6 cbda 0cb5
000000e0: 3269 89b5 40e0 ee37 c9f7 e6b5 1085 ed37
000000f0: 2465 6eb7 381c cfb4 1251 c436 ade4 92b6
00000100: f344 c9b5 805b d0b5 edf3 c3b4 aac2 b8b3
00000110: 011f a0b5 1b91 83b7 fcad 03b5 f673 e733
00000120: 6278 d7b3 5328 ee36 4f7d 64b5 2022 4cb4
00000130: a353 9b35 ff3f 8635 2d70 81b3 39e8 0838
00000140: 4453 c337 665b 9cb3 4560 2ab7 2269 1ab6
00000150: 6f91 e035 0eb5 a735 97d3 0237 9eb9 16b6
00000160: 4b7c 9237 0170 bc32 66f6 e236 7194 e333
00000170: 65bc cd34 8a3b de37 74de 8ab7 fba8 9e37
00000180: 9ab0 8eb7 dbe0 1db7 fe80 41b7 fd36 bd34
00000190: 1a5b 7b35 4494 26b4 b34b 61b7 31c9 4ab7
000001a0: e7c0 5c37 8a83 b7b1 8735 3635 aaae 1eb5
000001b0: 1b08 0533 632c 7bb5 6bf6 aab3 0665 54b3
000001c0: 593d c037 663b 0b32 63cf 4834 fa99 e132
000001d0: 7330 7d37 7ca3 7935 09a0 81b5 554c d5b4
000001e0: b148 d237 c181 2db6 fad6 66b6 1f83 9733
000001f0: 7eec 97b7 f52a fab6 adc1 96b4 0c6b db33
-2.1737029e-07 3.2825177e-05 5.8135663e-07 -7.693719e-06 -4.4331614e-07 2.255515e-05 1.119074e-06 -1.5437177e-05
-3.2487826e-06 -1.9146452e-07 -2.3865845e-05 -2.0527239e-08 2.4276732e-08 -3.2552537e-06 -1.9427516e-05 3.943666e-05
1.1282219e-05 -8.959208e-06 1.3057487e-05 8.029822e-07 6.5519664e-08 2.2804346e-05 -2.9079645e-06 -1.313874e-06
9.965428e-07 1.227237e-05 -2.805179e-07 -1.425463e-06 3.5914338e-05 -5.4814444e-07 2.064623e-05 3.925723e-09
1.6922038e-05 -9.2035705e-08 -2.4305294e-07 -5.0939607e-06 1.4061859e-06 1.5346282e-07 -1.4297185e-05 6.7044994e-08
3.225676e-05 5.283801e-06 8.409045e-08 2.9444847e-05 -1.6988383e-07 1.01429414e-07 -6.440925e-08 7.094848e-08
3.8364306e-06 2.8240338e-05 -1.6368966e-05 -4.6545747e-06 8.374531e-08 -1.6175596e-05 -1.990918e-06 -5.247245e-07
-1.0237911e-06 2.8476235e-05 -1.720845e-06 2.8314564e-05 -1.4209454e-05 -3.8577286e-07 5.850693e-06 -4.3777604e-06
-1.4995734e-06 -1.5523838e-06 -3.649906e-07 -8.603577e-08 -1.1929952e-06 -1.5683987e-05 -4.9054483e-07 1.0777869e-07
-1.0033615e-07 7.097647e-06 -8.5118967e-07 -1.9011395e-07 1.1572741e-06 1.0002403e-06 -6.027435e-08 3.26412e-05
2.3284585e-05 -7.2809414e-08 -1.0155204e-05 -2.3008984e-06 1.6731627e-06 1.2495163e-06 7.797868e-06 -2.2459785e-06
1.7462435e-05 2.1937014e-08 6.7640094e-06 1.05975126e-07 3.83213e-07 2.6492187e-05 -1.655447e-05 1.8913755e-05
-1.7009956e-05 -9.4102825e-06 -1.153373e-05 3.5244003e-07 9.3637357e-07 -1.5513893e-07 -1.342867e-05 -1.2086982e-05
1.3157935e-05 -5.3409552e-09 6.7878176e-07 -5.9113756e-07 3.0973847e-08 -9.356938e-07 -7.961065e-08 -4.9451977e-08
2.291675e-05 8.1043705e-09 1.8701898e-07 2.6263468e-08 1.5091256e-05 9.299763e-07 -9.657825e-07 -3.972988e-07
2.50678e-05 -2.5854536e-06 -3.4397804e-06 7.055336e-08 -1.8110728e-05 -7.4555815e-06 -2.8080595e-07 1.0217454e-07

exp_avg_sq f4 [128]
00000000: b171 4c2d b661 7332 e06a 342c 634b cf2f
00000010: 8ff1 1a2e 9555 0e32 d542 972d 066d 8931
00000020: 58f0 2d2e d50e 0a2c b314 0b32 71c9 232b
00000030: f947 762b 8647 302e 4c9f 3b31 854c c032
00000040: 4eab b530 9137 9a30 d306 b730 1747 bc2c
00000050: c8b5 962d bab2 a131 5df2 f52f b8d9 282d
00000060: 2558 1b2d 4cd5 2d31 1b4c bf2c cb93 312e
00000070: 86b5 df32 d127 322c 1407 a631 4302 952a
00000080: ad81 3031 7697 522e b856 1f2e 0310 0030
00000090: 06f6 4f2c a9dd 8d2d 9269 3032 2de0 552d
000000a0: aa99 7232 adde 6b30 ab93 a72c 9620 7732
000000b0: ae23 022a 0a0d 1c2c 462f 582d 9336 3b2c
000000c0: ca05 932f a9a0 3032 5c5e 6631 cdc0 972f
000000d0: 1dbf 762d 74cf 9a31 8e9a f12d 8b7a f72b
000000e0: 1e9d 022e 4906 f531 58c0 de2d 084e 1b32
000000f0: b827 0232 9e6b 512c f59e a330 7f88 a82f
00000100: d230 0f2e 51f5 7c2d c1ab ca2c 1053 0d2c
00000110: c167 f22d 21da db30 3fe4 2e2d 36a5 d72c
00000120: 0e14 832c 4abe e42f 327f 072f 38b2 382e
00000130: e516 ba2c aad8 2930 d0c9 3f2c b72b b432
00000140: 7424 8d31 5ef5 042d 0c92 ca31 b4b3 972e
00000150: b47b b32d 32b9 5f2d 8680 ac2f 2fc9 e22d
00000160: d6be 1831 16e9 c42c 3873 8c2f d3b2 eb2b
00000170: 2a29 312d 0039 eb31 2eb6 0731 c158 4632
00000180: 0a97 8831 a6e3 3d30 8007 6c30 f5aa 342b
00000190: c67b 772c 0547 d62c fa4c c830 6064 7b30
000001a0: 1ed8 4931 c4e3 f22d 194e 1b2f d222 7830
000001b0: 24ef a82c 9416 292c 6601 4c2b 7bc0 2b2e
000001c0: 26a1 0032 d8e2 832a 1bef 6e2d b4a9 812b
000001d0: 5c93 7b31 c50f 232d c951 682d 9220 5f2f
000001e0: 77fa 8932 d56f 3d2e 9551 1e30 74cb cc2e
000001f0: 1a0f bc31 ba34 8530 954b 782c 13ba 422e
1.1621302e-11 1.41666785e-08 2.5638866e-12 3.7706646e-10 3.5230093e-11 8.284947e-09 1.7196392e-11 3.9996193e-09
3.9549114e-11 1.9619213e-12 8.095571e-09 5.818879e-13 8.749664e-13 4.0081292e-11 2.7302631e-09 2.2386539e-08
1.3218171e-09 1.1220768e-09 1.3316942e-09 5.351174e-12 1.7133753e-11 4.7060356e-09 4.473745e-10 9.598038e-12
8.830302e-12 2.5296059e-09 5.436996e-12 4.0376407e-11 2.6043164e-08 2.5317424e-12 4.8320405e-09 2.6469286e-13
2.5685083e-09 4.7882996e-11 3.6229436e-11 4.658888e-10 2.955304e-12 1.6128281e-11 1.0268552e-08 1.2157425e-11
1.4121193e-08 8.5808943e-10 4.76282e-12 1.4384701e-08 1.1558698e-13 2.2176171e-12 1.2288675e-11 2.6604593e-12
2.6743258e-10 1.0281078e-08 3.3523042e-09 2.7603733e-10 1.4025917e-11 4.5055746e-09 2.7467164e-11 1.7584418e-12
2.9698126e-11 7.131153e-09 2.5323896e-11 9.03993e-09 7.576027e-09 2.9760426e-12 1.1904989e-09 3.0656008e-10
3.2557797e-11 1.4379013e-11 5.760254e-12 2.0083414e-12 2.755829e-11 1.5996343e-09 9.941436e-12 6.1290096e-12
3.7254705e-12 4.1608167e-10 1.2323367e-10 4.1995046e-11 5.2889798e-12 6.178974e-10 2.725476e-12 2.0974637e-08
4.1077843e-09 7.557814e-12 5.8955774e-09 6.898607e-11 2.040488e-11 1.2717204e-11 3.137794e-10 2.5782569e-11
2.2227389e-09 5.596533e-12 2.554772e-10 1.6747388e-12 1.0070425e-11 6.8458803e-09 1.9748643e-09 1.1545297e-08
3.975292e-09 6.908131e-10 8.586696e-10 6.4186097e-13 3.516952e-12 6.0901306e-12 1.4573793e-09 9.145591e-10
2.9372198e-09 2.7613363e-11 1.4124914e-10 9.0271357e-10 4.801397e-12 2.4028878e-12 7.24773e-13 3.9051855e-11
7.4872215e-09 2.342768e-13 1.3581826e-11 9.213103e-13 3.6609071e-09 9.268979e-12 1.3205833e-11 2.0293303e-10
1.6062797e-08 4.307295e-11 5.7596e-10 9.3129865e-11 5.473237e-09 9.692009e-10 3.5284876e-12 4.427576e-11
