results/test_4/Boss.onnx (onnx, 75574 bytes, 7 tensors)

network_body._body_endoder.seq_layers.0.weight f4 [128, 7]
000000 5f b5 6a 3e 57 4a 08 bf a0 89 8a 3e 98 c6 35 bf
       0.2292075 -0.53238434 0.27058125 -0.71006155
000010 cf a2 17 bf 68 87 c0 be a6 75 25 3f 34 bc 70 3e
       -0.592328 -0.37603307 0.6463264 0.23509294
000020 4b 25 95 be 56 78 e0 bd da b1 36 3f fd e9 c0 bd
       -0.29130015 -0.10960452 0.7136513 -0.0941963
000030 72 33 3a 3f 91 fc 02 bf 79 ac a0 3d 6b a4 4a 3e
       0.7273475 -0.51166636 0.078453965 0.19789283
000040 84 5d 48 bd 8f b3 89 be 85 49 30 be 53 45 be 3e
       -0.04891731 -0.26894805 -0.17215545 0.37162265
000050 e7 5a d6 bc 75 01 03 3f 00 15 1a be ca 63 66 3e
       -0.026166392 0.511741 -0.15047073 0.22499004
000060 8d e4 85 3d 25 2f f8 be 25 ff 10 3d 5c fd ce 3d
       0.06537733 -0.48473468 0.035399575 0.10106918
000070 87 c0 20 3e a8 db fe be 07 8e 28 3e 7c 3e 5e be
       0.15698443 -0.4977696 0.16460429 -0.21703523
000080 aa d0 ee bc 62 0d 06 be 0e 54 ab 3e 09 1a 85 3f
       -0.029152233 -0.13091043 0.33462566 1.039857
000090 a4 92 a6 bd 36 3b 09 3f 24 c0 9c 3d 00 ae e4 3e
       -0.08133438 0.53605974 0.076538354 0.44664
0000a0 19 06 79 3d 87 85 6f 3d 96 95 a8 be 59 7d 90 be
       0.06079683 0.05847695 -0.32926625 -0.28220633
0000b0 d4 b3 26 bf f1 75 85 bd 17 0d bc 3e 57 3f e2 3d
       -0.65118146 -0.06516636 0.36728737 0.11047237
0000c0 d6 a7 c3 3e f6 c0 9c 3e 37 7d 84 be f9 e7 a1 3e
       0.38213986 0.30615968 -0.2587678 0.31622294
0000d0 1e 14 69 3e 02 92 31 bb 26 39 8a be e3 76 0a bf
       0.2276158 -0.0027095084 -0.26996726 -0.54087657
0000e0 cd 7b c7 3c 5e 96 e2 3c 25 55 e7 bb 50 d4 8e bd
       0.024351025 0.027659591 -0.0070597106 -0.06974089
0000f0 4a b4 c0 3e 2f 83 b6 3d c9 da 1c 3e ac 97 6b be
       0.3763755 0.0891174 0.15317835 -0.23007077
000100 5b 16 0a be cb a5 31 bd b0 43 05 3e e9 2a 8d 3e
       -0.1348509 -0.043371003 0.13014102 0.275718
000110 00 29 dd be 36 36 8a be 51 2a b0 bd 51 4c 09 3f
       -0.43195343 -0.26994485 -0.08601821 0.53632075
000120 0f 7b 3a be b2 e1 b0 3e 63 d7 f8 3e f5 8a 88 bf
       -0.18211006 0.34547192 0.48601827 -1.0667406
000130 10 f7 e4 be 59 e9 8c bd dd 72 04 bf 7d 50 d6 3e
       -0.44719744 -0.06880445 -0.5173777 0.41858283
000140 ad ef 5a bd 1e 7e 6a bf b4 af 36 3e 0c ce a5 bd
       -0.05345123 -0.9159869 0.17840463 -0.08095941
000150 08 cf 14 bf 6c 10 a4 be 10 f4 06 bf 00 46 ec 3d
       -0.58128405 -0.3204378 -0.5271616 0.11536789
000160 48 07 22 be cd 2c b1 3e d6 52 0f bf 6e f5 86 be
       -0.1582309 0.34604493 -0.5598577 -0.26359123
000170 20 a3 a3 3e 55 ae 3c 3f f2 14 a9 3d 3a 84 48 3e
       0.31960392 0.7370351 0.08255948 0.1958169
000180 e1 a3 9e 3d dd 46 89 3e 04 f3 ba be ca 0d 6b 3e
       0.07746101 0.26811877 -0.3651353 0.22954479
000190 da 01 3f bf 3d 22 17 3f a5 7d 45 3e c5 d2 7d be
       -0.746122 0.5903662 0.19286211 -0.24787433
0001a0 1d 4a ef 3e 5e 5b 14 3f 9e ed 8b bd 6f e9 1e be
       0.4673623 0.57951915 -0.06832431 -0.15518735
0001b0 64 d6 0a bf a2 95 0b 3f 67 aa 2d 3d 62 fa d0 3e
       -0.54233384 0.54525197 0.042398836 0.40816027
0001c0 68 a1 f6 3e 8e 3e d3 bc 09 87 cc be 7f 8b 0d 3f
       0.48170018 -0.025786664 -0.39946774 0.5529098
0001d0 c4 ad 64 3e ed 7e 88 be db 1f a1 be 91 06 f2 3e
       0.22331911 -0.26659337 -0.31469616 0.47270635
0001e0 2a 0e 6a be 1e db a4 3e 25 d4 00 be b3 c8 4e be
       -0.22856966 0.32198423 -0.12580927 -0.20193748
0001f0 d0 03 fa 3e 8c 22 53 bf 5f 72 17 bd c4 00 18 be
       0.48831034 -0.8247459 -0.036974307 -0.14844042
000200 af 07 da 3d d0 99 32 3e 8b 53 2e 3d b9 1c 66 3f
       0.10645997 0.17441487 0.04256014 0.8988758
000210 5b 7c 0a 3d d0 9f 08 be 02 05 43 3f 4e af 07 3f
       0.03381 -0.13342214 0.76179516 0.5300187
000220 a6 2e c3 bd 7e 94 5d 3e f3 0f c3 be b9 bd f4 3e
       -0.09530382 0.21638677 -0.38098106 0.47800997
000230 ec 43 72 be aa a2 4f be a9 a9 71 3c 9f 84 40 be
       -0.23658723 -0.20276895 0.014749923 -0.18800591
000240 6b c3 d7 be a4 84 cc 3e dd ed 42 bd e4 7e 25 3e
       -0.4214128 0.39944947 -0.047590125 0.16161686
000250 ea bc 46 3f a6 91 b9 bc 08 af 0a 3f 48 f5 20 3e
       0.7763201 -0.022652458 0.54173326 0.15718567
000260 ef 99 eb be f3 61 8d be b9 6a b6 3e b6 82 16 3e
       -0.4601588 -0.27613792 0.35628298 0.146983
000270 da 31 a1 3e a0 2b 38 3e 92 82 96 3e 45 31 f5 be
       0.31483346 0.17985392 0.29396492 -0.47889152
000280 26 a2 38 3e b7 3b ae 3d 0c 9a 43 3e 0f 4b 98 3f
       0.18030605 0.085074835 0.19101733 1.1897906
000290 e9 42 03 bf ca 4e b6 3e 8f 67 56 be 9c 8d be 3e
       -0.5127397 0.35606986 -0.20937942 0.37217414
0002a0 d2 a2 9b be f7 e9 73 3d 48 74 ba 3e 71 6a e5 bd
       -0.3039766 0.0595493 0.3641684 -0.11201943
0002b0 86 3a 7f 3e 33 6f c4 3e bd 0e 82 bf 4d 7b 8d 3e
       0.24924669 0.38366088 -1.0160748 0.27633134
0002c0 4a 33 6e 3e 3a 82 17 be 4e 5c 01 be a7 d3 cb 3e
       0.23261753 -0.14795771 -0.12632868 0.39809915
0002d0 c2 74 1f be 21 e4 15 3e 24 33 0f 3e 0f 3b 21 bc
       -0.15571883 0.14637806 0.13984352 -0.009840741
0002e0 46 9f 9b bd 50 d0 41 bf 84 3c 86 3d a1 4f 6f 3f
       -0.07598738 -0.75708485 0.06554511 0.9348088
0002f0 21 4e 1f 3d ab 66 08 be f7 0c e4 be ec f3 b9 be
       0.03889287 -0.13320415 -0.4454114 -0.3631891
000300 9b 79 53 bf 54 95 bc 3e 03 49 30 3f fa 3b 1f be
       -0.8260743 0.36832678 0.6886141 -0.15550223
000310 06 2b 25 3e f5 e7 41 3f 8d 82 a9 be 64 96 2f 3e
       0.16129693 0.75744563 -0.33107415 0.17147213
000320 74 d0 59 bf 05 d8 42 3e f7 47 9b 3d 9b cb 0a bf
       -0.850837 0.19027717 0.075820856 -0.5421693
000330 ba d2 f1 3e 6e 3e 3c 3f 1c ed 5b be f6 97 9c be
       0.47231084 0.7353276 -0.21477169 -0.30584687
000340 19 a9 57 3f 9c 94 b4 3e db d1 bc 3e 3d c6 b6 be
       0.842424 0.3526963 0.36878857 -0.3569812
000350 69 77 e9 be d1 1c fd 3d 31 c7 e1 3e 3f 16 57 3f
       -0.45598915 0.12359012 0.44097283 0.8401832
000360 fa e5 23 bd 80 ae 23 bf a1 0b 9b bd 3d 9b 10 be
       -0.040014245 -0.6393814 -0.075705774 -0.14121719
000370 0f f0 05 3e 9a 6d cf bd 18 2a 28 be ea c9 00 be
       0.13079856 -0.10128327 -0.16422307 -0.12577024
000380 5e cb 21 be e0 d5 11 3e a3 fe cb be ce 9b 71 3e
       -0.15800235 0.14241743 -0.3984271 0.23594591
000390 a7 0b 10 bf fd f9 09 3e 6a 59 f7 3e aa f0 1a 3f
       -0.5626778 0.13474269 0.48310405 0.60523474
0003a0 95 f8 70 be 10 d8 1d be 3e 5b 3e bf 15 c2 5d 3d
       -0.23532327 -0.15414453 -0.74357975 0.05414017
0003b0 37 91 5d 3e a0 99 0c 3f c3 b3 ae bd bc a2 6c 3e
       0.21637426 0.54921913 -0.085303806 0.23108953
0003c0 ae 9f cb bb 4e b2 96 be d3 e7 83 be 24 3e 96 be
       -0.0062141037 -0.2943291 -0.25762805 -0.29344285
0003d0 6b 68 63 3e c6 df a0 bd 08 02 33 bd 48 60 ef 3e
       0.22207801 -0.078551814 -0.04370311 0.46753144
0003e0 dc 60 12 3e 11 3e 8f bf bd 38 a0 bd 76 94 2c be
       0.14294761 -1.1190816 -0.07823322 -0.16853508
0003f0 37 a3 03 bd 02 45 a1 3d 19 ed 3e be bf 07 46 bf
       -0.032138076 0.0787449 -0.18645133 -0.7735557

network_body._body_endoder.seq_layers.0.bias f4 [128]
000000 68 a7 19 ba 87 a4 b0 bc 4b 35 8a bd df 9e 20 bc
       -0.00058614323 -0.021562828 -0.06748446 -0.009803503
000010 90 76 e6 3b 8c 1b 2c bd 49 91 2d bd 42 4d 41 bd
       0.0070331767 -0.04201846 -0.042374883 -0.04719282
000020 33 b8 6c bd 1a 9d 60 3c eb 6c be bc 52 b8 56 bd
       -0.057792854 0.013709331 -0.023245296 -0.052421875
000030 8f 15 b8 3c 23 d5 2b 3c 76 2c 9e bc 50 dc 0f bd
       0.022471217 0.0104878275 -0.01930831 -0.035122216
000040 2e 5f 8f bc 74 0e 7a bc fb 8f a9 bc b4 29 97 bd
       -0.01750144 -0.015262235 -0.020698538 -0.07381001
000050 33 a0 d8 3c 9f 16 29 bd 27 25 0c bd 23 fb fe 3c
       0.026443576 -0.04128134 -0.03421512 0.03112561
000060 e3 f2 45 bd 76 5c bf bc 90 d6 cf bb ef 73 32 3d
       -0.048327338 -0.023359518 -0.0063427165 0.043567594
000070 ae f4 88 bc af a8 1a bd e7 b9 0d bd 46 07 d0 3c
       -0.016718235 -0.037758525 -0.03460112 0.025394093
000080 ab ce 4d bc 86 8a 29 3c 41 73 d1 3c 2a 46 59 bd
       -0.0125614805 0.010347968 0.025567653 -0.05304543
000090 6e 5d fd bd 8e b3 72 3c c6 e0 e0 bc 62 48 9d bc
       -0.12371336 0.014813317 -0.02745093 -0.019199554
0000a0 5b 45 d7 bc 10 6c 82 bc 08 9e 38 bb 21 ce 12 bd
       -0.026278188 -0.015920669 -0.0028170366 -0.03584111
0000b0 7e 8b e6 3b 94 62 57 bd c1 99 2c 3b 97 27 10 3c
       0.0070356717 -0.052584246 0.0026336762 0.008798501
0000c0 db 00 6e bb 06 f9 e4 bc cb 87 95 bc 94 78 97 bd
       -0.0036316428 -0.027950775 -0.018253228 -0.07396045
0000d0 53 08 cf 3c 18 5d cc bc ba 4f 73 bc 6b 03 73 bd
       0.025272524 -0.024946734 -0.014850551 -0.05932943
0000e0 73 de 2a 3c 65 3c a0 bb 38 d4 38 bc 04 96 5a bd
       0.010429013 -0.004890012 -0.011281066 -0.053365722
0000f0 2b f2 a0 bb 3d 3f 9e bc 9f 06 b0 bd e6 d5 01 3c
       -0.004911681 -0.019317264 -0.08595013 0.0079245325
000100 fc 57 a6 3c 4b e4 27 3c 82 a1 92 bc cf ad 16 3d
       0.020305626 0.0102473 -0.017899279 0.03678685
000110 a6 87 b4 3c 47 ff a7 3b db c6 7e bd c1 15 2d bd
       0.022037338 0.005126867 -0.062201362 -0.042257074
000120 24 2b d1 bc 86 d9 6e bd 02 7a 85 bd 54 32 cf 3c
       -0.025533266 -0.058312915 -0.06517412 0.025292553
000130 13 fe 3c 3c 17 58 95 bc d1 fa 9a 3c 31 47 2a bc
       0.011535185 -0.018230481 0.018918427 -0.01039295
000140 e9 6d df 3c 8c 63 c8 3c ea 77 06 bc 96 87 ab bd
       0.027274089 0.02446153 -0.008207301 -0.0837547
000150 2a 6a 6a bd a2 5d 9c bc fa d1 b8 bc 16 27 81 bd
       -0.057230152 -0.019087616 -0.022561062 -0.06306283
000160 95 9b 7b bc 76 2c 91 bd 7e 69 9a bd 68 fe c1 bd
       -0.015356918 -0.070885584 -0.07539652 -0.09472352
000170 66 51 61 bd 4e ec 0e bc 07 c1 35 bc f0 56 6f bd
       -0.05500927 -0.008723332 -0.011093385 -0.05843252
000180 e0 18 9e bb a6 fc 28 bd 6c 69 a0 bc a1 7d 0b bd
       -0.0048247427 -0.04125657 -0.019581519 -0.034055356
000190 5b fb 72 bb 1f fb 45 3a 1c 18 d2 bd cc a6 b4 bc
       -0.003707609 0.00075523736 -0.10258505 -0.022052191
0001a0 99 56 c0 bc 0a 50 c8 3c b9 76 5f bd 44 ea be bd
       -0.023478793 0.024452228 -0.054556582 -0.09322026
0001b0 a8 b5 fd bc 7d e0 11 bc 0c b3 de bc 4c 62 be 3c
       -0.03097041 -0.00890362 -0.027184986 0.023240231
0001c0 e3 da fd bc c2 d4 57 bc eb 5b 4d 3c 12 7e 0b 3d
       -0.030988162 -0.013173284 0.012534122 0.034055777
0001d0 09 2a fc bc 59 5b 56 bd 83 27 12 bc f8 d7 1d bd
       -0.030781763 -0.05233321 -0.008920553 -0.038536042
0001e0 0c ce b8 bc 50 87 4a 3d 5c db 97 bd e5 a4 25 3d
       -0.022559188 0.04944545 -0.07414886 0.04044046
0001f0 51 d3 84 bc 3c 94 44 bd 7f aa 02 3d 3e ac 92 3d
       -0.016214045 -0.04799293 0.03190088 0.07161759

network_body._body_endoder.seq_layers.2.weight f4 [128, 128]
000000 d8 4d 68 3e 76 b2 14 bd 74 6b b1 3c 32 a7 6a bd
       0.22685945 -0.036303006 0.021657683 -0.057288356
000010 ee 1e a5 3d e7 39 21 be 71 3b ec 3c 25 57 60 3c
       0.0806254 -0.15744744 0.028836938 0.013692652
000020 47 c5 92 bd 91 96 67 3c 2e 50 98 bd 16 f1 a7 3d
       -0.07166534 0.014135019 -0.07437168 0.0820028
000030 6a 21 3e 3c 71 72 c3 bd df b2 33 bc 7c 04 7f bd
       0.011604646 -0.09543312 -0.010967939 -0.062260136
000040 0c 17 e2 3c ce 2e 02 3e 3d 66 a7 bd 50 ab 7b bd
       0.02759888 0.12713167 -0.08173797 -0.061442673
000050 ce 19 47 bd 6e 2a b7 3b e0 24 15 be cf 2d 7b bd
       -0.048608594 0.005589775 -0.14564848 -0.061322983
000060 6a 3c 09 be f7 61 e6 bd e0 4b 61 3d 5f 08 b0 3d
       -0.13401952 -0.11249154 0.055004 0.08595347
000070 e2 7c d9 bd ed db 3e 3d d5 2b cb bd fa 37 53 3d
       -0.10619523 0.046596456 -0.0992047 0.051567055
000080 60 81 be bd f7 1f 25 3e 28 81 f2 3b b5 6c cb bd
       -0.0930202 0.16125475 0.0074006505 -0.099328436
000090 bb 67 d8 bc be fb ba bd 5e 9b e8 bd 7e f3 e7 bd
       -0.02641665 -0.09130047 -0.11357759 -0.11325739
0000a0 c5 09 3b 3e b2 27 05 3e ec 72 03 be 05 c9 6a be
       0.18265446 0.13003424 -0.12836808 -0.22928245
0000b0 87 e6 06 3d c5 0e a4 bd 93 a6 48 3d 19 f6 c3 bd
       0.03293469 -0.080106296 0.048986983 -0.09568424
0000c0 e9 e3 28 bd f4 1e 19 be 7e 0b 99 3d d5 2e 0d bd
       -0.041232977 -0.14953214 0.07472895 -0.03446849
0000d0 c7 f1 39 be 5f 1c cc 3c 23 13 e2 3c dc 08 71 bd
       -0.18158637 0.024915872 0.027597016 -0.05884634
0000e0 ac 51 92 3d 61 f4 03 be 6a e1 f2 3b 8d 55 72 3c
       0.07144484 -0.12886192 0.0074121254 0.014790905
0000f0 12 78 ee b9 fb 69 9f 3d cb f2 ed bc a2 a0 d7 3d
       -0.00045484357 0.07783886 -0.029046437 0.10528685
000100 6a 42 00 3d 8f 4d 1b bd 37 1e 5e bc 2d 2b 8e 3d
       0.031313337 -0.037915763 -0.0135570085 0.06941829
000110 32 db b5 bc 7e 40 5b bd cb 3a 0a be 17 f2 04 be
       -0.022199247 -0.0535283 -0.1349899 -0.12982975
000120 8d 30 8f 3d a3 42 b7 bd 92 a1 3e be 80 ac 24 3e
       0.06991682 -0.08948257 -0.18616322 0.16081429
000130 6c aa bd 3c 35 7b c9 bd c5 14 e7 3c 49 59 4a bd
       0.023152553 -0.09837953 0.028208146 -0.049401555
000140 af 4d 3e bd fb 1d d9 3d 6f f4 1e 3c 56 6b 98 bd
       -0.046460804 0.106014214 0.009701832 -0.07442348
000150 66 a6 74 bd 31 f4 fe 3d e8 93 da bd 4a 44 76 3d
       -0.059729002 0.124489196 -0.10672742 0.06012372
000160 18 8b 10 bd 4a 2d a3 3c e6 e1 27 bd 9c 85 e6 bd
       -0.0352889 0.019919056 -0.040986918 -0.11255953
000170 bb 96 08 bd d4 a5 23 3e 52 74 1b 3d a6 d4 04 be
       -0.033346873 0.15981227 0.03795273 -0.12971744
000180 25 c7 83 bd c9 ab 1d be b2 52 86 3d 0b fb 03 3e
       -0.06434468 -0.15397562 0.06558742 0.12888734
000190 5d 30 20 bb b6 7e c8 3d 40 0b 8a 3d 6d 4b 0d 3e
       -0.002444289 0.09789793 0.06740427 0.13798304
0001a0 41 20 b9 bd b4 57 20 bd 80 1e e2 bd 35 a4 2d be
       -0.09039355 -0.03914614 -0.11040974 -0.16957171
0001b0 65 10 19 3e f7 d5 2c ba 73 53 af 3c af a6 2e 3e
       0.1494766 -0.00065931625 0.021402096 0.17055772
0001c0 0d e6 71 3d f4 e4 f3 bc 2a 18 fd bd 0e 96 7a bd
       0.059057284 -0.02977226 -0.123581246 -0.06117826
0001d0 11 7e b1 bc 00 a5 16 be c2 ce 76 3d 0b b4 88 bd
       -0.021666558 -0.1471138 0.060255773 -0.066749655
0001e0 81 16 67 bd 44 c2 ba 3d e0 eb 0c be 65 46 bb 3c
       -0.056417946 0.091190845 -0.13761854 0.022860715
0001f0 8d 8a 69 3c 6c f7 7a 3d 60 48 a5 3d 3e d2 56 be
       0.0142542245 0.061271116 0.08070445 -0.20978639
000200 a2 ac 0c 3c 76 40 df bb 88 c0 02 3b f6 6b 54 3b
       0.008586081 -0.0068131043 0.0019951183 0.0032412983
000210 3a 32 90 3d 37 02 09 3d f0 e7 80 3d 61 0a 09 3a
       0.0704083 0.033449378 0.062942386 0.0005227682
000220 96 3e 2f bd bf 0b 9a 3c ee ee 4c be 1a f4 b8 bd
       -0.042784296 0.01880443 -0.2001302 -0.09030934
000230 f7 37 a6 bd 36 26 fa bd 2e 2f 09 bd 37 3e fa bd
       -0.08116143 -0.122143194 -0.03349226 -0.12218898
000240 97 f4 46 bd 16 ee 51 bd 9c 37 5d 3d d2 82 ab bd
       -0.048573103 -0.051252447 0.05400811 -0.08374561
000250 bd 65 98 bb 04 97 fb bc 33 35 52 bd bb c2 1c be
       -0.0046508 -0.030711658 -0.051320266 -0.15308659
000260 f5 27 17 be e7 56 a8 3d 78 46 e4 bd a0 e2 4e 3d
       -0.14761336 0.082197 -0.11146253 0.050509095
000270 a9 cc af bd 8b 47 1b bc 57 59 0a bd 52 bd db bd
       -0.08583958 -0.009477506 -0.033776607 -0.10729469
000280 6e 62 9f 3d c9 64 80 bd f2 9f 85 3d 3b 33 4d 3e
       0.07782446 -0.06269223 0.06524648 0.20039074
000290 ce 5d 52 3e d5 09 e4 3d be 81 ad bb e1 3a a2 3d
       0.20543596 0.11134688 -0.0052950075 0.079213865
0002a0 c4 24 e2 bb 3c 79 a7 bd 98 b3 93 3d c0 e6 dd 3d
       -0.0069013555 -0.081774205 0.07211989 0.10835028
0002b0 ad a8 ae ba 81 3a d3 3b 2e 7d af 3b 0b 31 ba bd
       -0.0013325416 0.006446183 0.0053554988 -0.090913855
0002c0 92 7b 73 3b e5 9c 0a 3e ac 68 8b 3d 4f f3 0f 3e
       0.003715251 0.13536413 0.06807074 0.14057659
0002d0 68 a2 12 be 0a ac 3a 3e 01 40 a2 bc 48 e2 9c bd
       -0.14319766 0.1822969 -0.01980591 -0.07660347
0002e0 f8 b3 82 3c ae 23 7e 3c 6c 84 1f be 0a 13 60 be
       0.015954956 0.015511436 -0.15577859 -0.21882263
0002f0 c3 e9 11 bc da 0e b6 3d 1b 9e ba bd 34 b8 c2 3d
       -0.008905831 0.088895515 -0.091121875 0.0950779
000300 e7 64 3c be a4 0d 7a be b1 67 b4 3d a3 59 c4 bb
       -0.18397866 -0.24419266 0.0880884 -0.005992131
000310 ea 10 c2 3d 09 90 08 be 2c 01 9b 3c 54 b1 06 be
       0.09475882 -0.13336195 0.018921457 -0.13153583
000320 84 b8 4c 3d 54 3c 47 be ce c9 3f bd f1 67 ac 3d
       0.049980655 -0.19456607 -0.046823315 0.08418263
000330 a9 f3 72 bc 7f 6c 0d 3d 37 e2 85 bd 4a 06 f9 3d
       -0.014828601 0.034527298 -0.06537288 0.12159403
000340 a0 33 ca bd f9 6e 3f 3c 19 34 2d 3c 07 96 1c bd
       -0.09873128 0.011684173 0.010571503 -0.038229015
000350 29 7c af 3d 04 c5 54 bc 62 fd e3 ba 67 bb ac 3b
       0.085686035 -0.012986425 -0.001739424 0.0052713635
000360 39 b7 80 3d 92 cb f1 3d f6 3c 20 be e6 10 30 bd
       0.06284947 0.11806406 -0.15648255 -0.042984866
000370 b7 52 a4 3d 63 28 12 3c c8 a5 c4 bd d7 f9 19 3e
       0.08023589 0.008920762 -0.09601933 0.15036713
000380 df 79 10 be 5b c0 80 bc 7c 92 c2 bd ef d3 3e 3d
       -0.1410899 -0.015716722 -0.09500596 0.046588834
000390 70 f5 31 3d af eb e9 3d c7 7a 18 be 7c 59 2d bd
       0.043446958 0.11421906 -0.14890586 -0.042321667
0003a0 20 81 75 bd f1 51 87 3d c9 5a 7c bd e6 d9 a8 3d
       -0.059937596 0.06607426 -0.061610017 0.08244686
0003b0 de de 04 be 6f 6e 0a be e4 24 45 bb 4e 77 12 3e
       -0.12975642 -0.1351869 -0.0030081803 0.14303324
0003c0 f6 11 11 be fc 04 05 bd f8 9f bc bd ac 75 dd 3b
       -0.14167008 -0.032475457 -0.09210199 0.0067584123
0003d0 4f 09 60 bb 24 ec eb bd 18 b5 b0 bd 8b ca bd 3c
       -0.0034185236 -0.115196496 -0.08628291 0.02316787
0003e0 ad e8 cd 3c 3e 7d 9f 3d 5d b4 03 3e bf 15 f2 3d
       0.025135363 0.0778756 0.12861772 0.11820554
0003f0 7d 88 80 3d 7f e1 64 3e fa ce 5f be 16 27 52 bd
       0.06276033 0.22351645 -0.21856299 -0.051306807

network_body._body_endoder.seq_layers.2.bias f4 [128]
000000 4f e5 ae 3c 1d 8f 22 bc 95 2e 3d bc a3 81 d1 bc
       0.021349577 -0.009921816 -0.011546751 -0.02557451
000010 50 41 38 bc 0e 3a f7 bc e2 46 95 3b 40 f2 97 bc
       -0.01124604 -0.03017905 0.004555569 -0.018548131
000020 fe 49 ee bc 64 a0 89 bc 75 86 18 bd cc ec c4 3c
       -0.029088017 -0.016800113 -0.037237603 0.024038695
000030 bf e9 d4 bc 95 48 b0 bc 1c d1 fa bc 97 ae 45 bc
       -0.025990365 -0.021518985 -0.03061729 -0.012065551
000040 04 05 23 3d 4f c3 86 bb 06 91 93 bc fc e1 c3 bc
       0.039799705 -0.004112638 -0.018013489 -0.023911469
000050 c1 8c 8c bc e2 5b 2c 3c f0 dd c5 bc 73 4a 96 bb
       -0.01715696 0.010519953 -0.02415368 -0.0045865118
000060 97 b9 e6 bc e6 43 d3 bc a9 76 98 3b 26 70 dd bb
       -0.028164668 -0.025789212 0.0046528173 -0.006757754
000070 e3 bd d0 bb 40 12 99 3b e7 1b 1b bc 73 81 fb bc
       -0.0063702925 0.004671365 -0.009467102 -0.030701375
000080 05 53 d7 bc 6e 5d c7 bc 90 e3 ba bc b1 f2 b3 bc
       -0.026284704 -0.024336543 -0.022813588 -0.02196631
000090 88 bf 81 bd 02 bd 34 bd cb f3 ce bc 7e 4e d9 bc
       -0.0633536 -0.044125564 -0.025262734 -0.026526686
0000a0 a5 73 ca 3c e1 90 40 3b 33 fc 43 bc ec 9d 5b bc
       0.024713347 0.002938323 -0.011961984 -0.013404351
0000b0 24 df 42 b9 0b 3d b6 bb db 3d a9 bc 7a f0 27 bd
       -0.00018584408 -0.005561476 -0.020659378 -0.04100082
0000c0 f6 f6 9c bc e4 84 09 3d ef 8e d0 bb 14 19 94 ba
       -0.019160729 0.033574 -0.0063646953 -0.0011298978
0000d0 9d c5 2b bd 52 bc 0d 3d 74 3b 4d bc 99 90 d6 bb
       -0.041936506 0.034603424 -0.012526382 -0.006547999
0000e0 b0 7b 25 3c 33 96 3f 3d d1 10 d2 bc e8 c8 c2 bc
       0.01010029 0.0467741 -0.025642784 -0.02377744
0000f0 d4 4c 68 bd e0 28 33 bc 6a 06 91 bb e6 c3 86 bc
       -0.056713894 -0.010935038 -0.0044258134 -0.016450834
000100 74 fb 0c bd dd df 3b bd cd 9f 9f bc 8f 31 0f bd
       -0.034419492 -0.04586779 -0.019485379 -0.034959372
000110 3d 5a 7f 3b ee c0 2d bd 9e 61 18 bc 2f 23 e1 bc
       0.0038963698 -0.04242032 -0.0093006175 -0.027482597
000120 7d bd 6b bc e9 a6 76 3b 81 d0 94 bc 76 ee 0a bd
       -0.014388439 0.0037636107 -0.018165829 -0.03391882
000130 c3 51 bd bc 02 7e a2 bc 57 e3 1a bd b4 4f 4a bc
       -0.023110276 -0.019835476 -0.037814464 -0.012348104
000140 53 c7 20 bd fe e8 af bc 93 4e 4b bc a2 02 ae bc
       -0.03925259 -0.021473404 -0.01240887 -0.02124149
000150 db 30 58 3c 2f 45 6b 3c a6 c2 d3 bb af ce fe bc
       0.013195242 0.014359756 -0.006462413 -0.031104414
000160 74 bf 84 bc 58 ca 02 bd be 4f 71 bc b5 54 ac bc
       -0.016204573 -0.03193125 -0.014728485 -0.021036485
000170 b0 b1 fa 3c f3 8a 61 3b 26 26 96 bc 68 c9 0e bd
       0.030602306 0.0034415096 -0.018328737 -0.034860045
000180 8b 67 85 3b dc 67 ad ba 98 52 3d 3d df 6c cb bc
       0.004071181 -0.0013229805 0.046221346 -0.024832187
000190 4d eb 05 bc 5a d0 b3 bc 73 07 f0 bc 8e 5a 1e bc
       -0.008173776 -0.021949936 -0.029300427 -0.009665145
0001a0 31 42 c8 bc 2f 6a 85 bb b2 25 e8 bc 36 fe d7 bc
       -0.024445625 -0.004071496 -0.028338287 -0.026366334
0001b0 72 3d 01 bd 1e ff 49 bc e2 2a d0 bc 41 44 bc bc
       -0.03155274 -0.012328891 -0.025411073 -0.022981765
0001c0 94 da 39 3d 45 0c 1c bc 92 2e 18 bc 50 f4 d0 bc
       0.045374468 -0.00952441 -0.009288447 -0.025507122
0001d0 7e d7 3c bc c6 c3 cb bc 7b 2e 9e bc 42 6e eb 39
       -0.011525987 -0.024873625 -0.019309273 0.0004490484
0001e0 56 c8 89 bb 3f 57 d1 ba a7 8d 74 bc 78 67 28 3c
       -0.00420479 -0.0015971436 -0.014926351 0.010278575
0001f0 e9 87 ba bc 07 aa bf bc 08 25 0e bd 20 20 31 bd
       -0.022769885 -0.023396505 -0.034703285 -0.043243527

action_model._continuous_distribution.log_sigma f4 [1, 2]
000000 a0 03 be 3e 17 ad d7 3e
       0.3711214 0.42124245

action_model._continuous_distribution.mu.weight f4 [2, 128]
000000 90 14 58 bc 40 b6 8f ba 51 2d 27 3d 5b 27 8a bb
       -0.013188496 -0.0010964349 0.0408147 -0.0042161173
000010 05 05 c3 3c fa 36 85 ba d6 27 f3 3c 51 1f a3 3b
       0.023806104 -0.0010163479 0.029682081 0.0049780984
000020 08 60 d5 bb d8 45 37 bb cc ac f8 3b 03 b2 bb bc
       -0.006511692 -0.0027965214 0.0075889584 -0.022912031
000030 e4 e1 25 3b 05 5c 89 b9 c4 28 88 bb 44 ff 96 bb
       0.0025311643 -0.00026199236 -0.0041552503 -0.0046080668
000040 e2 10 46 bd 16 2f 25 3c 11 57 cd b6 a6 43 b8 bb
       -0.048355944 0.010082027 -6.119612e-06 -0.0056232987
000050 f9 3b 3d 3c dc 17 ab bc cb 49 58 3a 7b 1e 17 bc
       0.011549943 -0.0208854 0.0008250742 -0.009223576
000060 20 9f a3 bb 82 ab 39 3d 24 52 0a bc 8c 49 f3 ba
       -0.0049933344 0.04532958 -0.008442435 -0.0018561347
000070 20 ed 07 3b 50 a4 39 bc 84 dc 84 3c d2 a6 4b 3b
       0.0020740703 -0.011330679 0.016218431 0.0031074774
000080 86 ad 8d 3b 63 f0 e3 39 80 15 83 3a 75 03 4e bc
       0.004323664 0.00043475916 0.0010000914 -0.012574066
000090 32 49 ab 3c ed 89 bd bb 0e be 84 3b b6 53 f9 ba
       0.020908926 -0.0057842643 0.0040509766 -0.001902214
0000a0 23 70 29 3d 42 c4 f8 ba d8 2c 81 bc c1 42 ed bb
       0.041366708 -0.0018979388 -0.015768453 -0.0072406237
0000b0 24 75 7f 3c ab a9 52 3c de 7d c2 3c 6c 58 90 b8
       0.015591893 0.012857835 0.023741659 -6.882925e-05
0000c0 1c d9 3b ba 9b cf 33 bd 03 93 25 3d 6c 52 07 3d
       -0.00071658357 -0.04389916 0.040423404 0.033037588
0000d0 6f d5 85 b8 b9 3f 42 bd d3 87 06 bb 68 d7 5b 3a
       -6.381689e-05 -0.047424052 -0.0020527735 0.0008386285
0000e0 a3 c8 bf 3d eb fd 8c bd eb 94 c9 3a 25 3b 37 3d
       0.0936444 -0.068843685 0.0015379464 0.04473414
0000f0 2e 1d ff 3a 1d 35 80 3c 29 b5 1f 3d 50 3b 3d bb
       0.0019463652 0.015650326 0.038991127 -0.0028874464
000100 9b 73 b7 3b 35 c4 48 3c 6d 29 22 3b ad 83 3a bc
       0.005598498 0.012253811 0.002474393 -0.011383933
000110 15 40 18 3c 43 fc 9e 3c 9e 85 fa 3c 37 8d e2 ba
       0.009292622 0.019407397 0.030581292 -0.0017284517
000120 09 ff 6a 3a 87 4e 14 3d 43 5a a7 ba 38 a9 8b 3a
       0.0008964395 0.036207702 -0.0012767989 0.001065529
000130 ae 2e e7 3b e9 18 50 bb 25 f0 38 bb 89 9f 34 3c
       0.007055125 -0.003175313 -0.002821931 0.011024364
000140 ba 2f 14 3c 5a 90 b6 3b 3d b7 74 39 2f 3c 27 3d
       0.009044582 0.0055714073 0.00023337915 0.04082888
000150 44 08 4e 3d fc 3b df bc ed ae 63 3b 48 58 43 bb
       0.05030085 -0.027250282 0.0034741715 -0.0029807258
000160 dc ca 64 3b ee 71 38 bb 3b 09 fc 3b 3e 73 eb bc
       0.0034910953 -0.002814408 0.00769153 -0.028741475
000170 61 63 33 bd 47 b1 19 3d 53 d9 bb 3b dd ad 25 3c
       -0.043795947 0.03752258 0.005732694 0.010112253
000180 2a 62 4f 3c fe 9b 5d 3c c4 d1 1c 3d 58 6b 8e bb
       0.0126576815 0.013525961 0.038285986 -0.0043462925
000190 22 96 e1 bb ae 52 9b bc 04 a4 9a ba b6 a9 0f 3d
       -0.0068843523 -0.018960323 -0.0011798148 0.03507396
0001a0 5e d6 45 3c 12 a4 0a ba 35 f6 45 bc b1 5a 16 3c
       0.012075035 -0.00052887306 -0.012082626 0.009176896
0001b0 5e b8 d6 ba 0b 12 db 3c 7e 3a dc bb 14 7b 15 3a
       -0.001638185 0.026742002 -0.00672084 0.0005702239
0001c0 0e 95 62 bd ca 5c de 3c 5e 58 cb ba a9 6f b7 bc
       -0.05531793 0.027143855 -0.0015514006 -0.02239211
0001d0 c7 8e 9b 3b 40 41 9a 3c a4 4e 0f bb da 0a 82 3b
       0.004747245 0.018829942 -0.0021866942 0.0039685788
0001e0 77 99 dd 3c 4e 13 70 3c 10 61 69 3b cb 57 f4 bc
       0.027050717 0.01465304 0.0035610832 -0.02982702
0001f0 38 2a ea bb 97 48 23 3b 24 77 63 bb 80 ea 7c bb
       -0.007146146 0.0024915093 -0.0034708465 -0.0038591921
000200 86 83 94 3d 81 82 17 bc 32 fd 23 bc 96 70 39 3c
       0.072516486 -0.009247423 -0.010009097 0.0113183465
000210 23 09 aa bb 8f b0 26 bc 8a 6e 9d bd 80 76 99 ba
       -0.0051890775 -0.010173931 -0.07687099 -0.0011708289
000220 f9 02 db 3a f1 89 59 3c 3b 7b 41 bc c0 a5 e9 3c
       0.001670926 0.013277517 -0.011809166 0.028521419
000230 64 1d a8 bb 4f 9f 93 3b c0 79 66 3a 56 82 d6 3a
       -0.0051304568 0.004505075 0.0008791946 0.0016365747
000240 12 5f 37 3d c5 92 b9 bc fd 3c 2a 3c 81 f7 30 3c
       0.0447684 -0.022652993 0.010390517 0.010801197
000250 64 b0 b5 bc bb 05 b8 3b c2 b8 05 3b 98 11 3c 3c
       -0.022178836 0.0056159175 0.0020404314 0.011478804
000260 49 8f 32 3a 85 94 1e bc 16 ef 82 3c d1 5b 16 bc
       0.0006811512 -0.0096789645 0.015983146 -0.009177164
000270 04 aa db 3b c1 b0 83 bd 1c b1 a4 bc a3 05 81 bb
       0.006703617 -0.064301975 -0.020103984 -0.0039374395
000280 39 b7 e5 3a 41 34 1f 3b 81 09 90 bb ad b9 19 bb
       0.0017525918 0.002429262 -0.004395664 -0.0023456619
000290 84 df a1 bb 83 5a 5e 3c be 80 39 3b dc 3d 01 3c
       -0.004939975 0.013571384 0.0028305496 0.007888284
0002a0 ec f4 77 bd ed d0 31 3d 3c cb 42 bd 09 3c 21 bc
       -0.06053631 0.043412138 -0.0475571 -0.009840974
0002b0 65 89 24 3d c2 cc ca 3c 29 5b 05 3b 7a e1 31 3c
       0.040170092 0.02475584 0.0020348525 0.01085698
0002c0 e0 02 d3 3a aa 93 3d 3d 12 24 6d bd 8a a5 06 bd
       0.0016098879 0.0462834 -0.057895727 -0.032872714
0002d0 6e 3a fc ba d2 99 5c 3c 32 81 4a bc 73 fa 85 3a
       -0.0019243488 0.013464408 -0.012359904 0.0010221734
0002e0 77 e7 5b bd df 4c 43 3d 88 16 2d bc 33 d8 e2 bc
       -0.05368754 0.047680732 -0.010564454 -0.027690982
0002f0 64 06 8c bb cb da 50 bd d3 2b f2 bc 30 b2 cc bb
       -0.0042732228 -0.050989907 -0.029561913 -0.0062468275
000300 99 f7 94 bc 0d 67 41 bb 39 37 37 bb e2 58 02 bb
       -0.01818447 -0.0029510886 -0.00279565 -0.0019889404
000310 2c 35 04 bd 3e 94 2c bc 39 b5 c4 bc 80 4a ae bb
       -0.03227727 -0.010533391 -0.024012195 -0.0053189397
000320 29 20 ab 39 a4 2e 4b bd 57 9e 9a 3a a3 df af 3b
       0.00032639623 -0.049605027 0.0011796457 0.0053672357
000330 6e 28 21 ba ee 19 82 bb e3 15 ef 3b b2 78 62 bc
       -0.0006147687 -0.003970376 0.0072963103 -0.013822721
000340 f2 81 bc bc 87 10 12 bc be bb 97 3a e0 23 88 bc
       -0.023011182 -0.008915073 0.0011576337 -0.016618669
000350 30 d1 32 bd 2c 3d bd 3c 2c 11 d9 3c 5c 4c 64 bb
       -0.043656528 0.023100458 0.026497446 -0.0034835553
000360 17 0f 51 3c e2 f8 cf 3a 07 13 69 bb e5 bf b3 3c
       0.012759945 0.001586702 -0.003556432 0.021942088
000370 0a 02 11 3d 75 d1 1a 3b f8 6a cc bb 70 04 29 bb
       0.035402335 0.0023623381 -0.0062383376 -0.0025789998
000380 eb 57 1a bd 7b 38 42 bd b5 d0 73 3c e9 3c 17 3c
       -0.0376815 -0.047417145 0.014881303 0.009230831
000390 89 ce b3 bc 10 fc d2 3c a0 49 51 bc 40 72 be bc
       -0.02194907 0.025754958 -0.012773901 -0.023247838
0003a0 a6 4e 47 bc 4f 2c f1 bb 7c 7c 2a 3c ac cc be bc
       -0.012164747 -0.0073600183 0.010405656 -0.023290955
0003b0 3e 59 81 3b c9 7d de bc 4f b8 07 bc 30 2c 8b bc
       0.003947406 -0.027159588 -0.008283689 -0.016988844
0003c0 4d de 55 3d 01 18 e5 3b d1 86 f5 3c 51 a0 07 3c
       0.052213956 0.006991387 0.029971512 0.0082779685
0003d0 33 02 60 bc 70 64 39 bd 8c c9 4e bc 15 7f 19 bd
       -0.013672399 -0.0452618 -0.012621295 -0.03747471
0003e0 6d 42 68 bc 14 15 8a 3b 0a e2 39 3c 68 40 d6 3c
       -0.014175993 0.0042139385 0.011345396 0.026153758
0003f0 83 55 a7 3b fa d9 47 3c f8 37 ae bb 46 cf 05 3a
       0.0051066293 0.012197966 -0.0053167306 0.00051044335

action_model._continuous_distribution.mu.bias f4 [2]
000000 4d ba 86 3b ec bf de 3c
       0.0041115643 0.027191125
