results/BestRunDemo/Boss/Boss-999940.pt (torch, 445345 bytes, 36 tensors)

network_body._body_endoder.seq_layers.0.weight f4 [128, 7]
0.25799024 0.3254396 -0.78877676 0.15000167 -0.0882529 -0.17160217 -1.1311587 0.1651537
-0.109206796 -0.4721992 -0.20617966 -0.45589048 -0.009964159 0.060092762 0.28797865 0.23284452
0.21454528 0.018409789 0.12272203 0.109868556 0.15009838 0.5571977 -0.010517235 0.050133355
-0.36692122 0.35453352 -0.08044335 -0.11894684 0.30695406 -0.074147165 0.16637145 1.1347324
-0.91877574 0.35920668 -0.1926286 0.06350548 0.0341136 0.16476828 0.54566336 0.016402502
0.11295538 0.33891818 0.3456809 0.014771887 -0.59203666 -0.039087173 0.16307501 -0.65195566
-0.41818023 0.22838965 -0.33509505 -0.23143904 -0.019083442 0.34413692 -0.13490076 0.45327985
-0.34615538 0.31048596 0.11595224 0.07726459 0.2531157 -1.0380589 0.106363006 0.12258534
-0.6825081 0.08244375 -0.24217425 -0.094890065 0.063629754 -0.24191178 0.022866497 -0.12734678
0.23516278 -0.09706845 -0.12782262 0.16712455 -0.36316815 -0.38004103 0.1493989 -0.4522758
0.02941346 0.27692297 -0.16033627 -0.22378966 -0.23084071 -0.20625605 0.43842724 0.3971569
0.32658592 0.36454257 -1.359852 0.38716277 -0.33667967 0.77205914 -0.07020759 -0.004320835
0.5294192 -0.24256746 0.5042021 -0.6727172 -0.6790446 -0.36947843 -0.32438272 -0.079986244
-0.12383889 0.36609524 -0.083480395 -0.36978805 0.15666553 -0.17631292 0.36153793 0.15108246
0.25695303 -0.6237361 0.1452577 0.2151959 0.080634736 -0.37991646 -0.3986148 0.18914032
-0.32997587 0.27201498 0.4420865 -0.04160657 0.6354223 0.33769357 0.15634686 0.6417754
-0.014012627 0.025578767 -0.25543872 -0.25524405 -0.18656352 0.013475023 -0.11231121 -0.29725465
-0.034247097 0.17619726 -0.043810874 0.13239859 0.36627632 0.16613191 0.718948 -0.26944578
0.513347 -0.12737708 -0.29710138 -0.12678169 0.059418395 0.40138552 0.12103695 -0.25894123
-0.3971154 0.21249282 -0.25281057 0.7174338 -0.07484222 -0.44563767 -0.4383943 0.23148838
-0.23782408 0.5355532 -0.1945437 -0.16050275 -0.3193117 -0.19092692 -0.3473496 -0.30033606
0.4358171 -0.10174014 -0.274015 0.08852066 -0.4751565 -0.052465793 0.16142577 0.31091177
0.6500985 0.13822664 -0.3640427 -0.2641804 0.5715427 0.22471422 -0.10841704 0.3207793
-0.475055 0.76548576 0.6021973 -0.13256635 -0.61421317 0.38026705 0.000950416 -0.4746773
-0.5634859 0.30986014 -0.47458163 0.27082947 0.15469845 0.5895623 0.25111142 -0.2774344
0.29059237 0.32135808 -0.29705626 0.040488914 -0.7081385 0.20204224 -0.6130277 0.38428783
-0.0020131187 0.7454099 0.22715178 0.087223746 0.5486022 -0.50608134 -0.16521266 -0.28366986
-0.3093049 -0.2419445 1.3685443 0.3818877 -0.11138136 0.4158244 0.39382085 0.6113897
-0.2903301 0.3319095 0.6646502 0.08285777 -0.2926448 0.31076264 -0.51118404 -0.33417818
-0.02979241 -0.123054504 0.27220428 -0.76948255 0.30011737 0.025994962 0.13084431 -0.28347176
-0.7501535 0.68110687 -0.33773258 0.5687025 0.26580203 -0.83231777 0.005176797 -0.5085185
-0.4661789 -0.04063106 0.37523845 -0.08335667 -0.68309283 0.31602237 0.49724755 0.085650586
00000000: 4c17 843e 05a0 a63e 46ed 49bf 0a9a 193e
00000010: f0bd b4bd 7bb8 2fbe cfc9 90bf 0d1e 293e
00000020: d0a7 dfbd 18c4 f1be c320 53be 7a6a e9be
00000030: b640 23bc d423 763d f071 933e cb6e 6e3e
00000040: c2b1 5b3e 20d0 963c b055 fb3d c402 e13d
00000050: 64b3 193e 82a4 0e3f 7b50 2cbc a258 4d3d
00000060: 19dd bbbe 6b85 b53e 7cbf a4bd 679a f3bd
00000070: 1529 9d3e 78da 97bd 475d 2a3e e93e 913f
00000080: e334 6bbf f0e9 b73e 6f40 45be 290f 823d
00000090: b4ba 0b3d 04b9 283e 98b0 0b3f 8a5e 863c
000000a0: 2655 e73d af86 ad3e 16fd b03e c905 723c
000000b0: b78f 17bf df19 20bd 23fd 263e 91e6 26bf
000000c0: b81b d6be fade 693e 9491 abbe 5bfe 6cbe
000000d0: e154 9cbc b732 b03e 6d23 0abe 4c14 e83e
000000e0: 473b b1be 04f8 9e3e 5e78 ed3d e63c 9e3d
000000f0: 6298 813e 1ddf 84bf d9d4 d93d 060e fb3d
00000100: dab8 2ebf 45d8 a83d 87fc 77be b955 c2bd
00000110: 5150 823d b9b7 77be 8552 bb3c 3267 02be
00000120: 83ce 703e d3cb c6bd efe3 02be b322 2b3e
00000130: 2df1 b9be bd94 c2be 06fc 183e b290 e7be
00000140: 7ff4 f03c d9c8 8d3e 312f 24be 1e29 65be
00000150: 8261 6cbe c934 53be 8979 e03e 2658 cb3e
00000160: 4536 a73e 53a5 ba3e a10f aebf 333a c63e
00000170: 4761 acbe aba5 453f ffc8 8fbd cb95 8dbb
00000180: 0488 073f 9b63 78be 6413 013f 3237 2cbf
00000190: ded5 2dbf 472c bdbe 7e15 a6be d4cf a3bd
000001a0: 3e9f fdbd d670 bb3e c5f7 aabd dc54 bdbe
000001b0: ee6c 203e 608b 34be 801b b93e 5cb5 1a3e
000001c0: 598f 833e 2bad 1fbf 6fbe 143e 505c 5c3e
000001d0: d323 a53d 6984 c2be 3d17 ccbe 00ae 413e
000001e0: 99f2 a8be 8c45 8b3e 2959 e23e a76b 2abd
000001f0: 09ab 223f 2ce6 ac3e 6419 203e 654b 243f
00000200: 3895 65bc 908a d13c ddc8 82be 59af 82be
00000210: 820a 3fbe 58c6 5c3c 6b03 e6bd c331 98be
00000220: af46 0cbd 0e6d 343e 0873 33bd 7f93 073e
00000230: 9288 bb3e 7c1e 2a3e fa0c 383f ccf4 89be
00000240: b66a 033f 236f 02be ac1d 98be 0fd3 01be
00000250: b460 733d 6782 cd3e 38e2 f73d f293 84be
00000260: b652 cbbe b897 593e 6370 81be bea9 373f
00000270: e146 99bd 9f2a e4be 3875 e0be 4a0b 6d3e
00000280: 2888 73be 041a 093f 7736 47be d55a 24be
00000290: d37c a3be 5982 43be cfd7 b1be a6c5 99be
000002a0: 6b23 df3e 225d d0bd b24b 8cbe 524a b53d
000002b0: b647 f3be 5fe6 56bd cc4c 253e d42f 9f3e
000002c0: db6c 263f 498b 0d3e ce63 babe a742 87be
000002d0: 9f50 123f 7c1b 663e c109 debd 2f3d a43e
000002e0: 693a f3be e0f6 433f 9a29 1a3f 79bf 07be
000002f0: 133d 1dbf 5db2 c23e 5725 793a e708 f3be
00000300: 9d40 10bf fda5 9e3e 5dfc f2be 29aa 8a3e
00000310: 4569 1e3e 8eed 163f ad91 803e e20b 8ebe
00000320: 86c8 943e 0c89 a43e c217 98be b4d7 253d
00000330: 9148 35bf 29e4 4e3e 62ef 1cbf 60c1 c43e
00000340: 87ee 03bb 2fd3 3e3f 7a9a 683e 5da2 b23d
00000350: 3271 0c3f 8c8e 01bf 822d 29be 2d3d 91be
00000360: 365d 9ebe 4dc0 77be 762c af3f c986 c33e
00000370: e91b e4bd f0e6 d43e e3a2 c93e 0984 1c3f
00000380: 26a6 94be 0bf0 a93e 8426 2a3f 56b1 a93d
00000390: 8ad5 95be 481c 9f3e f5dc 02bf 6719 abbe
000003a0: 360f f4bc 0004 fcbd 5c5e 8b3e cffc 44bf
000003b0: fca8 993e 63f3 d43c 0dfc 053e 3623 91be
000003c0: 0f0a 40bf 055d 2e3f 49eb acbe 7d96 113f
000003d0: 3417 883e c712 55bf 1fa2 a93b 452e 02bf
000003e0: 00af eebe c16c 26bd 411f c03e e7b6 aabd
000003f0: 2cdf 2ebf afcd a13e 3b97 fe3e 9369 af3d

network_body._body_endoder.seq_layers.0.bias f4 [128]
0.07723969 0.0033251268 -0.007593884 -0.0047051506 -0.008827306 -0.0027600604 -0.008701588 0.021037333
-0.016265495 -0.0022110487 -0.015239192 -0.0053790957 -0.047969956 -0.013460859 -0.0064690607 -0.014446675
-0.007700373 0.0008321676 4.149101e-05 0.0041391333 0.0011418826 -0.023327623 -0.014760671 -0.0005677809
-0.008578091 -0.004793956 0.01112826 -0.0042392993 -0.0014894753 0.012476372 -0.0011828006 -0.04808824
0.0524724 0.0016591457 0.011771795 -0.008821995 0.0024749078 0.0029565897 -0.0036895475 -0.00264308
0.011772838 -0.00913149 -0.004981823 -0.0012198746 0.0011603208 -0.011727128 -0.015002244 0.0024848827
0.0050188736 0.0022147754 -0.002551127 -0.0033042573 0.0033801622 0.00017897434 0.009883531 -0.015100006
-0.0039311647 -0.009494087 -0.0019074836 0.011279042 -0.0077690566 0.0067036985 0.0137784965 -0.00034816586
0.009625718 0.017904576 -0.016458074 -0.011185444 -0.024092548 -0.0061564296 -0.0024347284 0.0057798824
0.01599101 -0.015592048 -0.027669195 0.035301577 0.002732546 0.01324012 0.010347343 -0.015590441
0.014169666 0.020204626 -0.015051095 -0.0028688188 -0.02499336 -0.003865635 -0.0427601 -0.00924302
-0.0037973768 0.029184027 0.0027859714 -0.0029560886 -0.017971767 0.0070693307 -0.02644401 0.00558984
-0.017124299 -0.029995995 0.061343886 -0.0095914425 -0.0058887955 -0.006001598 0.041200187 -0.012517691
0.0059374915 -0.02057314 -0.00097242766 0.0007819155 0.007368733 -0.0054926425 -0.016095232 -0.004382333
0.0010411738 -0.015605451 -0.014712228 0.00056897127 -0.02929571 0.0051995683 0.0004969723 -0.016142998
0.003428684 -0.0046594907 0.010603315 -0.0008492007 -0.016429288 -0.004668123 -0.013801915 -0.0014313858
00000000: d82f 9e3d 5fea 593b 1ed6 f8bb aa2d 9abb
00000010: 68a0 10bc 21e2 34bb 1b91 0ebc 7c56 ac3c
00000020: 373f 85bc 3ee7 10bb cead 79bc 2043 b0bb
00000030: 257c 44bd ef8a 5cbc 6afa d3bb bfb1 6cbc
00000040: 6953 fcbb d325 5a3a a206 2e38 91a1 873b
00000050: 39ab 953a 9219 bfbc bed6 71bc 22d7 14ba
00000060: 1f8b 0cbc 9e16 9dbb 4e53 363c d2e9 8abb
00000070: 7f3a c3ba b269 4c3c 3408 9bba 2df8 44bd
00000080: 4ded 563d b177 d93a 7dde 403c 218a 10bc
00000090: 1032 223b 58c3 413b 56cc 71bb 8637 2dbb
000000a0: dde2 403c 3f9c 15bc 8f3e a3bb 33e4 9fba
000000b0: e815 983a 2423 40bc f9cb 75bc 6ad9 223b
000000c0: 5d75 a43b c425 113b cf30 27bb 3d8c 58bb
000000d0: b685 5d3b 0fab 3b39 89ee 213c 0466 77bc
000000e0: 00d1 80bb 168d 1bbc 8704 faba bbcb 383c
000000f0: 9293 febb b3aa db3b 34bf 613c 088a b6b9
00000100: 30b5 1d3c 9eac 923c 15d3 86bc 2743 37bc
00000110: bc5d c5bc e0bb c9bb f78f 1fbb 2b65 bd3b
00000120: 94ff 823c ca75 7fbc 82aa e2bc 6398 103d
00000130: 8414 333b 17ed 583c e787 293c 0d6f 7fbc
00000140: e327 683c 2c84 a53c de98 76bc cb02 3cbb
00000150: e0be ccbc 9856 7dbb 3725 2fbd 0970 17bc
00000160: 69dd 78bb 5713 ef3c d894 363b f0ba 41bb
00000170: 8739 93bc d8a5 e73b 1ca1 d8bc fa2a b73b
00000180: 4248 8cbc 29ba f5bc ba43 7b3d 6d25 1dbc
00000190: ccf6 c0bb 0ea9 c4bb 87c1 283d 0017 4dbc
000001a0: 4a8f c23b 0089 a8bc 84ea 7eba 76f9 4c3a
000001b0: 6a75 f13b a0fb b3bb 26da 83bc ac99 8fbb
000001c0: ff77 883a 01ae 7fbc 8f0b 71bc 0427 153a
000001d0: 8ffd efbc 2461 aa3b 3f47 023a 523e 84bc
000001e0: c6b3 603b a4ae 98bb 87b9 2d3c e59c 5eba
000001f0: b796 86bc 0ef7 98bb 6d21 62bc 569d bbba

network_body._body_endoder.seq_layers.2.weight f4 [128, 128]
-0.013077901 -0.009926666 -0.04188899 0.015020789 -0.07444583 0.14056264 -0.029563308 0.019996127
-0.06827826 0.017867612 0.06697093 -0.14311795 -0.018003708 -0.059200518 0.18248403 -0.17551576
-0.07111049 0.02812359 -0.12850778 0.024474088 0.02133471 0.02436407 0.06901352 0.06701689
0.024906905 0.03466816 -0.1506651 0.07584639 -0.01909069 0.050100435 -0.048812397 -0.10811874
0.0056076245 -0.006584353 -0.07675582 0.080948114 -0.18242827 0.011886631 -0.059411872 -0.08334557
0.01846682 -0.115026385 0.04560183 0.09835698 0.053451195 -0.085626155 -0.1134206 0.1294219
-0.0708019 -0.044709798 0.08336019 0.095833 -0.06914942 -0.02344417 -0.07382922 -0.12924549
0.12147629 0.06413989 -0.06005102 0.020637847 -0.04134123 0.0012102381 0.061033834 0.09698583
0.059898596 0.01228367 0.20346557 -0.07749984 -0.011941203 -0.14302768 0.049360227 -0.06569285
0.041769933 -0.035428338 -0.0029322118 0.19244231 0.16905509 0.078401744 0.10299071 -0.045869645
-0.097862184 0.07234016 -0.04770023 0.0042637563 0.042530034 -0.0031393664 -0.036978867 0.031239646
0.2367568 0.057370257 -0.009439222 -0.014706737 -0.11687582 -0.05714745 -0.047580965 0.08364687
-0.0047352808 0.08765416 0.022995388 0.04937978 -0.09157029 -0.011113305 -0.06507765 -0.010738688
0.043505076 0.0227918 0.18137671 -0.047685076 0.0048047947 -0.058660373 -0.10244591 -0.052174892
0.18041 0.08387026 0.028437883 -0.02068462 -0.00484449 0.2014904 0.062269248 0.03086847
-0.017354501 0.013483362 0.063300416 0.14657211 0.0024744144 0.0038845802 0.03427627 0.101772204
0.00505395 -0.07137355 0.0024112745 -0.04725885 0.014479853 -0.08719701 0.112455375 -0.16811694
-0.1015995 0.09267516 -0.16041373 -0.00023031022 0.0059046927 0.024475224 0.06964517 0.021725746
0.10988983 -0.016136412 0.1035493 0.10479632 -0.26988706 0.10979338 0.09755991 0.0049536317
0.07481788 0.14832269 0.077391215 -0.04381925 0.08205963 -0.03714032 -0.04869221 -0.11391512
-0.04563702 0.090035476 -0.0022186385 -0.041392133 -0.00487023 -0.08618886 0.037498757 -0.09016361
-0.14961734 -0.07754305 -0.011980772 0.053254146 -0.13914171 0.054610163 -0.104951076 -0.06958929
0.20316151 -0.01735004 0.03509921 0.1878069 -0.12894881 0.02089316 0.004814641 0.22770394
-0.096218266 -0.030625414 0.07888553 0.0052884966 0.05069169 0.20848371 0.09643577 0.13761444
-0.12426913 -0.09677949 0.15929423 -0.015223738 0.013168806 0.16600923 0.011174032 -0.10102106
-0.0037311888 0.14113505 0.07778325 -0.053545572 -0.12229558 0.12637304 0.05169461 0.11437898
-0.018249497 -0.060015157 0.04115241 -0.018995201 0.05426546 0.18271586 0.075967014 0.036751006
-0.046934266 0.0016532636 -0.054175574 -0.13305365 0.02332725 -0.07015616 0.069487125 -0.13424711
-0.08866554 0.049496718 -0.08702789 0.03579377 0.061133478 0.15394619 -0.10097603 -0.012296096
0.13533327 0.006126515 -0.10853966 -0.067426085 -0.032547295 0.0431763 0.052301526 -0.030871173
0.055942688 0.058636997 -0.04166763 0.13030915 0.06336684 -0.11246075 -0.0646804 0.01868748
-0.037591185 -0.016867869 -0.052854326 -0.16510658 0.020967232 0.09848955 -0.013517847 0.10462404
00000000: b144 56bc 74a3 22bc ca93 2bbd c119 763c
00000010: 0e77 98bd a7ef 0f3e c02e f2bc ebce a33c
00000020: 79d5 8bbd 195f 923c 0e28 893d 838d 12be
00000030: 837c 93bc 3e7c 72bd 18dd 3a3e 67ba 33be
00000040: 60a2 91bd 7163 e63c 8b97 03be e27d c83c
00000050: 21c6 ae3c 2897 c73c f656 8d3d 2740 893d
00000060: 9109 cc3c 3300 0e3d f447 1abe 5a55 9b3d
00000070: 1464 9cbc 1d36 4d3d 82ef 47bd 5c6d ddbd
00000080: 2ac0 b73b 8ec1 d7bb 2832 9dbd 20c8 a53d
00000090: 7ace 3abe 25c0 423c dd59 73bd 15b1 aabd
000000a0: ba47 973c f492 ebbd fcc8 3a3d 626f c93d
000000b0: a4ef 5a3d c45c afbd 0f49 e8bd 2d87 043e
000000c0: 9600 91bd 9f21 37bd bfb8 aa3d 1844 c43d
000000d0: 369e 8dbd fd0d c0bc c633 97bd ee58 04be
000000e0: 90c8 f83d c65b 833d 0ff8 75bd b410 a93c
000000f0: 6c55 29bd daa0 9e3a 9dfe 793d 82a0 c63d
00000100: 3b58 753d 7241 493c 4759 503e 3cb8 9ebd
00000110: 09a5 43bc d975 12be f32d 4a3d f989 86bd
00000120: f316 2b3d 4e1d 11bd 5a2a 40bb 990f 453e
00000130: c71c 2d3e 1891 a03d cbec d23d cfe1 3bbd
00000140: f86b c8bd 1427 943d 5161 43bd fbb6 8b3b
00000150: f933 2e3d d4bd 4dbb 2777 17bd 49ea ff3c
00000160: 6070 723e 13fd 6a3d f7a6 1abc 87f4 70bc
00000170: 975c efbd 7213 6abd 42e4 42bd 0d4f ab3d
00000180: 6a2a 9bbb 0684 b33d d360 bc3c 7442 4a3d
00000190: 3489 bbbd 9414 36bc 6e47 85bd 52f1 2fbc
000001a0: 6132 323d deb5 ba3c d1ba 393e 6d51 43bd
000001b0: 8a71 9d3b dc45 70bd 29cf d1bd 57b5 55bd
000001c0: 66bd 383e 2cc4 ab3d 90f6 e83c cb72 a9bc
000001d0: 87be 9ebb 8053 4e3e 0a0e 7f3d e0df fc3c
000001e0: 072b 8ebc 52e9 5c3c a6a3 813d 0017 163e
000001f0: c929 223b 7194 7e3b 4665 0c3d f26d d03d
00000200: 9b9b a53b 4c2c 92bd 7906 1e3b 7f92 41bd
00000210: e83c 6d3c 5994 b2bd 014f e63d d926 2cbe
00000220: 6613 d0bd 79cc bd3d 7f43 24be 6e7f 71b9
00000230: 277c c13b 4480 c83c 20a2 8e3d 31fa b13c
00000240: eb0d e13d 8230 84bc a811 d43d 749f d63d
00000250: a32e 8abe 5adb e03d 7dcd c73d 1352 a23b
00000260: 1e3a 993d e7e1 173e 497f 9e3d d07b 33bd
00000270: e10e a83d 7320 18bd 7c71 47bd 554c e9bd
00000280: e2ed 3abd 8564 b83d 9466 11bb cc8a 29bd
00000290: 7396 9fbb c983 b0bd 4c98 193d b3a7 b8bd
000002a0: 4a35 19be e4ce 9ebd 004b 44bc 0521 5a3d
000002b0: 2a7b 0ebe e8ae 5f3d 97f0 d6bd d484 8ebd
000002c0: 9209 503e ac21 8ebc 30c4 0f3d 7450 403e
000002d0: 280b 04be 2228 ab3c 23c4 9d3b 392b 693e
000002e0: 150e c5bd 26e2 fabc bd8e a13d 204b ad3b
000002f0: 17a2 4f3d c17c 553e 1e80 c53d cdea 0c3e
00000300: d080 febd 5334 c6bd 071e 233e fc6c 79bc
00000310: fac1 573c 53fe 293e 4a13 373c 21e4 cebd
00000320: f686 74bb b585 103e d34c 9f3d 9a52 5bbd
00000330: 1b76 fabd ef67 013e babd 533d 873f ea3d
00000340: f87f 95bc 74d2 75bd 6e8f 283d d39b 9bbc
00000350: 7645 5e3d de19 3b3e 9894 9b3d 3988 163d
00000360: 253e 40bd 52b2 d83a 35e7 5dbd 373f 08be
00000370: ca18 bf3c 08ae 8fbd 444f 8e3d 1378 09be
00000380: 4796 b5bd 12bd 4a3d ae3b b2bd 7d9c 123d
00000390: 1967 7a3d 12a4 1d3e 85cc cebd 9175 49bc
000003a0: ce94 0a3e efc0 c83b 0b4a debd b016 8abd
000003b0: 5050 05bd a2d9 303d 203a 563d 8be5 fcbc
000003c0: 2924 653d 592d 703d adab 2abd c36f 053e
000003d0: 79c6 813d d251 e6bd 2877 84bd 7c16 993c
000003e0: 37f9 19bd 7c2e 8abc c77d 58bd b311 29be
000003f0: 79c3 ab3c e4b4 c93d f679 5dbc 2145 d63d

network_body._body_endoder.seq_layers.2.bias f4 [128]
-0.0039650835 -0.00066687196 -0.008947768 -0.004760796 -0.0083481 0.003870409 -0.0013006942 -0.013523914
-0.010216486 -0.0028467625 0.0025924486 -0.0110085355 0.01002925 0.005770099 -0.009285055 -0.004818807
-0.015531006 0.0052842707 -0.010155213 -0.011602403 -0.010930829 -0.013434978 -0.0075787045 0.002745661
0.021194749 -0.006755316 -0.009768443 0.0058230357 -0.007596506 0.0007220677 0.0012663489 0.0133381095
-0.012686688 0.004592139 -0.004322757 -0.008547728 -1.5501791e-05 -0.012182977 -0.0069187395 -0.0051263417
-0.0010485904 -0.010345602 0.0032315562 0.017530056 -0.014732617 -0.008193098 -0.0032629159 0.0018121896
-0.0046978937 0.0018393486 -0.008723419 -0.0058140927 0.0009907399 -0.0035535519 -0.015606658 -0.0033713412
0.002422965 -0.008626596 -0.0068515944 -0.016740019 -0.0080089765 0.00051403296 -0.0014445444 -0.007179398
-0.0091908155 0.003975125 0.0043546855 0.0039641433 -0.004074884 0.009836221 -0.0033430406 0.002973424
0.005199127 -0.0033061376 -0.008345192 -0.004134842 0.005689499 -0.008835216 0.0061897878 0.00070088275
-0.010844543 -0.011550197 -0.010426726 -0.0022652647 0.0031223344 0.0034270105 -0.018184124 -0.0005111331
-0.0016696966 -0.00013626945 -0.010586518 -0.0111246575 -0.007976678 -0.010440207 -0.011987186 -0.0010912332
-0.005627227 -0.0016600593 -0.0012405006 0.006110112 -0.005642174 -0.0082997875 -0.006875265 -0.0031386157
0.0028084454 0.0055765756 -0.009710887 -0.011246754 0.0021535472 -0.0006153525 0.002891943 0.007632561
0.016031431 0.0033500243 0.007809146 -0.008754872 0.012079249 -0.00087490526 0.005856644 0.0012652369
-0.005653047 -0.009341797 0.0020417643 -0.007974796 -0.016712734 -0.008652291 -0.0071958373 0.0063022505
00000000: 88ed 81bb 05d1 2eba a999 12bc 7400 9cbb
00000010: 78c6 08bc b0a6 7d3b 0e7c aaba 6893 5dbc
00000020: 0c63 27bc c090 3abb 12e6 293b 255d 34bc
00000030: b951 243c 1913 bd3b 5820 18bc 15e7 9dbb
00000040: c375 7ebc ad27 ad3b 0d62 26bc 0118 3ebc
00000050: 3817 33bc 621e 5cbc c856 f8bb 8cf0 333b
00000060: 9ca0 ad3c b35b ddbb d20b 20bc 2acf be3b
00000070: 1cec f8bb 2549 3d3a 9efb a53a 1688 5a3c
00000080: d4db 4fbc a779 963b eaa5 8dbb c50b 0cbc
00000090: d809 82b7 1c9b 47bc 98b6 e2bb dffa a7bb
000000a0: db70 89ba 9a80 29bc 84c8 533b 319b 8f3c
000000b0: 1361 71bc 583c 06bc a5d6 55bb fe86 ed3a
000000c0: caf0 99bb 4c16 f13a acec 0ebc 2584 bebb
000000d0: b7db 813a b5e2 68bb 11b3 7fbc b8f1 5cbb
000000e0: 9bca 1e3b 9156 0dbc 5783 e0bb 5d22 89bc
000000f0: 1538 03bc 2bc0 063a de56 bdba 2841 ebbb
00000100: 1395 16bc c441 823b c0b1 8e3b a5e5 813b
00000110: 9b86 85bb 1a28 213c ea16 5bbb c7dd 423b
00000120: 705d aa3b c9ab 58bb 46ba 08bc 927d 87bb
00000130: fa6e ba3b 95c1 10bc b4d3 ca3b 72bb 373a
00000140: 4fad 31bc 0a3d 3dbc dcd4 2abc d674 14bb
00000150: 14a0 4c3b b297 603b dff6 94bc 90fd 05ba
00000160: b9d9 daba 8de3 0eb9 1373 2dbc 3244 36bc
00000170: 9db0 02bc 670d 2bbc e765 44bc b607 8fba
00000180: 9a64 b8bb 5996 d9ba 4b98 a2ba 5637 c83b
00000190: fce1 b8bb d5fb 07bc e749 e1bb 3cb1 4dbb
000001a0: e50d 383b b5bb b63b 6a1a 1fbc 4e44 38bc
000001b0: 8722 0d3b 9b4f 21ba c186 3d3b 901a fa3b
000001c0: 5954 833c 158c 5b3b dde3 ff3b 9870 0fbc
000001d0: 0be8 453c e659 65ba 17e9 bf3b 4ed6 a53a
000001e0: 323d b9bb 560e 19bc 1fcf 053b b8a8 02bc
000001f0: 25e9 88bc 57c2 0dbc 0fcb ebbb 1c83 ce3b

action_model._continuous_distribution.log_sigma f4 [1, 2]
-0.10360472 -0.2796486
00000000: b62e d4bd 1a2e 8fbe

action_model._continuous_distribution.mu.weight f4 [2, 128]
0.00015555084 0.050162993 0.027392104 0.04269444 0.01603007 -0.037635475 -0.017641835 0.0002683117
-0.0020967873 0.042027194 0.020183066 0.010610689 -0.04949979 0.024397805 -0.0008054064 -0.007852086
0.008051816 -0.031065471 -0.008819108 0.019095564 -0.019818557 0.0014278655 -0.012885647 0.01923999
-0.037598632 -0.020028096 -0.008991653 0.022548372 -0.006112768 0.035406172 -0.013483581 -0.07757369
0.006380845 -0.022441847 0.010400202 0.028037298 -0.007352602 0.0013202603 0.021948475 -0.007175123
5.706315e-05 0.0062028402 -0.021274732 -0.026071934 -0.009725276 -0.0069752736 0.0028220902 -0.0117883105
0.010102697 -0.014090326 -0.005658861 -0.0020682733 -0.019502537 0.06288208 0.00078970747 -0.0035956446
-0.014899293 0.012431755 -0.0065639676 -0.00078196253 0.0034830372 0.035156403 -0.000718996 0.023660539
0.027019605 0.037047364 -0.028317431 0.055590786 0.035987865 0.055107895 -5.605558e-05 -0.027434532
-0.039489005 -0.0069513507 0.019819396 -0.009569501 0.033905488 0.00058896956 -0.036898367 0.053382073
-0.005170487 -0.005279945 0.011034854 -0.0003327679 -0.02103582 0.020953448 -0.0029064233 0.010691489
-0.0002556102 0.019223668 0.003989416 -0.0148497 -0.006166842 -0.009777937 -0.016283276 0.029385842
0.045426283 0.026838565 -0.012150707 0.044906985 -0.010942155 0.014440605 0.0070390226 0.0010220733
-0.0076726773 -0.029811649 -0.019426046 0.008161648 -0.015830457 0.026204156 0.024629455 -0.045088366
-0.03396091 0.033005606 -0.008388066 0.0116261495 -0.05047093 -0.016709168 -0.042600557 0.037312265
0.025565574 -0.00059340533 0.022497969 0.019872526 -0.00477595 -0.034400843 0.032968055 -0.037870355
-0.00066253985 -0.035272077 -0.004531233 -0.009026154 0.0057020523 -0.001997436 0.01531283 0.0010716378
0.010764608 -0.021978704 0.010140066 0.009792334 -0.024432437 0.010170043 0.0056482544 -0.0058372477
0.002357693 0.004600092 0.0061721033 -0.013175397 0.009816262 -0.006179155 0.0068152263 0.011222997
0.0039193006 0.014954516 0.0069461325 -0.004517278 0.008880166 0.0018695367 0.014484012 0.003843393
0.006937161 -0.020132726 0.020193735 -0.005239154 -0.041180328 -0.016900519 -0.008552809 -0.00027497706
-4.457028e-05 0.01066951 0.0030873676 0.0040665953 0.0082103815 0.0077260076 -0.036634278 -0.039482143
0.021259684 -0.023485677 0.007659289 -0.0006744267 -0.0062516825 0.012124406 0.007854271 0.0030167226
-0.028428333 0.024543364 0.017102823 0.002489962 -0.0074426136 0.014095304 -0.00016629933 0.0073935045
-0.020490393 -0.016007869 -0.021015221 -0.007844798 -0.0035253852 -0.0006866521 -0.00031056252 0.013743975
0.002597344 -0.0129633555 -0.012115461 0.013953193 -0.0018056665 0.0151410205 0.0141880065 -0.009619159
0.009077517 0.0023000566 0.0040497156 -7.801299e-05 -0.00896558 0.02295105 0.0031943968 0.0024183497
-0.00023912564 0.0070857313 0.011783398 0.017122598 0.012029339 -0.0119879255 -0.012147801 0.023666257
-0.017498218 -0.0071578184 -0.003736489 0.0004517966 -0.0019371936 -0.006198405 0.015411099 -0.011417776
-0.015387674 0.006220766 -0.0015739609 0.0022144872 -0.015350129 -0.010713956 0.017457744 -0.002620999
0.0035734007 -0.00064780004 -0.0015195333 -0.017604629 0.010885937 0.012818682 0.018062355 -0.0037621872
0.004967082 0.01307503 -0.003811291 -0.009863513 0.0009175945 -0.032508455 0.010556878 -0.027781012
00000000: 5c1b 2339 b677 4d3d 6865 e03c 5de0 2e3d
00000010: 7e51 833c a827 1abd 9c85 90bc 30ac 8c39
00000020: 416a 09bb b524 2c3d f556 a53c 75d8 2d3c
00000030: 4bc0 4abd e8dd c73c e921 53ba 09a6 00bc
00000040: c4eb 033c 047d febc 057e 10bc 4d6e 9c3c
00000050: 875a a2bc 3727 bb3a 521e 53bc 2f9d 9d3c
00000060: 0601 1abd f611 a4bc ba51 13bc 5db7 b83c
00000070: 9d4d c8bb 1006 113d 3dea 5cbc f4de 9ebd
00000080: 6816 d13b f7d7 b7bc 9c65 2a3c 7aae e53c
00000090: 19ee f0bb 960c ad3a 4acd b33c 4b1d ebbb
000000a0: 1757 6f38 3241 cb3b 5948 aebc cf94 d5bc
000000b0: c456 1fbc d690 e4bb d1f2 383b c223 41bc
000000c0: c885 253c 1cdb 66bc f76d b9bb de8b 07bb
000000d0: c9c3 9fbc 52c8 803d 5f04 4f3a e8a4 6bbb
000000e0: 2a1c 74bc 8fae 4b3c 8d16 d7bb 9efc 4cba
000000f0: ab43 643b 2900 103d 017b 3cba bfd3 c13c
00000100: 3858 dd3c fabe 173d f5f9 e7bc 2ab3 633d
00000110: 0368 133d d1b8 613d 391d 6bb8 62be e0bc
00000120: 39bf 21bd 28c8 e3bb 495c a23c 65c9 1cbc
00000130: 7be0 0a3d 1465 1a3a be22 17bd 29a7 5a3d
00000140: 306d a9bb 6403 adbb 88cb 343c 5a77 aeb9
00000150: 5053 acbc 91a6 ab3c b179 3ebb 5b2b 2f3c
00000160: 6c03 86b9 f47a 9d3c a6b9 823b 284c 73bc
00000170: 3813 cabb a433 20bc 8164 85bc 94ba f03c
00000180: e910 3a3d 8ddc db3c c213 47bc 63f0 373d
00000190: b946 33bc 4a98 6c3c 9aa7 e63b 17f7 853a
000001a0: 156b fbbb 8f37 f4bc 5f23 9fbc 6fb8 053c
000001b0: e0ae 81bc 19aa d63c b6c3 c93c 94ae 38bd
000001c0: 981a 0bbd e330 073d 196e 09bc 9b7b 3e3c
000001d0: 9bba 4ebd aae1 88bc ec7d 2ebd bfd4 183d
000001e0: e56e d13c c28e 1bba a94d b83c b5cb a23c
000001f0: 937f 9cbb e6e7 0cbd 8309 073d f21d 1bbd
00000200: 4cae 2dba 7479 10bd bd7a 94bb 6fe2 13bc
00000210: 48d8 ba3b 6ae7 02bb aae2 7a3c 3376 8c3a
00000220: 0a5e 303c af0c b4bc 8522 263c 0770 203c
00000230: 8926 c8bc 41a0 263c fe14 b93b 6246 bfbb
00000240: 8683 1a3b 5ebc 963b 5b3f ca3b 9fdd 57bc
00000250: 63d4 203c 827a cabb 4352 df3b a9e0 373c
00000260: 7a6d 803b c903 753c 629c e33b ad05 94bb
00000270: 1e7e 113c 3e0b f53a 594e 6d3c 6fe1 7b3b
00000280: 2051 e33b 63ed a4bc 556d a53c 36ad abbb
00000290: b4ac 28bd f572 8abc 1521 0cbc cc2a 90b9
000002a0: f9f0 3ab8 2bcf 2e3c 6f55 4a3b 1341 853b
000002b0: d684 063c 732a fd3b d30d 16bd 07b8 21bd
000002c0: ca28 ae3c 0965 c0bc c6fa fa3b 02cc 30ba
000002d0: eada ccbb 72a5 463c 33af 003c 35b4 453b
000002e0: 89e2 e8bc 2a0f c93c 381b 8c3c a12e 233b
000002f0: 2be1 f3bb fdef 663c a360 2eb9 3645 f23b
00000300: 78db a7bc ef22 83bc 1d28 acbc 7887 00bc
00000310: 260a 67bb 7100 34ba ffd2 a2b9 692e 613c
00000320: 3438 2a3b 4164 54bc ed7f 46bc ef9b 643c
00000330: 1dac ecba 0b12 783c d074 683c ad99 1dbc
00000340: deb9 143c 8cbc 163b 7ab3 843b e89a a3b8
00000350: 5ee4 12bc d703 bc3c 1659 513b 2d7d 1e3b
00000360: cdbd 7ab9 6c2f e83b 270f 413c b144 8c3c
00000370: b416 453c 0169 44bc 9207 47bc bddf c13c
00000380: 6c58 8fbc 228c eabb e2df 74bb 1ddf ec39
00000390: 6ee9 fdba fd1b cbbb d67e 7c3c a011 3bbc
000003a0: 951c 7cbc 91d7 cb3b 5d4d ceba ee20 113b
000003b0: 1c7f 7bbc 9789 2fbc 8b03 8f3c 11c5 2bbb
000003c0: b72f 6a3b 20d1 29ba 142b c7ba 9537 90bc
000003d0: ee5a 323c 7305 523c 81f7 933c 078f 76bb
000003e0: e7c2 a23b a738 563c dac6 79bb 929a 21bc
000003f0: b98a 703a 9627 05bd c1f6 2c3c 0195 e3bc

action_model._continuous_distribution.mu.bias f4 [2]
-0.010267522 -0.0023891046
00000000: 1c39 28bc 8692 1cbb

exp_avg f4 [128, 7]
-4.121918e-06 -0.00013409817 0.0 0.00014701328 -0.00013409817 0.0 -2.127534e-05 3.613684e-07
1.1756381e-05 0.0 -1.2888649e-05 1.1756381e-05 0.0 2.2763895e-06 -2.4440608e-06 -7.951183e-05
0.0 8.716964e-05 -7.951183e-05 0.0 -1.2415865e-05 6.1855653e-06 0.00020123336 0.0
-0.00022061433 0.00020123336 0.0 3.5303037e-05 -1.5083446e-09 -4.9071037e-08 0.0 5.379709e-08
-4.9071037e-08 0.0 -1.0330017e-08 -9.904988e-07 -3.222397e-05 0.0 3.5327485e-05 -3.222397e-05
0.0 -6.7791716e-06 -3.8430962e-06 -0.00012502701 0.0 0.0001370685 -0.00012502701 0.0
-2.257028e-05 2.175802e-05 0.000707851 0.0 -0.00077602506 0.000707851 0.0 0.00013385253
-5.080434e-07 -1.6527081e-05 0.0 1.8118813e-05 -1.6527081e-05 0.0 4.5424497e-07 -4.1139424e-07
-1.3383857e-05 0.0 1.46728735e-05 -1.3383857e-05 0.0 -2.6842238e-06 -3.1414768e-08 -1.0220094e-06
0.0 1.1204403e-06 -1.0220094e-06 0.0 -2.1482218e-07 6.935484e-06 0.00022563286 0.0
-0.00024736373 0.00022563286 0.0 4.7805817e-05 -6.8813705e-07 -2.2387028e-05 0.0 2.454315e-05
-2.2387028e-05 0.0 -4.1929516e-06 2.9557998e-07 9.616113e-06 0.0 -1.0542249e-05 9.616113e-06
0.0 1.9596446e-06 6.2672505e-08 2.0390323e-06 0.0 -2.235426e-06 2.0390323e-06 0.0
7.9221724e-07 2.745403e-07 8.93159e-06 0.0 -9.791804e-06 8.93159e-06 0.0 1.6706155e-06
-1.021678e-07 -3.3237966e-06 0.0 3.643916e-06 -3.3237966e-06 0.0 -4.788982e-07 7.110391e-07
2.3132177e-05 0.0 -2.536007e-05 2.3132177e-05 0.0 4.529366e-06 5.315475e-06 0.00017292601
0.0 -0.00018958058 0.00017292601 0.0 2.6777758e-05 6.8200507e-06 0.00022187621 0.0
-0.00024324533 0.00022187621 0.0 4.20926e-05 9.656375e-06 0.0003141488 0.0 -0.00034440454
0.0003141488 0.0 5.596465e-05 3.5789947e-07 1.16435085e-05 0.0 -1.2764903e-05 1.16435085e-05
0.0 2.0091077e-06 6.1892238e-06 0.00020135443 0.0 -0.00022074697 0.00020135443 0.0
4.2876865e-05 -5.8795067e-06 -0.00019127772 0.0 0.00020969988 -0.00019127772 0.0 -3.5668563e-05
-6.143516e-07 -1.9986617e-05 0.0 2.1911543e-05 -1.9986617e-05 0.0 -3.7007326e-06 3.0198669e-06
9.8244054e-05 0.0 -0.00010770606 9.8244054e-05 0.0 1.4529879e-05 -9.8404935e-06 -0.00032014
0.0 0.0003509728 -0.00032014 0.0 -5.6091056e-05 7.956448e-06 0.00025884798 0.0
-0.00028377798 0.00025884798 0.0 5.6393375e-05 1.034252e-05 0.0003364733 0.0 -0.0003688793
0.0003364733 0.0 6.807889e-05 1.1202005e-05 0.00036443342 0.0 -0.0003995323 0.00036443342
0.0 6.8043686e-05 1.1688005e-06 3.8022474e-05 0.0 -4.1684205e-05 3.8022474e-05 0.0
-3.6665918e-07 3.2807693e-06 0.00010673331 0.0 -0.00011701291 0.00010673331 0.0 2.0395088e-05
-1.9966853e-06 -6.4958054e-05 0.0 7.121422e-05 -6.4958054e-05 0.0 -1.1650811e-05 1.7892889e-07
5.821066e-06 0.0 -6.381699e-06 5.821066e-06 0.0 1.061635e-06 1.3207323e-07 4.2967285e-06
0.0 -4.7105464e-06 4.2967285e-06 0.0 8.272542e-07 -7.0566955e-07 -2.2957545e-05 0.0
2.5168598e-05 -2.2957545e-05 0.0 -5.928658e-06 2.3242715e-06 7.5614334e-05 0.0 -8.28968e-05
00000000: 024f 8ab6 b49c 0cb9 0000 0000 9427 1a39
00000010: b49c 0cb9 0000 0000 7278 b2b7 1802 c234
00000020: 463d 4537 0000 0000 533c 58b7 463d 4537
00000030: 0000 0000 13c4 1836 a504 24b6 97bf a6b8
00000040: 0000 0000 d8ce b638 97bf a6b8 0000 0000
00000050: bc4d 50b7 9a8d cf36 2b02 5339 0000 0000
00000060: b554 67b9 2b02 5339 0000 0000 5912 1438
00000070: 284e cfb0 2dc2 52b3 0000 0000 870e 6733
00000080: 2dc2 52b3 0000 0000 e577 31b2 48f1 84b5
00000090: 3928 07b8 0000 0000 992c 1438 3928 07b8
000000a0: 0000 0000 a478 e3b6 f2f3 80b6 af19 03b9
000000b0: 0000 0000 0cba 0f39 af19 03b9 0000 0000
000000c0: 4f55 bdb7 fe84 b637 148f 393a 0000 0000
000000d0: 296e 4bba 148f 393a 0000 0000 c45a 0c39
000000e0: 7a60 08b5 a3a3 8ab7 0000 0000 dbfd 9737
000000f0: a3a3 8ab7 0000 0000 f4de f334 98dd dcb4
00000100: 3a8b 60b7 0000 0000 832b 7637 3a8b 60b7
00000110: 0000 0000 9d22 34b6 e7ec 06b3 fa2b 89b5
00000120: 0000 0000 0962 9635 fa2b 89b5 0000 0000
00000130: dfa9 66b4 5bb7 e836 dc97 6c39 0000 0000
00000140: 99b0 81b9 dc97 6c39 0000 0000 1b83 4838
00000150: 6bb8 38b5 c7cb bbb7 0000 0000 03e2 cd37
00000160: c7cb bbb7 0000 0000 2eb1 8cb6 34b0 9e34
00000170: e454 2137 0000 0000 9dde 30b7 e454 2137
00000180: 0000 0000 7082 0336 9396 8633 4fd6 0836
00000190: 0000 0000 5404 16b6 4fd6 0836 0000 0000
000001a0: c1a8 5435 8864 9334 e3d8 1537 0000 0000
000001b0: 7a47 24b7 e3d8 1537 0000 0000 e939 e035
000001c0: 5867 dbb3 640e 5fb6 0000 0000 008a 7436
000001d0: 640e 5fb6 0000 0000 a28d 00b5 3cde 3e35
000001e0: f90b c237 0000 0000 56bc d4b7 f90b c237
000001f0: 0000 0000 f5fa 9736 955b b236 7953 3539
00000200: 0000 0000 26ca 46b9 7953 3539 0000 0000
00000210: cca0 e037 cad7 e436 71a7 6839 0000 0000
00000220: ac0f 7fb9 71a7 6839 0000 0000 968c 3038
00000230: d101 2237 57b4 a439 0000 0000 3291 b4b9
00000240: 57b4 a439 0000 0000 96bb 6a38 5425 c034
00000250: 7d58 4337 0000 0000 d728 56b7 7d58 4337
00000260: 0000 0000 35d4 0636 07ad cf36 ab22 5339
00000270: 0000 0000 5078 67b9 ab22 5339 0000 0000
00000280: afd6 3338 9448 c5b6 b991 48b9 0000 0000
00000290: e2e2 5b39 b991 48b9 0000 0000 d49a 15b8
000002a0: ece9 24b5 efa8 a7b7 0000 0000 aece b737
000002b0: efa8 a7b7 0000 0000 1a5a 78b6 eba8 4a36
000002c0: 6008 ce38 0000 0000 40e0 e1b8 6008 ce38
000002d0: 0000 0000 5bc5 7337 9918 25b7 77d8 a7b9
000002e0: 0000 0000 c602 b839 77d8 a7b9 0000 0000
000002f0: 5043 6bb8 af7c 0537 fdb5 8739 0000 0000
00000300: 09c8 94b9 fdb5 8739 0000 0000 ed87 6c38
00000310: c984 2d37 af68 b039 0000 0000 2466 c1b9
00000320: af68 b039 0000 0000 93c5 8e38 3ff0 3b37
00000330: 6d11 bf39 0000 0000 5178 d1b9 6d11 bf39
00000340: 0000 0000 adb2 8e38 aedf 9c35 527a 1f38
00000350: 0000 0000 13d6 2eb8 527a 1f38 0000 0000
00000360: 41d9 c4b4 302b 5c36 02d6 df38 0000 0000
00000370: d464 f5b8 02d6 df38 0000 0000 1e16 ab37
00000380: cbfe 05b6 173a 88b8 0000 0000 d858 9538
00000390: 173a 88b8 0000 0000 da77 43b7 991f 4034
000003a0: 9452 c336 0000 0000 6122 d6b6 9452 c336
000003b0: 0000 0000 807d 8e35 03d0 0d34 9e2c 9036
000003c0: 0000 0000 490f 9eb6 9e2c 9036 0000 0000
000003d0: 7a10 5e35 3e6d 3db5 f494 c0b7 0000 0000
000003e0: 2721 d337 f494 c0b7 0000 0000 c9ee c6b6
000003f0: aefa 1b36 2393 9e38 0000 0000 e1d8 adb8

exp_avg_sq f4 [128, 7]
7.8313694e-10 8.2887186e-07 0.0 9.962212e-07 8.2887186e-07 0.0 2.7080059e-08 6.191442e-12
6.5530377e-09 0.0 7.876076e-09 6.5530377e-09 0.0 2.650128e-10 1.956699e-09 2.070974e-06
0.0 2.489098e-06 2.070974e-06 0.0 7.9985696e-08 4.6910738e-09 4.9650425e-06 0.0
5.967459e-06 4.9650425e-06 0.0 2.0519597e-07 9.229639e-17 9.76865e-14 0.0 1.1740935e-13
9.76865e-14 0.0 3.918923e-15 3.6254083e-11 3.837128e-08 0.0 4.6118362e-08 3.837128e-08
0.0 1.5603566e-09 1.3452119e-09 1.4237771e-06 0.0 1.7112369e-06 1.4237771e-06 0.0
5.523698e-08 3.296915e-08 3.489468e-05 0.0 4.1939857e-05 3.489468e-05 0.0 1.4228369e-06
2.24568e-09 2.3768325e-06 0.0 2.8567104e-06 2.3768325e-06 0.0 9.269624e-08 6.596254e-12
6.9814865e-09 0.0 8.391028e-09 6.9814865e-09 0.0 2.7965588e-10 1.2239712e-12 1.2954627e-09
0.0 1.5570153e-09 1.2954627e-09 0.0 1.0008867e-11 2.0078936e-09 2.1251574e-06 0.0
2.554218e-06 2.1251574e-06 0.0 8.6220574e-08 4.7804476e-11 5.0596437e-08 0.0 6.081178e-08
5.0596437e-08 0.0 2.1011761e-09 2.724665e-12 2.8837912e-09 0.0 3.4660212e-09 2.8837912e-09
0.0 1.1896653e-10 1.9211082e-11 2.033305e-08 0.0 2.4438231e-08 2.033305e-08 0.0
8.111085e-10 3.2451108e-12 3.4346281e-09 0.0 4.128078e-09 3.4346281e-09 0.0 1.3436877e-10
2.9342269e-12 3.1055944e-09 0.0 3.73261e-09 3.1055944e-09 0.0 1.1549556e-10 2.4624636e-11
2.6062784e-08 0.0 3.132476e-08 2.6062784e-08 0.0 1.078718e-09 8.497282e-09 8.993551e-06
0.0 1.0809332e-05 8.993551e-06 0.0 3.6666157e-07 2.7259606e-09 2.8851582e-06 0.0
3.4676696e-06 2.8851582e-06 0.0 1.1520807e-07 9.954182e-09 1.0535515e-05 0.0 1.2662631e-05
1.0535515e-05 0.0 4.350051e-07 8.205207e-12 8.684422e-09 0.0 1.0437771e-08 8.684422e-09
0.0 3.283199e-10 1.3954167e-09 1.4769107e-06 0.0 1.7750967e-06 1.4769107e-06 0.0
5.7872043e-08 1.4728497e-09 1.5588664e-06 0.0 1.8735949e-06 1.5588664e-06 0.0 6.12341e-08
2.8211803e-11 2.985943e-08 0.0 3.5888025e-08 2.985943e-08 0.0 1.1902453e-09 2.4450728e-09
2.5878614e-06 0.0 3.110353e-06 2.5878614e-06 0.0 1.0605859e-07 5.577753e-09 5.9034996e-06
0.0 7.095401e-06 5.9034996e-06 0.0 2.2670982e-07 4.0366888e-09 4.2724423e-06 0.0
5.135043e-06 4.2724423e-06 0.0 1.6550283e-07 3.0622194e-09 3.2410599e-06 0.0 3.8954217e-06
3.2410599e-06 0.0 1.3293217e-07 7.56955e-09 8.011619e-06 0.0 9.629154e-06 8.011619e-06
0.0 3.2873433e-07 8.736767e-09 9.247006e-06 0.0 1.1113977e-05 9.247006e-06 0.0
3.8012053e-07 3.6584974e-10 3.8721555e-07 0.0 4.653936e-07 3.8721555e-07 0.0 1.5237191e-08
1.5430512e-10 1.633169e-07 0.0 1.962902e-07 1.633169e-07 0.0 6.2767165e-09 2.3906571e-12
2.530276e-09 0.0 3.0411351e-09 2.530276e-09 0.0 1.0151433e-10 9.755973e-13 1.0325719e-09
0.0 1.2410468e-09 1.0325719e-09 0.0 4.2149242e-11 1.8351913e-10 1.9423823e-07 0.0
2.3345399e-07 1.9423823e-07 0.0 6.3082477e-09 2.1399775e-09 2.2649563e-06 0.0 2.722252e-06
00000000: 5d44 5730 a47f 5e35 0000 0000 e6b5 8535
00000010: a47f 5e35 0000 0000 ae9d e832 8dd7 d92c
00000020: 2129 e131 0000 0000 594f 0732 2129 e131
00000030: 0000 0000 3cb1 912f 9d76 0631 10fb 0a36
00000040: 0000 0000 610a 2736 10fb 0a36 0000 0000
00000050: 9ac4 ab33 1f2f a131 6499 a636 0000 0000
00000060: 153c c836 6499 a636 0000 0000 d753 5c34
00000070: 2cd2 d424 6ff8 db29 0000 0000 f130 042a
00000080: 6ff8 db29 0000 0000 af31 8d27 7872 1f2e
00000090: abcd 2433 0000 0000 ad13 4633 abcd 2433
000000a0: 0000 0000 2b74 d630 70e2 b830 9c18 bf35
000000b0: 0000 0000 a7ad e535 9c18 bf35 0000 0000
000000c0: b43d 6d33 f799 0d33 e15b 1238 0000 0000
000000d0: 94e8 2f38 e15b 1238 0000 0000 4ef8 be35
000000e0: 6c52 1a31 ac81 1f36 0000 0000 e9b5 3f36
000000f0: ac81 1f36 0000 0000 4c10 c733 c615 e82c
00000100: cee1 ef31 0000 0000 2228 1032 cee1 ef31
00000110: 0000 0000 11be 992f 3642 ac2b 0b0c b230
00000120: 0000 0000 9bfe d530 0b0c b230 0000 0000
00000130: ee13 302d 3dfb 0931 ed9d 0e36 0000 0000
00000140: 2269 2b36 ed9d 0e36 0000 0000 4328 b933
00000150: 0e3f 522e 5f4f 5933 0000 0000 a197 8233
00000160: 5f4f 5933 0000 0000 4864 1031 33bb 3f2c
00000170: 312c 4631 0000 0000 e42e 6e31 312c 4631
00000180: 0000 0000 1ace 022f 83fb a82d daa8 ae32
00000190: 0000 0000 3dec d132 daa8 ae32 0000 0000
000001a0: b0f4 5e30 b85a 642c 9e06 6c31 0000 0000
000001b0: f5d6 8d31 9e06 6c31 0000 0000 72bd 132f
000001c0: 557a 4e2c 326a 5531 0000 0000 6340 8031
000001d0: 326a 5531 0000 0000 38fa fd2e c099 d82d
000001e0: abe0 df32 0000 0000 f089 0633 abe0 df32
000001f0: 0000 0000 0442 9430 71fb 1132 02e3 1637
00000200: 0000 0000 ba59 3537 02e3 1637 0000 0000
00000210: 95d9 c434 9b53 3b31 a49e 4136 0000 0000
00000220: 1cb6 6836 a49e 4136 0000 0000 4e68 f733
00000230: f502 2b32 b1c1 3037 0000 0000 9671 5437
00000240: b1c1 3037 0000 0000 a58a e934 f858 102d
00000250: 7e32 1532 0000 0000 cd51 3332 7e32 1532
00000260: 0000 0000 eb7e b42f dcc8 bf30 443a c635
00000270: 0000 0000 dc3f ee35 443a c635 0000 0000
00000280: fc8e 7833 4b6d ca30 3e3a d135 0000 0000
00000290: 3b78 fb35 3e3a d135 0000 0000 cd7f 8333
000002a0: 5527 f82d ca3e 0033 0000 0000 4d23 1a33
000002b0: ca3e 0033 0000 0000 0996 a330 2d06 2831
000002c0: 1fab 2d36 0000 0000 75bb 5036 1fab 2d36
000002d0: 0000 0000 54c2 e333 6fa6 bf31 ad16 c636
000002e0: 0000 0000 0815 ee36 ad16 c636 0000 0000
000002f0: 856d 7334 17b3 8a31 005c 8f36 0000 0000
00000300: af4d ac36 005c 8f36 0000 0000 12b5 3134
00000310: 226f 5231 fc80 5936 0000 0000 6bb5 8236
00000320: fc80 5936 0000 0000 1ebc 0e34 3c0b 0232
00000330: a469 0637 0000 0000 e78c 2137 a469 0637
00000340: 0000 0000 e77c b034 b518 1632 9723 1b37
00000350: 0000 0000 2b76 3a37 9723 1b37 0000 0000
00000360: 5e13 cc34 c620 c92f 80e2 cf34 0000 0000
00000370: 36db f934 80e2 cf34 0000 0000 f0e2 8232
00000380: 08a9 292f 355c 2f34 0000 0000 d7c3 5234
00000390: 355c 2f34 0000 0000 95aa d731 403a 282c
000003a0: 16e1 2d31 0000 0000 37fc 5031 16e1 2d31
000003b0: 0000 0000 7d3b df2e 994d 892b 65ea 8d30
000003c0: 0000 0000 7491 aa30 65ea 8d30 0000 0000
000003d0: d45f 392e 0bc8 492f cc8f 5034 0000 0000
000003e0: 58ab 7a34 cc8f 5034 0000 0000 efbf d831
000003f0: e20e 1331 a7ff 1736 0000 0000 efaf 3636

exp_avg f4 [128]
-2.7479122e-05 2.4090943e-06 -1.62934e-05 4.1236333e-05 -1.0055537e-08 -6.6032717e-06 -2.5620284e-05 0.00014505144
-3.3866986e-06 -2.7425936e-06 -2.0942814e-07 4.6236215e-05 -4.587506e-06 1.9705146e-06 4.1783431e-07 1.8302441e-06
-6.811061e-07 4.740201e-06 3.5435653e-05 4.5466426e-05 6.4374704e-05 2.3859639e-06 4.1261126e-05 -3.9196257e-05
-4.0956156e-06 2.0131998e-05 -6.560245e-05 5.304263e-05 6.89494e-05 7.467898e-05 7.791441e-06 2.1871578e-05
-1.3311074e-05 1.1928411e-06 8.8047653e-07 -4.7044136e-06 1.5494734e-05 -8.0098165e-05 2.43306e-06 -1.2355144e-07
4.1709686e-06 2.2216378e-07 -2.31837e-07 -1.2774373e-06 4.7324353e-05 -1.5679542e-07 -3.7926861e-06 0.00010283804
1.3612506e-06 2.2406582e-06 -1.2547251e-05 5.461414e-06 3.133445e-05 6.720042e-05 7.431549e-05 -8.955502e-06
3.6731497e-05 4.1363983e-06 6.1074275e-06 9.440494e-05 5.7475474e-05 8.234326e-06 2.4600208e-06 0.000111306144
0.000112172194 0.00018328342 2.545436e-05 2.2369616e-06 -5.6004756e-06 -5.977406e-05 7.721966e-05 0.00010160427
0.00011076903 5.3848642e-05 -8.790753e-07 1.6664273e-05 4.2215393e-06 4.628241e-06 7.635337e-06 1.09382245e-05
3.177598e-05 4.7699254e-05 5.645098e-07 -1.7095086e-06 5.9453355e-06 1.0280482e-06 -2.3230107e-06 9.593664e-07
4.484797e-05 0.00017335832 4.0311163e-05 0.00010571982 -3.2586362e-05 8.518031e-05 4.4663437e-05 -6.2479456e-05
-9.489027e-08 1.0376285e-06 -4.8277216e-06 -1.9308395e-07 -1.3757447e-06 1.0383075e-06 -8.793476e-06 4.3650465e-07
0.00014188372 2.6857902e-06 -2.0703574e-06 3.378619e-05 8.677259e-05 8.885708e-05 -5.05447e-05 9.237945e-09
1.6292837e-06 -2.940303e-05 9.989263e-08 9.027506e-05 2.0613143e-05 6.8605106e-05 -6.3803185e-05 8.1014505e-06
5.3352043e-05 4.4609133e-05 7.7750556e-05 1.1411398e-07 -3.3515287e-05 6.356621e-05 -4.956833e-05 -6.912564e-05
00000000: f782 e6b7 edab 2136 cfad 88b7 2df5 2c38
00000010: b8c0 2cb2 ac91 ddb6 24eb d6b7 f318 1839
00000020: 0a47 63b6 660d 38b6 2bdf 60b4 c2ed 4138
00000030: 60ee 99b6 2f3d 0436 b652 e034 b5a6 f535
00000040: 41d5 36b5 040e 9f36 bea0 1438 34b3 3e38
00000050: e800 8738 8c1e 2036 cc0f 2d38 a966 24b8
00000060: 126d 89b6 23e1 a837 0c94 89b8 177a 5e38
00000070: ed98 9038 f99c 9c38 fcb7 0237 db78 b737
00000080: a152 5fb7 b519 a035 e359 6c35 9bda 9db6
00000090: b0fa 8137 60fa a7b8 a747 2336 90a9 04b4
000000a0: 59f4 8b36 ea8b 6e34 dfee 78b4 6974 abb5
000000b0: 237e 4638 995b 28b4 da85 7eb6 c1aa d738
000000c0: 37b4 b635 375e 1636 0882 52b7 3041 b736
000000d0: 1c6d 0338 f3ed 8c38 d3d9 9b38 973f 16b7
000000e0: 2510 1a38 64cb 8a36 67ee cc36 44fb c538
000000f0: d211 7138 2926 0a37 d616 2536 086d e938
00000100: fd3d eb38 c52f 4039 d286 d537 b51e 1636
00000110: b8eb bbb6 e9b5 7ab8 fdf0 a138 6114 d538
00000120: ac4c e838 8adb 6138 98f9 6bb5 41ca 8b37
00000130: bfa6 8d36 4a4c 9b36 8619 0037 5183 3737
00000140: 3347 0538 af10 4838 d188 1735 4572 e5b5
00000150: 0b7e c736 78fb 8935 05e5 1bb6 94c3 8035
00000160: 241b 3c38 85c7 3539 c813 2938 e5b5 dd38
00000170: 57ad 08b8 d5a2 b238 0055 3b38 6707 83b8
00000180: 7ac6 cbb3 a544 8b35 d0fd a1b6 8352 4fb4
00000190: 3aa6 b8b5 f95b 8b35 b187 13b7 be58 ea34
000001a0: 9fc6 1439 863d 3436 78f0 0ab6 a5b5 0d38
000001b0: aef9 b538 c858 ba38 f5ff 53b8 e9b4 1e32
000001c0: c3ad da35 87a6 f6b7 8e84 d633 0e52 bd38
000001d0: 63ea ac37 16e0 8f38 13ce 85b8 77eb 0737
000001e0: 52c6 5f38 b11a 3b38 030e a338 d30e f533
000001f0: c492 0cb8 d94e 8538 97e7 4fb8 8cf7 90b8

exp_avg_sq f4 [128]
3.4805474e-08 2.751714e-10 8.6962906e-08 2.0848879e-07 4.101997e-15 1.6112645e-09 5.9786316e-08 1.4652732e-06
9.98066e-08 2.9316238e-10 5.4398153e-11 8.9238256e-08 2.1246098e-09 1.2109423e-10 8.5381247e-10 1.4422498e-10
1.3040836e-10 1.094412e-09 3.7765182e-07 1.2115223e-07 4.4240088e-07 3.6467077e-10 6.201756e-08 6.545885e-08
1.2538401e-09 1.08668175e-07 2.4789563e-07 1.7940579e-07 1.3609645e-07 3.364192e-07 3.8829424e-07 1.6259746e-08
6.857899e-09 1.0624977e-10 4.3359157e-11 8.156295e-09 9.510878e-08 4.096584e-07 2.6641853e-10 9.236885e-10
7.049696e-10 7.612802e-08 3.4723203e-11 2.0582775e-09 3.567013e-07 1.5077356e-12 8.6664775e-10 4.503495e-07
8.934005e-10 1.9660637e-10 2.3683253e-08 9.449587e-08 3.6602383e-08 4.3186955e-07 3.1457955e-07 2.3333598e-08
1.6018332e-07 5.442818e-08 3.0701304e-09 6.9793913e-07 1.1481047e-07 3.948971e-09 5.612808e-10 4.1692266e-07
6.2910516e-07 1.9034385e-06 3.569566e-08 1.7438259e-10 1.4978776e-08 2.4175807e-07 3.486408e-07 4.962049e-07
6.593631e-07 9.670434e-08 2.4443797e-10 1.1746492e-08 1.4669258e-09 1.4595118e-09 2.8996463e-09 1.6833205e-08
5.2715507e-08 1.1496552e-07 8.7378316e-10 3.324948e-10 3.148415e-08 2.2156416e-10 5.2187177e-10 1.5654877e-10
1.5391254e-07 1.623677e-06 3.6232709e-07 4.52722e-07 4.421268e-08 4.2500852e-07 9.597416e-08 2.1958508e-07
1.1933182e-11 7.14228e-11 1.0196392e-09 3.1019182e-12 1.5682122e-09 1.7857776e-10 5.9682748e-09 3.2488182e-11
8.79567e-07 8.368133e-10 3.5621348e-10 3.4554557e-07 4.6572245e-07 3.0048014e-07 1.3749401e-07 2.206146e-12
2.9809785e-10 3.1864882e-08 4.091016e-12 4.486568e-07 2.774764e-08 2.9758468e-07 2.0318438e-07 5.2176443e-08
1.2729073e-07 4.6769094e-07 2.499605e-07 1.06289135e-11 5.0404456e-08 2.2276808e-07 1.298497e-07 2.197782e-07
00000000: 067d 1533 ef46 972f 5dc0 ba33 f6dc 5f34
00000010: 3fca 9327 5473 dd30 e063 8033 67aa c435
00000020: 4255 d633 f02a a12f e03e 6f2e 40a3 bf33
00000030: 8800 1231 ff24 052f b6b1 6a30 b993 1e2f
00000040: b162 0f2f 336a 9630 12c0 ca34 1216 0234
00000050: 1d83 ed34 d97a c82f 842e 8533 6292 8c33
00000060: 9453 ac30 f65c e933 8416 8534 b0a2 4034
00000070: e821 1234 1a9d b434 c176 d034 8fab 8b32
00000080: b8a2 eb31 4ea5 e92e 12b2 3e2e c41f 0c32
00000090: 9b3e cc33 06ef db34 1377 922f cde6 7d30
000000a0: d3c7 4130 d27b a333 dab6 182e 9a71 0d31
000000b0: a780 bf34 e631 d42b ea38 6e30 90c7 f134
000000c0: 7993 7530 c62b 582f 0670 cb32 a7ed ca33
000000d0: bf34 1d33 b3db e734 7ce3 a834 206f c832
000000e0: dbfe 2b34 6bc4 6933 4efa 5231 035a 3b35
000000f0: b98d f633 84af 8731 a048 1a30 6ad5 df34
00000100: c7df 2835 a679 ff35 cb4f 1933 56bc 3f2f
00000110: adaa 8032 faca 8134 d42c bb34 f132 0535
00000120: 16ff 3035 c6ab cf33 9661 862f 9ecd 4932
00000130: dd9c c930 0298 c830 1e43 4731 9c98 9032
00000140: 5069 6233 f7e2 f633 062f 7030 7cca b62f
00000150: 3039 0733 c49c 732f 7673 0f30 9020 2c2f
00000160: 2843 2534 1eed d935 db85 c234 a30d f334
00000170: 5be4 3d33 ba2c e434 5a1a ce33 16c7 6b34
00000180: 46ee 512d 760f 9d2e 5d23 8c30 3147 5a2c
00000190: 9088 d730 2c59 442f 8011 cd31 71e2 0e2e
000001a0: 621b 6c35 8005 6630 97d4 c32f 6c83 b934
000001b0: 6808 fa34 ad51 a134 11a2 1334 653e 1b2c
000001c0: 8be1 a32f cfdb 0833 99f0 8f2c ecde f034
000001d0: b559 ee32 bac3 9f34 e62a 5a34 9b18 6033
000001e0: 69ad 0834 f416 fb34 4f32 8634 5ffc 3a2d
000001f0: 497c 5833 0632 6f34 d06c 0b34 2cfc 6b34
