results/test_8/Boss/Boss-530412.onnx (onnx, 75574 bytes, 7 tensors)

network_body._body_endoder.seq_layers.0.weight f4 [128, 7]
00000000: 49c2 363e c8c1 7b3e 46ed 49bf 3518 6b3e
00000010: 3bdd 2bbe 7bb8 2fbe ecfb 8ebf 91e0 1d3e
00000020: c356 f6bd 18c4 f1be 3ac9 47be 3216 efbe
00000030: b640 23bc 4e4c 363c 66ce 963e 0c28 753e
00000040: c2b1 5b3e 510c 423c 3464 043e c402 e13d
00000050: f345 493e 029c 0c3f 643b 97bc a258 4d3d
00000060: ebcb b7be 3c74 b13e 7cbf a4bd 22fc f3bd
00000070: aab9 9e3e 5a9e 8cbd 475d 2a3e dd8a 903f
00000080: 39cd 69bf f0e9 b73e 455b 22be 2719 8b3d
00000090: b4d7 1d3d 04b9 283e c48e 0a3f 4998 aa3c
000000a0: 2655 e73d b294 b83e 948a b43e d9dd b13c
000000b0: b78f 17bf 4d87 3cbd 8e18 2e3e 91e6 26bf
000000c0: 117c abbe e282 533e 10c0 b6be 5bfe 6cbe
000000d0: fd9e 343b 3b04 a53e 6d23 0abe f569 c13e
000000e0: 3c1a abbe 4f19 a53e 5e78 ed3d 7fb7 853d
000000f0: adb9 873e 1ddf 84bf 4215 113e 6ca8 023e
00000100: bd6e 2dbf 45d8 a83d f024 7dbe 3b05 b8bd
00000110: 5150 823d df11 7bbe af40 2c3d cb80 ddbd
00000120: 83ce 703e ac19 eebd 447a debd b322 2b3e
00000130: c919 d0be 45a2 c1be c7e0 1a3e b290 e7be
00000140: 3ece e13c 5cbb 8e3e 312f 24be 57a5 79be
00000150: 1ed3 3cbe 2792 23be 8979 e03e e186 b33e
00000160: 8807 bf3e 53a5 ba3e 5d0e a9bf 52e1 cb3e
00000170: ddb0 a6be aba5 453f 128b a6bd ce88 de3b
00000180: 0488 073f b6d5 6fbe 1a85 023f abc4 2abf
00000190: ded5 2dbf 2b11 c0be 9b30 a3be d4cf a3bd
000001a0: 40fd e8bd 7245 c03e 1450 97bd dc54 bdbe
000001b0: e298 163e 86b7 2abe 801b b93e 0c56 283e
000001c0: 859c 853e 98a9 1ebf 6fbe 143e e14d 583e
000001d0: 6440 ad3d 6984 c2be 8587 b6be 565d 343e
000001e0: 0ca1 afbe 8c45 8b3e 9207 e93e 7fdf 5fbd
000001f0: 09ab 223f 2fa1 9d3e 0a66 1a3e 85de 223f
00000200: 3895 65bc f026 ff3c b5a2 85be 59af 82be
00000210: 415d 4fbe 25fb 0f3c 479d efbd c331 98be
00000220: 4025 f2bc f49f 2f3e 0873 33bd bae1 913d
00000230: 86c6 b63e ec99 203e fa0c 383f 7232 85be
00000240: a009 013f 236f 02be 9592 a4be c71f d6bd
00000250: f5b5 a73d 6782 cd3e 3edc c93d 3925 72be
00000260: b652 cbbe 347c 233e 69c7 7abe d7af 393f
00000270: e146 99bd 8f36 e8be 4569 dcbe 4a0b 6d3e
00000280: eb6f 4ebe 56a2 093f 0d15 45be d55a 24be
00000290: 6c8d a4be ef60 41be cfd7 b1be 3b09 85be
000002a0: 8045 e43e 26cc bbbd b24b 8cbe 40b9 a03d
000002b0: 6823 eebe 5fe6 56bd 1c59 583e 9dda 9c3e
000002c0: 3e42 253f 498b 0d3e 4b0e b8be 2c98 89be
000002d0: 9f50 123f cdcd 6b3e 5cc1 f1bd b74e 9f3e
000002e0: 693a f3be 0b6e 463f 6eb2 173f 79bf 07be
000002f0: d6f6 10bf 0333 c43e cc94 7e3b e708 f3be
00000300: e100 11bf ab26 a03e 5dfc f2be 1efa 903e
00000310: 335c 1a3e 3dea 153f ad91 803e 1e05 8cbe
00000320: c1c1 923e 0c89 a43e b0f5 a9be f0f4 c63c
00000330: e16e 39bf 29e4 4e3e 0fc9 18bf cc74 bc3e
00000340: 87ee 03bb b1e3 333f ce48 663e 90fe ad3d
00000350: 3271 0c3f 21fa 00bf 557f 2bbe 2d3d 91be
00000360: 460c 9cbe d6e8 5bbe 0ca8 b23f c986 c33e
00000370: 9fea 0dbe 66d5 e23e e3a2 c93e 14ba 123f
00000380: e566 afbe 0d19 8f3e 8426 2a3f d686 0a3e
00000390: 88ac b0be 481c 9f3e 3ef2 efbe 3c60 adbe
000003a0: 3c78 0cbd 0004 fcbd 74ac 8d3e e623 46bf
000003b0: fca8 993e b603 f2bc e518 f33d fd76 97be
000003c0: 0f0a 40bf e086 313f 103f b3be 7d96 113f
000003d0: 6ee9 4d3e 97ac 53bf da5f 2e3c 452e 02bf
000003e0: 7a7b f1be 1d09 10bd 411f c03e 733c 03be
000003f0: 7abb 2fbf e214 a03e 3b97 fe3e 9e4c b63d
0.17847551 0.2458564 -0.78877676 0.22958453 -0.16783611 -0.17160217 -1.117063 0.15417697
-0.12028267 -0.4721992 -0.19510356 -0.4669662 -0.009964159 0.011126591 0.29454345 0.23941058
0.21454528 0.011843757 0.1292885 0.109868556 0.1965559 0.5492555 -0.018460937 0.050133355
-0.35897765 0.34658992 -0.08044335 -0.11913325 0.31001025 -0.06866141 0.16637145 1.1292378
-0.9132877 0.35920668 -0.15855129 0.06791907 0.03853579 0.16476828 0.54124093 0.020824568
0.11295538 0.36050946 0.35261977 0.02171223 -0.59203666 -0.04602747 0.17001554 -0.65195566
-0.33493093 0.20655397 -0.35693407 -0.23143904 0.0027560585 0.3222979 -0.13490076 0.3777615
-0.33418453 0.3224587 0.11595224 0.0652914 0.26508847 -1.0380589 0.14168265 0.1275956
-0.677471 0.08244375 -0.24721122 -0.08985373 0.063629754 -0.24518536 0.042053875 -0.10815581
0.23516278 -0.1162599 -0.10863164 0.16712455 -0.40644673 -0.37819114 0.15124808 -0.4522758
0.027564164 0.2787732 -0.16033627 -0.24379478 -0.1843991 -0.15973721 0.43842724 0.35063842
0.37310433 0.36454257 -1.3207508 0.39820343 -0.3255681 0.77205914 -0.08131994 0.0067912107
0.5294192 -0.23421368 0.50984347 -0.6670634 -0.6790446 -0.37513098 -0.3187302 -0.079986244
-0.113764286 0.37552983 -0.073883206 -0.36978805 0.14706758 -0.16671571 0.36153793 0.16439074
0.26095977 -0.6197753 0.1452577 0.21123458 0.08459547 -0.37991646 -0.35650268 0.1761373
-0.34302557 0.27201498 0.45513588 -0.0546565 0.6354223 0.30787036 0.15077987 0.6362079
-0.014012627 0.031146497 -0.26100698 -0.25524405 -0.20250417 0.008787905 -0.1169992 -0.29725465
-0.029558778 0.17150861 -0.043810874 0.07123132 0.35698336 0.15683717 0.718948 -0.2601505
0.5040531 -0.12737708 -0.32143083 -0.1045528 0.081890024 0.40138552 0.09856461 -0.23647012
-0.3971154 0.15965348 -0.24490131 0.72533935 -0.07484222 -0.45354125 -0.43049064 0.23148838
-0.20159881 0.5376333 -0.19246311 -0.16050275 -0.32139146 -0.18884633 -0.3473496 -0.25983605
0.44584274 -0.091697976 -0.274015 0.07847834 -0.46511388 -0.052465793 0.21127743 0.3063554
0.645542 0.13822664 -0.35948405 -0.2687391 0.5715427 0.23027726 -0.118044585 0.31114742
-0.475055 0.7751166 0.5925664 -0.13256635 -0.5662664 0.3832017 0.0038846014 -0.4746773
-0.56641966 0.312795 -0.47458163 0.28315824 0.15074234 0.58560544 0.25111142 -0.27347654
0.28663447 0.32135808 -0.33195257 0.024286717 -0.7243481 0.20204224 -0.5968179 0.3680786
-0.0020131187 0.70269305 0.2248871 0.084958196 0.5486022 -0.50381666 -0.16747792 -0.28366986
-0.30478114 -0.21475539 1.3957534 0.3818877 -0.13859032 0.44303435 0.39382085 0.5731518
-0.3425819 0.279488 0.6646502 0.13527998 -0.3450663 0.31076264 -0.46864504 -0.33862484
-0.034294352 -0.123054504 0.27670634 -0.77398527 0.30011737 -0.029542785 0.11869983 -0.29582968
-0.7501535 0.6934643 -0.3500905 0.5687025 0.20108578 -0.82685226 0.01064297 -0.5085185
-0.47164518 -0.03516494 0.37523845 -0.12816028 -0.6864544 0.31265932 0.49724755 0.08901332

network_body._body_endoder.seq_layers.0.bias f4 [128]
00000000: 4e09 19bb 1091 fdbb edbb 86ba f13a 4fbc
00000010: bd26 7bbb dfb5 d93a 76dc e6ba f029 52ba
00000020: 2da9 8cbb 18ee 383b 8c7c 813b f855 67bb
00000030: f86b bfba c585 1abb 6d76 56ba d3cd 9fbb
00000040: 509b 74bb 1317 48bc bb14 b5bb deea 0fba
00000050: 7791 05bc eb55 68ba 4bab e0bb a146 c63a
00000060: fc9d bf3a 9f39 19bc 3230 c43a ae11 abba
00000070: 417f b2bb 1087 74bb 45fb 61bb db0f abbc
00000080: c2de 9538 80dc 39bb 0251 12ba 38f2 5bbb
00000090: 42bb 68ba 1075 c4ba 2a10 5ebc a6e6 66bb
000000a0: 6bc2 9abb 2af1 82bb d8fd e9bb 624d 28bb
000000b0: 5a3f 64bb 0a0c 093b 642a 56bb 5d60 84ba
000000c0: d700 d63b eae1 d2b9 6a54 7fba 2395 6bbb
000000d0: 50d6 e83a 4e1b adbb 70e7 d939 b5d9 04bc
000000e0: 19ba 93bb e133 58b9 4578 14bd 6a22 92ba
000000f0: 7c50 e1bb 1bbd 5937 2d5b a63a 02bc 56bb
00000100: 09c9 39bb 9d6b baba b6b3 12bc 6be9 08bc
00000110: 3684 b1bb ec77 a8b8 49d6 d9bc 1f03 3cbb
00000120: 8a89 443a be72 57bc d59b f8bb 3158 9fba
00000130: 995f 8ebb 1658 6d3b ea91 3c3b 85c9 bbbb
00000140: 96fa 95bb 40f3 5ebb b5cc 61bb 751b 3ebb
00000150: 23fb 7bbc 95e8 8dbc 809a 7a3b 8a75 7abb
00000160: f99d b4bb 039c 6ebb 1e4a 16bb 5142 94bb
00000170: 6607 26bc 5dcf 9eb9 7748 dabc 4b85 02bc
00000180: 89b5 4fbb 5a74 fab9 35dd aeba 1457 54bc
00000190: 2572 7ebb 6795 4fba adf1 0b3b 17cf 35bc
000001a0: e9d8 3cbb 8fe3 9dbc 4d04 703b 207a c9ba
000001b0: 16c2 01ba 19a5 24bd 13bf 00bc afbd 7abb
000001c0: 24f8 f63a 02d5 3bbb 8fbc b43a ceff 94bb
000001d0: 00db 1abc 12f0 04bb 308f a73b a368 adbb
000001e0: 80ee 4ebb 7848 25bc 8b88 82bb 0cff 00bb
000001f0: 625d ac3b c4ae 24bc 9a49 09bc b2f3 3cbb
-0.0023351493 -0.00773824 -0.0010279395 -0.01264833 -0.003832265 0.0016609988 -0.001761331 -0.00080171134
-0.0042926283 0.0028218087 0.0039516147 -0.0035299044 -0.0014604321 -0.0023578268 -0.0008181099 -0.004876831
-0.0037324019 -0.012212533 -0.005526153 -0.0005490015 -0.008152357 -0.00088629004 -0.006856357 0.001512725
0.0014619227 -0.009352117 0.0014967977 -0.0013051534 -0.0054472988 -0.003731195 -0.0034482044 -0.020881584
7.1463655e-05 -0.0028360188 -0.0005581529 -0.0033561122 -0.0008878001 -0.0014988501 -0.0135536585 -0.0035232692
-0.0047228835 -0.003996034 -0.0071408562 -0.002568089 -0.00348278 0.0020911717 -0.0032679075 -0.0010099519
0.006530862 -0.0004022264 -0.00097400567 -0.0035947047 0.0017764065 -0.005282796 0.000415619 -0.008108546
-0.0045082686 -0.00020618692 -0.03624751 -0.0011149172 -0.0068760496 1.29782375e-05 0.0012691967 -0.003276587
-0.0028348586 -0.0014222745 -0.008953979 -0.008356432 -0.005417372 -8.0332014e-05 -0.026591437 -0.0028688384
0.00074973016 -0.013149915 -0.007586936 -0.001215702 -0.004344892 0.0036215833 0.0028773495 -0.00573081
-0.0045769913 -0.00340195 -0.003445429 -0.0029008065 -0.0153797 -0.017322818 0.0038239062 -0.0038217031
-0.005511996 -0.0036408908 -0.002293236 -0.004524507 -0.0101336 -0.00030290606 -0.026645882 -0.00796635
-0.0031693897 -0.00047770404 -0.0013341071 -0.012960214 -0.003882536 -0.0007918686 0.0021353767 -0.011096737
-0.0028815812 -0.019273547 0.0036623657 -0.0015371479 -0.00049498805 -0.040196512 -0.007858056 -0.0038260033
0.0018842262 -0.0028660898 0.0013789105 -0.004547096 -0.009451628 -0.0020284695 0.005113505 -0.0052920147
-0.0031575263 -0.010088079 -0.0039835623 -0.001968327 0.0052601555 -0.010051433 -0.008379364 -0.0028831777

network_body._body_endoder.seq_layers.2.weight f4 [128, 128]
00000000: 85d8 e5bb 5292 28bc 6629 29bd 4d7a 7c3c
00000010: 3f6a 98bd 712b 0f3e b3c7 f2bc 56a5 0d3d
00000020: 0fc1 8abd da8f 913c 8063 863d 2226 12be
00000030: 1171 99bc 02c6 74bd 708a 3a3e 663f 34be
00000040: 6378 91bd 4a53 dd3c 2757 03be 085d d53c
00000050: 30a8 b13c 9c87 c43c 3d18 8e3d 05b0 853d
00000060: c18e c73c 8b0e 103d a787 20be 8f83 9c3d
00000070: 2d26 99bc e309 553d 4e63 47bd 8336 dcbd
00000080: c2a8 d63b d43d ebbb 935e 9fbd e174 a63d
00000090: 1b15 3abe 83b9 0e3c dd1e 76bd 0895 abbd
000000a0: 128b 8c3c 7d9d eabd 9205 3b3d ed96 c23d
000000b0: 4240 5d3d a4f0 aebd e138 eabd 7072 053e
000000c0: a700 94bd c740 39bd 7f29 a73d 815a c43d
000000d0: b935 8cbd f372 bcbc c648 92bd 438f 04be
000000e0: d050 fa3d 0ed5 833d b0ec 7abd 126d c73c
000000f0: aadb 26bd b631 463a 9d48 753d f03f c83d
00000100: 16de 813d e4b0 a23c 748a 503e b2df 9fbd
00000110: a141 40bc 6349 14be aa78 4e3d b399 85bd
00000120: 8b34 5a3d 2899 0ebd 6cdb 4dbb d480 443e
00000130: 2854 2c3e e86c 9e3d db51 d13d 9115 3bbd
00000140: 1c6e c4bd 5dfb 933d 289e 44bd 17a2 8e3b
00000150: d0d1 2f3d adfa 6bbb 28b5 18bd 03d3 fe3c
00000160: 7928 733e f5df 873d bee3 0ebc 1c70 69bc
00000170: d768 eebd 492a 62bd b657 41bd 79ee a53d
00000180: da13 bbbb fdf4 b23d 8576 c93c bb10 4b3d
00000190: 8c22 bebd f941 37bc aa5b 84bd e8b6 2dbc
000001a0: fa27 3a3d 5671 bc3c adcc 383e fd60 41bd
000001b0: c5d3 d33b 4e59 6dbd aa78 d1bd a06e 57bd
000001c0: cbda 373e eee4 ac3d 214b e93c 933d 93bc
000001d0: 8403 97bb be30 553e 3a11 803d 7d26 003d
000001e0: 4770 87bc e5a6 653c 4649 833d 352c 163e
000001f0: 483e 303b c17d 8f3b 92c5 0c3d 5922 ca3d
00000200: 4899 08bd f698 8bbd f365 2f3b 1787 54bd
00000210: f443 b03c b668 b7bd d7d0 c13d 784f ddbd
00000220: 4585 d3bd b62a cd3d 4cec 26be bc6c 10bc
00000230: d5ec bd3c b011 e63c 0a46 9a3d 468b c33c
00000240: c70e f93d 8c5d a5bc 807f c33d 9bff df3d
00000250: 3c15 8dbe aacf e53d ceb1 bc3d 6da8 b2bc
00000260: 00c0 983d e833 163e 793f 1cbc 06c1 39bd
00000270: 7f51 9d3d 870a d6bc 382c 6bbd f484 ecbd
00000280: 1748 59bd 426b bf3d 66e1 afbb f7e6 3ebd
00000290: 0cd7 a2bb a5ce 00be 9b7c 2f3d c0d8 b2bd
000002a0: 62f1 1ebe 6d4d a4bd eed6 a4b9 5d63 343d
000002b0: b163 10be b040 8b3d 696b e1bd 18f2 89bd
000002c0: 6b27 473e e703 57bc 625a e03c 62c5 353e
000002d0: f619 06be be94 8e3c 23f5 833c 480d 593e
000002e0: 8774 c4bd 1b9d 27bd 8ae2 9a3d e785 c93c
000002f0: 3ecc 473d 21d8 573e e382 bd3d 99f8 0c3e
00000300: f164 c3bd be20 66bd 701c 1a3e 81b7 2bbc
00000310: 3aa1 b43b ef1d 083e 4772 153c c34a d5bd
00000320: 5ed7 553d 87c6 0e3e 47b0 ad3d 656c 11bd
00000330: 6529 fbbd cb1d fd3d 0a37 533d 6be1 d83d
00000340: ac00 a53c cb01 3bbd a4ef 403d b332 cbbb
00000350: b847 4f3d 082d 413e 80fb b43d 8fad 3b3d
00000360: 8c7d 41bd e109 873d 6416 5dbd 9da0 0bbe
00000370: 0438 a43c eb54 68bd 5f39 833d 39ec 30be
00000380: 64cf c0bd bd62 553d ddb2 aebd 727a 433d
00000390: b778 5b3d 45cc 283e 7976 d4bd eed3 abb9
000003a0: dc64 183e fb31 2abc 4eaf e8bd 0098 90bd
000003b0: 777f ccbc 349e 263d a6ec 303d ff11 e1bc
000003c0: 4888 613d 74ac 6e3d bbfd ffbc 8c62 183e
000003d0: be34 603d 641c 29bd 9bfe 8ebd da17 523c
000003e0: 5bc2 15bd ae7e a2bc bf8d 52bd b33c 19be
000003f0: 514b 6d3c 972e c43d 08e8 bebc b99e 813d
-0.0070143365 -0.010288792 -0.041299246 0.015410018 -0.0744214 0.13981415 -0.02963624 0.034581505
-0.06775104 0.01776879 0.06561947 -0.14272359 -0.018730672 -0.059759147 0.18216872 -0.1760231
-0.0710304 0.027017254 -0.12826215 0.026045337 0.021686643 0.023990445 0.06938217 0.06527714
0.024360063 0.03517012 -0.15676747 0.0764228 -0.018694961 0.05201138 -0.04867869 -0.10752585
0.006550879 -0.0071790013 -0.077817105 0.08127762 -0.18172114 0.008711222 -0.060088027 -0.08378035
0.017156158 -0.1145582 0.04565961 0.09501443 0.05401636 -0.08541992 -0.1143663 0.13031936
-0.07226687 -0.045227792 0.081622116 0.09587575 -0.06846184 -0.02300403 -0.07142787 -0.12945275
0.12222445 0.06437121 -0.06126088 0.024344001 -0.04073683 0.0007560508 0.059883703 0.0977782
0.06341188 0.019859739 0.20365316 -0.07806338 -0.011734397 -0.1448112 0.050408043 -0.065234564
0.053272765 -0.03481403 -0.0031411303 0.19189769 0.16828978 0.07735616 0.10220691 -0.045674864
-0.09591314 0.07225678 -0.048002392 0.0043528187 0.042924702 -0.0036007569 -0.03728214 0.031106478
0.23745908 0.06634513 -0.00872129 -0.01424792 -0.1164109 -0.055216108 -0.04720279 0.08102126
-0.0057091536 0.08738134 0.024592647 0.049576502 -0.09283933 -0.011185163 -0.06462796 -0.01060269
0.04544828 0.023003262 0.18046828 -0.047211636 0.006464454 -0.057946496 -0.10228093 -0.052595735
0.17954557 0.084421024 0.028478207 -0.017973697 -0.0046085734 0.20819375 0.06253286 0.031286705
-0.01653303 0.014016842 0.0641046 0.14665301 0.0026892591 0.0043790047 0.034368105 0.098698325
-0.033349305 -0.06816284 0.0026763647 -0.051886644 0.021516778 -0.08955519 0.09463661 -0.10806173
-0.103281535 0.10017912 -0.16301078 -0.008814987 0.02318422 0.028084606 0.0753289 0.023870122
0.12161022 -0.020186208 0.09545803 0.10937425 -0.27555263 0.112212494 0.09213601 -0.021808827
0.07458496 0.14668238 -0.009536617 -0.045350097 0.0768156 -0.026128067 -0.057415217 -0.11548796
-0.053047266 0.0934663 -0.0053674458 -0.046606984 -0.0049694832 -0.12578829 0.042843442 -0.08732748
-0.15521768 -0.0802258 -0.00031440653 0.044040073 -0.14100529 0.067994475 -0.11006815 -0.06735629
0.1944863 -0.013123489 0.027386848 0.17751077 -0.13095841 0.01740491 0.016108101 0.21196473
-0.09592538 -0.04092131 0.0756274 0.024599982 0.048778765 0.2107854 0.0925348 0.13766707
-0.095407374 -0.05618357 0.1504991 -0.010480762 0.0055123838 0.13292669 0.009121484 -0.1041465
0.052207343 0.1394292 0.08480888 -0.035503764 -0.12263755 0.12359198 0.05156616 0.1058987
0.020141922 -0.045656007 0.04710354 -0.006201112 0.050605506 0.18864834 0.08837032 0.045819815
-0.04723887 0.06593681 -0.05397643 -0.13635488 0.020046242 -0.05672161 0.06407427 -0.17277612
-0.094145566 0.052096117 -0.08530209 0.047724195 0.05358192 0.16484173 -0.10374159 -0.00032773562
0.14882225 -0.010387893 -0.11361562 -0.07060242 -0.024963124 0.040678218 0.043194436 -0.027474402
0.05506161 0.058269933 -0.031248918 0.14881343 0.0547378 -0.04128684 -0.06982156 0.0128230695
-0.036562305 -0.019835796 -0.05140471 -0.14964561 0.014483289 0.09579199 -0.023304 0.06329102

network_body._body_endoder.seq_layers.2.bias f4 [128]
00000000: 2315 68bb c64d 86bb b8f3 cfbb bc7e 31bb
00000010: 8e7c b2bb 216f ddba 6d5e 2bbb a5fa 23bc
00000020: 32db 8abb 57e3 5aba e47c 833b fc7c 98bb
00000030: 7c00 e9ba 92bf adbb 69c6 b1bb 3599 e5bb
00000040: 0b31 c6bb 5a65 bfba e7ce ffbb 4a8c a7bb
00000050: dd2c c7bb 449d c7bb 9e21 f4bb 6103 9a3a
00000060: 5b84 42bc ec26 dcbb fd25 fbbb f0c8 c9bb
00000070: 0b70 02bc db12 94ba fd8b 98bb 01f7 71ba
00000080: 0caf b7bb 28e1 c8ba dac8 92bb 2f6c c6bb
00000090: ce6d a5ba 7039 ccbb 5fc4 a1bb fc38 a8bb
000000a0: 1924 fe37 84e5 a1bb 315b 30bb 3227 32bc
000000b0: 0392 ccba 893d 14bc d371 c1ba d62f 6aba
000000c0: 6bdb c4bb f56f f6ba f1a5 a0bb 97ee c0bb
000000d0: e9b3 04bb 01ec 3ebb 3946 c9bb 3a67 46bb
000000e0: 94ef a2ba 9887 05bb 3439 53bb f67d 82bc
000000f0: da3e acbb eb26 3abb d2c8 9eba f7fd 8dbb
00000100: 1e06 9fbb 17c8 4ebb 97d4 70bb 70ab 1ebb
00000110: febb 8cbb 98b7 33bb 9c7a 09bb e2cd bcba
00000120: 3f2f 06ba 88ce 7bbb 663f afbb 1652 21bb
00000130: 55a8 233b 0861 91bb 6880 28bb 7718 75bb
00000140: 2908 b0bb ceda 1cbc 6bd5 d1bb 704f 3cbb
00000150: 9c7a 59bb 59bc 5f3b dfd7 c23b 68e2 93bc
00000160: c65c 97ba 7b2f ff3a ad74 85bb e209 c1bb
00000170: 8fc0 f0bb a6f2 a0bb 4124 d5bb 39ae 6a3a
00000180: a932 b2bb e933 61bb 290f 13bc 7499 433b
00000190: 92bb 70bc 87f0 92bb e55c acbb f086 57bb
000001a0: 699e f13a 066f babb 33d4 d9bb 755b 01bc
000001b0: ae19 3abb 913e 31bb a256 78bb f97d 473a
000001c0: e392 b6ba 7a63 73bb 6af2 7bbb a6e7 85bb
000001d0: 4d37 35ba ea82 26bb 82f5 df39 72d8 643b
000001e0: 102f 72bb 2d7d d4bb aa99 ccbb c1ce f0bb
000001f0: 8252 153a 5d9f aebb 7420 afbb ec2c 9bb9
-0.003541299 -0.004098627 -0.006346192 -0.0027083596 -0.005446977 -0.0016894081 -0.0026148811 -0.010008489
-0.004237556 -0.00083499163 0.004012691 -0.004653571 -0.0017776634 -0.005302378 -0.0054252637 -0.007006789
-0.006048327 -0.0014602349 -0.007806647 -0.0051131593 -0.006078346 -0.0060917456 -0.0074502965 0.0011750275
-0.011872376 -0.006718507 -0.0076644407 -0.006157987 -0.007961283 -0.0011297123 -0.00465536 -0.0009230227
-0.005605584 -0.0015325891 -0.00447951 -0.006055377 -0.0012621225 -0.006232433 -0.0049367393 -0.005133746
3.0295969e-05 -0.0049406905 -0.0026909823 -0.010873603 -0.001560748 -0.009047874 -0.0014758654 -0.000893352
-0.006007602 -0.0018801676 -0.0049025943 -0.005887817 -0.0020248836 -0.0029132369 -0.0061424044 -0.003027393
-0.0012431019 -0.002037501 -0.003223014 -0.015929203 -0.005256516 -0.0028404545 -0.0012114292 -0.0043332535
-0.004853024 -0.0031552368 -0.0036747807 -0.0024211071 -0.0042948714 -0.0027422663 -0.0020977622 -0.001440462
-0.00051187346 -0.0038422663 -0.005348134 -0.0024615577 0.002497216 -0.004436616 -0.0025711302 -0.0037398615
-0.0053720665 -0.0095736515 -0.006403615 -0.0028733872 -0.0033184653 0.0034139364 0.005946144 -0.018052295
-0.0011548034 0.0019469106 -0.0040727467 -0.0058910707 -0.0073471735 -0.0049117384 -0.006504566 0.0008952353
-0.005438168 -0.0034363216 -0.008975782 0.0029846104 -0.014693158 -0.0044842395 -0.0052600973 -0.0032886826
0.0018434051 -0.0056895046 -0.0066476106 -0.00789534 -0.0028396654 -0.002704535 -0.0037893434 0.0007610019
-0.0013929274 -0.003713815 -0.003844405 -0.0040864525 -0.00069128425 -0.002540762 0.00042716792 0.003491905
-0.003695432 -0.0064846487 -0.006243904 -0.0073488657 0.00056961935 -0.005329056 -0.005344445 -0.00029597373

action_model._continuous_distribution.log_sigma f4 [1, 2]
00000000: 153e be3b f28e ca3c
0.0058057406 0.024726365

action_model._continuous_distribution.mu.weight f4 [2, 128]
00000000: 49cf 043c 3a04 a53c 34b7 4f3c 9f12 b83a
00000010: f651 dd3a c753 15bd 018c d1bb 1614 44bb
00000020: 7abc 3b3b d85d 50ba ad00 543c f149 093c
00000030: 51df 0bbd 14ce 263c 2684 803b cfde 4bba
00000040: daca 863c 775f bebc 0471 16bc 06f5 233c
00000050: b615 c2bc e221 153c ac64 3ebc 9b81 3c3c
00000060: a0b9 26bb 831f 9ebc e618 38bc 4527 f43b
00000070: 2685 a0bb a604 a13c 312c adbc e621 a4bc
00000080: 74f0 913c a670 42bc 7c86 32b9 4169 733c
00000090: 50f0 bbbb 7b73 03bc a872 6b3b e25a 9eb9
000000a0: 20e9 caba bf3f e63b 58af 5bbc c38c 49ba
000000b0: 630a 2dbc b55e 5cbb 0e56 3cba 776d 0fbc
000000c0: f001 2b3b f699 00bc 638a 723a e599 f5ba
000000d0: 3c6c 24bb 268b 09b7 e806 053c f823 96bb
000000e0: 2ebb 13bc 06cb da3b 99d4 fd3a 227f 99b9
000000f0: 8f2e 9b3b 424e 943c 0094 94b9 5ca8 c83b
00000100: 709b b83c 115d ac3c 9b59 30bc bc51 343c
00000110: ef23 e83c c656 273d e9eb 9639 ee8c 80bc
00000120: 49c1 1cbd d895 9fbb d16d 7d3c 124a e7bb
00000130: a1f2 cb3c 46bd cbbb 3fa8 97bc d2b0 583c
00000140: 336d dcb9 e357 94bb 69e9 753c c0f2 6ebc
00000150: a751 30bc 8f9f 623c 7351 673a b0d6 c63a
00000160: cc17 12ba 8974 2f3c ecad 073c 40bd abbc
00000170: ecec ccbb 7ee6 eabb 0cbf b0bc 52b8 923c
00000180: 8ef3 a63c 140e 123c ebc7 88bb 0bc1 163d
00000190: a59f 9ebb 2a17 733c 47e2 b23a 3580 f0bb
000001a0: fbaf 7ebc a98a 82bb 034f 52bc 3115 c23b
000001b0: c057 15bc 2751 3f3c 3a6d 2e3c 8d6e 12bd
000001c0: 03c9 05bc 9d53 c83c 3b82 f0bc 232a 413c
000001d0: ae55 5ebb fa9c 0cbc 9018 0fbd b174 da3c
000001e0: 755a f23b e78d bebb e0f1 e83b 2bcc 593b
000001f0: 61ca 0fbc a17f 0dbd 59a4 6e3c b5d0 d6bc
00000200: be2a b33b 37fa 1bbd 5316 bc39 12cd 02bb
00000210: e0c3 c93b 4ec0 a5ba fcd1 893c 7460 4dba
00000220: 6743 823c fbd4 cabb 39ec 043c ab3b 5f3c
00000230: fa43 23bd 8dde 033c 886f 3d3c b5cb cfbb
00000240: db0d a73b 5c98 c03b b1fe 603b fd53 21bc
00000250: d703 f63b c1fd f1bb 0ef4 633b 1414 193c
00000260: a8c4 70ba 1039 403c 202d 8f3b 86ba 90bb
00000270: fa50 cd3b 960f 943a 31b1 4f3c e30e cf3a
00000280: 77dc 143c 98ea 9ebc 2257 b93c 80f7 69ba
00000290: 903e 2fbd eb83 a7bc 9d11 22bb 2766 17bb
000002a0: b7dd c63a cd85 753c fb23 a03b afb1 4f3b
000002b0: 59c2 cd3b 9da3 783b d26d 1bbd cf01 1cbd
000002c0: 20c9 993c 0938 c2bc 2cff 433c 53c0 00bb
000002d0: c18c 11bb bae2 853c 6001 313c ea5f 313c
000002e0: 96f6 e4bc 2524 c73c 09c0 b73c 5f46 ac39
000002f0: b8e6 30bc 358d 9a3c 5a2d 0d3b aced ff3b
00000300: b68e afbc e534 7dbc b6af 89bc 5546 203c
00000310: 77f6 b2bb ab60 d2ba e0f9 123b 1ad1 743c
00000320: 72e7 9c3b 8e04 85bc 66da 45bc 1c8e 9a3c
00000330: c869 2ebb 810c 833c ad42 4e3c ecd8 683b
00000340: b1c4 4f3c 7300 03ba 316f 863b b9c6 fbba
00000350: 3cd2 0ebc b4c5 a43c 8901 04bb 22ab 8538
00000360: f267 5f3a aa14 b13b 319f 873c a227 863c
00000370: 361b 243c ec27 86bc e2a2 71bc 1661 b63c
00000380: e253 0cbc 2e42 07bc fdb2 10bb 8abd efba
00000390: 3c53 0539 3824 21bc db5a 8a3c 73f8 70bc
000003a0: ae26 94bc 4457 0b3b 5aa0 d2bb 906c 873b
000003b0: 1652 60bc a209 4ebc fd3b 6f3c c75d 94ba
000003c0: 74ce 6dba 36cc e7b9 fe06 86bc 1d89 a3bc
000003d0: 1f4a bf3a 99e2 7a3c 54d9 a63c 394d a8bb
000003e0: dd72 8b3b 67cc 533c 9607 5cbb d920 80bb
000003f0: e032 cdba 10fe 13bd 0341 5c3c 23d9 dbbc
0.008106061 0.020143617 0.012677956 0.0014043635 0.0016885388 -0.03645685 -0.0063948636 -0.0029919199
0.0028646276 -0.0007948554 0.012939614 0.008379445 -0.034148518 0.010180969 0.0039220033 -0.00077770365
0.016454149 -0.02323888 -0.009182218 0.010007149 -0.023691993 0.009102317 -0.011620682 0.01150551
-0.002544023 -0.019302135 -0.011236405 0.0074509704 -0.004898685 0.019655537 -0.021139236 -0.020035695
0.017814852 -0.011867678 -0.00017025502 0.014856637 -0.0057354346 -0.008023138 0.0035926495 -0.0003020382
-0.0015480854 0.007026642 -0.013408504 -0.00076885166 -0.010561558 -0.0033625786 -0.0007184454 -0.008754126
0.0026093684 -0.007849207 0.00092521886 -0.0018737881 -0.0025088927 -8.198234e-06 0.008119322 -0.0045819245
-0.009016795 0.0066770343 0.0019365727 -0.00029277155 0.004735775 0.018103722 -0.00028339028 0.0061235856
0.022535056 0.021040471 -0.010763551 0.011005815 0.028337447 0.040854238 0.00028785996 -0.0156922
-0.03827027 -0.0048701577 0.015468077 -0.0070583904 0.024895968 -0.0062176315 -0.018512843 0.013225751
-0.0004204303 -0.0045270785 0.015009263 -0.014584243 -0.010761655 0.013831987 0.00088240876 0.0015170183
-0.0005573004 0.0107089365 0.008281212 -0.020964265 -0.006253829 -0.00716859 -0.021575473 0.017910156
0.020379808 0.008914489 -0.0041742227 0.036805194 -0.0048408085 0.014837066 0.0013647758 -0.007339502
-0.015544887 -0.0039838147 -0.012836221 0.0059229364 -0.0091151595 0.011677063 0.010646159 -0.03574996
-0.008165601 0.024453932 -0.029358974 0.011789831 -0.003392558 -0.008582348 -0.034935534 0.02666697
0.007396037 -0.005815256 0.007108912 0.0033233266 -0.008776278 -0.034545545 0.014565551 -0.026222566
0.0054677418 -0.03808042 0.00035874787 -0.0019958657 0.0061573833 -0.0012645812 0.016823761 -0.0007834502
0.01590128 -0.00618994 0.0081129605 0.013625066 -0.03985975 0.008048666 0.011562236 -0.0063414224
0.0050980872 0.0058775377 0.0034331495 -0.0098466845 0.007507782 -0.007384986 0.003478292 0.009343166
-0.00091845775 0.011732355 0.004369393 -0.0044167666 0.0062657567 0.0011296149 0.012676523 0.0015797283
0.009085766 -0.019398972 0.022624556 -0.0008925125 -0.042784274 -0.020448646 -0.0024729737 -0.002310166
0.0015172277 0.014985514 0.0048871017 0.00316916 0.0062792716 0.0037939318 -0.03794653 -0.038087662
0.018772662 -0.02370836 0.011962693 -0.0019645884 -0.002220914 0.016343463 0.0108035505 0.01082609
-0.027949613 0.024309227 0.022430437 0.00032858827 -0.010797195 0.01886616 0.0021541924 0.007810315
-0.021430355 -0.015454506 -0.016807418 0.009782393 -0.00546151 -0.0016050538 0.002242677 0.014942432
0.0047883326 -0.016237523 -0.012075996 0.018866591 -0.0026613344 0.015997173 0.012589139 0.0035529686
0.012681172 -0.00049973204 0.0041026105 -0.0019209004 -0.008717116 0.020113803 -0.0020142517 6.37381e-05
0.0008522264 0.0054040747 0.0165554 0.01637632 0.010016253 -0.016376458 -0.014748307 0.022263091
-0.008564921 -0.008255525 -0.0022079342 -0.001829074 0.00012714876 -0.009835295 0.016889026 -0.014707672
-0.01808485 0.002126173 -0.006427807 0.0041328147 -0.013691446 -0.012575539 0.014601705 -0.0011319452
-0.00090715964 -0.00044211902 -0.016360756 -0.019962842 0.0014594233 0.015312814 0.020367302 -0.005136159
0.004255636 0.012927151 -0.0033573858 -0.0039101657 -0.0015655421 -0.036130965 0.013443234 -0.026836937

action_model._continuous_distribution.mu.bias f4 [2]
00000000: a3bd 29bb ba04 07b9
-0.0025900386 -0.00012876364
