results/test_8/Boss/Boss-1499940.onnx (onnx, 75574 bytes, 7 tensors)

network_body._body_endoder.seq_layers.0.weight f4 [128, 7]
0.19209297 0.25949317 -0.78877676 0.21594837 -0.15420023 -0.17160217 -1.1131628 0.16911462
-0.10521731 -0.4721992 -0.21016923 -0.4518998 -0.009964159 0.053112287 0.3048088 0.24967757
0.21454528 0.0015763271 0.1395561 0.109868556 0.22639747 0.5493209 -0.018395258 0.050133355
-0.35904336 0.34665552 -0.08044335 -0.14595254 0.31287032 -0.063286796 0.16637145 1.1238497
-0.907912 0.35920668 -0.17783782 0.07131602 0.041939896 0.16476828 0.53783774 0.024228904
0.11295538 0.33357146 0.34292045 0.012000135 -0.59203666 -0.036315247 0.16030374 -0.65195566
-0.35464835 0.20617475 -0.35731232 -0.23143904 0.0031355263 0.32191965 -0.13490076 0.38861784
-0.32940948 0.32723445 0.11595224 0.060515285 0.2698642 -1.0380589 0.17172919 0.12791039
-0.6771925 0.08244375 -0.24749094 -0.089573964 0.063629754 -0.27333933 0.050414737 -0.09978378
0.23516278 -0.12463229 -0.10025961 0.16712455 -0.4327353 -0.38791212 0.14152686 -0.4522758
0.037286025 0.26904982 -0.16033627 -0.22051409 -0.16769849 -0.14300798 0.43842724 0.33390862
0.38983417 0.36454257 -1.2875512 0.40591148 -0.3178392 0.77205914 -0.08904775 0.014519262
0.5294192 -0.27223465 0.51850045 -0.6583693 -0.6790446 -0.3838256 -0.31003577 -0.079986244
-0.0714398 0.38077024 -0.06873603 -0.36978805 0.14192133 -0.16156918 0.36153793 0.20303103
0.25131035 -0.6295049 0.1452577 0.220965 0.07486577 -0.37991646 -0.32457033 0.1714235
-0.3477703 0.27201498 0.45988044 -0.059401304 0.6354223 0.3313044 0.14461686 0.6300432
-0.014012627 0.03731132 -0.26717147 -0.25524405 -0.23745646 -0.0038037878 -0.12959842 -0.29725465
-0.016959615 0.15890998 -0.043810874 0.059531845 0.3433885 0.14323673 0.718948 -0.24654965
0.4904508 -0.12737708 -0.36306357 -0.085568145 0.10106261 0.40138552 0.079391606 -0.2172975
-0.3971154 0.18935424 -0.24955991 0.72067773 -0.07484222 -0.44887954 -0.43515238 0.23148838
-0.17296207 0.533027 -0.19707075 -0.16050275 -0.31678364 -0.19345397 -0.3473496 -0.29143155
0.45661062 -0.080887176 -0.274015 0.067667484 -0.45430332 -0.052465793 0.24507286 0.31130633
0.6504946 0.13822664 -0.364437 -0.2637863 0.5715427 0.23341379 -0.12483703 0.3043501
-0.475055 0.78191316 0.5857701 -0.13256635 -0.5845714 0.37927687 -3.8746213e-05 -0.4746773
-0.5624972 0.3088709 -0.47458163 0.31101996 0.12674595 0.56159496 0.25111142 -0.24946697
0.26262483 0.32135808 -0.3284062 -0.018032014 -0.76672214 0.20204224 -0.5544437 0.32570496
-0.0020131187 0.64455616 0.21771485 0.077784345 0.5486022 -0.4966431 -0.17465197 -0.28366986
-0.34504944 -0.2315675 1.3789182 0.3818877 -0.121754535 0.42619795 0.39382085 0.56784475
-0.32514793 0.29703513 0.6646502 0.11773154 -0.32751918 0.31076264 -0.4475817 -0.35292056
-0.048960455 -0.123054504 0.2913723 -0.7886521 0.30011737 -0.054809604 0.10730073 -0.3079425
-0.7501535 0.70558137 -0.36220333 0.5687025 0.20150174 -0.8349659 0.0025205673 -0.5085185
-0.46352214 -0.043287378 0.37523845 -0.15648143 -0.69331956 0.3057906 0.49724755 0.095882446
00000000: 05b4 443e 4adc 843e 46ed 49bf 9221 5d3e
00000010: aae6 1dbe 7bb8 2fbe 1e7c 8ebf 622c 2d3e
00000020: 2c7c d7bd 18c4 f1be 9a36 57be 695f e7be
00000030: b640 23bc 458c 593d e60f 9c3e 7aab 7f3e
00000040: c2b1 5b3e c39c ce3a cbe7 0e3e c402 e13d
00000050: bdd4 673e 4ba0 0c3f a7b1 96bc a258 4d3d
00000060: 88d4 b7be d57c b13e 7cbf a4bd 9574 15be
00000070: 8a30 a03e 829c 81bd 475d 2a3e 4fda 8f3f
00000080: ec6c 68bf f0e9 b73e 1e1b 36be 220e 923d
00000090: 2bc9 2b3d 04b9 283e bcaf 093f b27b c63c
000000a0: 2655 e73d e1c9 aa3e 4593 af3e 379c 443c
000000b0: b78f 17bf 4cbf 14bd aa26 243e 91e6 26bf
000000c0: 7894 b5be 791f 533e a4f1 b6be 5bfe 6cbe
000000d0: 677d 4d3b a7d2 a43e 6d23 0abe ebf8 c63e
000000e0: 5ca8 a8be 468b a73e 5e78 ed3d e0de 773d
000000f0: a42b 8a3e 1ddf 84bf c7d9 2f3e f1fa 023e
00000100: 7d5c 2dbf 45d8 a83d 446e 7dbe 8e72 b7bd
00000110: 5150 823d 22f3 8bbe af7f 4e3d 705b ccbd
00000120: 83ce 703e 373f ffbd e954 cdbd b322 2b3e
00000130: 7b8f ddbe 6b9c c6be 6bec 103e b290 e7be
00000140: 3bb9 183d e6c0 893e 312f 24be 72ce 61be
00000150: 27b9 2bbe af70 12be 8979 e03e 12f6 aa3e
00000160: 5898 c73e 53a5 ba3e 7ace a4bf a1d3 cf3e
00000170: d2bb a2be aba5 453f ab5e b6bd 33e2 6d3c
00000180: 0488 073f 5762 8bbe 72bc 043f e48a 28bf
00000190: ded5 2dbf ca84 c4be 02bd 9ebe d4cf a3bd
000001a0: 084f 92bd 51f4 c23e 7ac5 8cbd dc54 bdbe
000001b0: d353 113e 6472 25be 801b b93e 5ee7 4f3e
000001c0: c0ab 803e 3c27 21bf 6fbe 143e a644 623e
000001d0: 3a53 993d 6984 c2be 152e a6be a489 2f3e
000001e0: f30e b2be 8c45 8b3e 7375 eb3e c84e 73bd
000001f0: 09ab 223f bba0 a93e 7116 143e 834a 213f
00000200: 3895 65bc c1d3 183d b3ca 88be 59af 82be
00000210: c927 73be f848 79bb 73b5 04be c331 98be
00000220: e4ee 8abc 4cb9 223e 0873 33bd aad7 733d
00000230: 9ed0 af3e a6ac 123e fa0c 383f 8377 7cbe
00000240: 5e1c fb3e 236f 02be 78e3 b9be 5a3e afbd
00000250: eaf9 ce3d 6782 cd3e 1198 a23d 3c83 5ebe
00000260: b652 cbbe 14e6 413e a28c 7fbe 567e 383f
00000270: e146 99bd 8ad3 e5be 4bcc debe 4a0b 6d3e
00000280: f81c 31be 7574 083f eacc 49be d55a 24be
00000290: 7731 a2be cc18 46be cfd7 b1be 8436 95be
000002a0: dec8 e93e 2da8 a5bd b24b 8cbe 4095 8a3d
000002b0: 729a e8be 5fe6 56bd 61f4 7a3e 8b63 9f3e
000002c0: d086 263f 498b 0d3e 7d97 babe ff0e 87be
000002d0: 9f50 123f 0604 6f3e 8faa ffbd c7d3 9b3e
000002e0: 693a f3be 762b 483f 07f5 153f 79bf 07be
000002f0: 79a6 15bf 9430 c23e 6e83 22b8 e708 f3be
00000300: d1ff 0fbf 5424 9e3e 5dfc f2be 023e 9f3e
00000310: b1c9 013e b0c4 0f3f ad91 803e 4574 7fbe
00000320: c376 863e 0c89 a43e dc24 a8be e0b7 93bc
00000330: e747 44bf 29e4 4e3e 06f0 0dbf cdc2 a63e
00000340: 87ee 03bb a201 253f a4f0 5e3e 664d 9f3d
00000350: 3271 0c3f 0148 febe f7d7 32be 2d3d 91be
00000360: 52aa b0be 0820 6dbe 6480 b03f c986 c33e
00000370: 715a f9bd 9e36 da3e e3a2 c93e 465e 113f
00000380: ca79 a6be fd14 983e 8426 2a3f 3c1d f13d
00000390: 98b0 a7be 481c 9f3e 6e29 e5be 01b2 b4be
000003a0: c28a 48bd 0004 fcbd c02e 953e 1be5 49bf
000003b0: fca8 993e 0980 60bd 7cc0 db3d a4aa 9dbe
000003c0: 0f0a 40bf fba0 343f b772 b9be 7d96 113f
000003d0: 7956 4e3e 53c0 55bf 1a30 253b 452e 02bf
000003e0: c652 edbe 1b4e 31bd 411f c03e ab3c 20be
000003f0: 647d 31bf 9690 9c3e 3b97 fe3e 045e c43d

network_body._body_endoder.seq_layers.0.bias f4 [128]
0.011298789 0.0073114564 0.009239141 -0.012582656 0.0010057717 0.0050643086 -0.011471856 -0.0011812039
0.00048338118 0.0031063196 0.012322498 -0.013251299 0.01526547 0.005367785 0.007872287 0.00028873887
-0.013452228 -0.016953545 -0.011690699 -0.013147224 -0.021752486 0.018262923 -0.011516386 -0.0030943803
0.012267363 -0.00440031 -0.0052989386 -0.0052285087 -0.029455386 -0.046098277 -0.010621878 -0.037714273
0.01760524 -0.01745533 -0.0125793675 -0.01147748 -0.00775655 0.0085825045 -0.02828561 0.0025654489
-0.0149947 -0.001504202 -0.010852092 -0.0038016536 -0.006917721 -0.008424227 0.006194565 0.0017328495
0.0035201826 -0.007276015 -0.0054372526 -0.014357165 -0.014501479 -0.015724113 -0.012764087 -0.008085999
-0.0052122963 -0.0036410354 -0.04986486 -0.015957173 -0.007350594 0.0009930118 -0.005200682 -0.009537682
0.0059555774 -0.010292093 -0.0076668127 -0.0046838024 -0.016819224 -0.008167763 -0.031566978 -0.017642379
0.003904832 -0.018037604 -0.013537828 0.012856852 -0.03098268 -0.010723649 -0.005319101 -0.022712408
0.020291293 -0.013513945 0.0012492639 -0.019883623 -0.013149767 -0.030822696 -0.0023372404 -0.0020975105
-0.023002645 0.007550637 -0.008411891 -0.013600684 -0.004055998 -0.007905178 -0.050107602 -0.004383488
-0.0062107136 0.012237467 -0.029417532 -0.01995722 -0.01286284 -0.0062179896 -0.033413913 -0.004139028
-0.011173756 -0.018694725 -0.008984841 -0.009333783 -0.015963629 -0.021389771 -0.0068621924 -0.009049678
-0.010329562 0.010792681 -0.017202979 0.0002691468 -0.045119118 0.0073445644 0.00030718982 -0.031068811
0.02886458 -0.011470126 0.0039532357 -0.01583697 -0.010395763 -0.026688136 -0.0012136528 0.003740938
00000000: 8e1e 393c f194 ef3b c45f 173c 7c27 4ebc
00000010: 19d4 833a 80f2 a53b 74f4 3bbc a0d2 9aba
00000020: 536e fd39 6593 4b3b 4de4 493c fa1b 59bc
00000030: 061c 7a3c 3fe4 af3b c4fa 003c e061 9739
00000040: bc66 5cbc 29e2 8abc 588a 3fbc 7467 57bc
00000050: 4532 b2bc 209c 953c 39af 3cbc 16cb 4abb
00000060: 0dfd 483c 7a30 90bb b8a2 adbb e953 abbb
00000070: 6c4c f1bc 8cd1 3cbd 6307 2ebc 487a 1abd
00000080: dd38 903c 7bfe 8ebc b119 4ebc 0a0c 3cbc
00000090: a82a febb a29d 0c3c 39b7 e7bc 1721 283b
000000a0: 55ac 75bc a528 c5ba f9cc 31bc 2a25 79bb
000000b0: 0dae e2bb c505 0abc c7fb ca3b c820 e33a
000000c0: ddb2 663b a36b eebb fb2a b2bb 513a 6bbc
000000d0: 9d97 6dbc dbcf 80bc 7620 51bc 237b 04bc
000000e0: e9cb aabb 709e 6ebb 183f 4cbd 9eb8 82bc
000000f0: 40dd f0bb f227 823a 7c6a aabb f043 1cbc
00000100: 0127 c33b 2ba0 28bc e339 fbbb 957a 99bb
00000110: 78c8 89bc 15d2 05bc 604c 01bd c086 90bc
00000120: 36e8 7f3b 99c3 93bc c4cd 5dbc 8ca5 523c
00000130: 64cf fdbc 3eb2 2fbc da4b aebb 5f0f babc
00000140: ed39 a63c 9869 5dbc 57be a33a fbe2 a2bc
00000150: 1f72 57bc e17f fcbc 632c 19bb 6376 09bb
00000160: 0b70 bcbc 556b f73b 07d2 09bc 67d5 5ebc
00000170: 2de8 84bb b884 01bc a13d 4dbd 5da3 8fbb
00000180: 3e83 cbbb a87f 483c 09fd f0bc 537d a3bc
00000190: a9be 52bc 47c0 cbbb 07dd 08bd afa0 87bb
000001a0: 2112 37bc ae25 99bc 2835 13bc b9ec 18bc
000001b0: 28c6 82bc 9a39 afbc 3edc e0bb 1a45 14bc
000001c0: 533d 29bc c9d3 303c 43ed 8cbc 461c 8d39
000001d0: d3ce 38bd acaa f03b 520e a139 0584 febc
000001e0: 6975 ec3c 32ed 3bbc 258a 813b 89bc 81bc
000001f0: fe52 2abc 14a1 dabc 6e13 9fba 862a 753b

network_body._body_endoder.seq_layers.2.weight f4 [128, 128]
-0.0085086785 -0.011053549 -0.039502267 0.015865343 -0.07417561 0.13690735 -0.031501282 0.049562797
-0.0665205 0.017742118 0.062167607 -0.14364532 -0.018861912 -0.060815215 0.18210354 -0.17718822
-0.06947592 0.024537884 -0.12856202 0.028678665 0.021924384 0.02306339 0.06957265 0.053649392
0.022243647 0.036433708 -0.17219713 0.07780768 -0.01838569 0.057112288 -0.049037676 -0.106255524
0.005877113 -0.008028098 -0.080261484 0.081938244 -0.17966327 0.0007308948 -0.06036371 -0.08492401
0.014116538 -0.1135355 0.04681459 0.09554885 0.055312537 -0.08385465 -0.11773836 0.13259833
-0.07704142 -0.04555251 0.077177726 0.094942965 -0.06706811 -0.022119753 -0.06712841 -0.1316301
0.12420221 0.06286287 -0.06325903 0.032548383 -0.0395729 -4.596557e-05 0.056738626 0.09950616
0.075322025 0.035238232 0.20299645 -0.07838754 -0.011864198 -0.14841998 0.050032564 -0.064386286
0.06603489 -0.0336036 -0.0030587318 0.19296916 0.16638038 0.07445514 0.10017 -0.046144795
-0.0931195 0.07252516 -0.04805008 0.00594593 0.04361015 -0.0035990435 -0.036747206 0.03206916
0.23913448 0.08901623 -0.0066917576 -0.01347699 -0.11536132 -0.04928276 -0.047090158 0.07527713
-0.009288105 0.08643584 0.025240526 0.05147452 -0.0972139 -0.00971901 -0.065269805 -0.0090389075
0.051261272 0.020464847 0.1770609 -0.046173315 0.010790948 -0.05782555 -0.10290224 -0.05351327
0.17712983 0.08619502 0.029525487 -0.010310526 -0.005121506 0.22814935 0.06315827 0.03163493
-0.014453901 0.014895724 0.06617069 0.14851004 0.0048817894 0.0053170524 0.03356728 0.09279003
-0.03246062 -0.06713103 0.00065739517 -0.052527484 0.0213742 -0.08749691 0.09593571 -0.12558696
-0.104718864 0.10033534 -0.16019925 -0.008740936 0.023452964 0.029140968 0.07604919 0.025107633
0.121134855 -0.017775614 0.095661856 0.1078665 -0.27590275 0.1128739 0.091532536 -0.010096893
0.07659157 0.14540415 0.002425396 -0.04668725 0.07634249 -0.029316975 -0.057154763 -0.11664855
-0.052399196 0.093845084 -0.0036371967 -0.047135405 -0.0062897503 -0.121872686 0.042886592 -0.086285025
-0.15266626 -0.08133574 -0.0009810282 0.044915516 -0.1420959 0.0667779 -0.10716515 -0.06958924
0.19805874 -0.0124638425 0.02946551 0.17796357 -0.13187596 0.016546642 0.013206568 0.2130333
-0.09742666 -0.040939122 0.07742849 0.018703522 0.047518305 0.21181615 0.09445711 0.13604759
-0.10583349 -0.07412452 0.15051557 -0.009668094 0.005499912 0.13651462 0.008670682 -0.105045974
0.037942324 0.13821582 0.08524342 -0.036372695 -0.12138525 0.12545678 0.052908108 0.106027775
0.015183144 -0.04547362 0.047771923 -0.007044017 0.04968267 0.1887989 0.088389635 0.04596182
-0.048581745 0.04086348 -0.055491757 -0.13725065 0.019037275 -0.06142034 0.0637051 -0.16912653
-0.0909889 0.05280664 -0.08568735 0.047134772 0.05651726 0.1644225 -0.10328778 -0.00094280206
0.14417556 -0.008079396 -0.11086146 -0.07144791 -0.027618775 0.039501943 0.04328576 -0.026504565
0.056553576 0.05666791 -0.03199748 0.14234811 0.055003054 -0.06524846 -0.07036491 0.012627745
-0.038528416 -0.020665605 -0.05352418 -0.15083294 0.014407914 0.09483729 -0.023142742 0.0672113
00000000: fc67 0bbc f219 35bc 21cd 21bd 09f8 813c
00000010: 62e9 97bd 7131 0c3e 7d07 01bd 5c02 4b3d
00000020: e63b 88bd eb57 913c 76a3 7e3d c217 13be
00000030: 4c84 9abc 6019 79bd 5a79 3a3e d470 35be
00000040: 6449 8ebd ac03 c93c c3a5 03be 85ef ea3c
00000050: c49a b33c 6fef bc3c 1b7c 8e3d 77bf 5b3d
00000060: 4f38 b63c 833b 153d 7254 30be a259 9f3d
00000070: 969d 96bc 93ee 693d bbdb 48bd 7f9c d9bd
00000080: cc94 c03b 4988 03bc 2260 a4bd 3dcf a73d
00000090: a6f9 37be 8599 3f3a f03f 77bd a4ec adbd
000000a0: 0d49 673c 4d85 e8bd a8c0 3f3d 1eaf c33d
000000b0: 668f 623d fdbb abbd cf20 f1bd dbc7 073e
000000c0: e4c7 9dbd 4595 3abd 5b0f 9e3d 7571 c23d
000000d0: 015b 89bd 7c34 b5bc 9f7a 89bd 0aca 06be
000000e0: ba5d fe3d 40be 803d f38d 81bd 7451 053d
000000f0: 3117 22bd 28cb 40b8 c366 683d e3c9 cb3d
00000100: 6f42 9a3d f755 103d 4dde 4f3e a689 a0bd
00000110: 0e62 42bc 68fb 17be f2ee 4c3d f5dc 83bd
00000120: 4d3d 873d eea3 09bd 0175 48bb b599 453e
00000130: 9e5f 2a3e f07b 983d ee25 cd3d 5302 3dbd
00000140: 70b5 bebd 1288 943d 29d0 44bd 13d6 c23b
00000150: 8fa0 323d eedd 6bbb 3d84 16bd f45a 033d
00000160: abdf 743e 244e b63d 8846 dbbb 98ce 5cbc
00000170: 8e42 ecbd b8dc 49bd 9ce1 40bd e52a 9a3d
00000180: 232d 18bc 4605 b13d 38c5 ce3c f2d6 523d
00000190: 1518 c7bd 7c3c 1fbc 2dac 85bd ed17 14bc
000001a0: 57f7 513d e5a5 a73c 744f 353e 3b20 3dbd
000001b0: 84cc 303c 7cda 6cbd 69be d2bd bb30 5bbd
000001c0: 8661 353e 0487 b03d 6fdf f13c 7bed 28bc
000001d0: 4ed2 a7bb fc9f 693e 2059 813d a193 013d
000001e0: 0ed0 6cbc 320d 743c 8084 873d 0413 183e
000001f0: 6bf7 9f3b ab3a ae3b d87d 093d b308 be3d
00000200: 6df5 04bd fe7b 89bd 0b55 2c3a 0f27 57bd
00000210: f218 af3c 9431 b3bd f179 c43d de99 00be
00000220: d876 d6bd 9d7c cd3d 460b 24be 2536 0fbc
00000230: 6e20 c03c 0ab9 ee3c adbf 9b3d 86ae cd3c
00000240: 8d15 f83d 2a9e 91bc 5dea c33d 1de9 dc3d
00000250: 2043 8dbe 6e2a e73d 6975 bb3d 706d 25bc
00000260: 0bdc 9c3d d3e4 143e 64f3 1e3b 213b 3fbd
00000270: 7459 9c3d 272a f0bc 1d1b 6abd 6fe5 eebd
00000280: 8aa0 56bd da31 c03d 095e 6ebb 0e11 41bd
00000290: 401a cebb 6398 f9bd daa9 2f3d 34b6 b0bd
000002a0: 8b54 1cbe 5a93 a6bd d895 80ba 55f9 373d
000002b0: 9681 11be dac2 883d 6779 dbbd ce84 8ebd
000002c0: e9cf 4a3e 2535 4cbc a761 f13c 153c 363e
000002d0: 7e0a 07be d38c 873c 5c60 583c 6725 5a3e
000002e0: a187 c7bd c8af 27bd d492 9e3d 2138 993c
000002f0: 8ea2 423d 55e6 583e bb72 c13d 0f50 0b3e
00000300: 3bbf d8bd 99ce 97bd c120 1a3e ed66 1ebc
00000310: 9b38 b43b 7dca 0b3e 7a0f 0e3c 5822 d7bd
00000320: 6969 1b3d 7388 0d3e 1a94 ae3d 89fb 14bd
00000330: d498 f8bd be77 003e 2cb6 583d 1725 d93d
00000340: b9c2 783c 8c42 3abd 7eac 433d 7fd1 e6bb
00000350: 0e80 4b3d 8054 413e a005 b53d 7642 3c3d
00000360: a7fd 46bd 7760 273d 534b 63bd 6f8b 0cbe
00000370: 0ff4 9b3c e593 7bbd d277 823d 812f 2dbe
00000380: 6358 babd c64b 583d d97c afbd 6410 413d
00000390: a47e 673d 5f5e 283e 8b88 d3bd 6026 77ba
000003a0: c2a2 133e 715f 04bc 550b e3bd 4853 92bd
000003b0: c540 e2bc cacc 213d 694c 313d 1a20 d9bc
000003c0: b9a4 673d 9c1c 683d ca0f 03bd b4c3 113e
000003d0: e24a 613d fca0 85bd 7a1b 90bd 9ae4 4e3c
000003e0: f9cf 1dbd ea4a a9bc 2c3c 5bbd f373 1abe
000003f0: 2c0f 6c3c 0e3a c23d d995 bdbc 14a6 893d

network_body._body_endoder.seq_layers.2.bias f4 [128]
-0.0026471468 -0.00502844 -0.00011764812 -0.009668976 -0.006155773 -0.011552991 -0.010982587 -0.013457581
-0.004634034 -0.0071404777 0.008623857 -0.0022374815 -0.009547876 -0.014570265 -0.006623865 -0.01104172
0.005312068 -0.014050933 -0.006254478 0.0043701506 0.0057080598 0.0050883475 -0.006492151 -0.0111527415
-0.010237457 -0.0038715675 -0.0077440506 -0.017214091 -0.008404652 -0.017669842 0.0007087489 -0.00796992
0.0046147425 -0.007808719 -0.006088008 -0.0009946916 -0.0010059818 -0.007958917 -0.0051181326 -0.0046679825
-0.001008491 -0.003860554 -0.022702947 -0.00076267467 0.00040946587 -0.010389532 0.0018006288 0.000599251
0.0018776241 -0.0057560536 -0.007815344 -0.006621861 -0.0091464305 -0.010699525 -0.00032659483 -0.0032131865
-0.0023053272 -0.0035268012 -0.00577706 -0.020080555 -0.0044783633 -0.0082580745 -0.0012487099 -0.0049000997
-0.0018620942 -0.016417973 -0.010040727 -0.018837998 -0.0046241195 -0.01653297 -0.0023641204 -0.017214559
-0.014195657 -0.006817724 -0.0012745843 -0.012355606 -0.019046763 0.0041184463 -0.01245847 -0.02348052
-0.008879733 -0.011608374 -0.00010557965 -0.011059671 -0.009882445 0.0036761274 -0.0026276242 -0.02753023
-0.0015602986 -0.014994663 -0.0024099518 -0.00092119095 -0.008446373 -0.00891708 -0.0033520653 -0.00060270284
-0.0025985844 0.0026063104 -0.016772866 -0.015946137 -0.044090915 -0.016912129 -0.008321336 -0.0044151517
0.0013966456 -0.01058954 -0.0035306783 -0.0063296794 -0.007407529 -0.012451073 -0.010882248 -0.017151032
-0.00096539274 -0.016466733 0.0044292025 0.0039864196 -0.0022777815 -0.013616062 -0.018606668 -0.016708393
0.001443885 -0.008339703 -0.01862643 -0.008222621 0.0014737509 -0.0065997792 -0.0047988193 -0.010006997
00000000: c17b 2dbb 9dc5 a4bb dab9 f6b8 a06a 1ebc
00000010: 5eb6 c9bb c248 3dbc 4ff0 33bc 307d 5cbc
00000020: 18d9 97bb abfa e9bb 144b 0d3c b6a2 12bb
00000030: b26e 1cbc 1fb8 6ebc 020d d9bb 55e8 34bc
00000040: db10 ae3b e235 66bc 5df2 ccbb 7b33 8f3b
00000050: ad0a bb3b 27bc a63b 1cbc d4bb fdb9 36bc
00000060: 02bb 27bc 20ba 7dbb cec1 fdbb 9104 8dbc
00000070: aab3 09bc 58c0 90bc 55cb 393a 4494 02bc
00000080: 4437 973b 48e0 ffbb ea7d c7bb 5060 82ba
00000090: 26db 83ba 1e66 02bc 02b6 a7bb e0f5 98bb
000000a0: 582f 84ba 5901 7dbb 88fb b9bc 3bee 47ba
000000b0: 94ad d639 db38 2abc 1403 ec3a 0e17 1d3a
000000c0: 9c1a f63a 479d bcbb ee0b 00bc 32fc d8bb
000000d0: e9da 15bc 0f4d 2fbc d13a abb9 5394 52bb
000000e0: f914 17bb e821 67bb 7e4d bdbb fa7f a4bc
000000f0: 3cbf 92bb e04c 07bc c0ab a3ba 0491 a0bb
00000100: 8311 f4ba fc7e 86bc dd81 24bc 2552 9abc
00000110: ed85 97bb 2770 87bc 5cef 1abb 8c05 8dbc
00000120: e794 68bc 3767 dfbb f40f a7ba 2b6f 4abc
00000130: f507 9cbc 08f4 863b 9c1e 4cbc 385a c0bc
00000140: 4d7c 11bc 0d31 3ebc a56a ddb8 9f33 35bc
00000150: fbe9 21bc 2feb 703b 3834 2cbb 1487 e1bc
00000160: ef82 ccba 2dac 75bc 48f0 1dbb 147c 71ba
00000170: a862 0abc f218 12bc 53ae 5bbb b4fe 1dba
00000180: 034d 2abb a2ce 2a3b 4067 89bc 79a1 82bc
00000190: ad98 34bd 4e8b 8abc 3656 08bc faac 90bb
000001a0: a60f b73a c07f 2dbc f462 67bb 3369 cfbb
000001b0: dbba f2bb 96ff 4bbc 754b 32bc 5280 8cbc
000001c0: 6912 7dba 3ee5 86bc d822 913b 83a0 823b
000001d0: d546 15bb e715 5fbc 036d 98bc 0ae0 88bc
000001e0: be40 bd3a 40a3 08bc 7496 98bc 2cb8 06bc
000001f0: e02a c13a f642 d8bb 6a3f 9dbb 63f4 23bc

action_model._continuous_distribution.log_sigma f4 [1, 2]
0.06803646 0.028108578
00000000: b356 8b3d f643 e63c

action_model._continuous_distribution.mu.weight f4 [2, 128]
-0.0016413905 -0.001794231 0.016664522 -0.010418098 0.00013121232 -0.043035053 0.007212034 -0.009478744
0.015233677 -0.020388499 -3.9739498e-05 0.017478779 -0.046717793 -0.0020929505 0.006223494 0.0038359107
0.03182376 -0.020536382 -0.016073838 0.020716773 -0.039916 0.022914218 -0.01775793 -0.0032037096
-0.010538276 -0.025845123 -0.017610008 -0.0031778663 -0.012189636 0.0050914814 -0.037585244 -0.04353864
0.031775746 0.0014668026 -0.012783244 0.016183505 0.0076017687 -0.02039723 0.00034294176 -0.001956276
-0.002038795 0.016057707 -0.00015969374 -0.015571308 -0.025965653 -0.010115051 0.01295612 0.0066791987
-0.0030587935 0.0036602223 0.009884421 3.1294705e-05 -0.020961614 -0.018259263 0.023642892 -0.00011591321
0.0054306136 -0.010912232 0.014456559 -0.0050726924 0.0075401124 -0.0002346517 -0.001630219 3.6688383e-05
0.010946898 0.0067168563 -0.025699431 -0.0018847976 0.007948865 0.027062826 -0.0018543939 -0.00026396208
-0.03554665 -0.0001600876 0.012936225 0.005064059 0.010207027 -0.023942014 -0.014855881 -0.0005848635
0.014037465 -0.010390117 0.020629328 -0.027085505 -0.018518299 -0.0029634016 -0.013481601 -0.002824047
0.0003911091 -0.0024432149 0.018286977 -0.029476887 -0.0135855805 -0.016201157 -0.030604778 -0.0011253117
0.005888629 0.0006065281 -8.7667955e-05 0.021837119 0.0014934193 0.0026529187 -0.009339473 -0.023403578
-0.029715884 0.00157578 -0.019792613 0.008931949 0.006104191 -0.005105894 -0.002573791 -0.023271075
-0.023655837 0.011102289 -0.045510273 0.02162066 -0.0035227067 0.004438105 -0.01796116 0.0107371565
-0.006440289 -0.013556518 -0.0034957132 0.0028022341 -0.024601685 -0.04348653 0.0045048543 -0.010443309
-0.0011811468 -0.029470745 -0.007194699 0.008403755 -8.672618e-06 0.0023164053 0.009809574 0.0032470603
0.007755622 -0.0029830898 1.1273042e-06 0.003106137 -0.032042366 0.007932131 0.001327631 -0.0039222706
-0.00046653717 0.008249634 0.0075031538 -0.015726976 0.011986091 -0.0110824695 0.0074473415 0.0070016636
0.003487186 0.014118701 0.006541825 -0.0008216755 0.008448562 0.0022568088 0.016830068 0.013738632
0.0038963365 -0.013741261 0.020260587 -0.0064803394 -0.03921144 -0.012136615 0.0005134917 -0.0006969987
-0.00017136362 0.0040963534 0.0012419164 0.006968183 0.011323488 0.007063636 -0.039476648 -0.041066665
0.0029719593 -0.017939337 0.0031131608 0.00045810427 -0.0002535333 0.015322669 0.0048634936 0.00012492879
-0.026398044 0.026071282 0.013544077 0.0027651067 -0.007517975 0.017208878 -0.00023555418 9.188785e-05
-0.010014222 -0.011975534 -0.013794143 0.008188576 0.0010305003 0.001088662 -0.00013065043 0.0092906365
0.006298807 -0.0047534225 -0.010156723 0.009844589 -0.0010401382 0.019825295 0.016581379 0.0031339338
0.005705762 0.0036856704 -0.0025648223 0.0019750255 -0.002063145 0.022948042 0.0065033683 0.0017472036
2.2536311e-05 0.0037905052 0.00677115 0.01729942 0.011036243 -0.005456246 -0.0059578903 0.021324778
-0.003277459 0.00079579814 -8.315672e-05 0.0020656001 -0.00072968943 -0.004112271 0.016018003 -0.008710722
-0.009378923 -0.0006777179 0.0025029492 -0.0025620481 -0.01642365 -0.005091514 0.013348611 0.00018019028
0.004438696 0.002235633 -0.010973148 -0.02097452 -0.00047420865 0.007702177 0.014884403 -0.0023350473
0.0005102987 0.012671714 0.00021087748 -0.0031465148 0.004163814 -0.02542019 0.001277919 -0.021298768
00000000: ed23 d7ba 672c ebba 0984 883c acb0 2abc
00000010: 0a96 0939 8645 30bd ed52 ec3b bc4c 1bbc
00000020: ac96 793c c805 a7bc f6ad 26b8 a82f 8f3c
00000030: 285b 3fbd e229 09bb 74ee cb3b e763 7b3b
00000040: a259 023d ea3b a8bc 48ad 83bc 39b6 a93c
00000050: f67e 23bd 99b6 bb3c 1479 91bc 54f5 51bb
00000060: bca8 2cbc 27b9 d3bc dd42 90bc c043 50bb
00000070: 0ab7 47bc 71d6 a63b fcf2 19bd 9355 32bd
00000080: 4927 023d ba41 c03a d070 51bc 4593 843c
00000090: 4218 f93b 1718 a7bc ddcc b339 dd34 00bb
000000a0: 4e9d 05bb 748b 833c 7673 27b9 cd1e 7fbc
000000b0: ecb5 d4bc 99b9 25bc e845 543c 2edd da3b
000000c0: 0a76 48bb 57e0 6f3b 44f2 213c 6f42 0338
000000d0: b1b7 abbc 7394 95bc bdae c13c 6e16 f3b8
000000e0: 4af3 b13b 38c9 32bc 34db 6c3c d438 a6bb
000000f0: 0c13 f73b d60c 76b9 13ad d5ba dae1 1938
00000100: 9e5a 333c 1319 dc3b 9d87 d2bc 500b f7ba
00000110: f53b 023c dcb2 dd3c 220f f3ba 6464 8ab9
00000120: 5d99 11bd 30dd 27b9 76f2 533c 68f0 a53b
00000130: 603b 273c 0b22 c4bc 1566 73bc 8651 19ba
00000140: 65fd 653c 4f3b 2abc d6fe a83c 6ce2 ddbc
00000150: b0b3 97bc a135 42bb efe1 5cbc a613 39bb
00000160: c60d cd39 581e 20bb 92ce 953c 8379 f1bc
00000170: 0e96 5ebc 4ab8 84bc dfb6 fabc 327f 93ba
00000180: 66f5 c03b 69ff 1e3a 60da b7b8 c2e3 b23c
00000190: d6be c33a 97dc 2d3b 9704 19bc dcb8 bfbc
000001a0: ba6e f3bc 678a ce3a 1e24 a2bc 4f57 123c
000001b0: aa05 c83b 584f a7bb 0cad 28bb fba2 bebc
000001c0: e3c9 c1bc 60e6 353c fb68 3abd cf1d b13c
000001d0: 36dd 66bb 866d 913b 4823 93bc e6ea 2f3c
000001e0: 0f09 d3bb 281c 5ebc 5618 65bb b0a5 373b
000001f0: 7989 c9bc ef1e 32bd 759d 933b 6a1a 2bbc
00000200: b6d0 9aba a26c f1bc 82c1 ebbb e7af 093c
00000210: 9c80 11b7 d5ce 173b 56b8 203c a2cc 543b
00000220: df22 fe3b f17f 43bb e14d 9735 5590 4b3b
00000230: db3e 03bd c5f5 013c e703 ae3a 6486 80bb
00000240: 8f99 f4b9 7929 073c 04dd f53b dcd5 80bc
00000250: 4f61 443c 3f93 35bc d408 f43b 366e e53b
00000260: 4689 643b 2052 673c ce5c d63b b665 57ba
00000270: d66b 0a3c f8e6 133b 36df 893c 0018 613c
00000280: ae59 7f3b 0723 61bc 88f9 a53c 0759 d4bb
00000290: 2d9c 20bd a7d8 46bc d89b 063a cab6 36ba
000002a0: 12b0 33b9 b43a 863b cdc7 a23a 5b55 e43b
000002b0: 2786 393c 1376 e73b 44b2 21bd 8535 28bd
000002c0: 34c5 423b 84f5 92bc 2c06 4c3b b72d f039
000002d0: aaec 84b9 ef0b 7b3c f15d 9f3b 51ff 0239
000002e0: b640 d8bc 7193 d53c fae7 5d3c cb36 353b
000002f0: 5859 f6bb a2f9 8c3c 18ff 76b9 eab3 c038
00000300: b112 24bc 0835 44bc d400 62bc 6129 063c
00000310: da11 873a 6fb1 8e3a 35ff 08b9 c137 183c
00000320: 3966 ce3b 99c2 9bbb 6268 26bc 334b 213c
00000330: 3f55 88ba a868 a23c acd5 873c af62 4d3b
00000340: 67f7 ba3b 4a8b 713b 9416 28bb 6e6f 013b
00000350: d435 07bb 88fd bb3c 351a d53b 6d02 e53a
00000360: 5c0c bd37 206a 783b 86e0 dd3b 83b7 8d3c
00000370: 5cd1 343c 4fca b2bb 683a c3bb 4db1 ae3c
00000380: a3ca 56bb 1c9d 503a 6d64 aeb8 055f 073b
00000390: a148 3fba 3bc0 86bb 3038 833c 6bb7 0ebc
000003a0: 0eaa 19bc e1a8 31ba 8508 243b 09e8 27bb
000003b0: e48a 86bc b7d6 a6bb 22b4 5a3c 76f1 3c39
000003c0: 7b72 913b b383 123b b8c8 33bc c2d2 abbc
000003d0: 359f f8b9 8b62 fc3b b6dd 733c 9807 19bb
000003e0: 91c5 053a 059d 4f3c fe1e 5d39 c235 4ebb
000003f0: 9a70 883b 013e d0bc d97f a73a c17a aebc

action_model._continuous_distribution.mu.bias f4 [2]
0.014813893 -0.0053840363
00000000: f8b5 723c 926c b0bb
