results/test_8/Boss/Boss-1999940.onnx (onnx, 75574 bytes, 7 tensors)

network_body._body_endoder.seq_layers.0.weight f4 [128, 7]
0.18783103 0.25522196 -0.78877676 0.22021939 -0.15847114 -0.17160217 -1.1243786 0.16945326
-0.10487858 -0.4721992 -0.21050791 -0.45156136 -0.009964159 0.053170502 0.30285433 0.24772246
0.21454528 0.0035313754 0.13760112 0.109868556 0.23870431 0.5490356 -0.018680964 0.050133355
-0.3587582 0.3463703 -0.08044335 -0.13897827 0.31287202 -0.0632303 0.16637145 1.1237934
-0.90785503 0.35920668 -0.17538568 0.07145078 0.042074006 0.16476828 0.5377025 0.024363074
0.11295538 0.3166909 0.33718863 0.0062588453 -0.59203666 -0.030573947 0.15456232 -0.65195566
-0.3775295 0.20695208 -0.3565346 -0.23143904 0.0023575476 0.32269737 -0.13490076 0.39542153
-0.3307761 0.32586807 0.11595224 0.06188197 0.26849782 -1.0380589 0.18571864 0.12819237
-0.67691016 0.08244375 -0.24777313 -0.089291744 0.063629754 -0.2897499 0.055528384 -0.09466471
0.23516278 -0.12975127 -0.09514054 0.16712455 -0.44635406 -0.39032918 0.13910903 -0.4522758
0.039703913 0.26663223 -0.16033627 -0.20795138 -0.1617592 -0.13705607 0.43842724 0.3279563
0.39578643 0.36454257 -1.2751757 0.40955666 -0.3141812 0.77205914 -0.09270547 0.018176923
0.5294192 -0.2897366 0.5206066 -0.6562471 -0.6790446 -0.38594773 -0.30791363 -0.079986244
-0.0544629 0.3798332 -0.069676034 -0.36978805 0.14286135 -0.16250911 0.36153793 0.22038011
0.24797936 -0.6328653 0.1452577 0.22432584 0.07150515 -0.37991646 -0.32246646 0.16725603
-0.35197628 0.27201498 0.46408665 -0.06360764 0.6354223 0.33493125 0.1424379 0.6278632
-0.014012627 0.039491024 -0.26935214 -0.25524405 -0.24165998 -0.0056907022 -0.1314882 -0.29725465
-0.01507007 0.1570202 -0.043810874 0.06447998 0.34168267 0.14153013 0.718948 -0.24484304
0.48874527 -0.12737708 -0.36446068 -0.086933225 0.099681094 0.40138552 0.08077299 -0.21867904
-0.3971154 0.18939734 -0.25026238 0.71997565 -0.07484222 -0.44817656 -0.4358554 0.23148838
-0.16018529 0.5338057 -0.19629195 -0.16050275 -0.3175622 -0.19267517 -0.3473496 -0.3044938
0.45362 -0.08389697 -0.274015 0.07067731 -0.4573132 -0.052465793 0.23012899 0.3115413
0.65072995 0.13822664 -0.36467206 -0.26355127 0.5715427 0.24797933 -0.12607399 0.3031112
-0.475055 0.7831521 0.5845312 -0.13256635 -0.58580035 0.37637565 -0.0029399127 -0.4746773
-0.5595955 0.3059699 -0.47458163 0.31616795 0.11367894 0.54851294 0.25111142 -0.2363831
0.24954103 0.32135808 -0.32962713 -0.027555298 -0.77625346 0.20204224 -0.54491234 0.31617317
-0.0020131187 0.63095164 0.21675396 0.07682362 0.5486022 -0.49568212 -0.17561306 -0.28366986
-0.3516823 -0.2327069 1.3777806 0.3818877 -0.12061442 0.42505783 0.39382085 0.58533067
-0.31874514 0.30346367 0.6646502 0.111302815 -0.32109064 0.31076264 -0.4693866 -0.35361645
-0.04969307 -0.123054504 0.2921056 -0.78938454 0.30011737 -0.048278917 0.102518216 -0.31328186
-0.7501535 0.71092165 -0.36754268 0.5687025 0.18961774 -0.8409516 -0.0034714837 -0.5085185
-0.4575297 -0.049279433 0.37523845 -0.17572895 -0.6945454 0.30456427 0.49724755 0.097108476
00000000: c756 403e 74ac 823e 46ed 49bf 3181 613e
00000010: 4246 22be 7bb8 2fbe a3eb 8fbf 2885 2d3e
00000020: 95ca d6bd 18c4 f1be 638f 57be 0d33 e7be
00000030: b640 23bc 50c9 593d b90f 9b3e f5aa 7d3e
00000040: c2b1 5b3e a66e 673b 4fe7 0c3e c402 e13d
00000050: e76e 743e 998d 0c3f d208 99bc a258 4d3d
00000060: 28af b7be 7357 b13e 7cbf a4bd 5250 0ebe
00000070: c330 a03e e37e 81bd 475d 2a3e 76d8 8f3f
00000080: 3069 68bf f0e9 b73e 4e98 33be c954 923d
00000090: cb55 2c3d 04b9 283e dfa6 093f 1295 c73c
000000a0: 2655 e73d 4f25 a23e fda3 ac3e 0017 cd3b
000000b0: b78f 17bf 3776 fabc 9645 1e3e 91e6 26bf
000000c0: 8c4b c1be 3feb 533e b48b b6be 5bfe 6cbe
000000d0: 1681 1a3b 9738 a53e 6d23 0abe b174 ca3e
000000e0: 7c5b a9be 2ed8 a63e 5e78 ed3d f377 7d3d
000000f0: 8c78 893e 1ddf 84bf 072d 3e3e dc44 033e
00000100: fc49 2dbf 45d8 a83d 3db8 7dbe 97de b6bd
00000110: 5150 823d 195a 94be bb71 633d 92df c1bd
00000120: 83ce 703e 84dd 04be 0bd9 c2bd b322 2b3e
00000130: 8588 e4be 3ad9 c7be 9972 0e3e b290 e7be
00000140: 92a0 223d 0584 883e 312f 24be 35f1 54be
00000150: 34a4 25be 6d58 0cbe 8979 e03e e3e9 a73e
00000160: 85a4 ca3e 53a5 ba3e f538 a3bf 69b1 d13e
00000170: 5cdc a0be aba5 453f 5edc bdbd c5e7 943c
00000180: 0488 073f 5b58 94be 7946 053f cfff 27bf
00000190: ded5 2dbf f19a c5be dba6 9dbe d4cf a3bd
000001a0: 7d14 5fbd 7f79 c23e 4fb2 8ebd dc54 bdbe
000001b0: 3f4a 123e ca68 26be 801b b93e 53ab 613e
000001c0: 4dee 7d3e 7603 22bf 6fbe 143e acb5 653e
000001d0: 4b71 923d 6984 c2be 531a a5be 2a45 2b3e
000001e0: 3c36 b4be 8c45 8b3e c49c ed3e b944 82bd
000001f0: 09ab 223f 1c7c ab3e 3edb 113e a5bb 203f
00000200: 3895 65bc 57c1 213d 86e8 89be 59af 82be
00000210: b775 77be 1279 babb d8a4 06be c331 98be
00000220: 74e8 76bc e7c9 203e 0873 33bd 140e 843d
00000230: 08f1 ae3e 46ed 103e fa0c 383f 22b8 7abe
00000240: d23c fa3e 236f 02be 979a babe 0c0a b2bd
00000250: 9a25 cc3d 6782 cd3e 4f6c a53d 66ed 5fbe
00000260: b652 cbbe 60f1 413e 6422 80be 5350 383f
00000270: e146 99bd 6677 e5be 7028 dfbe 4a0b 6d3e
00000280: 9d07 24be 7ea7 083f c200 49be d55a 24be
00000290: 8397 a2be a44c 45be cfd7 b1be 9de6 9bbe
000002a0: e140 e83e 2dd2 abbd b24b 8cbe 44bf 903d
000002b0: f524 eabe 5fe6 56bd efa6 6b3e 5782 9f3e
000002c0: 3d96 263f 498b 0d3e 4cb6 babe 31f0 86be
000002d0: 9f50 123f 4bee 7d3e 8a19 01be 6431 9b3e
000002e0: 693a f3be a87c 483f d6a3 153f 79bf 07be
000002f0: 03f7 15bf 4fb4 c03e 8dab 40bb e708 f3be
00000300: a741 0fbf 16a8 9c3e 5dfc f2be c4e0 a13e
00000310: 81d0 e83d 586b 0c3f ad91 803e 690e 72be
00000320: af87 7f3e 0c89 a43e e3c4 a8be a6bb e1bc
00000330: 8cb8 46bf 29e4 4e3e 607f 0bbf 73e1 a13e
00000340: 87ee 03bb 0c86 213f c0f4 5d3e b455 9d3d
00000350: 3271 0c3f 0cca fdbe e9d3 33be 2d3d 91be
00000360: b40f b4be b84a 6ebe 1d5b b03f c986 c33e
00000370: b104 f7bd 2ea1 d93e e3a2 c93e 3bd8 153f
00000380: 9032 a3be 975f 9b3e 8426 2a3f bbf2 e33d
00000390: fe65 a4be 481c 9f3e 7153 f0be 370d b5be
000003a0: f68a 4bbd 0004 fcbd dd8e 953e 1b15 4abf
000003b0: fca8 993e 1dc0 45bd 12f5 d13d 7b66 a0be
000003c0: 0f0a 40bf f6fe 353f 8e2e bcbe 7d96 113f
000003d0: 272b 423e 9b48 57bf d581 63bb 452e 02bf
000003e0: 5541 eabe 3bd9 49bd 411f c03e 4af2 33be
000003f0: bacd 31bf d9ef 9b3e 3b97 fe3e cfe0 c63d

network_body._body_endoder.seq_layers.0.bias f4 [128]
0.007028922 0.007650202 0.007284164 -0.012868352 0.0010469109 0.005198541 -0.017211972 -0.00040331544
-0.00088327023 0.0033886267 0.01744086 -0.015669087 0.021215873 0.009023982 0.009992814 -0.00065083813
-0.016809173 -0.021155056 -0.013870301 -0.015036435 -0.023458762 0.016883532 -0.01221894 -0.0023156614
0.009259932 -0.0041655493 -0.006537595 -0.008129615 -0.042537127 -0.055628996 -0.011582804 -0.03885437
0.024030684 -0.018183172 -0.017843 -0.017468803 -0.00898262 0.0071887267 -0.028300464 0.0029304216
-0.01785968 -0.0023328597 -0.012556817 -0.002710532 -0.0070937197 -0.008641282 0.006784704 0.0013909241
0.001066513 -0.009384563 -0.0073542427 -0.016625272 -0.017380977 -0.016234813 -0.014956922 -0.008333437
-0.0046634404 -0.005104705 -0.057074644 -0.020682197 -0.008953097 0.0012256386 -0.006953176 -0.015474748
0.0078676455 -0.010535373 -0.008421319 -0.0078078113 -0.018637266 -0.007878516 -0.036844864 -0.023341866
0.0045968164 -0.020189306 -0.016588435 0.0108411 -0.037201017 -0.014384478 -0.008062068 -0.026511205
0.028264564 -0.014692067 0.0010197782 -0.024111444 -0.014221213 -0.033655845 -0.006657301 -0.004488342
-0.027246047 0.010332325 -0.008770413 -0.016686246 -0.0054184073 -0.01014848 -0.05154953 -0.0021607033
-0.013367518 0.016893998 -0.035336815 -0.02471966 -0.014615541 -0.009858851 -0.038154285 -0.0029229901
-0.01445404 -0.018743416 -0.0075795464 -0.010507818 -0.02010859 -0.02261951 -0.0063931253 -0.0043428713
-0.0113126915 0.012030114 -0.019791085 0.00019737835 -0.052044876 0.009538457 0.0006105594 -0.032971717
0.038566414 -0.011518356 0.0024213565 -0.017668888 -0.012171261 -0.031106384 -0.0005907933 0.003478511
00000000: df52 e63b 8cae fa3b ffaf ee3b c8d5 52bc
00000010: 8038 893a 8658 aa3b 1f00 8dbc 1574 d3b9
00000020: 438b 67ba b913 5e3b 22e0 8e3c 755c 80bc
00000030: e9cc ad3c 53d9 133c e6b8 233c 029d 2aba
00000040: 64b3 89bc 5e4d adbc 4240 63bc 615b 76bc
00000050: 972c c0bc 554f 8a3c f331 48bc 5ac2 17bb
00000060: f8b6 173c 297f 88bb 5239 d6bb 1432 05bc
00000070: 693b 2ebd 3bdb 63bd cdc5 3dbc c325 1fbd
00000080: ffdb c43c e0f4 94bc 7c2b 92bc bc1a 8fbc
00000090: d72b 13bc 698f eb3b 60d6 e7bc 510c 403b
000000a0: 774e 92bc e4e2 18bb 1cbb 4dbc 2ea3 31bb
000000b0: 6f72 e8bb 2a94 0dbc 3952 de3b ab4f b63a
000000c0: 3dca 8b3a b6c1 19bc dcfb f0bb b931 88bc
000000d0: 8d62 8ebc dffe 84bc e10d 75bc f888 08bc
000000e0: c6cf 98bb 5f45 a7bb 1ac7 69bd b66d a9bc
000000f0: 03b0 12bc 9ba5 a03a 78d7 e3bb cc89 7dbc
00000100: 4ce7 003c 8f9c 2cbc 92f9 09bc abd8 ffbb
00000110: 2ead 98bc e414 01bc a4ea 16bd 7137 bfbc
00000120: e4a0 963b 0b64 a5bc 78e4 87bc de9e 313c
00000130: 1860 18bd e0ac 6bbc c416 04bc 072e d9bc
00000140: 168b e73c ffb6 70bc 14aa 853a 5d85 c5bc
00000150: 1700 69bc b6da 09bd 7d25 dabb f112 93bb
00000160: 1a33 dfbc e948 293c c7b1 0fbc 98b1 88bc
00000170: e58c b1bb cf45 26bc 9a25 53bd 969a 0dbb
00000180: 6f03 5bbc 4865 8a3c 56bd 10bd e280 cabc
00000190: 0676 6fbc 0587 21bc ab47 1cbd a38f 3fbb
000001a0: a3d0 6cbc cb8b 99bc d85d f8bb fc28 2cbc
000001b0: c5ba a4bc 8d4c b9bc 6c7d d1bb a54e 8ebb
000001c0: de58 39bc f519 453c ea20 a2bc 59f7 4e39
000001d0: 022d 55bd 3047 1c3c f30d 203a 5a0d 07bd
000001e0: d1f7 1d3d 7db7 3cbc 9faf 1e3b 58be 90bc
000001f0: f869 47bc d1d2 febc 78df 1aba bbf7 633b

network_body._body_endoder.seq_layers.2.weight f4 [128, 128]
-0.008807737 -0.011151017 -0.03923807 0.015841268 -0.07402396 0.1363535 -0.031897854 0.05234346
-0.06635553 0.017822761 0.061270546 -0.14396906 -0.019303156 -0.060955126 0.18214116 -0.17733966
-0.06913899 0.024085995 -0.12879445 0.028769206 0.021846078 0.023077521 0.06953492 0.052350733
0.021751212 0.03660686 -0.17504351 0.07800886 -0.01842242 0.05810531 -0.049286652 -0.106074855
0.0055765226 -0.007956239 -0.0806103 0.08198567 -0.17938198 -0.0010045294 -0.06033612 -0.085073374
0.013638601 -0.1134149 0.047120333 0.09895896 0.05547593 -0.08341633 -0.118326604 0.13296622
-0.077939995 -0.045562025 0.07658888 0.09465191 -0.06683642 -0.022043936 -0.06619683 -0.13231355
0.12449897 0.0624068 -0.06363562 0.034259968 -0.039421763 -0.00017458628 0.056161497 0.09978772
0.07739123 0.037743602 0.20282063 -0.07833157 -0.012083261 -0.14929791 0.049859278 -0.064311884
0.067534186 -0.03343006 -0.0029930067 0.19359022 0.16605091 0.074017674 0.099818565 -0.046431165
-0.09022571 0.07253826 -0.04798369 0.006200244 0.043663003 -0.00339208 -0.036485672 0.032336768
0.23932034 0.0925917 -0.0063565755 -0.013421573 -0.115241386 -0.048183672 -0.047145586 0.07390361
-0.0099412305 0.086455695 0.025669405 0.051795952 -0.09798764 -0.0093474155 -0.065111995 -0.008639301
0.052382328 0.019179711 0.17654699 -0.046066634 0.011586032 -0.057781756 -0.10315909 -0.053605627
0.17671923 0.08647457 0.029738154 -0.008935206 -0.0054733297 0.23072349 0.06318081 0.03159479
-0.013974399 0.014959936 0.0665347 0.1489745 0.005102739 0.005409739 0.033306636 0.09117408
-0.035286583 -0.06941334 0.0034056222 -0.05053008 0.02065986 -0.090255655 0.0965771 -0.11880474
-0.102298774 0.09853081 -0.16405441 -0.0072224806 0.020649316 0.02677089 0.0738564 0.022733876
0.11975734 -0.020337326 0.097106755 0.10943948 -0.27407128 0.11094927 0.093501054 -0.017368363
0.07377202 0.147775 -0.002954914 -0.044335697 0.07817936 -0.02669739 -0.05564057 -0.1143621
-0.05481762 0.092121586 -0.0059171035 -0.045403156 -0.003960161 -0.12191488 0.04126094 -0.08855383
-0.15520665 -0.079055496 -0.0022006114 0.038622268 -0.13982433 0.06567574 -0.11032953 -0.06676733
0.19463481 -0.014418953 0.026157761 0.17935844 -0.12981105 0.018674424 0.015342405 0.2139852
-0.09496037 -0.039344195 0.075323 0.022392115 0.04984145 0.20950063 0.09175848 0.13847493
-0.099508315 -0.06752761 0.15224227 -0.011751346 0.007055632 0.13605314 0.009820205 -0.10293641
0.046556976 0.14051439 0.08349522 -0.037533525 -0.123446055 0.12302133 0.050539903 0.107367896
0.017890748 -0.047603827 0.04572353 -0.008230356 0.05181567 0.18717654 0.08663773 0.044209346
-0.046301268 0.049572546 -0.053040106 -0.13512753 0.021226034 -0.057656363 0.06559873 -0.16974142
-0.09387358 0.050935797 -0.08685472 0.045850374 0.053463254 0.16291437 -0.10496016 -0.0023299076
0.14791329 -0.008169085 -0.11356308 -0.069319054 -0.024949433 0.041582856 0.044923775 -0.028689792
0.054259297 0.05924524 -0.033343606 0.1470049 0.05605059 -0.05600118 -0.0683649 0.014332886
-0.035646755 -0.01863008 -0.05079708 -0.15174933 0.015783336 0.09698134 -0.021495575 0.06690051
00000000: 544e 10bc c1b2 36bc 19b8 20bd 8cc5 813c
00000010: e099 97bd 40a0 0b3e 53a7 02bd 1966 563d
00000020: 68e5 87bd 0a01 923c d3f6 7a3d a06c 13be
00000030: a721 9ebc 15ac 79bd 3683 3a3e 8798 35be
00000040: be98 8dbd fe4f c53c b1e2 03be 66ad eb3c
00000050: 8cf6 b23c 120d bd3c 5368 8e3d b96d 563d
00000060: 992f b23c 13f1 153d 9b3e 33be 1cc3 9f3d
00000070: 9dea 96bc d5ff 6d3d cde0 49bd c63d d9bd
00000080: 43bb b63b e35a 02bc 0317 a5bd 1ae8 a73d
00000090: e9af 37be 6aaa 83ba 0223 77bd f33a aebd
000000a0: 7074 5f3c 1246 e8bd 4001 413d ffaa ca3d
000000b0: bb3a 633d 2ed6 aabd 3855 f2bd 4c28 083e
000000c0: 019f 9fbd 3f9f 3abd a1da 9c3d dcd8 c13d
000000d0: 88e1 88bd 7c95 b4bc 3492 87bd 347d 07be
000000e0: 51f9 fe3d 469e 7f3d 6453 82bd 2e54 0c3d
000000f0: b778 21bd 2611 37b9 9909 663d 815d cc3d
00000100: 4b7f 9e3d 0999 1a3d 36b0 4f3e 4d6c a0bd
00000110: dff8 45bc 8de1 18be 3e39 4c3d f3b5 83bd
00000120: 5d4f 8a3d f5ed 08bd 5226 44bb 843c 463e
00000130: 4009 2a3e 9496 973d ad6d cc3d 9b2e 3ebd
00000140: 42c8 b8bd f08e 943d 8c8a 44bd 6b2b cb3b
00000150: fad7 323d a94d 5ebb 0072 15bd 8f73 043d
00000160: 6410 753e b8a0 bd3d d24a d0bb 28e6 5bbc
00000170: ad03 ecbd 3e5c 45bd bb1b 41bd c75a 973d
00000180: 8be0 22bc af0f b13d a548 d23c fe27 543d
00000190: bead c8bd e725 19bc 7059 85bd db8b 0dbc
000001a0: da8e 563d c51e 9d3c bcc8 343e 5eb0 3cbd
000001b0: 57d3 3d3c 90ac 6cbd 1345 d3bd 9391 5bbd
000001c0: e3f5 343e 9419 b13d 6e9d f33c f864 12bc
000001d0: 9e59 b3bb c742 6c3e f164 813d 8a69 013d
000001e0: e1f4 64bc 851a 753c 5843 883d c58c 183e
000001f0: e134 a73b 2e44 b13b 8a6c 083d 7ab9 ba3d
00000200: aa88 10bd 9528 8ebd dc30 5f3b a1f8 4ebd
00000210: de3e a93c f5d7 b8bd 37ca c53d e64f f3bd
00000220: 0582 d1bd 85ca c93d e1fd 27be 8faa ecbb
00000230: c128 a93c a04e db3c 0642 973d 653c ba3c
00000240: 5643 f53d 779a a6bc e8df c63d ce21 e03d
00000250: 1253 8cbe 5f39 e33d 7b7d bf3d 1948 8ebc
00000260: c915 973d 5452 173e 3ba7 41bb 5999 35bd
00000270: 801c a03d 7cb4 dabc 5ee7 63bd ad36 eabd
00000280: 7188 60bd 3eaa bc3d 43e4 c1bb a9f8 39bd
00000290: 3dc4 81bb 82ae f9bd 3b01 293d b65b b5bd
000002a0: 7eee 1ebe d9e7 a1bd 2238 10bb 6232 1e3d
000002b0: 1c2e 0fbe 0181 863d 73f4 e1bd 4fbd 88bd
000002c0: 594e 473e 793d 6cbc cd48 d63c bda9 373e
000002d0: 30ed 04be 1bfb 983c b65e 7b3c f01e 5b3e
000002e0: 957a c2bd 6127 21bd f242 9a3d ab6f b73c
000002f0: 8c26 4c3d 5587 563e dfeb bb3d 5fcc 0d3e
00000300: 04cb cbbd ea4b 8abd 66e5 1b3e b888 40bc
00000310: ee32 e73b 8451 0b3e ede4 203c 53d0 d2bd
00000320: 87b2 3e3d 01e3 0f3e 8bff aa3d c1bc 19bd
00000330: 49d1 fcbd 9bf2 fb3d ee02 4f3d b3e3 db3d
00000340: 9e8f 923c 3bfc 42bd 9948 3b3d 9dd8 06bc
00000350: ab3c 543d 35ab 3f3e 1f6f b13d dc14 353d
00000360: 66a6 3dbd 950c 4b3d 9540 59bd df5e 0abe
00000370: 38e2 ad3c 1429 6cbd a158 863d b2d0 2dbe
00000380: cb40 c0bd 0ea2 503d e3e0 b1bd 9acd 3b3d
00000390: 49fc 5a3d 06d3 263e 5af5 d6bd 5db1 18bb
000003a0: 9576 173e a0d7 05bc c393 e8bd 26f7 8dbd
000003b0: c162 ccbc c952 2a3d fe01 383d db06 ebbc
000003c0: ff3e 5e3d 23ab 723d 4e93 08bd 7488 163e
000003d0: 4e95 653d 7e61 65bd e602 8cbd 7bd4 6a3c
000003e0: 5502 12bd 1c9e 98bc 9910 50bd 2d64 1bbe
000003f0: 0e4c 813c 279e c63d 7d17 b0bc 2203 893d

network_body._body_endoder.seq_layers.2.bias f4 [128]
-0.0025518974 -0.0028429572 -0.00075108535 -0.008885135 -0.0061852904 -0.010934036 -0.014051132 -0.015339704
-0.0059520393 -0.0061487113 0.008034521 -0.0032571505 -0.00965148 -0.01805107 -0.0062930896 -0.013243967
0.0074215615 -0.014670374 -0.008130422 0.006410043 0.0047224322 0.007144315 -0.008533911 -0.015042528
-0.011872819 -0.005320517 -0.0093230475 -0.020062465 -0.0108416695 -0.021858277 -0.00014853936 -0.009058262
0.006326216 -0.009827463 -0.00730095 -0.0023045188 -0.0004260555 -0.00910369 -0.005265247 -0.004484682
-0.0011858484 -0.005344029 -0.025087744 -0.0025889613 0.0011982034 -0.013350175 0.003566713 0.001916852
0.0014645288 -0.0076992153 -0.009854473 -0.006362964 -0.009102649 -0.010055621 0.00046428887 -0.0033919583
-0.0020195954 -0.003540235 -0.007742364 -0.02377062 -0.006275364 -0.009690434 -0.0015018741 -0.0051327283
-0.0023771834 -0.020184372 -0.010364526 -0.022603571 -0.009168212 -0.020435328 -0.0025680622 -0.021635368
-0.014628738 -0.006605154 -0.002435966 -0.01579539 -0.023042424 0.0033254814 -0.013876367 -0.027990071
-0.0101882825 -0.014493284 -0.00025223833 -0.010280919 -0.009910475 0.0060215527 -0.0015510011 -0.03150615
-0.0014534022 -0.01875721 -0.0035350425 -0.0011971013 -0.01104125 -0.01190812 -0.0042533935 -6.623451e-06
-0.0027984595 0.0026189103 -0.016963566 -0.019404138 -0.04700776 -0.020337878 -0.010558174 -0.0042537577
0.0005095889 -0.010734981 -0.0060972846 -0.0083261635 -0.007697942 -0.01799568 -0.013700216 -0.019036334
-0.0016329028 -0.020252878 0.003611183 0.0060512978 -0.0018121928 -0.016764684 -0.023155617 -0.020712655
-0.0038551704 -0.010189386 -0.02152703 -0.0091537405 0.0020171893 -0.008614833 -0.0050500818 -0.01285519
00000000: bc3d 27bb e850 3abb 7ce4 44ba f592 11bc
00000010: faad cabb ac24 33bc b836 66bc 6253 7bbc
00000020: 5309 c3bb 217b c9bb 39a3 033c eb75 55bb
00000030: 3e21 1ebc d6df 93bc 4336 cebb 39fd 58bc
00000040: 9230 f33b 025c 70bc 7635 05bc 570b d23b
00000050: a2be 9a3b dc1a ea3b d1d1 0bbc ef74 76bc
00000060: 3686 42bc bb57 aebb b2bf 18bc 0a5a a4bc
00000070: 42a1 31bc 2110 b3bc 3bc1 1bb9 1b69 14bc
00000080: 254c cf3b 5e03 21bc cf3c efbb 6907 17bb
00000090: 3460 dfb9 a527 15bc 1888 acbb 3df4 92bb
000000a0: 786e 9bba f71c afbb d084 cdbc 90ab 29bb
000000b0: 090d 9d3a b1ba 5abc 84bf 693b e13e fb3a
000000c0: 6ff5 bf3a b349 fcbb a874 21bc 6980 d0bb
000000d0: 4723 15bc 55c0 24bc cc6b f339 9e4b 5ebb
000000e0: 305b 04bb 4a03 68bb a8b3 fdbb 9aba c2bc
000000f0: 92a1 cdbb a0c4 1ebc 88da c4ba 7230 a8bb
00000100: 85ca 1bbb b259 a5bc f9cf 29bc 202b b9bc
00000110: 4536 16bc fd67 a7bc ef4c 28bb a83c b1bc
00000120: 60ad 6fbc 0c70 d8bb baa4 1fbb 5565 81bc
00000130: 77c3 bcbc 52f0 593b b459 63bc 6f4b e5bc
00000140: c1ec 26bc 3d75 6dbc db3e 84b9 4d71 28bc
00000150: 8c5f 22bc 7250 c53b f64a cbba 980c 01bd
00000160: 1680 beba b8a8 99bc 2cac 67bb 0ee8 9cba
00000170: 5ce6 34bc 461a 43bc 0d60 8bbb 033f deb6
00000180: 5c66 37bb 06a2 2b3b 2df7 8abc 6df5 9ebc
00000190: 358b 40bd 9f9b a6bc 31fc 2cbc 1b63 8bbb
000001a0: ef95 053a c6e1 2fbc bbcb c7bb 766a 08bc
000001b0: 053f fcbb ad6b 93bc df76 60bc 16f2 9bbc
000001c0: 2007 d6ba 5de9 a5bc 99a9 6c3b f749 c63b
000001d0: 1a87 edba 1756 89bc d9b0 bdbc 96ad a9bc
000001e0: 07a7 7cbb 62f1 26bc 7459 b0bc 92f9 15bc
000001f0: d232 043b 3a25 0dbc 287b a5bb 939e 52bc

action_model._continuous_distribution.log_sigma f4 [1, 2]
0.07660993 0.05999844
00000000: abe5 9c3d edc0 753d

action_model._continuous_distribution.mu.weight f4 [2, 128]
0.0020841705 -0.006214141 0.014838089 -0.014200981 -0.00033757012 -0.046752334 0.008740422 -0.0105535695
0.015268075 -0.023949733 4.7375343e-06 0.016008835 -0.048364 -0.004695075 0.003322843 0.0028059199
0.03542214 -0.024749748 -0.016355226 0.021922028 -0.043517374 0.026383916 -0.017566184 -0.004342189
-0.012903719 -0.025639301 -0.01821011 -0.0050700917 -0.012503372 0.00085100933 -0.04119896 -0.047497492
0.034672145 0.0034093664 -0.016173864 0.013667179 0.009681133 -0.022667916 -0.0009441048 0.0010975302
0.0007779104 0.014524648 -0.00028963765 -0.018156372 -0.028814893 -0.009832702 0.01534417 0.010199061
-0.0006919694 0.004020927 0.00818653 -0.00064079196 -0.025466321 -0.021821963 0.027170897 5.051455e-05
0.008379354 -0.01458855 0.014555162 -0.0053054644 0.0047872043 -0.0035024646 0.0011002328 -0.00043914496
0.0069120997 0.0029146767 -0.03018205 -0.00308991 0.0023332476 0.023062097 0.0012018299 0.0024870408
-0.03918081 -0.0018630493 0.0077301743 0.0026371197 0.007819123 -0.027343083 -0.019136501 -0.0017665004
0.016264467 -0.0104462635 0.020697894 -0.030672025 -0.022942292 -0.007343275 -0.015182099 -0.0032038644
-0.0005868898 -0.0039985427 0.017283503 -0.030529939 -0.013862578 -0.015972616 -0.031514484 -0.0053577814
-0.00200139 -0.0023507013 -0.0002660011 0.019006776 -0.00016912211 0.0004260318 -0.011129462 -0.027124016
-0.0331206 0.0051895226 -0.0186464 0.0055151223 0.009622426 -0.0055988743 -0.0057946867 -0.025375752
-0.02691986 0.0072526354 -0.048595004 0.023833213 0.001223724 0.003903783 -0.017145963 0.0072670956
-0.0076732673 -0.014809543 -0.005648766 -0.0028733753 -0.026771512 -0.04389625 -0.0011568475 -0.006713014
0.0010823949 -0.026683357 -0.008294657 0.01060532 0.00024314238 0.0049141645 0.006096634 0.0043141814
0.004265678 -0.00015572834 -0.00043444353 -0.00011553944 -0.027377782 0.007368697 -0.00017479582 -0.0016887771
-0.0028300255 0.010433709 0.008587428 -0.017374963 0.014363128 -0.012616373 0.00853934 0.0067912233
0.0042066295 0.014830384 0.0073622726 0.00063605106 0.008871187 0.0027641943 0.019179184 0.016144374
0.0011534224 -0.009612185 0.019128913 -0.0067011737 -0.03704094 -0.008909131 0.00011011431 0.0010665675
0.00075805566 0.0005435116 0.0003875172 0.009544565 0.013146917 0.007813761 -0.03980038 -0.041951757
0.004370704 -0.013908421 0.00035564855 0.00026070635 0.0021702826 0.017443 0.0023163015 -3.3680415e-06
-0.02530375 0.027463552 0.009165131 0.0033186353 -0.004669033 0.016490428 0.0010442169 0.00030063617
-0.0033454963 -0.00995993 -0.011354768 0.007962098 0.0026951318 0.0022393996 0.0012726686 0.006324419
0.008640468 -0.00038994802 -0.0074801403 0.006386394 -4.1468305e-05 0.022070775 0.018966705 0.0032223447
0.0028597014 0.0046852217 -0.0044550067 0.004543501 0.00036168314 0.024764994 0.008468975 0.0021495565
0.00021841004 0.0036896123 0.0028029792 0.01769267 0.011034409 -0.002291324 -0.0029042976 0.02250947
-0.0010274512 -0.00065022305 -3.8437855e-05 0.0033492805 -0.0002723599 -0.0019973402 0.0152876275 -0.0058094664
-0.006605873 -0.00022526212 0.0047440156 -0.002699818 -0.017346375 -0.0023753606 0.012419254 0.0012255908
0.0068870857 0.003240194 -0.008025395 -0.02140258 0.0010280702 0.0043851906 0.0131534105 -0.0011067765
0.004899571 0.012518473 0.0013615147 -0.0011827557 0.0062431 -0.02174728 -0.00039220636 -0.01715998
00000000: 9496 083b fe9f cbbb 751b 733c 3bab 68bc
00000010: e5fb b0b9 607f 3fbd fd33 0f3c e1e8 2cbc
00000020: f326 7a3c 3b32 c4bc 1cf7 9e36 f624 833c
00000030: 5419 46bd 25d9 99bb 0ec4 593b 86e3 373b
00000040: ce16 113d fcbf cabc 65fb 85bc d395 b33c
00000050: 463f 32bd 1523 d83c f5e6 8fbc ec48 8ebb
00000060: 1f6a 53bc 8309 d2bc 5e2d 95bc 0323 a6bb
00000070: f1da 4cbc 4516 5f3a 3ec0 28bd bb8c 42bd
00000080: 6104 0e3d ad6f 5f3b 0d7f 84bc 4eec 5f3c
00000090: 9d9d 1e3c 11b2 b9bc cd7d 77ba 01db 8f3a
000000a0: afec 4b3a caf8 6d3c 82da 97b9 acbc 94bc
000000b0: 360d ecbc 5719 21bc 1d66 7b3c f619 273c
000000c0: 4865 35ba fbc1 833b cc20 063c d2fa 27ba
000000d0: bf9e d0bc f9c3 b2bc 8095 de3c 96df 5338
000000e0: 8f49 093c d004 6fbc c678 6e3c 76d9 adbb
000000f0: fbdd 9c3b 9b89 65bb b035 903a 0a3d e6b9
00000100: e57e e23b 2904 3f3b 5940 f7bc 1680 4abb
00000110: 66e9 183b b9ec bc3c b886 9d3a 9ffd 223b
00000120: 0f7c 20bd 9031 f4ba 674d fd3b 87d3 2c3b
00000130: c71b 003c 9afe dfbc 27c4 9cbc eb89 e7ba
00000140: 0f3d 853c ce26 2bbc a18e a93c e643 fbbc
00000150: 79f1 bbbc db9f f0bb 57be 78bc edf7 51bb
00000160: 82d9 19ba 3506 83bb 2296 8d3c ec19 fabc
00000170: de1f 63bc 01d9 82bc 5515 01bd 5490 afbb
00000180: c129 03bb 390e 1abb 1076 8bb9 19b4 9b3c
00000190: 5f56 31b9 055d df39 5958 36bc 2f33 debc
000001a0: 77a9 07bd df0c aa3b 56c0 98bc 33b8 b43b
000001b0: 61a7 1d3c c376 b7bb 5be1 bdbb cfe0 cfbc
000001c0: 0a87 dcbc 84a7 ed3b 8e0b 47bd df3d c33c
000001d0: 5d65 a03a 9cd6 7f3b b175 8cbc d120 ee3b
000001e0: 0870 fbbb baa3 72bc 4919 b9bb 3d4f 3cbb
000001f0: ee4f dbbc 8ecc 33bd 5ca1 97ba d8f8 dbbb
00000200: 25df 8d3a 0e97 dabc 50e6 07bc f0c1 2d3c
00000210: 09f4 7e39 0007 a13b 46c6 c73b fa5d 8d3b
00000220: 1ac7 8b3b 024b 23b9 06c6 e3b9 c44d f2b8
00000230: 5f47 e0bc 1c75 f13b 6549 37b9 f559 ddba
00000240: f377 39bb 26f2 2a3c 49b2 0c3c f055 8ebc
00000250: 5353 6b3c e7b4 4ebc 97e8 0b3c e988 de3b
00000260: c4d7 893b 24fb 723c 383f f13b aabc 263a
00000270: 7558 113c 7c27 353b aa1d 9d3c 3541 843c
00000280: 6f2e 973a 6d7c 1dbc 3db4 9c3c 8595 dbbb
00000290: 3eb8 17bd 9bf7 11bc 2ced e638 11cc 8b3a
000002a0: 41b8 463a 727a 0e3a ae2b cb39 cf60 1c3c
000002b0: 2b66 573c 4a05 003c b905 23bd 9bd5 2bbd
000002c0: 1f38 8f3b 25e0 63bc 5776 ba39 6aaf 8839
000002d0: 4d3b 0e3b 9fe4 8e3c 17cd 173b 8306 62b6
000002e0: cf49 cfbc 3efb e03c 5829 163c 767d 593b
000002f0: b0fe 98bb ef16 873c 1bde 883a b49e 9d39
00000300: 1d40 5bbb f92e 23bc 5909 3abc 7673 023c
00000310: cfa0 303b e4c2 123b accf a63a 123d cf3b
00000320: c090 0d3c f071 ccb9 f71b f5bb f544 d13b
00000330: 41ee 2db8 c5cd b43c 1060 9b3c f92d 533b
00000340: d469 3b3b 7d86 993b 4efb 91bb a6e1 943b
00000350: 4aa0 bd39 f5df ca3c 75c1 0a3c 93df 0c3b
00000360: 0005 6539 6ccd 713b 30b2 373b 38f0 903c
00000370: aac9 343c 0a2a 16bb 0756 3ebb c865 b83c
00000380: 8bab 86ba bb73 2aba 5538 21b8 9a7f 5b3b
00000390: 87cb 8eb9 cfe5 02bb f578 7a3c 565d bebb
000003a0: 1476 d8bb 5734 6cb9 b073 9b3b 6eef 30bb
000003b0: fc19 8ebc f0ab 1bbb 207a 4b3c 01a4 a03a
000003c0: 10ad e13b 6f59 543b f27c 03bc 7754 afbc
000003d0: 50c0 863a a5b1 8f3b 6781 573c 4211 91ba
000003e0: 958c a03b 481a 4d3c da74 b23a b206 9bba
000003f0: eb92 cc3b 5a27 b2bc 0ca1 cdb9 1693 8cbc

action_model._continuous_distribution.mu.bias f4 [2]
0.019273799 -0.0077189943
00000000: 16e4 9d3c 9eef fcbb
