Assets/MLBrain/Boss.onnx (onnx, 75574 bytes, 7 tensors)

network_body._body_endoder.seq_layers.0.weight f4 [128, 7]
00000000: 0d48 993e 51cc bb3e 46ed 49bf cf53 253e
00000010: 3de9 29bd 7bb8 2fbe ca47 c4bf 7fa8 143e
00000020: 6e36 04be 18c4 f1be 1e58 37be 8f5f f9be
00000030: b640 23bc 2c63 853e 4a2d 923e b7e5 6b3e
00000040: c2b1 5b3e 2420 bb3c 3343 093e c402 e13d
00000050: 3e7a 2c3d 59bc 093f 3f26 f3bc a258 4d3d
00000060: 4e91 afbe 17c5 a93e 7cbf a4bd f62a 653e
00000070: 4cd9 ae3e c061 10bd 475d 2a3e 5cf1 943f
00000080: e412 5dbf f0e9 b73e 5396 8dbe 9e3c 833d
00000090: fa1b 0e3d 04b9 283e 0bc7 0c3f 2916 003d
000000a0: 2655 e73d 9a92 1d3f 8c00 bd3e a29b 1c3d
000000b0: b78f 17bf 5999 4bbd 44d2 543e 91e6 26bf
000000c0: 0533 1bbf f244 783e 4a5e a4be 5bfe 6cbe
000000d0: 6f36 01bd 5156 c03e 6d23 0abe 42b8 313f
000000e0: 791b c4be 5f17 8c3e 5e78 ed3d 5a0b 8b3d
000000f0: 57da 623e 1ddf 84bf 9c20 e4bd 5f6e f43d
00000100: 5a8f 2fbf 45d8 a83d c6b4 77be 7317 cbbd
00000110: 5150 823d 3083 e9be 7eb1 9f3d eade 93bd
00000120: 83ce 703e f936 21be 2ae8 9bbd b322 2b3e
00000130: 5406 1dbf 6ceb c7be 3d4e 0e3e b290 e7be
00000140: 114b d53c c859 983e 312f 24be a8e8 8cbe
00000150: b762 42be 7422 29be 8979 e03e a798 d03e
00000160: 3d55 c23e 53a5 ba3e 0d83 dbbf b8c4 d33e
00000170: 3ecd 9ebe aba5 453f 8871 d8bd 1667 603d
00000180: 0488 073f f061 0bbe 0a63 023f 79e8 2abf
00000190: ded5 2dbf 9816 c5be a809 9ebe d4cf a3bd
000001a0: 8745 bbbe b6e5 ed3e 7f29 793c dc54 bdbe
000001b0: fc13 023e c62e f0bd 801b b93e f3ca 073f
000001c0: d439 913e 2ed6 18bf 6fbe 143e 647b 683e
000001d0: 40d6 ff3d 6984 c2be 9360 13bf b84a 8d3e
000001e0: 16e3 78be 8c45 8b3e 8d7f 033f ec38 363d
000001f0: 09ab 223f df38 1e3f fae1 273e 6c3d 263f
00000200: 3895 65bc 3f13 193d 03e9 90be 59af 82be
00000210: 57a3 0ebe 7580 363c b5cc eabd c331 98be
00000220: 6b66 00bd ea5a 463e 0873 33bd 6c99 aa3e
00000230: a242 ad3e 5792 0d3e fa0c 383f bf1d 94be
00000240: 5543 003f 236f 02be 3f43 29be d001 41bd
00000250: fba9 0e3e 6782 cd3e 53bf 2f3e fad9 59be
00000260: b652 cbbe 34a2 f03e b9b7 52be efb3 433f
00000270: e146 99bd a463 ecbe 7465 ddbe 4a0b 6d3e
00000280: 3100 88be 0476 123f 63c4 21be d55a 24be
00000290: 3490 b4be daf2 1ebe cfd7 b1be 41ad e0be
000002a0: 0f03 da3e 1103 e5bd b24b 8cbe a05d a43d
000002b0: 5874 fbbe 5fe6 56bd 7b1a a63d 3e49 a23e
000002c0: c8f9 273f 498b 0d3e a6bc b0be fc44 9abe
000002d0: 9f50 123f 6880 d13e 43a2 2fbe a5ec 833e
000002e0: 693a f3be 6a7a 523f 8899 183f 79bf 07be
000002f0: 255a 31bf 97f4 bf3e 264c 90bb e708 f3be
00000300: 8d3c 10bf b668 ab3e 5dfc f2be 2304 b33e
00000310: 557d 0a3e b8f2 113f ad91 803e ca3c 8cbe
00000320: f36a 903e 0c89 a43e 2fa6 debe 5270 a33d
00000330: 8f37 2bbf 29e4 4e3e 5187 1ebf 5110 da3e
00000340: 87ee 03bb 49d2 7c3f 876f 6d3e 644e bc3d
00000350: 3271 0c3f 0bef 02bf 63a9 2abe 2d3d 91be
00000360: 2513 04bf ed47 7fbe a23c ae3f c986 c33e
00000370: cf7b 0fbe 7eb9 c53e e3a2 c93e 2175 473f
00000380: 31af 82be cbd0 bb3e 8426 2a3f 2ab8 023e
00000390: e572 89be 481c 9f3e f076 c6be 24b9 8dbe
000003a0: b09e e23c 0004 fcbd 5010 8f3e 3e24 41bf
000003b0: fca8 993e 54f4 233e aae7 093e 9f45 8fbe
000003c0: 0f0a 40bf e46d 313f 8873 b8be 7d96 113f
000003d0: aa2a 533e e019 55bf d439 a63b 452e 02bf
000003e0: 8c5d e2be 5cb9 80bd 411f c03e 2adc 9b3d
000003f0: 0aac 36bf 8e33 923e 3b97 fe3e 723e bd3d
0.29937783 0.3667932 -0.78877676 0.16145252 -0.0414822 -0.17160217 -1.5334408 0.14517401
-0.12911388 -0.4721992 -0.17904708 -0.48705718 -0.009964159 0.26052225 0.28550178 0.23036848
0.21454528 0.022842474 0.1340454 0.109868556 0.042108767 0.5380302 -0.029681323 0.050133355
-0.34290546 0.3315818 -0.08044335 0.2237967 0.3415016 -0.03524947 0.16637145 1.1636157
-0.8635695 0.35920668 -0.2765375 0.06408046 0.03469465 0.16476828 0.54991215 0.031271134
0.11295538 0.6155182 0.3691448 0.03823436 -0.59203666 -0.04970679 0.20783335 -0.65195566
-0.60624725 0.2424505 -0.32103187 -0.23143904 -0.031546053 0.37565854 -0.13490076 0.6942178
-0.3830221 0.2736158 0.11595224 0.067892745 0.22153603 -1.0380589 -0.11139032 0.11935114
-0.6857811 0.08244375 -0.24190053 -0.09916582 0.063629754 -0.456079 0.07797526 -0.07220252
0.23516278 -0.15743627 -0.07612641 0.16712455 -0.6133778 -0.390468 0.13897033 -0.4522758
0.026036771 0.29755998 -0.16033627 -0.27521253 -0.18982969 -0.16517049 0.43842724 0.40741464
0.37955657 0.36454257 -1.7149369 0.41361022 -0.31015962 0.77205914 -0.10568529 0.05478581
0.5294192 -0.13611579 0.5093237 -0.66760975 -0.6790446 -0.384938 -0.30866742 -0.079986244
-0.36576483 0.46464318 0.015207647 -0.36978805 0.12702936 -0.11727671 0.36153793 0.5304405
0.28364432 -0.5970181 0.1452577 0.2270332 0.12492037 -0.37991646 -0.57569236 0.27596068
-0.24305376 0.27201498 0.513665 0.04448788 0.6354223 0.6180553 0.16394797 0.6493747
-0.014012627 0.03737187 -0.28302774 -0.25524405 -0.13929497 0.011139025 -0.11464826 -0.29725465
-0.031347673 0.19370618 -0.043810874 0.33320177 0.338399 0.13825355 0.718948 -0.28928944
0.5010274 -0.12737708 -0.16529559 -0.04712087 0.1393203 0.40138552 0.17162828 -0.21274558
-0.3971154 0.4699875 -0.20577897 0.7644643 -0.07484222 -0.4616977 -0.43241465 0.23148838
-0.26562646 0.5721133 -0.15797572 -0.16050275 -0.35266268 -0.15522328 -0.3473496 -0.43882182
0.4258046 -0.111822255 -0.274015 0.0802567 -0.491122 -0.052465793 0.081105195 0.31696504
0.6561551 0.13822664 -0.34518927 -0.30130756 0.5715427 0.4091828 -0.17151742 0.25766483
-0.475055 0.8221804 0.5960927 -0.13256635 -0.69278175 0.37491295 -0.004403609 -0.4746773
-0.56342393 0.33478326 -0.47458163 0.34964094 0.13524373 0.57010984 0.25111142 -0.27390128
0.28206596 0.32135808 -0.43486163 0.07980408 -0.6688165 0.20204224 -0.61925226 0.42590573
-0.0020131187 0.9875837 0.23187076 0.09194639 0.5486022 -0.51146 -0.16666178 -0.28366986
-0.5159171 -0.24929781 1.3612254 0.3818877 -0.14012073 0.38618082 0.39382085 0.779131
-0.25524285 0.36682734 0.6646502 0.12765566 -0.2684547 0.31076264 -0.38762617 -0.27680314
0.027663559 -0.123054504 0.27942133 -0.75445926 0.30011737 0.16011173 0.13467279 -0.27982804
-0.7501535 0.69308305 -0.36025643 0.5687025 0.20621744 -0.8324261 0.0050728116 -0.5085185
-0.44211996 -0.062853545 0.37523845 0.07610352 -0.7135626 0.28554958 0.49724755 0.09240426

network_body._body_endoder.seq_layers.0.bias f4 [128]
00000000: 10e3 f23d 7aea 87bc 7dfc 24bc cf89 c3bc
00000010: e813 ef3c 63d8 0ebb 8ad7 713c 8bc4 0f3d
00000020: 2ba4 59bd 6272 b3bb 826f 233d e17d 81bc
00000030: 40e3 e1bb 5cd3 553c 2f21 b2ba a17d ac3d
00000040: 8cc2 9b3c bbb1 b33d 6f6f fa3b be2e ec3a
00000050: a306 dbbc 549b 673d a32c 043d b873 133d
00000060: 96c9 98bc 645a a53a 38ed 54bd 872d 1dbc
00000070: 1795 abbc 7b2b 543d 98f3 673b 71fc 62bd
00000080: 0a05 b33d 2a18 723d faf7 7c3c eb40 12bc
00000090: a85b e5bc e92e db3c 8585 0c3d 9ed8 a3bc
000000a0: 8a2b ae3d 7884 65bc eac2 a63d a170 843d
000000b0: cb75 0f3d 8516 f43c 1598 283d 6cfd 79bb
000000c0: 25f6 e93c 53f6 5d3d 31e6 843c efd2 f8b9
000000d0: 7a46 943c 61d3 bdbc 0401 713c 475b 2e3c
000000e0: c56a 2b3b 88d5 473b c259 4cbc f5a0 8c3c
000000f0: 71d0 b7bc 9a28 d2bb 4d7d 123d 9241 afbc
00000100: b012 2a3c ff64 973b d2d3 4d3a b811 0bbd
00000110: 9ec9 68bc 3a62 1d3d 49cf 543d 784d 95bc
00000120: bc45 ae3c b77b b7bc 30aa b93b cd51 bf3d
00000130: 4a4e 73bc 2b7e 0a3e 45c9 5bbc a2e7 03bc
00000140: 8b65 e3bb 3628 973c 1092 303d fc83 493d
00000150: c532 21bd 8b0d fc3b 7ce6 13bd e34e 973c
00000160: 5734 0dbd 8da6 253d f385 14bd 20e3 ffbc
00000170: dc26 06bc a35c 64bc 4dba 11bd eecf 193d
00000180: 3f87 2a3d 95f0 21bd 11b0 013e 78c2 823d
00000190: 0fd5 933d 454d 4ebd 237e 4d3d 4079 9e3d
000001a0: 1b6f aebb 74e6 61bb 1131 7f3d 246c 36bc
000001b0: 0c16 fc3c 7d82 f9bc 8dfd c53b cc87 d23b
000001c0: a994 7b3d 7fa3 c2bb d75e eb3c c202 a53b
000001d0: 8132 e63c bcd6 253c bac5 ca3b aca3 09bb
000001e0: 3184 a83b b77f dfbc 1209 afbc ce3e 763d
000001f0: 5fe2 253d 7fb6 43bd 4d17 ebbb 7a3b da3c
0.11859715 -0.0165913 -0.0100699635 -0.023869423 0.029184297 -0.0021796457 0.014760861 0.035099547
-0.05313508 -0.005476282 0.039901264 -0.015807094 -0.0068935454 0.01305088 -0.0013590212 0.08422399
0.019013666 0.08774134 0.0076426785 0.0018019301 -0.026736563 0.056544617 0.03226913 0.03599903
-0.018650811 0.001261544 -0.051984042 -0.009593374 -0.020945115 0.05179928 0.0035392996 -0.055416528
0.087411955 0.059105076 0.015439982 -0.00892661 -0.027997807 0.026755767 0.03430702 -0.020000752
0.08504398 -0.014008634 0.08142646 0.06466795 0.035024446 0.029795894 0.04116066 -0.0038145436
0.028559754 0.05418999 0.016223045 -0.00047459404 0.018100012 -0.023172082 0.014709715 0.010641879
0.002615617 0.0030492265 -0.012472572 0.017166594 -0.02243826 -0.0064135315 0.035764027 -0.021393571
0.010380432 0.004620194 0.0007851693 -0.033952445 -0.0142082255 0.038423754 0.051955495 -0.018225417
0.021273486 -0.022397859 0.00566604 0.09341774 -0.014850209 0.13524692 -0.013414686 -0.008050831
-0.006939595 0.018451791 0.043108046 0.049198136 -0.03935506 0.007692044 -0.03610848 0.018470233
-0.034473743 0.04044204 -0.036260556 -0.031236231 -0.008187976 -0.013938102 -0.03557806 0.037551813
0.041632887 -0.039536078 0.1266482 0.06384748 0.07218372 -0.05036666 0.05016912 0.0773797
-0.0053233034 -0.0034469636 0.062302653 -0.011134181 0.030772232 -0.03045773 0.0060421885 0.0064248797
0.06142107 -0.0059399004 0.028731747 0.005035729 0.028100254 0.010121997 0.0061881216 -0.0021002097
0.0051427116 -0.027282579 -0.02136663 0.06011849 0.040499087 -0.047781464 -0.0071744085 0.026639689

network_body._body_endoder.seq_layers.2.weight f4 [128, 128]
00000000: 124a d1bd 3860 173d 8eee 03bd 95b4 d03c
00000010: b0f1 0dbd 9b9a 1c3e 3553 28bd db9e 253e
00000020: e523 68bd ef4a 5b3d 3de2 943d be55 06be
00000030: fd35 e4bd 0df0 54bd 7a5a 783e 570a 1ebe
00000040: b53e a0bd 6773 a03c 933e 29be c913 bc3d
00000050: f224 ed3c 0e81 b23b a140 68bc 3a44 8f3d
00000060: eb8e 893d 8a59 4f3b 30a7 0fbe 7a29 a43d
00000070: 491a b7bc daf1 3d3d 3f06 e8bd 9823 d4bd
00000080: a898 6bbd 0021 a03d 2160 83bd 6845 e63c
00000090: 8bff 2cbe 6a3a 7f3c b59f bbbd cb1c c5bd
000000a0: ae6a 0a3e 6596 c5bd 54a9 273e b68e d6bd
000000b0: ca76 493d 53b4 06bd 991b b9bd f43a 033e
000000c0: af64 81bd f549 c0bd 7386 5c3d 5e5b 993d
000000d0: c091 d3bd 3112 c8bc fa95 91bd 645b 24be
000000e0: 2d4a bb3d cfeb 8a3d e37e 47bd 83ad b43d
000000f0: 41db 0abd b2b6 b93d 4d59 cf3d 054f ee3d
00000100: 8c33 f33d c411 443d 00e2 4e3e 1766 8ebd
00000110: b8ff 19bc 41ea 51be f767 97bd 9feb 72bd
00000120: 1ff5 3d3d f4ff 41bd 88be 0c3d b71a f53d
00000130: 504e 2f3e a1f6 033d 4c8b f83d 79f8 61bd
00000140: f09c 43bc 5454 c53d 4959 1e3d 8f19 b13d
00000150: eb3c 7b3d e4c5 c63c 1233 563b 0223 a5bc
00000160: 7745 843e 218d 293e dbc4 9dbb c367 edbb
00000170: b2e7 2dbe d7aa 75bc 27ab 60bd dfde 083d
00000180: f38f 8b3c b393 c63d bdf1 65bd fe2e d33d
00000190: 2b58 71ba 267c f13c 65a2 e8bd eb9c 4cbd
000001a0: 699c 903d 7e69 353d 0af2 663e 048f 72bd
000001b0: bfed ebbd 0996 19bd a13c fdbd a925 babc
000001c0: 185b 043e 66b4 9b3d 5d4d 5d3d debd 343c
000001d0: 25c8 3bbd 813a c53d 7891 7f3d 7ff9 4abc
000001e0: 2822 15bd c907 5c3d 8a7c b43d 7b19 3a3e
000001f0: 0ef8 b0bd 03fb 203b e697 143d c324 693d
00000200: 59b6 12bd aef1 f8bd 9ee8 9b3c 4b0c 84bd
00000210: 6457 04bd e68a 8abd 349b cd3d e11e 6bbe
00000220: 687c b6bd 3a62 9c3d 1d32 3abe 42bb 4dbb
00000230: f57c 683c 0a1c 5a3b e1e4 583d 30dd 513d
00000240: 44ca ca3d 2c75 8cbc 297f 143e 8a13 7c3d
00000250: a44a 8dbe 3c8e 353e ea52 043e 7b54 6abd
00000260: 10dd 8e3c fa50 363e 6633 923b f536 77bd
00000270: b5fc b73d 8afd edbd 5f62 66bd 1a13 c5bd
00000280: 40a5 cebc 279f 113c 18ff 8dbd 03ac 70bd
00000290: 615f 203c bb32 f8bd 75d4 71bc 3cab aebd
000002a0: 4ae5 88be 66e6 c9bd 5237 abbd 0a38 193e
000002b0: 2909 2fbe 8fc6 9c3c dc4f 67bd af54 71bd
000002c0: 19ce 723e e061 2dbc 9149 9d3c d598 503e
000002d0: d2b8 20be 431b fc3c 6f4d 01bd 6994 803e
000002e0: 54ee ddbd 5f40 84bd 1486 c33d 853e d2bc
000002f0: 0d38 2f3d c78f 3b3e ed74 cb3c ab62 203e
00000300: e71b aebd d5b8 0bbd b8ca 303e 3223 44bd
00000310: a9c3 193d 601c 1d3e b61a 293d eb06 d4bd
00000320: 0d37 5a3b f456 273e aafc 1f3d 3ad0 e43d
00000330: 4216 1abe 1f20 543e 45c7 393d 4ee1 f33d
00000340: 5730 b23d 3a72 70ba 8849 8c3a c397 93bd
00000350: 779c 823d 538f 213e 130c 803d e961 c33c
00000360: f9b4 10bd 7c80 5d3d 0eb4 ebbc b84b ffbd
00000370: c941 343d 1eef 4bbd f44a aa3d b746 07be
00000380: a9ee 22be 1b15 a93d 39b3 9ebd 411e 8dbc
00000390: 6dce 723d e15d e23d 76bc cbbd 6546 b73c
000003a0: efc3 303e 2d76 46bc ceea c1bd d0aa a1bd
000003b0: 3428 443d 4dcf 563d b662 9b3d 5b40 24bd
000003c0: 6339 543d f0b4 b83d 10e0 c6bd 010b 353e
000003d0: 13d4 623d 6540 0dbe 3aed 40bd a34e 9b3c
000003e0: 9206 4dbd 5c9c ebbc 9397 25bd 1b24 4fbe
000003f0: 345a ecbc 5b85 d93d 517c a8bb 7e1a 683d
-0.10219206 0.036956996 -0.032209925 0.025476733 -0.03465432 0.15293352 -0.041094977 0.1617388
-0.056674857 0.05353826 0.07269714 -0.13118646 -0.1114311 -0.051986743 0.24253264 -0.15433632
-0.078244604 0.019586278 -0.16527776 0.09183461 0.028948281 0.0054475134 -0.014175565 0.06995435
0.067167126 0.0031639063 -0.1402862 0.080157235 -0.0223514 0.046373226 -0.11329316 -0.103583515
-0.05751863 0.07818794 -0.064148195 0.028109267 -0.16894357 0.015577892 -0.09161321 -0.096246324
0.13517258 -0.09647826 0.16373187 -0.10476439 0.04918555 -0.032886814 -0.09038467 0.12815458
-0.06318032 -0.09389106 0.05383916 0.0748813 -0.10330534 -0.024422737 -0.07108684 -0.16050488
0.09145007 0.06783258 -0.048704993 0.08822157 -0.033900503 0.090680495 0.10124455 0.116361655
0.11875066 0.047868505 0.202034 -0.06953066 -0.009399347 -0.20499517 -0.073928766 -0.059306737
0.046376344 -0.047363237 0.034361392 0.11967986 0.17119718 0.032217626 0.12135944 -0.055168603
-0.011939272 0.09635225 0.038659368 0.08647453 0.061337393 0.024264283 0.003268425 -0.020158295
0.25834247 0.16557743 -0.0048147268 -0.0072450354 -0.16982916 -0.014994345 -0.054850724 0.03341567
0.017036414 0.0969614 -0.056138743 0.103116974 -0.00092065585 0.029478144 -0.11359099 -0.049954336
0.07061083 0.04429006 0.22553268 -0.05921842 -0.11519956 -0.0374966 -0.1236508 -0.022723036
0.12925375 0.07602768 0.054028857 0.011031596 -0.04584517 0.09630299 0.06239459 -0.012388586
-0.036409527 0.053718362 0.088128164 0.18173783 -0.08641063 0.0024563677 0.036277674 0.056919824
-0.03581843 -0.12155472 0.019031819 -0.06447657 -0.032309905 -0.06764774 0.10039368 -0.22960998
-0.08910447 0.07635923 -0.18183179 -0.0031392132 0.014189948 0.0033280873 0.05295265 0.05123633
0.0990186 -0.017145716 0.14501633 0.06154207 -0.2759601 0.1773004 0.12922254 -0.057209473
0.017439395 0.17804328 0.0044616936 -0.060355145 0.08983747 -0.11620624 -0.056246158 -0.09622784
-0.025225282 0.0088880425 -0.06933421 -0.058757793 0.009788365 -0.12119051 -0.014760126 -0.08528754
-0.26737434 -0.09858398 -0.08360161 0.14962783 -0.17093338 0.019137649 -0.056472644 -0.05891865
0.23711433 -0.010582417 0.019200118 0.20370801 -0.15695503 0.030774718 -0.031567987 0.25113228
-0.10836473 -0.0645759 0.09547058 -0.025664577 0.042778064 0.18316565 0.024836028 0.15662639
-0.08501416 -0.034111816 0.17264831 -0.047885127 0.03754011 0.15342855 0.04128524 -0.10352882
0.0033296973 0.16341764 0.03905932 0.111725286 -0.15047553 0.20715378 0.045356054 0.11908208
0.08700626 -0.00091722945 0.0010703066 -0.072066806 0.063774996 0.1577733 0.06252303 0.023850398
-0.03532884 0.05407761 -0.02877238 -0.12465614 0.04400805 -0.049788587 0.083150774 -0.1321057
-0.15911354 0.08255979 -0.07749028 -0.01722634 0.059278894 0.11053062 -0.099480554 0.022372434
0.17262243 -0.012113136 -0.094686136 -0.07893908 0.047889903 0.05244379 0.07587187 -0.040100437
0.05181254 0.09018886 -0.09710705 0.17679979 0.05537803 -0.13794096 -0.047101237 0.018958395
-0.050055094 -0.028761081 -0.040427756 -0.20228617 -0.028851606 0.10621139 -0.005141773 0.05666589

network_body._body_endoder.seq_layers.2.bias f4 [128]
00000000: f6ab 19bc 1e43 bf3c b887 b0ba 0c5a 273c
00000010: d07e 733a 83f5 30bc 22fa b1bc de00 153b
00000020: 5973 aebc bb98 ba3c 0003 7f3c f0ab 84bc
00000030: e6f2 803c b383 d7bb 32eb c2bc 1d25 313c
00000040: d149 c2bc 8c28 97bc c963 1c3c 1608 0c3b
00000050: a5c3 4ebc 2d72 49bc 4e67 003c 5933 bb3a
00000060: a46c c13c a18c 043c ea0f 113c 070d debb
00000070: b8ce 8c3b c510 67bc bf21 35ba 71f3 5538
00000080: 1d66 afbc b854 e5ba 7cd9 35bb 2f3d c43a
00000090: f55f 853b 24b4 013d 977d 17bb b1f6 943b
000000a0: 7064 1dbc 7127 56bc 281a 8abc 5dcb abb3
000000b0: e68c 3fbc d006 153c 5558 703b 4f66 de3b
000000c0: cf17 5c3c 6fe2 223c 3689 a2bc e372 b33b
000000d0: fbdb 743c d1ef d73b 9737 f5bc bcf9 2cbc
000000e0: a959 463c ec25 35bc 2a63 a5bc ef43 043c
000000f0: 33cb bdbb 3573 cb3b bcf9 cf3b c935 3fbc
00000100: 42b6 26bc b6dc 8ebc 5b37 db3a 6214 483c
00000110: fdf5 c3bc 67bd 793b d4db 4ebc 4394 9cbc
00000120: beca 4bbb 506b 133b 82ec 03bc ae8f 17bc
00000130: b907 913c 581a e23b ea3b fabb 3464 953b
00000140: 8719 f7bc b667 6abc b08e 1abc d37b d838
00000150: 3267 2ebc 162e f23a a864 01bb e517 933c
00000160: 836e 3e3c ece8 baba d68e a6bc 6385 e8bc
00000170: 07ca b13b e5d2 af3c d41c b23b 9d06 93bb
00000180: f48b 4339 2fb6 c33c c363 4f3b 1b0d 873c
00000190: 7b0e 3fbd 7b59 a9ba b02d c1ba 666b ea3b
000001a0: a175 f9bb 93e5 aabb a6ec 013c 9392 51bc
000001b0: 3f50 7fbb ecc2 883c 4847 52bc 8190 d8bb
000001c0: ce4b 823c 15f2 2c3c bd2d c23c 6d84 e33b
000001d0: f50e 24b9 e966 8fbc 87ff 4abc ae97 bf3c
000001e0: a0a0 31bc 2e39 3c3c 8003 13bc 2ad4 fc3a
000001f0: 68a7 69bc d590 d0bc 6839 dd3b ae45 de3a
-0.009379378 0.023347434 -0.0013468182 0.01021434 0.0009288611 -0.010800722 -0.021725718 0.0022736113
-0.021295236 0.022777906 0.01556468 -0.016195267 0.015740823 -0.006576979 -0.02379379 0.010812071
-0.023716839 -0.018451951 0.009545275 0.0021367124 -0.0126198875 -0.012295288 0.00783713 0.001428227
0.023611374 0.008090169 0.008853892 -0.0067764553 0.0042971037 -0.014103119 -0.00069096306 5.100988e-05
-0.021410996 -0.0017496562 -0.002774804 0.0014971847 0.004070277 0.031665936 -0.002311563 0.0045460095
-0.009606466 -0.013070927 -0.016858175 -7.9997996e-08 -0.011691308 0.0090958625 0.0036673744 0.0067870985
0.013433411 0.009941681 -0.019840818 0.005476342 0.014945026 0.0065898676 -0.029933734 -0.010557588
0.012106338 -0.011056405 -0.020188887 0.008072837 -0.0057920455 0.006208802 0.0063469093 -0.011670538
-0.01017529 -0.017439228 0.0016724871 0.012211891 -0.023921007 0.0038107277 -0.012625653 -0.019113665
-0.0031096186 0.0022494383 -0.008051993 -0.0092505645 0.017703878 0.006900113 -0.007636537 0.0045590643
-0.03016354 -0.014306953 -0.009433433 0.00010322747 -0.010644721 0.001847687 -0.0019743834 0.01795573
0.011623028 -0.001426009 -0.020331781 -0.028383916 0.005425695 0.021462867 0.0054355655 -0.0044868723
0.00018648786 0.023890583 0.0031645156 0.016485741 -0.04664467 -0.0012920344 -0.0014738347 0.007153916
-0.0076128994 -0.0052153557 0.007929957 -0.012791294 -0.0038957743 0.016694508 -0.012834378 -0.006609023
0.015905287 0.010555764 0.02370345 0.0069432766 -0.0001564583 -0.017505126 -0.012390024 0.023387756
-0.010841519 0.011488242 -0.008973002 0.0019289304 -0.014261104 -0.025459686 0.006751228 0.0016958022

action_model._continuous_distribution.log_sigma f4 [1, 2]
00000000: c185 1abf 534f e0bf
-0.6036034 -1.7524208

action_model._continuous_distribution.mu.weight f4 [2, 128]
00000000: f706 243d a772 4e3d 18a3 f93c 31b9 b23d
00000010: 30e7 c03c 6afd 8cbc dd49 44bc ad5c acbd
00000020: aaff 863c 0272 4cbc 0a59 c33d 3611 953c
00000030: 3cd4 f3bd 75fa 2a3d 76d8 3b3c e5fd 21bd
00000040: 85b0 7a3c 7d01 98bc 632b 9cbd 8b38 fc3c
00000050: cfe9 0fbd 292e 203c 33a9 26bd 6658 0c3d
00000060: 71f6 173d a0f4 f9bd 0e83 f7bc 81bb 153d
00000070: 9aee b1bc d0f3 0c3d 24aa 8bbd 39f4 cabd
00000080: 1623 103d 5138 c3bc bc14 203b fa4b 343d
00000090: 7b8b 4839 3a19 a33d 0aa6 f03c 9afc 9bbd
000000a0: eeae f83d fd9f af3b d771 8cbc 764d 85ba
000000b0: d227 c4ba 5787 ccbd 8edb ae3c 8c43 91bb
000000c0: b304 babd b8ed ecbc 82b1 9d38 c732 8abc
000000d0: baa6 c9bd d70c d23d 3944 003c 0ce3 713c
000000e0: 2e32 7abc 191e 993d 33be 8ebc 4f2b adbd
000000f0: da66 803c ed4b 993c 7466 0cbd 0dc2 a93c
00000100: d952 113d 0c70 143d 0ad1 30bd d46e a93d
00000110: 79e6 f03c c1fb 5b3d a042 6fbc fbeb bdbc
00000120: 779d 48bd 37a8 d2bc a380 da3c b713 90bb
00000130: ef2c a03d 11c6 72bb 35a7 92bd 682e 513d
00000140: f0e8 f93a c358 70bd ff18 243c 50b1 0fbc
00000150: 7965 aa39 8303 a43d 1bdc 5dbb 3398 413d
00000160: 0be8 5bbd 4c65 223c bcab 0f3c e7df bdbc
00000170: a4e3 9ebd fdec 413d 2592 aebd 9011 ca3d
00000180: d24f 043d 8bc6 efbc 4237 20bd dba9 923d
00000190: ec01 f237 fcb4 5b3c 168c f9bb a30c 133b
000001a0: 7815 26bd e5d7 a8bd b272 dbbd 092d b239
000001b0: 85a2 05bc fc74 303d d079 803c 27e8 3abd
000001c0: 33de cdbd 8cf2 813d caf0 74bd 01e5 ab3c
000001d0: 8f79 c0bd 6cfd b6bc 0e74 2cbd 1f1a f93d
000001e0: f8ef 553d 1002 31bd 73eb 0e3d 0c58 603d
000001f0: ee14 90bc 0d0b 5ebd 915a 9f3d 6dcc 3bbd
00000200: 9503 983d 39f0 d8bd 79df 1a3c eb31 e9b9
00000210: a35d 0abd 4733 ba3a aaa5 933c 91e7 13bc
00000220: 03e0 bc3c 64c9 7ebd ea01 2dbd d702 8bba
00000230: 41d4 85bc 1eee 473d 2612 2a3c a506 15bd
00000240: b9cc 163b 4475 933b ec26 59bc 3de0 afbc
00000250: e87a 123d 554e 46bc 6698 a83c 3093 093d
00000260: 0a86 f1bd 87da 133c ec97 233d 1dda 053d
00000270: e7c2 e13c 1585 693c 60b9 e63c fd2d 653d
00000280: 9337 083d 361f 6dbc a23f 8d3d b28c 34bc
00000290: 246b 53bd b215 b9bd ad58 5c3b 06e4 d2bc
000002a0: 3795 6d3d d04c 0aba 3b48 e9bb 1e3d 5d3d
000002b0: 4220 443c 2b12 e0bc 2289 10bd 4a8d 19bd
000002c0: 82ec 633d 0bc2 08bd a746 d03c 07ea afbc
000002d0: 24b0 30bd 78d7 f63c 95ea e63b 3c77 2a3d
000002e0: a131 15bd 6d89 933d 938c 9a3c 56b5 a7bc
000002f0: 3550 64bc 4ae0 3e3d 1319 6ebc e00a 0e3b
00000300: c89c 073b 07da a93b e588 f0bc f447 593a
00000310: 4597 e13b be52 5a3d 5e14 993d 38a8 563c
00000320: 559d 11bb e7f6 8dbc 7fc0 1bbb 5c89 cc3c
00000330: b939 c3bb ec12 513d 32d7 0b3d 7734 103c
00000340: e906 243c d9c1 30bb eb83 fe39 1fa3 f4bc
00000350: 3c2c b2ba 2bec a2bb 5e74 a63c bb02 fc3a
00000360: fd12 04bd e442 193c 0c99 9a3a ffbc 8f3c
00000370: 6821 c43c 55e4 44bd 33e0 f8bc 5c89 473d
00000380: affb bcbb d5ee cfbd 3e3c 55bc 17fb afbb
00000390: 3c14 39ba 41b7 7d3c ebd5 793d fdc0 e5bc
000003a0: 24f9 17bc 1d1d 433d ee5b 37bd 8f60 95b8
000003b0: 257a 64bc a08b f8bc 46ce 283d 2ac1 643b
000003c0: 90e6 ed3b 827e 533d 8617 03be c704 1dbd
000003d0: ea36 2c3d 5649 ab3b d660 b83c 2c47 a5bc
000003e0: 094c bb3c 3cca 003d c05b eb3b 3aae 15bc
000003f0: b60d a63c 63f9 aeb9 e259 743c 42d2 e1bc
0.040045705 0.05040231 0.030473277 0.08726729 0.023547739 -0.017210681 -0.011980501 -0.08416114
0.016479332 -0.012478353 0.09538467 0.018196683 -0.11905715 0.04174276 0.0114651825 -0.039548773
0.015300875 -0.018555397 -0.07625463 0.03078868 -0.035135087 0.00977663 -0.040688705 0.03426399
0.03710026 -0.12204862 -0.030213859 0.03655577 -0.02172022 0.034412205 -0.06819561 -0.09909863
0.03518971 -0.023830565 0.002442642 0.04401777 0.00019125447 0.07963796 0.029376049 -0.07616539
0.1214274 0.0053596483 -0.017144127 -0.001017018 -0.0014965481 -0.099867515 0.021344926 -0.004433101
-0.090829276 -0.028921947 7.519407e-05 -0.016869916 -0.09846254 0.10256355 0.007828766 0.014763605
-0.015270753 0.07476444 -0.017424678 -0.08455526 0.015674043 0.018712962 -0.034277394 0.020722413
0.0354794 0.03623967 -0.043168105 0.08273092 0.029406773 0.053706888 -0.014603287 -0.023183813
-0.048978295 -0.025714977 0.026672667 -0.0043968814 0.078210704 -0.0037044326 -0.071607985 0.051069647
0.0019066613 -0.0586784 0.010015725 -0.008770302 0.0003250053 0.08008482 -0.0033853117 0.04726429
-0.05368809 0.009911846 0.008768972 -0.023178054 -0.07758263 0.04734515 -0.085239686 0.09866631
0.032302685 -0.029269477 -0.039115198 0.071613036 2.8849543e-05 0.013409849 -0.0076155765 0.0022437952
-0.040547818 -0.082443036 -0.10715236 0.0003398436 -0.008156423 0.043080315 0.015683085 -0.045631554
-0.10052147 0.0634509 -0.059799947 0.020983221 -0.093981855 -0.022337638 -0.042102866 0.12163185
0.052230805 -0.043214858 0.03489251 0.054771468 -0.017588105 -0.054209758 0.07780946 -0.045849252
0.07422558 -0.10592694 0.009452694 -0.00044478415 -0.033780705 0.0014205956 0.01802333 -0.009027378
0.023056036 -0.06220378 -0.042238154 -0.0010605705 -0.016336562 0.04881107 0.0103803035 -0.03638329
0.0023010208 0.004500063 -0.013253909 -0.02146923 0.035761744 -0.012103637 0.020580482 0.033587635
-0.11793144 0.009024269 0.039939806 0.032678712 0.027558757 0.014252921 0.028164566 0.05595206
0.033256125 -0.014472773 0.068969026 -0.0110198725 -0.05161585 -0.09037341 0.003362219 -0.025743496
0.05800363 -0.0005275728 -0.0071192062 0.054013364 0.0119705815 -0.027352413 -0.03528703 -0.03748826
0.055645473 -0.03338818 0.025424315 -0.021473898 -0.04313673 0.03013204 0.0070470073 0.041617617
-0.036424283 0.07203946 0.01886586 -0.02047221 -0.0139351385 0.046600617 -0.014532345 0.0021673962
0.0020692814 0.0051834616 -0.029362151 0.0008288615 0.006884488 0.053301565 0.07474588 0.01310163
-0.0022219021 -0.017329646 -0.002376586 0.024967842 -0.005957809 0.051043436 0.034140773 0.008801571
0.010011413 -0.002697101 0.00048544942 -0.029862938 -0.0013593505 -0.004972001 0.02031916 0.0019226888
-0.03224467 0.009354327 0.0011794879 0.017546175 0.02394171 -0.048069317 -0.030380344 0.04871498
-0.0057673077 -0.101529755 -0.013014851 -0.0053705084 -0.0007060205 0.015485586 0.060995024 -0.028046126
-0.009275708 0.047635186 -0.044765405 -7.122859e-05 -0.013945137 -0.030340016 0.041212343 0.0034905174
0.007260151 0.05163432 -0.12801942 -0.038334634 0.042044558 0.005227248 0.022507112 -0.020175539
0.022863405 0.031442866 0.0071825683 -0.009135777 0.02027021 -0.00033373674 0.014914008 -0.027566079

action_model._continuous_distribution.mu.bias f4 [2]
00000000: 93e7 00bb 2c5c 35bc
-0.001966928 -0.011069339
